saved_model/Shift_encdec/best_train.pt (torch, 73409 bytes, 12 tensors)

encoder.input_ff.weight f8 [64, 1]
-0.8461321856667416 0.6010850245554428 0.7387693378145755 0.8121421627892443 0.9133922920692001 0.034526811833173604 -0.13441437287180297 0.29517324763783764
0.15877427798720267 -0.8112179826623015 -0.5271024016686524 0.19866966871026212 -0.6685181288534098 -0.0741963159891751 0.4933686947420332 -0.23622002974728792
-0.4271698056261484 0.17573218566937635 -0.2392486399380597 -0.5379387634991813 -0.82321161104928 0.8697680200560837 0.3489119652993021 0.424241547922083
-0.021795210588784638 0.5139417722859982 -0.11454850715368385 0.9335369535880247 -0.17955466982572996 0.2356573812348918 -0.13797202649818843 -0.47175853459470085
-0.5786298925654692 -0.4667638620894943 -0.5255359272125516 -0.7449035703873254 -0.2450490237346287 -0.6670184560821651 -0.22152365032396276 -0.6719217679968713
0.6840553649008669 0.09537981626030469 -0.07278393852191722 -0.43675282992485004 -0.4966125938558382 -0.9775939632865375 0.6056583568174212 0.04447838128869411
0.20359576574563745 0.8374160596083294 -0.7727193552896021 0.3589701870622415 0.24342105208105375 0.8484381169455638 0.8301170144119541 -0.5147028388768775
-0.7049786368926243 0.1260143512123588 -0.4829384923635241 0.7557898668092201 0.5406895888781511 -0.2935165428728408 -0.47425399354037023 0.7224197492274935
00000000: 5203 31ce 8313 ebbf 6b97 52a9 163c e33f
00000010: 0d70 2698 ffa3 e73f 8b3d 9c8f 11fd e93f
00000020: da61 db78 823a ed3f 7c37 518f 7fad a13f
00000030: 1662 cc7b 7d34 c1bf 438d 5055 1ee4 d23f
00000040: 8c55 b32d b752 c43f 15c6 2e6a 7ff5 e9bf
00000050: d9ea 19db 05de e0bf 63ab e8f8 016e c93f
00000060: 1bac 8621 8064 e5bf 893d a89e 87fe b2bf
00000070: 2362 324a 5a93 df3f 2b5e 363b 753c cebf
00000080: e530 4006 c056 dbbf 31fc 266b 647e c63f
00000090: bdbe 120e b39f cebf 6559 8f5a cb36 e1bf
000000a0: b69c 64e0 bf57 eabf f1eb 27be 23d5 eb3f
000000b0: 9130 09da 9254 d63f 3e81 7b05 c626 db3f
000000c0: ffc7 c0d2 7b51 96bf 5488 0004 3672 e03f
000000d0: 93db 070c 0d53 bdbf c093 a8e3 88df ed3f
000000e0: 6f6f 5fbd a5fb c6bf ad80 bb64 052a ce3f
000000f0: cd49 c93e 11a9 c1bf 285c 6cb5 4a31 debf
00000100: 5ad0 21d6 2284 e2bf 1042 a888 75df ddbf
00000110: bf07 88b8 30d1 e0bf 1d97 2f03 40d6 e7bf
00000120: cdb0 6d33 c45d cfbf 2571 d616 3758 e5bf
00000130: 764a b710 e35a ccbf c58b 6014 6280 e5bf
00000140: dae1 9c13 c8e3 e53f e957 89c7 cf6a b83f
00000150: 782e a0db f7a1 b2bf 919c 3d24 c2f3 dbbf
00000160: a21f 5930 80c8 dfbf 81a5 a222 7348 efbf
00000170: ba8e 62a2 8d61 e33f b425 07d2 dec5 a63f
00000180: bda4 bd11 6d0f ca3f fb36 a5c3 1ccc ea3f
00000190: bc8f fef0 1dba e8bf 10f7 6a17 5ef9 d63f
000001a0: fe4a ecc8 6b28 cf3f adc0 9eb1 6726 eb3f
000001b0: 8214 988e 5190 ea3f 344e 8416 7278 e0bf
000001c0: aea3 ba5b 2f8f e6bf 8f51 a4fe 3c21 c03f
000001d0: 9193 abd9 76e8 debf 6100 133b 6e2f e83f
000001e0: 789e b040 544d e13f 4853 1e9c f9c8 d2bf
000001f0: d435 106c 2d5a debf d654 9d05 101e e73f

encoder.input_ff.bias f8 [64]
0.6357504721049121 0.2472097552606616 -0.3891722392371314 -0.50365803344179 0.5849113725114595 0.6570183145128863 0.6297345758886983 0.13986353853019748
-0.7528366636701171 -0.8766322224710841 -0.7198447783561006 0.42883333820931313 -0.5024393627347411 -0.3395509180462839 -0.447642286269253 -0.31338481875035157
-0.07622243408835787 -0.5597016932399158 0.9525451259660774 0.10070506317338909 -0.8305382085343337 0.936624981377714 -0.9145293658580002 0.8789782924791754
0.9978666946422361 -0.9610280638641242 0.7798496171076528 -0.4170133700517484 0.35243552428169567 -0.3527634649584219 0.36071672635904894 -0.7847539490914279
-0.9893914507026446 -0.6329255039777949 0.4236438928396057 0.9617197514356813 -0.04028402085175959 0.5695337595213794 0.37244766628502607 0.5432941936668427
0.08149014365230964 -0.2758852279408472 0.29133839190434935 0.723858644593609 -0.08002070063873384 0.670588853819118 -0.11769287051829551 -0.21670407534271593
0.5528270140130147 0.8784668112388547 -0.4283130213504149 0.35579164255381296 -0.043263902497968805 -0.115466470920062 -0.2532756480845501 -0.47448824998126493
-0.4370917339361897 0.9430238421665417 -0.950670580639048 0.7525678182220527 0.7955732931971208 0.5449533809690684 -0.487014086486758 0.8655867654636893
00000000: d66d c35f 1158 e43f d960 0cbb 91a4 cf3f
00000010: 5a36 02ae 32e8 d8bf 5501 c073 f71d e0bf
00000020: 9dd8 ff0d 98b7 e23f a496 b645 4b06 e53f
00000030: c646 1320 c926 e43f a3ec f165 0ce7 c13f
00000040: 462c 36ea 3c17 e8bf 6042 c404 5f0d ecbf
00000050: d88b a7ea f708 e7bf d2c8 c262 0172 db3f
00000060: c366 e5b6 fb13 e0bf e879 15c6 33bb d5bf
00000070: b351 f5d4 2ba6 dcbf 171f e632 7f0e d4bf
00000080: 0b8a a13d 5083 b3bf 8166 7f86 13e9 e1bf
00000090: d1a1 7fea 3f7b ee3f d60e df98 cec7 b93f
000000a0: f177 77dd c493 eabf d548 f4f3 d4f8 ed3f
000000b0: 73ef b216 d343 edbf 82f1 8215 9720 ec3f
000000c0: 5631 6822 86ee ef3f 26b5 1aed bdc0 eebf
000000d0: d2d0 282f 87f4 e83f 037d 97d8 58b0 dabf
000000e0: 8843 afba 4d8e d63f 8815 4e36 ad93 d6bf
000000f0: 5844 b59b fb15 d73f 2025 5850 b41c e9bf
00000100: 21b7 7642 18a9 efbf 4172 8cfc ec40 e4bf
00000110: ea5b 3946 fb1c db3f 09ac 0a80 68c6 ee3f
00000120: 3929 3870 1ba0 a4bf 9497 e3dc 9e39 e23f
00000130: f99a 8abc 2ed6 d73f 26fc 3c81 aa62 e13f
00000140: ded9 eebd 89dc b43f ff25 dd83 1aa8 d1bf
00000150: 2d19 53c8 49a5 d23f 249b ae9a d929 e73f
00000160: fc11 3f94 3c7c b4bf 38e3 86c1 7675 e53f
00000170: 7b33 d9b5 1e21 bebf 9be1 408a f5bc cbbf
00000180: daff 3047 c2b0 e13f 9c8d 1c6e 661c ec3f
00000190: afa9 c904 7b69 dbbf 235c 3d4f 4ac5 d63f
000001a0: b9f7 a6ac af26 a6bf 17de 62ec 358f bdbf
000001b0: c35d 5910 ab35 d0bf 1e5f 00f7 035e debf
000001c0: 50e7 a69b 4ff9 dbbf 9583 2e56 402d ee3f
000001d0: 3ba6 a3b5 e46b eebf 2f25 e91a 0915 e83f
000001e0: ef48 7b1f 5675 e93f b96a a312 4270 e13f
000001f0: 67b9 8921 3d2b dfbf 008b 3004 e3b2 eb3f

encoder.hidden_ff.weight f8 [64, 64]
-0.11737708121463246 -0.024871590328836693 0.11630915578161502 0.08253745290108691 -0.0023996373389250838 -0.09715379682368121 0.03311323168543598 0.03723391119139989
0.11433429207029669 -0.09035481412367677 0.03845695927818991 -0.05689041340457101 0.05519530377572115 0.09229645079466885 -0.07415733385270923 0.015436421763389552
-0.10157232751893765 -0.07912459069717118 0.09392056197719754 0.13680324677169683 0.12558815323576006 0.02590809838365388 -0.003230912441928933 0.13261567396046434
0.05496296060300659 -0.02067927338042854 -0.015307384503902014 0.0729185589620005 -0.09926398856295286 -0.010587646933469617 -0.08477510348260202 -0.12394034462949972
-0.15818019154631469 0.03848631591674618 -0.037646134915007415 -0.01068431234773184 -0.07474510014890252 0.1284290815087543 0.10365402525731009 0.0536535797602709
0.0653196460689704 -0.08001880216046438 -0.051158397990206016 0.08087150888176617 0.03995374134272262 0.0016583292656122818 -0.11373535356976898 0.0661556273985946
0.07446282038543268 0.03681263185412576 -0.0011761147363922467 0.11938618416260892 0.07206361081937769 -0.10203138243940613 0.038871139748012956 -0.030995496790510328
-0.14807185295181413 0.04460492121335914 0.02142062798220617 0.11884340770251892 -0.07665859973814915 -0.10347303059783362 -0.1179626960563094 -0.068355223795563
-0.03476640724108818 -0.062007996747909896 0.052689714395626905 0.020411092178065766 -0.012089861688977868 -0.00505630152872308 -0.08851441092804012 -0.028030992345236067
-0.09610348915904844 0.10773432527699747 0.13354108071488457 -0.11030870307602741 0.021255406588873645 -0.06940361078128388 0.08919157313189403 0.08801760188318748
0.06901210098235118 0.046058135041846936 -0.09048377451076349 0.01418699008968852 -0.10206714607413153 -0.10597411165072079 -0.02564529259143344 -0.1087100384373379
-0.13351849027360657 -0.027792533503964604 0.009813259730893581 0.11690970023870331 0.10917593724389392 0.15105863097331687 0.10141352329074306 -0.030432928599557013
0.04208318375416092 -0.006753659291456863 -0.13307497874968988 -0.025177909764655095 0.04968456432151813 -0.04801209116661654 -0.14405203032472433 0.07034632839364423
-0.009205126134973334 -0.08114272483991253 -0.061532701395759434 -0.059421649616288014 0.12156421248655493 -0.05136819281461162 0.008652526749461105 0.09778982323860307
0.04812800499363921 -0.09058230252458584 0.14964039120792313 -0.03830984418376402 0.08895108388058105 -0.02595475604167533 0.06900247518504549 0.08132542661471996
0.07152437773124659 -0.11190995547988616 0.08342695952678772 0.05226829694181437 0.03165918504046579 0.04209040262066748 -0.003623658374209852 -0.1264959231502013
-0.08204029780257538 0.027291102436585956 -0.07723863673396425 -0.0628982438057568 0.08130465969085443 -0.00639228606279309 0.06384789491898697 0.13527771566710328
0.043100052132151526 0.0876124495513564 0.021184466382311768 -0.06887402220242389 0.0179644482381942 -0.05969731531408288 0.051280124310337544 -0.04428385182644941
0.07233704674164575 -0.02334911788816715 -0.019772090525928952 -0.1193297959116214 0.11079198833663852 -0.0827335970724629 0.12512090298107773 -0.01655950035698504
-0.06427077044998179 -0.003044716925018192 -0.023269848711040108 -0.02411991427601908 0.0020558044960315076 -0.0517215259603328 -0.04355760855200188 -0.023529839976516913
-0.01638733188503255 0.025264591123116693 -0.06795242778715668 0.07003948674525456 -0.03744715880651392 0.10191519167989974 0.10633172896724888 0.017949489317131844
-0.10066344022718206 0.12496816517133845 -0.14156095067816352 -0.110942528418879 0.025728413118871626 0.0589187566786226 -0.11470238598292672 -0.11940664771974789
0.01688846306582702 -0.0049076088322322015 0.03396068787971651 -0.04892834059513409 0.08349435279173884 -0.06849635380984904 0.06704513168382255 -0.022010899162942552
-0.042427706611097286 -0.1430076861006794 -0.08589816476991807 -0.053038307208284965 0.022530706364402048 -0.1226884583031758 0.10786198357998267 -0.011261893508486566
-0.08686961988185503 -0.02331462341497627 0.0806189666513301 0.024256157894307188 -0.06844285626496643 -0.09373415525389292 0.11762564867396069 -0.08696511230412877
0.08522538574551743 -0.05622327445053678 0.030085743033690448 0.07814033047152033 -0.044028748025926615 0.045498549362662614 -0.023878217560580475 -0.12320934808022473
0.03204204668536938 -0.02323969274626306 0.010072400726307893 0.1134707828151105 0.07589802798587002 -0.04472349466636733 0.05034448287291285 0.10267584781539334
-0.07493662234937706 0.03808065701515713 -0.045695791447679907 -0.00951221185192256 -0.010500633235558889 -0.008338998231647842 0.07325400218693603 -0.07923323502909131
0.07132278320578343 -0.04798944227553701 0.01186604707319937 -0.04450354805231772 -0.009113372785054894 0.009959729720604922 -0.0016068147178368393 -0.053820082406817925
-0.1262289304423042 0.040151943768739574 -0.0497827857886136 -0.003281680233258804 -0.06236382435434431 0.13353257805776442 -0.08671089370754714 -0.0020810634941196087
0.09920458910530651 -0.0033058100612666915 -0.07812476224990017 -0.02350141295085894 0.1257238682827059 -0.06003347494270892 -0.028757480151084827 -0.030371718557340662
-0.03715781969707341 -0.007217898483575671 0.06099099235803872 -0.07194834652449414 0.08253288814387655 -0.009869141941767827 -0.031352367138461894 0.02376785574454191
00000000: 73e5 1da5 6c0c bebf 2459 3f2c f077 99bf
00000010: 26b2 4ed4 6fc6 bd3f 4ec2 e7ac 2c21 b53f
00000020: acfe 927c 67a8 63bf 7939 0a3c 12df b8bf
00000030: 4cc1 4eae 37f4 a03f d60b bdbd 5210 a33f
00000040: 1ad4 401d 0345 bd3f 9285 b23b 7e21 b7bf
00000050: 4d8e ce6c a1b0 a33f 6f9e 0e82 bd20 adbf
00000060: 6311 3811 8f42 ac3f 9f31 b37d bda0 b73f
00000070: aceb a79b f9fb b2bf 80cf 2075 219d 8f3f
00000080: 1958 dfe0 a400 babf 728e 5a59 8241 b4bf
00000090: 672f 1d8e 2d0b b83f bf7e 6fcf c482 c13f
000000a0: eed0 74c9 4513 c03f 7191 090d a787 9a3f
000000b0: af43 c7e8 b677 6abf d370 4ce7 8cf9 c03f
000000c0: f7ff 8fec 1a24 ac3f a6f5 7e8b f22c 95bf
000000d0: 0207 a75e 7a59 8fbf b063 036a caaa b23f
000000e0: fb63 8c60 5d69 b9bf 1218 91ea f9ae 85bf
000000f0: db08 f938 d2b3 b5bf 1db3 d6ee 8dba bfbf
00000100: 0481 c89e 3f3f c4bf 2972 6978 7ab4 a33f
00000110: dabf 8fac 5a46 a3bf 8df9 e820 a8e1 85bf
00000120: fdff acb0 7e22 b3bf c7bb 7738 5d70 c03f
00000130: 1b33 94f8 1189 ba3f 2773 c464 7b78 ab3f
00000140: bc0b a7cf c9b8 b03f 4d23 58ba 1c7c b4bf
00000150: 6b3f 91fc 6e31 aabf be4a d3c5 feb3 b43f
00000160: d9f4 d618 d174 a43f 3e34 8e7d 892b 5b3f
00000170: f32c fb97 c21d bdbf 4092 1f40 93ef b03f
00000180: 6dc7 52d2 fe0f b33f 014c c9f3 1ad9 a23f
00000190: 49c4 1095 fb44 53bf 6f98 92cc 1790 be3f
000001a0: 1d6e b3c3 c272 b23f e02f be8a ba1e babf
000001b0: 34b1 f303 ebe6 a33f 6e70 2794 48bd 9fbf
000001c0: c86d f1ba 04f4 c2bf d23d b4cb 74d6 a63f
000001d0: 6fcc 9202 4aef 953f 8271 6d85 856c be3f
000001e0: 081f d5e2 e59f b3bf 378a 6f62 357d babf
000001f0: e1b7 b5a1 cd32 bebf c673 b65a ba7f b1bf
00000200: f524 330c e7cc a1bf bed8 3e1c 83bf afbf
00000210: 6660 5470 25fa aa3f 7590 8535 a5e6 943f
00000220: c8e0 89c4 91c2 88bf 22f6 459b eab5 74bf
00000230: 871f 2964 e1a8 b6bf 98bf 960d 28b4 9cbf
00000240: f137 f8fe 3c9a b8bf 1aa9 b80b 7a94 bb3f
00000250: fce4 2bc7 df17 c13f 7cfb 2cf0 303d bcbf
00000260: ef4a a630 fac3 953f 50a9 875e 6fc4 b1bf
00000270: a526 ae49 42d5 b63f fd85 8f51 5288 b63f
00000280: bd58 bfec c6aa b13f 3b60 708f ee94 a73f
00000290: 67a5 57d4 f129 b7bf 120b b693 110e 8d3f
000002a0: 4c6b 628e 1221 babf 1833 c38f 1e21 bbbf
000002b0: bffe e773 c242 9abf 34d4 d5cb 6bd4 bbbf
000002c0: ae76 9146 2217 c1bf 41da e359 a575 9cbf
000002d0: 1d07 e46c f918 843f ca42 1c4b cbed bd3f
000002e0: 1501 f947 f4f2 bb3f f98a e7a3 e355 c33f
000002f0: 79e7 e795 3cf6 b93f 78f5 3944 cf29 9fbf
00000300: 6711 df53 ed8b a53f 6be8 8f9c b9a9 7bbf
00000310: 00aa d2d4 9908 c1bf 2a55 15ec 3cc8 99bf
00000320: d0fc c055 4170 a93f 9112 bf72 0a95 a8bf
00000330: 3f63 9503 4c70 c2bf 2b29 d88b 3702 b23f
00000340: 2962 a41d 23da 82bf 8ce9 7e05 c5c5 b4bf
00000350: 4636 42d8 3681 afbf dc7a 8db3 836c aebf
00000360: 4966 fe0c d51e bf3f 9602 6388 ee4c aabf
00000370: 2467 557b 6ab8 813f f700 b1fc c008 b93f
00000380: dd55 f0de 3ba4 a83f 6581 f0da 6630 b7bf
00000390: cf07 3395 6a27 c33f adab c40f 599d a3bf
000003a0: 29fa 358c 7fc5 b63f 49a5 7f31 e293 9abf
000003b0: 4c48 436e 25aa b13f 77ba a43f bed1 b43f
000003c0: ccf2 38ef 6b4f b23f 8207 e27e 21a6 bcbf
000003d0: 6ab3 c51e 785b b53f b425 f703 e9c2 aa3f
000003e0: eace bbf8 a135 a03f 0765 768d df8c a53f
000003f0: ef02 b1c6 5caf 6dbf ecf3 80b6 0431 c0bf
00000400: 3023 04cc 9700 b5bf a368 bfe1 32f2 9b3f
00000410: 688f c24a e9c5 b3bf 8f1e 1f6c 191a b0bf
00000420: 1077 62d6 61d0 b43f 93c8 6139 cc2e 7abf
00000430: 4572 98ec 5558 b03f 527a 55ba c750 c13f
00000440: d21a bac4 3511 a63f 91a7 8bfd c46d b63f
00000450: 8553 2e79 61b1 953f 7844 e758 baa1 b1bf
00000460: fee5 b1b6 4565 923f 55b0 dd81 a590 aebf
00000470: 9c07 b271 6341 aa3f fac7 ab7e 5fac a6bf
00000480: 5f6a 0b42 ae84 b23f d768 e1c6 d4e8 97bf
00000490: 56cb ba88 223f 94bf f8f6 e0c2 658c bebf
000004a0: 998e 901e dd5c bc3f 4be8 b46d 072e b5bf
000004b0: 8dc3 2c35 f603 c03f dba9 e241 f9f4 90bf
000004c0: 8be0 2b99 0c74 b0bf 2501 cbf3 3bf1 68bf
000004d0: 0382 c91c 0dd4 97bf f5c5 fd0b e4b2 98bf
000004e0: 2d44 7aa2 55d7 603f 8768 ff6c 3e7b aabf
000004f0: 3315 72d0 2e4d a6bf 3e8e b7d4 3418 98bf
00000500: 4f45 0f3a d7c7 90bf 127e 7b02 f6de 993f
00000510: 7696 078f 5465 b1bf d4de ff98 1bee b13f
00000520: 7cdf cd24 462c a3bf d211 3b2f 1d17 ba3f
00000530: 2a04 7162 8e38 bb3f 6b4f 63d6 5961 923f
00000540: 95b8 ad47 14c5 b9bf e7b7 73e6 e9fd bf3f
00000550: 33d5 c652 ab1e c2bf 426d 4bc3 ba66 bcbf
00000560: 1cb2 b193 8c58 9a3f 3580 1c6a 992a ae3f
00000570: f9e0 91b4 225d bdbf 8b9d e11e 6f91 bebf
00000580: bd91 3092 354b 913f 19d9 f936 001a 74bf
00000590: 200a 9697 4b63 a13f d344 68ad 220d a9bf
000005a0: fc25 a4ca e25f b53f 1d30 821f fa88 b1bf
000005b0: d122 f0a7 de29 b13f 69d7 3d70 068a 96bf
000005c0: 4f8a ad98 15b9 a5bf c584 706b 134e c2bf
000005d0: c824 7910 6cfd b5bf 4221 ca45 d627 abbf
000005e0: c8aa f61b 4a12 973f b340 02c4 8268 bfbf
000005f0: c82c f5cb d79c bb3f 27d9 7ac2 7910 87bf
00000600: af94 6860 163d b6bf a5f0 57e4 c9df 97bf
00000610: 4b6c 34d1 71a3 b43f 71d8 8733 9bd6 983f
00000620: 3488 4d95 7885 b1bf 866a 552b f6fe b7bf
00000630: e4b6 39ea b61c be3f 3b3c 3d79 5843 b6bf
00000640: 31e4 90b4 54d1 b53f 5203 140a 4cc9 acbf
00000650: 334b 9f09 ccce 9e3f 26b2 df33 0101 b43f
00000660: 12da b5a1 ef8a a6bf 2f60 0efb 954b a73f
00000670: 77b1 090e 8873 98bf 5de8 90d8 a58a bfbf
00000680: 329c 38ad d067 a03f c9d4 4161 25cc 97bf
00000690: 458f b1bd d6a0 843f 220f 3ed5 6b0c bd3f
000006a0: 7bbb 079c 0d6e b33f c9e5 e875 ffe5 a6bf
000006b0: 5446 f286 c0c6 a93f b3c8 74e0 f648 ba3f
000006c0: 2266 43e6 0b2f b3bf aa07 fbd0 4e7f a33f
000006d0: 644d aa53 7065 a7bf d475 8876 237b 83bf
000006e0: a110 ac22 5b81 85bf 399a 7d65 0914 81bf
000006f0: 2aaa b137 c6c0 b23f 69cb 3419 a148 b4bf
00000700: 0f1b 54bd 3542 b23f 4de0 407a 1292 a8bf
00000710: b9c2 e5e0 394d 883f 619f e146 2bc9 a6bf
00000720: d266 8b30 08aa 82bf 977d 6a4b c465 843f
00000730: ac5d 7c2a 7853 5abf 5351 9c4b 4e8e abbf
00000740: 4c85 0704 4528 c0bf 1513 b7aa cb8e a43f
00000750: 2e53 bb19 217d a9bf f28a e3a8 2ee2 6abf
00000760: 035d 1cb4 26ee afbf 8cb5 da73 9817 c13f
00000770: 004c ae64 af32 b6bf d396 bd74 4e0c 61bf
00000780: 5906 d2d1 7865 b93f 9e9c 3243 c914 6bbf
00000790: 3000 df02 fcff b3bf 1e8a 2220 c110 98bf
000007a0: 1de8 4c3f b817 c03f 7d9d 1627 b5bc aebf
000007b0: 049f 0ed3 9972 9dbf 3f58 b587 c319 9fbf
000007c0: fc78 c788 5906 a3bf 76c5 ecde 8390 7dbf
000007d0: 7e85 0e1b 363a af3f 32f0 52f3 346b b2bf
000007e0: d420 6c17 e020 b53f 0f2a 09cf 4536 84bf
000007f0: ff14 06df 6a0d a0bf aab4 79cc 9956 983f

encoder.hidden_ff.bias f8 [64]
0.022453560984493377 0.007992801744653938 0.0402828026482415 0.013061754871124417 0.046027507631855535 -0.04417562910685011 0.030014157435479805 -0.11807237288681147
0.044890056901402436 0.01712430125728269 -0.11332801478817289 0.12985725957982122 -0.04412399026769566 0.032497042711920436 -0.10380495056349841 0.16286611287024746
-0.04068396930373572 -0.12841331678937626 0.012784545307161879 0.10313256663999519 -0.1066979122658788 -0.09277684250057175 0.08919906858547981 0.038235078587192474
0.06779416353814782 -0.05611866173210309 0.12597104750468552 0.09177250359975551 -0.061732997480199045 0.050219664066083455 -0.05566227835782015 -0.07688435976265767
0.10821330088427453 0.08563681589697175 0.07534248216455548 0.01351156838552188 -0.16933467800488963 -0.01297033412562805 0.09282101368664693 0.015426712554357631
-0.030821353678355607 -0.06967327358560653 -0.036095611448771846 -0.05146188534413412 -0.10138799721523382 -0.10938675417209498 -0.0575180328098219 -0.08887082815796317
-0.013226167873665172 0.07717123275909567 -0.12319422214081911 -0.04065077077626469 0.04255763666562067 -0.1499665184845687 -0.07924537393179158 -0.0450054174302644
-0.010881539110061116 0.042546104978200314 0.0026667758091216583 0.084735726771366 0.028611033189253975 0.007056703117387355 0.007261870859206209 0.13782224839483267
00000000: 45b6 6df8 10fe 963f dd0a c6b0 875e 803f
00000010: 754b ee8f f29f a43f 58b0 ff0f 1fc0 8a3f
00000020: 288c fddf ea90 a73f 6d9a 9624 309e a6bf
00000030: 90d6 6802 08bc 9e3f 2627 1cb4 fd39 bebf
00000040: 8c3c 9d5c d4fb a63f 9caf 7767 0889 913f
00000050: d85d 3c95 1003 bdbf e591 85a5 299f c03f
00000060: b269 566e 6b97 a6bf ff2d 54cf 73a3 a03f
00000070: 8347 d513 f692 babf fdc1 33fa cbd8 c43f
00000080: 1c14 437b 87d4 a4bf e399 fdf9 d86f c0bf
00000090: bb6d e89f c82e 8a3f d30e df58 e566 ba3f
000000a0: dac1 bbeb 8d50 bbbf a2b8 5d20 39c0 b7bf
000000b0: 2386 680a c0d5 b63f 3518 2f58 8c93 a33f
000000c0: 908a 4153 f55a b13f cc59 abd1 95bb acbf
000000d0: 2643 a3bc d11f c03f c70b a21d 677e b73f
000000e0: 06e4 85aa 779b afbf 9e53 8f4d 64b6 a93f
000000f0: f5da 5522 c47f acbf c427 c182 b1ae b3bf
00000100: 6248 4aec ddb3 bb3f dc6e 9c5b 4bec b53f
00000110: 456f e518 a549 b33f a8f9 aa02 f4ab 8b3f
00000120: 5f0a 0e3c c2ac c5bf a824 1ac7 3090 8abf
00000130: 6d6c 2a32 1ec3 b73f 64fe 3e4f 0a98 8f3f
00000140: 2598 4408 a28f 9fbf c397 748f 1bd6 b1bf
00000150: e337 67bd 1f7b a2bf 344d 1655 3659 aabf
00000160: ff11 3f54 90f4 b9bf b0e4 c833 c500 bcbf
00000170: bc66 b2eb 0073 adbf 65c3 8114 3dc0 b6bf
00000180: 0c19 c033 5216 8bbf 116f e470 7ec1 b33f
00000190: 71a6 2613 a889 bfbf a31e 1586 2dd0 a4bf
000001a0: 4708 5953 1dca a53f 126f 3156 1a32 c3bf
000001b0: 4376 65c1 6c49 b4bf 0cfa 0238 f30a a7bf
000001c0: 5ce4 dc74 0f49 86bf 1e38 e862 9ac8 a53f
000001d0: e8a1 595c a2d8 653f c12a 4997 3db1 b53f
000001e0: 4614 69ef 354c 9d3f e949 b551 7de7 7c3f
000001f0: bfad 919d 9fbe 7d3f e32c c2d0 28a4 c13f

encoder.output_ff.weight f8 [1, 64]
0.08091822266578674 0.0873023122549057 0.07485896348953247 -0.010467037558555603 0.015094488859176636 -0.0936369001865387 -0.0559200644493103 -0.10148841142654419
0.03588399291038513 0.0028974562883377075 -0.02075357735157013 0.008249923586845398 -0.11593501269817352 0.10773050785064697 -0.034612491726875305 0.08538632094860077
0.09439747035503387 0.06814973056316376 0.10869476199150085 -0.07071442902088165 0.024758800864219666 0.022786781191825867 0.03143933415412903 0.10354501008987427
0.015436381101608276 -0.012715846300125122 0.004567816853523254 0.07729308307170868 -0.06879661977291107 0.06762683391571045 -0.041842713952064514 0.03047814965248108
0.10270184278488159 0.05292409658432007 0.11242108047008514 -0.04871357977390289 -0.05542078614234924 -0.08537483215332031 -0.09377588331699371 -0.044365063309669495
0.04230049252510071 -0.10407544672489166 -0.11808919906616211 -0.10812628269195557 -0.009441226720809937 0.07179073989391327 -0.0001770108938217163 0.003510192036628723
0.05335855484008789 0.014364421367645264 0.09035097062587738 -0.030481159687042236 -0.03720177710056305 -0.03520691394805908 0.03578099608421326 0.12353676557540894
-0.027407914400100708 0.06584101915359497 -0.042680248618125916 -0.053749874234199524 -0.057766929268836975 -0.11168482899665833 -0.057396337389945984 0.07635648548603058
00000000: 0000 0080 0eb7 b43f 0000 00c0 7159 b63f
00000010: 0000 0000 f529 b33f 0000 0000 be6f 85bf
00000020: 0000 0000 dce9 8e3f 0000 0080 96f8 b7bf
00000030: 0000 0000 8ea1 acbf 0000 0000 25fb b9bf
00000040: 0000 0000 635f a23f 0000 0000 68bc 673f
00000050: 0000 0000 6d40 95bf 0000 0000 56e5 803f
00000060: 0000 00c0 eaad bdbf 0000 0000 3a94 bb3f
00000070: 0000 0080 bab8 a1bf 0000 00c0 e0db b53f
00000080: 0000 00c0 6e2a b83f 0000 00c0 4272 b13f
00000090: 0000 0080 6bd3 bb3f 0000 0040 571a b2bf
000000a0: 0000 0000 5f5a 993f 0000 0000 6b55 973f
000000b0: 0000 0000 d118 a03f 0000 0000 ed81 ba3f
000000c0: 0000 0000 1c9d 8f3f 0000 0000 c40a 8abf
000000d0: 0000 0000 b4b5 723f 0000 00c0 7ac9 b33f
000000e0: 0000 00c0 a79c b1bf 0000 0000 fe4f b13f
000000f0: 0000 0080 686c a5bf 0000 0000 aa35 9f3f
00000100: 0000 0000 ab4a ba3f 0000 0000 de18 ab3f
00000110: 0000 00c0 a0c7 bc3f 0000 0080 fcf0 a8bf
00000120: 0000 0000 1d60 acbf 0000 0000 20db b5bf
00000130: 0000 0040 b201 b8bf 0000 0080 04b7 a6bf
00000140: 0000 0000 69a8 a53f 0000 0040 b0a4 babf
00000150: 0000 0000 183b bebf 0000 0000 2aae bbbf
00000160: 0000 0000 ec55 83bf 0000 00c0 e060 b23f
00000170: 0000 0000 8033 27bf 0000 0000 68c1 6c3f
00000180: 0000 0000 d051 ab3f 0000 0000 186b 8d3f
00000190: 0000 00c0 3d21 b73f 0000 0000 7436 9fbf
000001a0: 0000 0080 1c0c a3bf 0000 0000 a406 a2bf
000001b0: 0000 0000 e351 a23f 0000 0000 1ba0 bf3f
000001c0: 0000 0000 d210 9cbf 0000 0000 f5da b03f
000001d0: 0000 0080 2fda a5bf 0000 0080 1a85 abbf
000001e0: 0000 0080 a093 adbf 0000 0080 6097 bcbf
000001f0: 0000 0080 0d63 adbf 0000 0040 198c b33f

encoder.output_ff.bias f8 [1]
0.0324070006608963
00000000: 0000 0080 a697 a03f

decoder.input_ff.weight f8 [64, 1]
0.8837891817092896 0.9764777421951294 -0.9087376594543457 0.3702174425125122 0.8734437227249146 -0.9962468147277832 -0.10488080978393555 -0.9526240825653076
0.9968469142913818 -0.610946774482727 0.9041309356689453 0.22480392456054688 -0.054836392402648926 -0.19602179527282715 -0.19986951351165771 -0.8416560888290405
0.27748405933380127 -0.0724799633026123 -0.997360110282898 -0.3457767963409424 -0.8393409252166748 -0.1054544448852539 0.3411945104598999 0.6989926099777222
0.23074233531951904 -0.16270244121551514 0.4276038408279419 -0.7060452699661255 0.6011139154434204 0.5464099645614624 -0.6626638174057007 0.1343783140182495
-0.9314620494842529 0.28612220287323 -0.16383767127990723 0.5853079557418823 -0.7628779411315918 -0.828909158706665 -0.5280961990356445 -0.6397165060043335
0.32944178581237793 -0.6422324180603027 -0.6585953235626221 -0.2736351490020752 0.19370973110198975 0.2954171895980835 0.722428560256958 0.8323041200637817
-0.5967847108840942 0.8637512922286987 -0.1232224702835083 0.9829908609390259 -0.2883622646331787 -0.35825681686401367 0.03521227836608887 0.824825644493103
0.46907317638397217 -0.6402812004089355 0.8180792331695557 -0.396750807762146 -0.3663448095321655 -0.07111132144927979 0.29587817192077637 0.41439974308013916
00000000: 0000 0040 0048 ec3f 0000 0040 4e3f ef3f
00000010: 0000 0000 6114 edbf 0000 0080 a4b1 d73f
00000020: 0000 0040 40f3 eb3f 0000 0000 41e1 efbf
00000030: 0000 0000 78d9 babf 0000 0080 e57b eebf
00000040: 0000 0080 2be6 ef3f 0000 0040 e08c e3bf
00000050: 0000 0000 a4ee ec3f 0000 0000 60c6 cc3f
00000060: 0000 0000 8413 acbf 0000 0000 3e17 c9bf
00000070: 0000 0000 5395 c9bf 0000 00c0 d8ee eabf
00000080: 0000 0080 4cc2 d13f 0000 0000 0c8e b2bf
00000090: 0000 00c0 5fea efbf 0000 0000 3521 d6bf
000000a0: 0000 0080 e1db eabf 0000 0000 10ff babf
000000b0: 0000 0080 21d6 d53f 0000 00c0 255e e63f
000000c0: 0000 0000 f788 cd3f 0000 0000 6fd3 c4bf
000000d0: 0000 0080 dc5d db3f 0000 0040 ec97 e6bf
000000e0: 0000 0040 533c e33f 0000 00c0 307c e13f
000000f0: 0000 00c0 8a34 e5bf 0000 0000 4f33 c13f
00000100: 0000 0080 89ce edbf 0000 0080 d34f d23f
00000110: 0000 0000 a2f8 c4bf 0000 00c0 d7ba e23f
00000120: 0000 0000 7f69 e8bf 0000 0080 6c86 eabf
00000130: 0000 0000 2ae6 e0bf 0000 00c0 8e78 e4bf
00000140: 0000 0000 9315 d53f 0000 0000 2b8d e4bf
00000150: 0000 0080 3613 e5bf 0000 0000 3d83 d1bf
00000160: 0000 0000 7bcb c83f 0000 0080 1de8 d23f
00000170: 0000 0080 221e e73f 0000 0040 3ca2 ea3f
00000180: 0000 0040 dc18 e3bf 0000 00c0 d9a3 eb3f
00000190: 0000 0000 828b bfbf 0000 0040 a974 ef3f
000001a0: 0000 0000 8774 d2bf 0000 0000 aeed d6bf
000001b0: 0000 0000 5807 a23f 0000 00c0 f864 ea3f
000001c0: 0000 0080 4b05 de3f 0000 0000 2f7d e4bf
000001d0: 0000 0080 b42d ea3f 0000 0080 5d64 d9bf
000001e0: 0000 0080 3172 d7bf 0000 0000 5a34 b2bf
000001f0: 0000 0000 abef d23f 0000 0080 8685 da3f

decoder.input_ff.bias f8 [64]
0.37712130823435835 -0.5498427190126232 -0.12517562875580057 0.6078266026027951 -0.15305557113235777 -0.5419788207547589 -0.021642194891509238 0.2130693055914019
-0.8906113352180899 0.7873947937191909 -0.14664250364570294 -0.7563677819253353 -0.9171618250793414 -0.15255144428971656 0.717556773616329 -0.5292192608809795
0.31822302349498854 -0.19512659660303477 -0.6545422744097751 0.3552151353957234 -0.7790348415368012 0.04335632322183523 0.8302943712074707 -0.034020109723612364
0.5790636744916644 -0.808209852179417 0.6493540244775572 -0.6558698385349194 -0.15446812507171995 -0.945995966456892 -0.8531726263527732 -0.11583416681297935
-0.9160360633237212 -0.9323796020796884 -0.9570504760521003 -0.4130046216046392 0.8176796550065598 -0.5254053392245804 -0.6185228233349043 0.6531880970277396
0.8960975712084642 -0.12821689937693223 0.21984685446996513 0.030806677563344046 0.7380563548082576 -0.8160011461819437 -0.6726373517528391 0.3681669237675356
-0.6045574953013662 -0.28323615954960707 0.30007928250873905 0.8475218428064322 -0.4940051907048718 -0.6995583329318081 0.40435876202604876 0.6864762601034793
-0.08644429119381421 0.3098618571615007 0.7018914560978207 -0.0655481182155582 0.9659428235572077 0.34035121809832225 0.015687337924736238 -0.13771191669784763
00000000: 8971 5f69 c122 d83f 3c4b 03c2 4f98 e1bf
00000010: 5896 e147 c105 c0bf 5d2b 7ac6 5073 e33f
00000020: 47f6 3d30 5397 c3bf d285 c8f7 e357 e1bf
00000030: 2a3c 171d 5f29 96bf bff3 a5e1 da45 cb3f
00000040: c3ac c657 e37f ecbf 2111 0291 5632 e93f
00000050: 4351 ae7a 2ec5 c2bf 89c1 e334 2a34 e8bf
00000060: cc5f 7bc1 6359 edbf 7448 1744 ce86 c3bf
00000070: b592 769f 39f6 e63f 09b5 3c3b 5def e0bf
00000080: 9cb1 af19 c45d d43f 64b2 7e87 e8f9 c8bf
00000090: e80f cea3 02f2 e4bf f167 6443 d8bb d63f
000000a0: 170b db79 daed e8bf 7e0b a0cc cc32 a63f
000000b0: 7372 4c80 c591 ea3f 81a7 5675 156b a1bf
000000c0: 04c9 078b b087 e23f 844c 6de8 dadc e9bf
000000d0: e506 5517 82c7 e43f c516 5ebe e2fc e4bf
000000e0: 898e ba8c 9cc5 c3bf 8691 4255 9945 eebf
000000f0: 02e2 00ae 304d ebbf 9b9d 38d6 4ea7 bdbf
00000100: aed2 bddc 2a50 edbf e078 4cbf 0dd6 edbf
00000110: e57a e851 28a0 eebf c7e1 b8ef aa6e dabf
00000120: 9572 1b86 6e2a ea3f a3a0 a3db 1ed0 e0bf
00000130: 2cb2 4160 f0ca e3bf 17dc 5bb9 eae6 e43f
00000140: 3cb1 4bd0 d4ac ec3f 4329 cf4e 6969 c0bf
00000150: 35da 0915 f123 cc3f d12b 8822 c98b 9f3f
00000160: bf34 505c 289e e73f e732 8b6f ae1c eabf
00000170: 7716 7bc4 3e86 e5bf 3d3b 4300 0c90 d73f
00000180: 92df dbf5 8858 e3bf 53da 938e 8a20 d2bf
00000190: 6c42 25bc 7f34 d33f 18fa af20 e61e eb3f
000001a0: 3e6d 88f2 c79d dfbf c1c3 3228 c862 e6bf
000001b0: f12f b092 03e1 d93f a2fe d30f 9df7 e53f
000001c0: 0574 9a8b 3621 b6bf 8255 b2d3 c6d4 d33f
000001d0: d005 2912 e575 e63f 92d7 0cf0 c2c7 b0bf
000001e0: cb7d 9fec 00e9 ee3f 2ab5 b879 50c8 d53f
000001f0: 4b65 646d 5710 903f 3b4d 3e49 8ba0 c1bf

decoder.hidden_ff.weight f8 [64, 64]
0.004023531853769811 -0.09596528069568276 -0.1028374224152349 -0.08408406884008368 0.025856461207323614 0.07053660342659748 -0.03760489681152691 -0.0407568174593072
-0.08970036132652028 -0.09234484991374382 -0.004485533380705138 0.09747850646784552 0.07927641114389071 -0.07444447515316702 0.09688460124700388 0.06827884367774747
0.011794048990939462 -0.13904223378867872 -0.11854723196474942 0.02316299908253882 -0.10360831179763748 0.1136340573618017 -0.08619045109032107 -0.08001549231561238
0.03341714211386581 0.08252563124861788 0.1600427743546187 -0.09252255183855923 -0.0719713981065173 0.07504082490193989 -0.09487398143280065 -0.10265056521718424
0.07869189121681944 0.11107832493120942 0.0992318989414932 0.021095351056994102 0.0971501682794564 -0.04180919408723049 0.04514031310808495 -0.060104248016102466
-0.015031694968364788 -0.07667076656229646 -0.13011481261549576 -0.06195766871905073 0.07756283947704762 -0.10221782659280636 -0.0911999628508598 0.022420049473513327
0.0012200339775896665 0.06244554194969864 -0.0435778576858252 0.07976532858668511 -0.029755488452855073 -0.02403619102543551 -0.08929433859702669 0.11546888252840255
-0.057894063417937826 0.05824371229462996 -0.01749161586320502 0.05361825563607372 -0.052691026352552656 -0.06299679435990987 -0.01841079748630335 -0.012114235037860174
0.031703905022381275 0.09430972775047389 0.04173562336126789 0.03216058500481366 0.04262868262151007 -0.12928332368327586 -0.0044457408890351754 0.025202888421844972
0.025486573361580323 0.12809609399027586 -0.025353426456665773 -0.1166407606043747 0.04301986311513853 0.0809932044206038 -0.1986180104209412 0.00367022803791947
0.06053282888055131 -0.07334071158469058 -0.03109388776526867 -0.06468159402124332 0.14561051964782828 0.03169146420944768 0.023490322343535427 -0.12369096654701378
0.0032023448947869847 -0.07716620972477646 -0.061697565037819035 -0.10946293394237935 0.08886045290730428 -0.10531122353249364 -0.07068058102099069 -0.14000236878906133
0.10010070550671517 -0.1051616927745602 -0.13740923712129524 -0.10766414326496586 -0.0021959872893923178 -0.08287318284368694 0.03943082099225448 -0.06525580116108831
0.0003906516708660656 0.0022298242861786876 0.045036067799786174 0.11721213402085431 -0.012956340484816663 0.06345206193373752 0.023563802147407824 0.08934342103177607
-0.008108722385947734 -0.1623332704346322 0.0847518647116018 0.13569500695432898 -0.031143893743628984 -0.0579428924339428 0.02229860915641731 0.13620156226976146
-0.08223903682361898 -0.17379001291824334 -0.062170345349482826 0.023407253043411676 0.07472635336018131 -0.02734058423310622 -0.014323127914219708 0.06739701326407792
-0.07851070376723325 -0.13707505739462916 0.0594433698636451 0.0053292419556345855 -0.12760699934449243 -0.0484172898602904 0.010073468213685318 0.016778389157800448
0.07745088104959104 0.04021065759408668 -0.033028006901143714 -0.08323078115519716 0.11896901034706865 -0.1050086320271057 -0.0555123959037945 0.10260685831019752
0.07487203185808985 -0.09995472244388533 -0.008981054802444911 0.16420990208939287 0.10726784921796509 0.22493660833619664 0.06840282006037761 -0.05207076529855609
0.03939799781229851 -0.07782775874254604 0.19594689608905663 -0.05492536039021331 -0.13322564724031075 0.08878060874281121 -0.012406699195233805 0.02298459891677306
-0.1071150110298032 0.07265639202978827 -0.09000950244023231 -0.09856389032486593 -0.04227033767713215 0.09464241644389403 -0.1101270265261688 0.068512243930249
-0.057207056970753394 -0.06412361603362023 -0.031200505494842278 0.047942918299510175 0.07157730333636984 -0.09034974405113493 0.07073612499380762 0.06407086327092627
-0.006077798547161036 0.013913791036904082 0.08036716281148051 -0.08635785585762248 -0.12315354224661165 -0.10917920792740189 -0.013678612679944623 -0.11603959988554606
-0.04179172056361634 -0.07152709564924335 -0.08458503458474272 0.12570544471306694 -0.010453649020156741 -0.03253445382973826 0.018022309729315032 -0.11254661209383394
0.0642411512927045 0.0677570143359579 -0.04195996857586558 0.11657737997700368 -0.07362112798863088 0.02621655403036979 0.09930134576637595 -0.02820321678481452
-0.11971820760372473 0.11871606941760976 -0.012283829396207946 0.07768811417250854 -0.08327406195990382 -0.05604033838854299 0.05855050909503954 -0.08500966456498713
-0.13113898899127666 -0.04020785347720913 0.08904588952857238 -0.012823819812532783 0.1068870972215685 0.07612231989606692 0.049143635504957074 -0.12548534410559542
-0.058217082598200416 0.01650622575469769 -0.002561922310927034 -0.10287874957204952 0.13114059939157566 0.0343051635988116 0.08235919561114748 0.11555016976462888
-0.01458079019849398 -0.04296851040895273 0.09337155007899219 -0.02461742592981458 0.09617301567203608 -0.06194559697776784 0.004978402969457897 -0.1257965012317351
0.07029627507820778 0.00092112625178555 -0.035250802854864836 -0.08281521417915406 0.044068589109042114 0.13364555987112767 -0.10267276642116563 0.03829003326548736
-0.10889278200143614 -0.011320365416332814 0.021915471132492703 -0.00624599774106091 0.012690330104434752 0.1278007565627318 -0.03188116879744417 0.10896850459532442
-0.04040279885651612 -0.05485068539364533 0.0971346556742649 0.03832128774519987 -0.08478065607769002 -0.122401027434543 -0.05783133318340344 0.03278177990764195
00000000: 0b27 9f9b fa7a 703f dfb0 233e 2e91 b8bf
00000010: 2310 14a6 8d53 babf c063 c895 8886 b5bf
00000020: 945d 1abd 1d7a 9a3f 4e5e e3d4 af0e b23f
00000030: 512e f3f3 f240 a3bf e74d 27dc 13de a4bf
00000040: b937 5656 9af6 b6bf 1164 557e e9a3 b7bf
00000050: 95cd cd32 6c5f 72bf 59a2 57f5 59f4 b83f
00000060: 070f 3579 754b b43f b296 260a cb0e b3bf
00000070: 9c85 d7e1 6dcd b83f 7ec8 9ae8 b87a b13f
00000080: 2bc8 a075 7a27 883f f74c 71cb 22cc c1bf
00000090: 94e6 5184 1c59 bebf 3eaa 258e 0ab8 973f
000000a0: 65be c306 1386 babf 7baa 1420 1f17 bd3f
000000b0: 0f11 a9d0 9310 b6bf ab3c ab32 e57b b4bf
000000c0: 1f7a 0239 0d1c a13f e768 4b57 6620 b53f
000000d0: 8937 e818 487c c43f ec00 4ad6 8eaf b7bf
000000e0: 4f69 1db1 b76c b2bf f295 d120 e035 b33f
000000f0: c6c4 7e47 a949 b8bf 9c12 86b4 4e47 babf
00000100: ba93 3cdb 2625 b43f dabe df0c a16f bc3f
00000110: f876 ac00 4367 b93f 1cba 8c0b 059a 953f
00000120: 4da8 8f5b d5de b83f ffb4 8dc2 0368 a5bf
00000130: dd93 0f91 a11c a73f dedf 28e7 fbc5 aebf
00000140: 4f31 57f2 efc8 8ebf 8abe f102 b2a0 b3bf
00000150: 0551 7428 9aa7 c0bf b0fa c461 eab8 afbf
00000160: 5456 f082 28db b33f 0bc8 488e f22a babf
00000170: 7442 d779 e158 b7bf adc3 0d0d 48f5 963f
00000180: aa10 2982 31fd 533f 6fef e8b0 dcf8 af3f
00000190: dc43 2e43 d64f a6bf 046f a225 806b b43f
000001a0: 4d46 2007 3978 9ebf 5ba5 7f79 f19c 98bf
000001b0: 85ff fd67 fedb b6bf 9547 2a62 5e8f bd3f
000001c0: 9572 066a 4aa4 adbf 3c92 01af 1ed2 ad3f
000001d0: 7fbd 5878 52e9 91bf b3db d91c da73 ab3f
000001e0: a42a f475 51fa aabf 9e55 87d3 8e20 b0bf
000001f0: 5c47 63b4 47da 92bf d8e8 6d1a 59cf 88bf
00000200: 3d07 7486 7e3b a03f f208 62ac ae24 b83f
00000210: 2e63 d422 5f5e a53f ffbd a129 5a77 a03f
00000220: fc3e 763b 6dd3 a53f 23a5 911f 5b8c c0bf
00000230: 982c 997b b235 72bf 4d70 2536 c9ce 993f
00000240: fde4 4cfc 2619 9a3f 737f 37eb 7365 c03f
00000250: 5045 e4a5 3ff6 99bf 9225 2d3c 2bdc bdbf
00000260: 74da 5012 b306 a63f db4a 2f7c f8bb b43f
00000270: a1c7 93a1 506c c9bf be05 89ac 0611 6e3f
00000280: 9cae c0b0 28fe ae3f b8bb b8f5 74c6 b2bf
00000290: 00b3 3a7c 13d7 9fbf 9271 f912 f98e b0bf
000002a0: 7ea5 eb91 5da3 c23f bf11 af14 dd39 a03f
000002b0: bfb1 f3d8 d80d 983f 3c4b 2110 36aa bfbf
000002c0: f3f4 fed2 cd3b 6a3f 0dcb 1f2b 2ac1 b3bf
000002d0: 9818 29c0 d296 afbf 4e1f 6849 c305 bcbf
000002e0: d105 2503 8fbf b63f 564b f924 adf5 babf
000002f0: fd8a f25f 1f18 b2bf dbe0 a7fd 98eb c1bf
00000300: e336 7528 33a0 b93f 7e3c 426f e0eb babf
00000310: cb58 cd39 a096 c1bf ff5e 4696 e08f bbbf
00000320: 2d53 e4b2 51fd 61bf b870 074a 2d37 b5bf
00000330: c079 3bcd 4630 a43f 8874 dcab 9ab4 b0bf
00000340: 3201 8726 0c9a 393f 0aa0 51cc 4744 623f
00000350: ad58 aeac f70e a73f 425e 504a 9d01 be3f
00000360: ccd8 4395 da88 8abf df81 def2 643e b03f
00000370: 7ec0 5efe 1b21 983f 81b9 71df 35df b63f
00000380: 820e ae4b 4e9b 80bf 5ce4 c82b 56c7 c4bf
00000390: c91a 3657 4cb2 b53f 07b7 8c38 745e c13f
000003a0: 745c 6554 2fe4 9fbf 3130 14d8 b0aa adbf
000003b0: 55da 4a54 72d5 963f 096e ce83 0d6f c13f
000003c0: efaa 9c15 9e0d b5bf 9379 ed4a c03e c6bf
000003d0: 3d36 1da0 cad4 afbf ef1a 3e29 12f8 973f
000003e0: 49d1 d42b 4421 b33f 35f5 898c 2bff 9bbf
000003f0: ea75 beaf 7155 8dbf 1b3a d13f ee40 b13f
00000400: 31f3 1009 4719 b4bf 8aba 4dec ac8b c1bf
00000410: d588 0e83 5c6f ae3f 223b 977e 1dd4 753f
00000420: da6f 7618 6d55 c0bf a494 05a9 26ca a8bf
00000430: ded4 4704 66a1 843f d168 d9a2 5a2e 913f
00000440: 6d85 2729 d2d3 b33f 6c6f a2c6 7d96 a43f
00000450: a025 fc02 0ce9 a0bf d404 15cb 9c4e b5bf
00000460: f19a adc8 c074 be3f 6ca7 5a80 d8e1 babf
00000470: 8bda dbe9 1e6c acbf 6da0 c96c 7144 ba3f
00000480: 562f 3740 d02a b33f b52c faf7 a196 b9bf
00000490: 74da 47c5 a864 82bf 7b9f 937f d404 c53f
000004a0: e2ac 4de0 e775 bb3f 7312 3d08 b9ca cc3f
000004b0: fb0d 1de3 d882 b13f 38ea 11f4 04a9 aabf
000004c0: 666e 4370 f92b a43f b32c 851e 85ec b3bf
000004d0: 4644 3ab3 c914 c93f 5ca7 3145 2d1f acbf
000004e0: 455a f1ba 890d c1bf a6c0 1173 53ba b63f
000004f0: 66d4 5bfa ae68 89bf dd09 a352 4689 973f
00000500: 849f 48ad e36b bbbf f200 9dfb 9b99 b23f
00000510: 205e 4fdd dc0a b7bf 4a07 83ad 7b3b b9bf
00000520: ac0c d42b 75a4 a5bf 47e1 7043 7c3a b83f
00000530: 29eb 55e9 4831 bcbf 9f55 0eb7 048a b13f
00000540: f75f 944d 3e4a adbf 4d02 c4c1 676a b0bf
00000550: b345 e07a 06f3 9fbf 05a7 5764 f98b a83f
00000560: 4330 f7e0 e352 b23f efce e62b 2921 b7bf
00000570: 0d82 7e3f c31b b23f 9907 60b6 f266 b03f
00000580: 6223 de9f 08e5 78bf 162c bc6b d57e 8c3f
00000590: fa96 f23f f192 b43f 7a42 a966 8c1b b6bf
000005a0: cef3 5594 fd86 bfbf 518d 7327 2bf3 bbbf
000005b0: f98b eb50 8803 8cbf eba1 8c6e c5b4 bdbf
000005c0: 4eec 2072 b965 a5bf a363 9788 994f b2bf
000005d0: 7dc2 4565 5da7 b5bf 9662 fcb2 1d17 c03f
000005e0: edcf 5205 b968 85bf fb46 621e 5ba8 a0bf
000005f0: b60c 8bbb 7074 923f 25f7 37d2 dacf bcbf
00000600: ba0b dcab 1b72 b03f 56c5 a510 8658 b13f
00000610: 3e8f 8ce9 c67b a5bf 6860 74e2 03d8 bd3f
00000620: 1a7c 0191 d5d8 b2bf f76f b228 83d8 9a3f
00000630: 78ef 8320 d06b b93f ff5c eed6 4de1 9cbf
00000640: e6cb 643a daa5 bebf 5486 a823 2d64 be3f
00000650: 6dfa 35ac 4328 89bf a0a9 a845 5ee3 b33f
00000660: a70d b9ec 7251 b5bf d768 45b9 51b1 acbf
00000670: 9d66 7413 55fa ad3f 6e8a 2681 31c3 b5bf
00000680: 4959 7992 29c9 c0bf d135 74af 1f96 a4bf
00000690: 8f52 5e1f b6cb b63f 8312 a3f5 5f43 8abf
000006a0: 9e56 eeea f35c bb3f 8b02 739a c07c b33f
000006b0: 85c5 99c6 5a29 a93f 90c9 875c e70f c0bf
000006c0: 99d5 a723 a1ce adbf 73f1 2f0f 02e7 903f
000006d0: 4d56 4a91 bdfc 64bf 0d86 dd00 4356 babf
000006e0: 9d46 c814 37c9 c03f 7a4d 7b47 7290 a13f
000006f0: 19bc ac03 7e15 b53f 43b3 2f28 b294 bd3f
00000700: 6f40 6b88 88dc 8dbf 19b7 edf5 f7ff a5bf
00000710: 2d52 f7a9 32e7 b73f 6ffb 1e7d 4f35 99bf
00000720: e9af 1175 cb9e b83f c529 4d52 55b7 afbf
00000730: c1c6 0adf 3b64 743f 53ea 5e89 191a c0bf
00000740: 67d4 7dca effe b13f ad74 3e90 f72e 4e3f
00000750: 03ba d6aa 640c a2bf 61bd 82bc 6033 b5bf
00000760: 3226 027a 2890 a63f 1f78 7336 4c1b c13f
00000770: 3800 f82d c348 babf 99aa 4651 c09a a33f
00000780: c774 77b9 65e0 bbbf 2873 efb9 212f 87bf
00000790: c075 295f 0271 963f e0be 7540 6795 79bf
000007a0: 7822 3146 63fd 893f 93a5 eb72 c65b c03f
000007b0: 2ec2 af82 ba52 a0bf f4eb 8723 5ce5 bb3f
000007c0: 63de 82f7 acaf a4bf ad97 db97 6315 acbf
000007d0: 4ddf 6d19 d1dd b83f f664 360b d99e a33f
000007e0: efe5 2f61 2fb4 b5bf 5b02 d479 ac55 bfbf
000007f0: 57e1 6989 119c adbf bd4a 3701 c6c8 a03f

decoder.hidden_ff.bias f8 [64]
-0.12141456327137612 0.06708836180555335 -0.11131623754333582 0.05124295964319467 -0.029382847362215022 0.0866572711927958 -0.12500670721584323 -0.08813165051478503
-0.10397936362041288 0.05902129599465569 -0.11176931610374027 0.055415829849101664 -0.03876388348998841 0.10503043043848748 -0.1397953788504466 -0.06618810302976366
0.09503729053428725 -0.011700156840918194 -0.03997065835619762 0.09401436465997848 0.06844144713946197 0.03439384100786118 0.07021424229931857 -0.051133899639651
-0.010393241363742766 0.05336056570158895 0.04936176414068186 -0.10237864845904736 0.08519362810592043 -0.07888355340815245 0.05708782746744634 -0.03480086247929118
0.05075300346781885 -0.0370505439093659 -0.11873084662132484 0.11530770387295994 0.08652493005100528 -0.02363344214701692 -0.044041485072344885 0.04097660138984487
0.022849664642797023 0.01799572314637475 0.13023353602666699 0.11575024030939118 -0.13775310607012356 0.11299519325840034 -0.015189134480085839 0.044246897345987336
0.023825902754657725 0.08239308132087003 -0.055241022123455 0.11291045078525964 0.09301036360401704 0.03874085806626863 -0.1113274817464599 -0.09457850488255108
0.07807905701842786 -0.04278275026323783 -0.032117660790220035 0.08418245984936054 0.07112503912860199 0.022957170122779733 -0.03296540040801198 -0.037586752904282185
00000000: 1039 825a 0615 bfbf 31a6 e5ef b32c b13f
00000010: 4d2c c38f 387f bcbf 9cb2 a267 843c aa3f
00000020: efb0 ef81 8916 9ebf 33d1 bbc1 2b2f b63f
00000030: a2e7 a243 3800 c0bf ca18 b4bc cb8f b6bf
00000040: 8c64 353e 649e babf e410 2110 0a38 ae3f
00000050: 3ea2 5cf5 e99c bcbf 22e3 c3b1 765f ac3f
00000060: 24fe b517 dcd8 a3bf 706f d137 46e3 ba3f
00000070: 65b5 25a2 d0e4 c1bf 3aa9 e519 b4f1 b0bf
00000080: 5ac6 be26 5d54 b83f c523 eb77 40f6 87bf
00000090: a000 e1bc 0877 a4bf 909e 914d 5311 b83f
000000a0: a7a7 27f1 6085 b13f 760b a0cc 119c a13f
000000b0: 0d95 6382 8ff9 b13f 93a7 56f5 382e aabf
000000c0: c6bd 0d3e 0d49 85bf 5c34 2b79 1352 ab3f
000000d0: a46e 50f5 f145 a93f cbb6 f0b2 7c35 babf
000000e0: 3ee2 8ae6 3fcf b53f 808d 146a b631 b4bf
000000f0: d0da f19f 9d3a ad3f 743a 712c 6bd1 a1bf
00000100: 4fd8 2234 4cfc a93f cf8b c7f4 49f8 a2bf
00000110: e1d5 430f 2565 bebf 9e78 1c41 ce84 bd3f
00000120: da95 db70 7f26 b63f e510 7474 5d33 98bf
00000130: f621 1b04 9b8c a6bf d7c0 bd95 e2fa a43f
00000140: 5e26 7609 e765 973f fcb4 8689 786d 923f
00000150: 3cda 0915 7eab c03f b80a a2c8 cea1 bd3f
00000160: 472e bfce e4a1 c1bf 4f68 a6c3 40ed bc3f
00000170: 78a9 c51e 7b1b 8fbf 25d9 1982 87a7 a63f
00000180: 8d06 8444 d165 983f 1497 b085 b617 b53f
00000190: a8f0 d51e 8d48 acbf a1d2 7f05 b3e7 bc3f
000001a0: 584a def5 86cf b73f 96c3 d37c d7d5 a33f
000001b0: c840 3f35 f57f bcbf bb08 6001 4c36 b8bf
000001c0: f78b 6534 fdfc b33f 5c55 6de2 9ee7 a5bf
000001d0: de9f 6fdd b971 a0bf 7e28 f34f fb8c b53f
000001e0: beeb fb24 4035 b23f f94f 8b9b 1582 973f
000001f0: 3ecd 4d49 d7e0 a0bf 0534 f924 923e a3bf

decoder.output_ff.weight f8 [1, 64]
0.03781334303016644 -0.00019738586939771198 0.09140334793902542 -0.09386946173002793 -0.06037485820685091 0.11311812099671534 -0.027997911477552963 -0.07254430641740839
0.09478654716697113 0.05627511711301131 -0.07342691196561671 0.10761710198713252 0.1170060512203503 0.0685164198678122 0.00022267738280313704 0.04949568476777859
-0.07204078766710359 -0.07009935932798014 0.036758834846804526 0.05525166101653003 -0.051238517488767725 0.018981058238481768 0.04097411685770836 -0.05013885773129521
-0.0633488403469191 -0.02043787484714145 -0.0009784562428151863 -0.03208219233157987 -0.09424419074649315 -0.08175757000221243 -0.06956832012630107 -0.07973183230597673
-0.07002111516614044 -0.05794491704732515 -0.028691722014058427 -0.027995100003145104 0.01777649069667349 0.04017444822686145 -0.04395002512243616 -0.01506364937331992
-0.03316565204929089 -0.007658189457118077 0.05972840051310465 -0.025051142144653277 0.05100012067389953 -0.06982234896789458 -0.05749884795253672 0.04278721327379041
0.0502710779142076 0.007330406773168921 0.04808995078753709 0.027810019622829526 0.00580270439388103 0.02211830454294838 -0.09197899487851076 -0.04261542974105897
0.05363274057980748 0.03489983878005231 -0.07276501383411864 0.07097129302430318 0.06241528142181527 -0.05682717627682693 -0.06494806889467561 -0.0009678031360768922
00000000: 4a80 553f 455c a33f 9677 1fb5 2bdf 29bf
00000010: 2b9d 24b6 3566 b73f 6d3d 393c d407 b8bf
00000020: 0985 ff12 74e9 aebf 9e0f 4426 4ff5 bc3f
00000030: ea0c 9c08 7cab 9cbf b8e2 927f 4392 b2bf
00000040: b2d2 2e60 ee43 b83f 986c 2897 17d0 ac3f
00000050: 5ae1 8929 1bcc b2bf 6b68 865d cb8c bb3f
00000060: eced 6ccb 1bf4 bd3f f83d 92c6 4a8a b13f
00000070: 7301 4527 d02f 2d3f e6d0 bd96 7f57 a93f
00000080: 4c1f 02db 4371 b2bf 1ec3 c817 08f2 b1bf
00000090: 4f1e 03d3 0dd2 a23f b339 3b1a f249 ac3f
000000a0: dfce d159 ef3b aabf 0bd1 8241 c56f 933f
000000b0: 51ce c537 8ffa a43f 6dee 6de4 ccab a9bf
000000c0: 1e90 872d a137 b0bf c4d9 4590 aaed 94bf
000000d0: 3cb3 0f64 f107 50bf 763c b2bd 136d a0bf
000000e0: c81b 1825 6320 b8bf 9224 5c69 10ee b4bf
000000f0: 0eb6 c7bb 3acf b1bf bb4e 342c 4e69 b4bf
00000100: 8b03 ab5f e7ec b1bf 7b19 60c7 f4aa adbf
00000110: d97e ddde 5c61 9dbf 04d7 d85b bfaa 9cbf
00000120: 742d b818 0034 923f 90d6 89ca be91 a43f
00000130: ee54 1e21 9e80 a6bf b3a5 55cb b0d9 8ebf
00000140: bfef cd9d 16fb a0bf a201 3d94 315e 7fbf
00000150: bb3d b18d b894 ae3f 7576 f4b0 01a7 99bf
00000160: 08dd c514 b01c aa3f 6cd5 58a1 e0df b1bf
00000170: a613 072f 7d70 adbf 0e54 65a3 34e8 a53f
00000180: 5102 2777 21bd a93f b6d5 b615 7d06 7e3f
00000190: 3125 ccfb 3e9f a83f 4feb 1fd3 3a7a 9c3f
000001a0: bfe7 9999 93c4 773f 5ea6 9e4a 2ea6 963f
000001b0: 5d12 ec76 ef8b b7bf 57ee 158a b0d1 a5bf
000001c0: eefb 9125 c075 ab3f bf59 6444 64de a13f
000001d0: 1be5 b55a baa0 b2bf e184 7eb6 2c2b b23f
000001e0: fd64 f450 e5f4 af3f 6818 449f 7318 adbf
000001f0: e64a d7c7 6fa0 b0bf 1ddf c168 85b6 4fbf

decoder.output_ff.bias f8 [1]
-0.02779985942925744
00000000: fe06 54fc 9077 9cbf
