saved_model/Shift_encdec/saved_model.pt (torch, 73409 bytes, 12 tensors)

encoder.input_ff.weight f8 [64, 1]
00000000: a331 bf3f 8813 ebbf d6b5 f17a 173c e33f
00000010: ac28 52ca 19a4 e73f e2e6 3398 07fd e93f
00000020: b284 703b 7a3a ed3f 1edc c506 f1ac a13f
00000030: cb1a bf52 7f34 c1bf 048d 2da4 18e4 d23f
00000040: d2b4 340b 8f52 c43f 8bb8 fb55 7ff5 e9bf
00000050: 49c3 a929 09de e0bf 2e65 6dfc 446e c93f
00000060: 4fe3 d551 8264 e5bf a8cd b8b6 49fe b2bf
00000070: 9e13 c6ba a293 df3f e357 259f 693c cebf
00000080: 7fe1 911b a156 dbbf 3595 cbf5 b17e c63f
00000090: 38f6 3855 959f cebf 2d32 7c17 df36 e1bf
000000a0: 8221 c631 d157 eabf 87f6 84de 1fd5 eb3f
000000b0: ac53 e22e 8e54 d63f 9446 71b6 e926 db3f
000000c0: 7b13 8a5c 5351 96bf 6842 5ded 3872 e03f
000000d0: 5e5b 9701 7c53 bdbf b396 2b38 80df ed3f
000000e0: ea03 6f98 c3fb c6bf a3fd 16a6 ec29 ce3f
000000f0: a97b 0cc7 6ea9 c1bf e6de 26bb 5e31 debf
00000100: ca2b 3416 2084 e2bf 54f9 517c 63df ddbf
00000110: 35ce 473a 2cd1 e0bf 8e6d 1ccf 42d6 e7bf
00000120: 5d92 c325 e25d cfbf 9f73 e5db 4058 e5bf
00000130: 5736 ef29 ba5a ccbf 6023 2d70 6280 e5bf
00000140: 140f 3fde b9e3 e53f 4df8 075c b56a b83f
00000150: 40fd 5416 faa1 b2bf f968 4c8c e9f3 dbbf
00000160: 8b7f ffc5 89c8 dfbf 4411 6eb4 6c48 efbf
00000170: facc 58a6 7161 e33f 0e38 d00b 68c6 a63f
00000180: 88b5 ff33 c90f ca3f ed37 aa8f 05cc ea3f
00000190: 0a63 d389 17ba e8bf 22e0 3c5f 9df9 d63f
000001a0: dcc7 6c6f 9228 cf3f a177 9694 7426 eb3f
000001b0: 5b6d 69c6 5b90 ea3f 0c18 6839 8078 e0bf
000001c0: b9f9 ce63 278f e6bf 5bf0 65f7 2621 c03f
000001d0: 0fce 1901 7ee8 debf 0819 b8f3 722f e83f
000001e0: de51 5e66 4f4d e13f dc23 94b6 1bc9 d2bf
000001f0: 852a f768 255a debf 70f3 cb48 1c1e e73f
-0.8461343045287787 0.6010854150060208 0.7387818290310597 0.812137410422306 0.9133883629730433 0.0345225640075386 -0.13441459217411586 0.2951718905735137
0.15876949355280218 -0.8112179450379399 -0.5271039785130621 0.19867765737107262 -0.668519172511063 -0.07419262610419841 0.4933859657251619 -0.2362186457709746
-0.4271624345051563 0.1757414293453309 -0.23924509679084038 -0.5379481753057626 -0.8232198688647687 0.8697661729890606 0.3489108522274431 0.4242500573792338
-0.021794607661394388 0.5139431606313112 -0.1145551208386286 0.9335328194690277 -0.1795582289032887 0.23565443143705264 -0.1379831764142783 -0.47176330830141777
-0.5786285813968501 -0.46675955906529976 -0.5255337847033333 -0.7449049039018278 -0.24505259365027401 -0.6670231146668931 -0.2215187744863438 -0.6719219389861841
0.6840485897778046 0.09537824150899717 -0.07278407139982779 -0.43676222516081925 -0.4966148789953812 -0.9775908969900589 0.6056450127565818 0.04448247093397138
0.20360674895293251 0.8374049955325497 -0.772716302100066 0.3589852743202774 0.24342565956754825 0.8484442617516273 0.8301218867522197 -0.5147095795844066
-0.7049748372444845 0.12601172523489165 -0.4829401980161671 0.755792118085794 0.5406872748740701 -0.2935246737475248 -0.4742520833066595 0.7224255964098187

encoder.input_ff.bias f8 [64]
00000000: 515d 9c7b 1058 e43f 0d6b 30ee 99a4 cf3f
00000010: 9605 db97 32e8 d8bf 4219 61c2 f21d e0bf
00000020: efc7 929a 98b7 e23f 064f 8157 4e06 e53f
00000030: a5da 86df c926 e43f d916 cec5 08e7 c13f
00000040: e3cd 210f 3e17 e8bf 76a6 0bea 5d0d ecbf
00000050: 310b 4ad8 f808 e7bf 3bca cb8f 0372 db3f
00000060: aadf 853b fa13 e0bf dffb 7826 33bb d5bf
00000070: 195e bfab 29a6 dcbf 8ccb 1e70 7c0e d4bf
00000080: 2cad 2291 3f83 b3bf 8e95 6084 13e9 e1bf
00000090: 7a9f 5a4c 427b ee3f 20d7 2421 d6c7 b93f
000000a0: 948c f261 c493 eabf 4cc6 8384 d3f8 ed3f
000000b0: dfb9 00fc d543 edbf f392 b7d1 9620 ec3f
000000c0: 7147 0f63 85ee ef3f f226 d208 bfc0 eebf
000000d0: 32ff 17b3 86f4 e83f ec09 a6c8 55b0 dabf
000000e0: e147 6276 4e8e d63f 0869 22f8 af93 d6bf
000000f0: 5e4c c262 fc15 d73f 67d8 14e6 b31c e9bf
00000100: 207b f2a8 18a9 efbf 23bf 15d4 eb40 e4bf
00000110: 6947 9cfd f91c db3f ea7f 104f 69c6 ee3f
00000120: 4b8a 18e5 34a0 a4bf 4679 26e7 9d39 e23f
00000130: a9c5 9ea4 2ed6 d73f c09b bdb9 ac62 e13f
00000140: 3420 4fd1 76dc b43f eb63 e856 1ea8 d1bf
00000150: 619e f0c5 48a5 d23f 3cb2 fc70 dc29 e73f
00000160: 92a6 74bd 317c b4bf 0644 c84a 7375 e53f
00000170: 9b1f 0bfd 2d21 bebf 1c54 2c3b f9bc cbbf
00000180: 30b8 41c5 c4b0 e13f 9d18 0f6e 671c ec3f
00000190: a543 935d 7e69 dbbf 31d4 f22c 43c5 d63f
000001a0: e88f 9778 a426 a6bf 6ff4 2c18 3d8f bdbf
000001b0: 79fa 57b4 ab35 d0bf 5cca a3e6 035e debf
000001c0: 01c6 de14 53f9 dbbf 148b 628d 402d ee3f
000001d0: edff 7d1b e56b eebf d072 1262 0915 e83f
000001e0: cacd 7a29 5775 e93f 60a8 f0c7 4570 e13f
000001f0: 1b82 b985 3c2b dfbf fbc8 3d6a e5b2 eb3f
0.6357500471375862 0.24721073274925978 -0.3891722186054606 -0.5036557957144299 0.5849116343508721 0.6570197781643123 0.6297349324948597 0.13986310633133917
-0.7528372092769441 -0.8766316958619444 -0.7198452209853256 0.42883385698874904 -0.5024386560971739 -0.3395507693966788 -0.4476417710515946 -0.3133841605114689
-0.07622144025178973 -0.5597016892904081 0.9525462619103415 0.10070551213433676 -0.8305379784618645 0.9366242969683269 -0.9145307466440576 0.8789781662022434
0.9978663382300806 -0.961028592327436 0.779849386017281 -0.41701263994778404 0.3524356990902771 -0.35276412231327514 0.36071691173964904 -0.7847537511613724
-0.9893916415929631 -0.6329249517711769 0.42364358679434716 0.961720137045629 -0.04028477951603245 0.5695333017973006 0.3724476440066505 0.5432952525851462
0.08148901567540251 -0.27588613974654547 0.2913381512648581 0.7238599974421684 -0.0800200545824288 0.6705872021285593 -0.11769378116434696 -0.21670451535524726
0.5528282025022744 0.8784672879781003 -0.4283138192959604 0.3557899416876494 -0.04326356861182018 -0.11546689834809042 -0.2532758008164034 -0.4744882347432957
-0.437092562085212 0.9430239449905877 -0.9506707703549161 0.7525679507703789 0.7955737886572305 0.544955149181316 -0.4870139413742735 0.86558790922416

encoder.hidden_ff.weight f8 [64, 64]
00000000: 6831 cc4f 6c0c bebf 2f84 cf63 e377 99bf
00000010: 63ea b238 71c6 bd3f 8834 de10 2321 b53f
00000020: 30e0 9c88 b6aa 63bf 7368 93f0 05df b8bf
00000030: 5559 021c 2ef4 a03f 3b1b c29a 5e10 a33f
00000040: 4eec aa77 ff44 bd3f c48f 74b3 7021 b7bf
00000050: 8409 ceef b9b0 a33f 68e2 b1de d620 adbf
00000060: f4e5 bf6b a442 ac3f c3be f29b c2a0 b73f
00000070: f1cc 9c6d f8fb b2bf 9721 2079 229d 8f3f
00000080: afc2 7e11 ac00 babf 1944 c021 6241 b4bf
00000090: defa 1304 250b b83f 247f fae6 c182 c13f
000000a0: 432d 9f3c 4c13 c03f 505a 3672 7087 9a3f
000000b0: 34bd b67d 7279 6abf 97ef 0c40 89f9 c03f
000000c0: 69e7 5f5b 2924 ac3f 8e47 6a9d de2c 95bf
000000d0: eece cae6 0f59 8fbf e622 f28a c8aa b23f
000000e0: 7add bc12 4e69 b9bf 4047 c6c4 b8ae 85bf
000000f0: 6796 f57c d7b3 b5bf 770e 515d 96ba bfbf
00000100: 3b79 f046 393f c4bf 6b51 d8bb a4b4 a33f
00000110: 8704 fdbc 6a46 a3bf b5b5 ca73 f4e1 85bf
00000120: d3c3 4457 6e22 b3bf 7338 e96e 6270 c03f
00000130: 0e14 4976 0b89 ba3f b1de aba0 9478 ab3f
00000140: 3d71 bc72 c1b8 b03f 78ad a0d1 127c b4bf
00000150: ed79 d693 6f31 aabf 4d62 9ac8 02b4 b43f
00000160: d47c 6a91 e674 a43f 8bd6 5ad9 492f 5b3f
00000170: 123f d79a ca1d bdbf dd7e 5712 9aef b03f
00000180: 0700 6432 f70f b33f 8041 beaa 16d9 a23f
00000190: eaa9 2673 e642 53bf 2ded 4942 2190 be3f
000001a0: 6447 8d80 c272 b23f 3de0 02da cd1e babf
000001b0: 2e64 4793 c5e6 a33f 6496 ea4e 4dbd 9fbf
000001c0: 1bf5 148c fef3 c2bf f47b a1c3 62d6 a63f
000001d0: d824 ed6f 79ef 953f 0f3e 8102 896c be3f
000001e0: 3f31 7b72 ef9f b3bf 5d7a 6f89 367d babf
000001f0: 95ab 8313 c432 bebf af49 d00f c47f b1bf
00000200: 780e 4b3e cbcc a1bf ee52 2ff2 9dbf afbf
00000210: 7a49 34d1 19fa aa3f 737a b77c d9e6 943f
00000220: 1e18 867e 97c2 88bf 224b 957f 43b6 74bf
00000230: 3cfb c7ab d4a8 b6bf 01e3 b241 52b4 9cbf
00000240: af28 f989 349a b8bf c5cb fbcf 7794 bb3f
00000250: 1c1f 844a d517 c13f 845b 2f4f 283d bcbf
00000260: 1e01 d9c5 b0c3 953f 9f5d 8784 73c4 b1bf
00000270: f70c 689f 33d5 b63f 66ae 1bef 4d88 b63f
00000280: 8e8a bb58 dbaa b13f d65c cb5d a694 a73f
00000290: 7fbd ee19 dd29 b7bf e815 a184 830e 8d3f
000002a0: 4495 7777 2921 babf b0c0 da9e 2b21 bbbf
000002b0: 2704 db2f 8642 9abf b8a6 038b 71d4 bbbf
000002c0: e293 37b5 2117 c1bf 5c38 8020 3d76 9cbf
000002d0: 736f 6beb a417 843f 6210 ea09 cded bd3f
000002e0: 4d48 c5e7 ebf2 bb3f e939 9c1b cb55 c33f
000002f0: ed58 aacf 4df6 b93f eeaa abfb 5529 9fbf
00000300: d767 fc98 f78b a53f 83bf 9e21 d9ab 7bbf
00000310: eb07 d740 8008 c1bf 9b9e ea34 e9c7 99bf
00000320: 28a0 b315 f96f a93f 25a2 f246 f894 a8bf
00000330: 1e00 6651 4470 c2bf 7fe7 babd 2202 b23f
00000340: 6100 5493 00db 82bf 94d2 1278 b1c5 b4bf
00000350: 049b c15c 2781 afbf 23f2 35a5 9e6c aebf
00000360: c214 fb76 c61e bf3f a2be 6836 884c aabf
00000370: 1a4e 157b 3eb8 813f 5bb0 330d db08 b93f
00000380: 389b 84a1 67a4 a83f 9d90 c273 8030 b7bf
00000390: 2c8d 9ca1 6627 c33f 3218 0568 aa9d a3bf
000003a0: 826a 86c8 67c5 b63f b0c5 61a1 a493 9abf
000003b0: b2ae 2f4a e2a9 b13f 83fa c834 c8d1 b43f
000003c0: f81d 183c 564f b23f 9189 c5a7 1aa6 bcbf
000003d0: 71e4 3f11 6f5b b53f b9d4 fdb8 b4c2 aa3f
000003e0: 90a3 a885 bb35 a03f 583a 3b0f 258d a53f
000003f0: e02c ec25 c4b1 6dbf 1fc7 d9f8 f930 c0bf
00000400: fa4d 6497 7600 b5bf 51bb 2120 2bf2 9b3f
00000410: df7b 05c6 f0c5 b3bf 80cf 0d96 1f1a b0bf
00000420: 6bab 70d6 5ed0 b43f 17eb a7d3 f02d 7abf
00000430: b948 6a86 4d58 b03f 692e 66d7 c750 c13f
00000440: 21d8 8632 2211 a63f 1dd4 b43a ce6d b63f
00000450: 73f9 29cd 76b1 953f ad21 89c2 bfa1 b1bf
00000460: 2b62 92e8 6365 923f 4143 12ea d690 aebf
00000470: 8bfc 9c10 6941 aa3f 1e3c 5821 53ac a6bf
00000480: 17f4 e48d b484 b23f abab cfd1 7de9 97bf
00000490: 0970 ee8d 093f 94bf 9244 a512 618c bebf
000004a0: df7a 8811 df5c bc3f 12ab c486 182e b5bf
000004b0: df2e 3c88 ee03 c03f 223f e44b 61f5 90bf
000004c0: e6ab 553b f673 b0bf 1da5 2a1f 14f3 68bf
000004d0: 8890 82a3 40d4 97bf 59a5 872f 4bb3 98bf
000004e0: 4829 c91c 62d8 603f 9ecc 2986 617b aabf
000004f0: 0889 d8ee 474d a6bf 16d5 84a8 1718 98bf
00000500: 37d0 e5cf bfc7 90bf 214c 1b8f f8de 993f
00000510: dbbb dae2 2c65 b1bf d4a4 2091 31ee b13f
00000520: 76bf 11cd 4f2c a3bf 645d c8b4 2717 ba3f
00000530: 9c7c 1a74 8c38 bb3f 7fa6 151e 9a61 923f
00000540: 990b 445c 49c5 b9bf 627a 5975 e6fd bf3f
00000550: f3bb fe7b ad1e c2bf cf03 672e b466 bcbf
00000560: 9c0e 8a28 9658 9a3f b243 4eaf d42a ae3f
00000570: 9413 3bfd 325d bdbf 6d84 277d 5791 bebf
00000580: 33e0 7d73 274b 913f 489d e863 921a 74bf
00000590: b7d1 07f2 5e63 a13f 7a54 d8da 350d a9bf
000005a0: bb0f 9cb8 ef5f b53f b7ac 5878 0d89 b1bf
000005b0: d671 5eb3 a229 b13f 0ce6 1f59 0e8a 96bf
000005c0: 6bb1 6479 f4b8 a5bf 9e42 766c 144e c2bf
000005d0: 9e34 e95e 5ffd b5bf 617a 9dc2 d427 abbf
000005e0: 9bdf fc42 3212 973f 56a7 0396 7968 bfbf
000005f0: 0fb4 6289 d49c bb3f 7a5d 8653 c210 87bf
00000600: 23ed 9895 413d b6bf a258 d487 46e0 97bf
00000610: 3887 c750 6da3 b43f 1be6 e576 44d7 983f
00000620: d235 b42c 5d85 b1bf 3ea5 9845 f8fe b7bf
00000630: a243 46f2 ea1c be3f fdad bfba 7843 b6bf
00000640: 162d 4aef 7cd1 b53f 0ac7 e9b1 9bc9 acbf
00000650: 0fb2 608d ddcd 9e3f 52b2 c105 3801 b43f
00000660: 5404 ab90 708b a6bf 29e3 23fe e14b a73f
00000670: 7524 9bca e873 98bf 4660 815d ae8a bfbf
00000680: 0cb7 38f9 1668 a03f 9150 3f29 88cc 97bf
00000690: ead3 c763 d2a1 843f d9d1 51bd 820c bd3f
000006a0: f71b d387 d06d b33f 20fa 4e8d b7e5 a6bf
000006b0: 4429 1c53 02c7 a93f f6c0 80b8 1149 ba3f
000006c0: a47f ce21 1d2f b3bf 5783 e51a 267f a33f
000006d0: 3237 5fc5 df65 a7bf 9fd3 f157 e378 83bf
000006e0: f8b1 8e06 2083 85bf a429 8378 5315 81bf
000006f0: 96c2 920f f9c0 b23f 2ed2 eaa4 6a48 b4bf
00000700: dd88 428c 2542 b23f b8d6 3d0a ba92 a8bf
00000710: 750d bb70 f24d 883f 54da 69aa 06c9 a6bf
00000720: a7b5 61fd cdac 82bf 93cf 8322 cc64 843f
00000730: 29e0 ac39 1f48 5abf 0aa7 5fbc c58e abbf
00000740: 0099 404d 4428 c0bf e1ae 9d93 048f a43f
00000750: f67f 98be d57c a9bf 0369 8499 84e2 6abf
00000760: 219f 7bdc 8eee afbf 23b8 6a28 9917 c13f
00000770: 9421 2b31 8732 b6bf 7697 8b39 950d 61bf
00000780: 171e 3c5a b265 b93f 06b7 6563 e315 6bbf
00000790: bf81 dd64 3000 b4bf 5e3f f003 c211 98bf
000007a0: 8e0b 8ec0 a517 c03f 50e3 e32b 81bc aebf
000007b0: 9fe0 9bbf 3a72 9dbf b881 538f d119 9fbf
000007c0: 5976 83d2 0807 a3bf 03c4 42ab ef8e 7dbf
000007d0: cbf9 3123 b939 af3f bd10 eee4 586b b2bf
000007e0: 8d07 3c5d 1a21 b53f 2ec5 03b5 a134 84bf
000007f0: b89e 560e c70d a0bf a2c4 c0ca b657 983f
-0.11737706134971904 -0.024871399847942562 0.11630923876047343 0.08253688012901439 -0.0024007382498006033 -0.09715306399758265 0.033112946433152025 0.03723426474703336
0.11433407470296794 -0.0903540075419747 0.0384576897840985 -0.05689116924708487 0.05519594016363874 0.09229675586061163 -0.07415726352774123 0.015436429330308239
-0.1015727560723103 -0.07912267040252664 0.09392005300103842 0.13680290010688012 0.12558892211959902 0.025907284708944822 -0.003231738677378049 0.1326152384516461
0.05496339073574925 -0.02067897640024046 -0.015306591253966908 0.0729184474204306 -0.09926307637657841 -0.010587161545831614 -0.08477541733517456 -0.12394084718931163
-0.15817943538508836 0.03848757546453182 -0.03764661366450022 -0.0106848810040344 -0.07474412565785764 0.1284297029073432 0.10365363729313534 0.05365433179207225
0.06531914759802233 -0.08001821153509592 -0.05115841560040111 0.0808717479470797 0.03995438122842079 0.001659223669248008 -0.11373583107274168 0.06615603397176124
0.07446236591567877 0.03681250414149684 -0.001175618218079872 0.1193867480123358 0.0720635951850262 -0.10203253338374992 0.0388700239452152 -0.030995567266151616
-0.1480711158746225 0.04460438383170376 0.021421334701959477 0.11884361563829081 -0.076659169625775 -0.10347309928281719 -0.1179621265070366 -0.0683558024032098
-0.03476557860770141 -0.06200879651411194 0.05268936804545184 0.020411871182540908 -0.012089904354763144 -0.005056632676615521 -0.08851365274311446 -0.02803162122720249
-0.09610298508156022 0.10773419215892861 0.13353983057481222 -0.11030818875529574 0.021254312587417272 -0.06940385804715853 0.0891906990219019 0.08801734054184748
0.0690133182174952 0.04605598349524491 -0.09048253901595692 0.014187839016936502 -0.10206851164510505 -0.10597489002498395 -0.02564439456068981 -0.10871038097288988
-0.13351842258921837 -0.02779479513997561 0.009810722765386725 0.11690980426834721 0.10917543800795322 0.1510557064834324 0.10141455001789597 -0.030431121335747706
0.04208348982338322 -0.006755684060337222 -0.13307192960752387 -0.02517666230656222 0.049682411097649315 -0.04801154962598656 -0.14405111288579148 0.07034508831102747
-0.009206776138398877 -0.08114155942423401 -0.06153223998335558 -0.05942245260937209 0.1215633430939134 -0.05136514343427946 0.008652198916627763 0.09779137680351495
0.04812930914550012 -0.09058382822201101 0.14963992015064187 -0.038312268445722344 0.08894966741210378 -0.0259538386821469 0.06899847327411626 0.08132602013299998
0.07152308432716115 -0.11190954776751584 0.08342641993648826 0.05226673849294045 0.03165994650436865 0.042092474087998155 -0.0036248045938741397 -0.12649464274323294
-0.08203831859673719 0.027290986858527436 -0.07723908266551359 -0.0628986111967702 0.08130448088983903 -0.006391468743909077 0.06384739429111876 0.13527772920166406
0.04309946886807859 0.08761300023327619 0.021184784195150862 -0.06887434482007988 0.017964898176247395 -0.059698787758981194 0.0512802918224163 -0.044283483333963355
0.0723374220296623 -0.02335163682065981 -0.01977171829967975 -0.11932951646055504 0.11079210451178366 -0.08273461618652458 0.12511998798469556 -0.016561050660185768
-0.06426943729972798 -0.003045596409113073 -0.023270616512164582 -0.02412145116423878 0.0020563045748406596 -0.051722571971276596 -0.043558357149111215 -0.023529405270172075
-0.016386982978886713 0.02526462911084704 -0.06795006311834532 0.07004079621460174 -0.03744744661605541 0.10191581882133033 0.10633161387021278 0.01795044716474203
-0.10066660406668716 0.12496796002367597 -0.1415612082905394 -0.11094213612433566 0.025728555893251057 0.058920523070930556 -0.11470335657493386 -0.11940523915792918
0.01688825266271028 -0.004908153378472342 0.033961264652961835 -0.048928912128908444 0.08349512345381431 -0.06849750698227096 0.06704155806659826 -0.022011017026647692
-0.04242671949245643 -0.14300780578607414 -0.08589740817224586 -0.0530382621352501 0.02253035100804333 -0.12268791115243735 0.10786178926601074 -0.01126243417165428
-0.08687219526557448 -0.023316480675099734 0.08061869833138935 0.02425868011184749 -0.06844122258572519 -0.09373428057792396 0.11762874998954811 -0.08696703490539189
0.08522778360400127 -0.056225648372573 0.030082189325343175 0.07814359798948914 -0.044032590541527 0.0455008146981924 -0.023879659048166652 -0.12320985586973263
0.03204414169554867 -0.02324116470102006 0.010074275655805171 0.11347214815197705 0.07589438739806541 -0.04472135162312818 0.050346443791641465 0.10267744783846297
-0.0749376494918566 0.0380794437248883 -0.04569911274266615 -0.009507919427258758 -0.010504007530323087 -0.00834145747684973 0.07325703268248626 -0.07922998930264022
0.07132181810678469 -0.047994436025800835 0.011867422166125444 -0.04450245695345659 -0.009118661208243518 0.009957880786238415 -0.001604109281016628 -0.0538236420105261
-0.12622884533011103 0.04015363981201659 -0.04978054000480363 -0.003281840308898444 -0.06236692849580395 0.133532662138749 -0.08670849752809878 -0.002081672148380893
0.09920801833151703 -0.003306335561481857 -0.07812788450747286 -0.023505240908036178 0.12572166349499664 -0.06003192578095329 -0.02875606340873615 -0.030371927617012878
-0.037163043687297566 -0.007216392714483713 0.06098726801518558 -0.07195048894033369 0.08253636146767303 -0.009866011940604293 -0.03135511446026612 0.02377210247522455

encoder.hidden_ff.bias f8 [64]
00000000: 7ea3 8b73 f4fd 963f 5baf 06e3 0a5f 803f
00000010: 99d1 2741 f39f a43f 9faf b967 4bc1 8a3f
00000020: 4f80 2ca9 f390 a73f a914 eb07 ff9d a6bf
00000030: 5752 dbf0 1fbc 9e3f b9d2 63f4 043a bebf
00000040: 8b22 e30d c2fb a63f 662e 8bbe 2b89 913f
00000050: 4059 5002 1803 bdbf 8b94 97ff 2d9f c03f
00000060: e0f8 5db8 5397 a6bf 8f1e 38cc 78a3 a03f
00000070: fa78 fd6e ed92 babf e468 c27f d1d8 c43f
00000080: 665a 4522 66d4 a4bf 1956 82f1 d86f c0bf
00000090: bad6 a716 612f 8a3f 1dd7 24e1 ec66 ba3f
000000a0: 2167 940f 8a50 bbbf 6fcd e19b 44c0 b7bf
000000b0: 8c32 fadf a8d5 b63f 7b2f 791b 8893 a33f
000000c0: 6f3b 7a58 ef5a b13f 8275 228d a7bb acbf
000000d0: 73fc 5fcc cf1f c03f 4dd8 675d 737e b73f
000000e0: 36c1 edcc 719b afbf 5fb7 ec3e 4eb6 a93f
000000f0: 609b ede9 bd7f acbf 32c2 a630 aeae b3bf
00000100: cc28 6cb8 dab3 bb3f b607 529f 54ec b53f
00000110: 511d 71f6 9f49 b33f ccf7 1fc4 27ac 8b3f
00000120: 9922 4699 c8ac c5bf 07bc 6136 6e90 8abf
00000130: 2717 7bd2 1dc3 b73f 8ee3 666f 9898 8f3f
00000140: 2c7f c3ba ed8f 9fbf 318f a1db 2ad6 b1bf
00000150: 3d0e 7bd0 277b a2bf f8da 34f0 0859 aabf
00000160: 95a6 747d 85f4 b9bf 8dde bde9 e000 bcbf
00000170: d13e 167a 1f73 adbf 4da8 5876 44c0 b6bf
00000180: 0700 92af b215 8bbf eec6 7870 86c1 b33f
00000190: 830e 4d76 b589 bfbf fa5d 6998 66d0 a4bf
000001a0: 1870 6887 28ca a53f 307a 16ec 1d32 c3bf
000001b0: c4e9 5f51 6f49 b4bf 5854 1eb5 f20a a7bf
000001c0: dcb8 d89b 7e49 86bf 3ab0 28d6 9dc8 a53f
000001d0: 62e7 ff81 3cd8 653f 1c97 93d0 3fb1 b53f
000001e0: abae 592f 574c 9d3f 281e 54f8 57e9 7c3f
000001f0: 2d84 9f91 c6be 7d3f 8924 f768 32a4 c13f
0.02245313601716558 0.007993779233252665 0.040282823279912346 0.013063992598482175 0.046027769471266404 -0.04417416545542469 0.030014514041641096 -0.11807280508566977
0.044889511294575156 0.017124827866423685 -0.11332845741740005 0.1298577783592559 -0.04412328363012974 0.03249719136152606 -0.10380443534583952 0.16286677110912884
-0.040682975467167634 -0.1284133128398686 0.012785681251425419 0.10313301560094286 -0.10669768219341026 -0.09277752690996065 0.08919768779942155 0.03823495231026094
0.06779380712599246 -0.05611919019541302 0.12597081641431238 0.09177323370372044 -0.061732822671617546 0.0502190067112298 -0.055662092977221134 -0.07688416183260285
0.10821310999395733 0.08563736810358943 0.07534217611929718 0.013511953995472135 -0.1693354366691622 -0.01297079184970863 0.09282099140827126 0.015427771472660525
-0.030822481655263065 -0.06967418539130389 -0.03609585208826303 -0.05146053249557342 -0.10138735115892879 -0.10938840586265482 -0.05751894345587306 -0.08887126817049414
-0.013224979384403935 0.0771717094983406 -0.12319502008636544 -0.04065247164242787 0.0425579705517693 -0.14996694591259674 -0.0792455266636472 -0.04500540219229582
-0.010882367259082697 0.042546207802246674 0.0026665860932525856 0.0847358593196898 0.02861152864936282 0.007058471329635142 0.007262015971691444 0.1378233921553014

encoder.output_ff.weight f8 [1, 64]
00000000: 0000 0080 0eb7 b43f 0000 00c0 7159 b63f
00000010: 0000 0000 f529 b33f 0000 0000 be6f 85bf
00000020: 0000 0000 dce9 8e3f 0000 0080 96f8 b7bf
00000030: 0000 0000 8ea1 acbf 0000 0000 25fb b9bf
00000040: 0000 0000 635f a23f 0000 0000 68bc 673f
00000050: 0000 0000 6d40 95bf 0000 0000 56e5 803f
00000060: 0000 00c0 eaad bdbf 0000 0000 3a94 bb3f
00000070: 0000 0080 bab8 a1bf 0000 00c0 e0db b53f
00000080: 0000 00c0 6e2a b83f 0000 00c0 4272 b13f
00000090: 0000 0080 6bd3 bb3f 0000 0040 571a b2bf
000000a0: 0000 0000 5f5a 993f 0000 0000 6b55 973f
000000b0: 0000 0000 d118 a03f 0000 0000 ed81 ba3f
000000c0: 0000 0000 1c9d 8f3f 0000 0000 c40a 8abf
000000d0: 0000 0000 b4b5 723f 0000 00c0 7ac9 b33f
000000e0: 0000 00c0 a79c b1bf 0000 0000 fe4f b13f
000000f0: 0000 0080 686c a5bf 0000 0000 aa35 9f3f
00000100: 0000 0000 ab4a ba3f 0000 0000 de18 ab3f
00000110: 0000 00c0 a0c7 bc3f 0000 0080 fcf0 a8bf
00000120: 0000 0000 1d60 acbf 0000 0000 20db b5bf
00000130: 0000 0040 b201 b8bf 0000 0080 04b7 a6bf
00000140: 0000 0000 69a8 a53f 0000 0040 b0a4 babf
00000150: 0000 0000 183b bebf 0000 0000 2aae bbbf
00000160: 0000 0000 ec55 83bf 0000 00c0 e060 b23f
00000170: 0000 0000 8033 27bf 0000 0000 68c1 6c3f
00000180: 0000 0000 d051 ab3f 0000 0000 186b 8d3f
00000190: 0000 00c0 3d21 b73f 0000 0000 7436 9fbf
000001a0: 0000 0080 1c0c a3bf 0000 0000 a406 a2bf
000001b0: 0000 0000 e351 a23f 0000 0000 1ba0 bf3f
000001c0: 0000 0000 d210 9cbf 0000 0000 f5da b03f
000001d0: 0000 0080 2fda a5bf 0000 0080 1a85 abbf
000001e0: 0000 0080 a093 adbf 0000 0080 6097 bcbf
000001f0: 0000 0080 0d63 adbf 0000 0040 198c b33f
0.08091822266578674 0.0873023122549057 0.07485896348953247 -0.010467037558555603 0.015094488859176636 -0.0936369001865387 -0.0559200644493103 -0.10148841142654419
0.03588399291038513 0.0028974562883377075 -0.02075357735157013 0.008249923586845398 -0.11593501269817352 0.10773050785064697 -0.034612491726875305 0.08538632094860077
0.09439747035503387 0.06814973056316376 0.10869476199150085 -0.07071442902088165 0.024758800864219666 0.022786781191825867 0.03143933415412903 0.10354501008987427
0.015436381101608276 -0.012715846300125122 0.004567816853523254 0.07729308307170868 -0.06879661977291107 0.06762683391571045 -0.041842713952064514 0.03047814965248108
0.10270184278488159 0.05292409658432007 0.11242108047008514 -0.04871357977390289 -0.05542078614234924 -0.08537483215332031 -0.09377588331699371 -0.044365063309669495
0.04230049252510071 -0.10407544672489166 -0.11808919906616211 -0.10812628269195557 -0.009441226720809937 0.07179073989391327 -0.0001770108938217163 0.003510192036628723
0.05335855484008789 0.014364421367645264 0.09035097062587738 -0.030481159687042236 -0.03720177710056305 -0.03520691394805908 0.03578099608421326 0.12353676557540894
-0.027407914400100708 0.06584101915359497 -0.042680248618125916 -0.053749874234199524 -0.057766929268836975 -0.11168482899665833 -0.057396337389945984 0.07635648548603058

encoder.output_ff.bias f8 [1]
00000000: 0000 0080 a697 a03f
0.0324070006608963

decoder.input_ff.weight f8 [64, 1]
00000000: 0000 0040 0048 ec3f 0000 0040 4e3f ef3f
00000010: 0000 0000 6114 edbf 0000 0080 a4b1 d73f
00000020: 0000 0040 40f3 eb3f 0000 0000 41e1 efbf
00000030: 0000 0000 78d9 babf 0000 0080 e57b eebf
00000040: 0000 0080 2be6 ef3f 0000 0040 e08c e3bf
00000050: 0000 0000 a4ee ec3f 0000 0000 60c6 cc3f
00000060: 0000 0000 8413 acbf 0000 0000 3e17 c9bf
00000070: 0000 0000 5395 c9bf 0000 00c0 d8ee eabf
00000080: 0000 0080 4cc2 d13f 0000 0000 0c8e b2bf
00000090: 0000 00c0 5fea efbf 0000 0000 3521 d6bf
000000a0: 0000 0080 e1db eabf 0000 0000 10ff babf
000000b0: 0000 0080 21d6 d53f 0000 00c0 255e e63f
000000c0: 0000 0000 f788 cd3f 0000 0000 6fd3 c4bf
000000d0: 0000 0080 dc5d db3f 0000 0040 ec97 e6bf
000000e0: 0000 0040 533c e33f 0000 00c0 307c e13f
000000f0: 0000 00c0 8a34 e5bf 0000 0000 4f33 c13f
00000100: 0000 0080 89ce edbf 0000 0080 d34f d23f
00000110: 0000 0000 a2f8 c4bf 0000 00c0 d7ba e23f
00000120: 0000 0000 7f69 e8bf 0000 0080 6c86 eabf
00000130: 0000 0000 2ae6 e0bf 0000 00c0 8e78 e4bf
00000140: 0000 0000 9315 d53f 0000 0000 2b8d e4bf
00000150: 0000 0080 3613 e5bf 0000 0000 3d83 d1bf
00000160: 0000 0000 7bcb c83f 0000 0080 1de8 d23f
00000170: 0000 0080 221e e73f 0000 0040 3ca2 ea3f
00000180: 0000 0040 dc18 e3bf 0000 00c0 d9a3 eb3f
00000190: 0000 0000 828b bfbf 0000 0040 a974 ef3f
000001a0: 0000 0000 8774 d2bf 0000 0000 aeed d6bf
000001b0: 0000 0000 5807 a23f 0000 00c0 f864 ea3f
000001c0: 0000 0080 4b05 de3f 0000 0000 2f7d e4bf
000001d0: 0000 0080 b42d ea3f 0000 0080 5d64 d9bf
000001e0: 0000 0080 3172 d7bf 0000 0000 5a34 b2bf
000001f0: 0000 0000 abef d23f 0000 0080 8685 da3f
0.8837891817092896 0.9764777421951294 -0.9087376594543457 0.3702174425125122 0.8734437227249146 -0.9962468147277832 -0.10488080978393555 -0.9526240825653076
0.9968469142913818 -0.610946774482727 0.9041309356689453 0.22480392456054688 -0.054836392402648926 -0.19602179527282715 -0.19986951351165771 -0.8416560888290405
0.27748405933380127 -0.0724799633026123 -0.997360110282898 -0.3457767963409424 -0.8393409252166748 -0.1054544448852539 0.3411945104598999 0.6989926099777222
0.23074233531951904 -0.16270244121551514 0.4276038408279419 -0.7060452699661255 0.6011139154434204 0.5464099645614624 -0.6626638174057007 0.1343783140182495
-0.9314620494842529 0.28612220287323 -0.16383767127990723 0.5853079557418823 -0.7628779411315918 -0.828909158706665 -0.5280961990356445 -0.6397165060043335
0.32944178581237793 -0.6422324180603027 -0.6585953235626221 -0.2736351490020752 0.19370973110198975 0.2954171895980835 0.722428560256958 0.8323041200637817
-0.5967847108840942 0.8637512922286987 -0.1232224702835083 0.9829908609390259 -0.2883622646331787 -0.35825681686401367 0.03521227836608887 0.824825644493103
0.46907317638397217 -0.6402812004089355 0.8180792331695557 -0.396750807762146 -0.3663448095321655 -0.07111132144927979 0.29587817192077637 0.41439974308013916

decoder.input_ff.bias f8 [64]
00000000: 3364 285c c122 d83f cba9 e7bc 4f98 e1bf
00000010: 9f8b 4320 c105 c0bf ca2b 499c 5073 e33f
00000020: 4f7e e72c 5397 c3bf 61e5 c4f5 e357 e1bf
00000030: 43ef 5c7b 6229 96bf c386 bae8 da45 cb3f
00000040: 90b6 4249 e37f ecbf c5f9 c594 5632 e93f
00000050: 6055 cd30 2ec5 c2bf b784 18d2 2934 e8bf
00000060: a8b0 b6b1 6359 edbf 37d7 4b20 ce86 c3bf
00000070: 853d 819e 39f6 e63f cb9a f244 5def e0bf
00000080: 884c fcfa c35d d43f 9435 7c7e e8f9 c8bf
00000090: fa19 13bd 02f2 e4bf 75a5 7b94 d8bb d63f
000000a0: 1b66 6b76 daed e8bf 3e50 2386 ce32 a63f
000000b0: e240 7fb0 c591 ea3f 3bcc b7c8 146b a1bf
000000c0: 6b32 aa8b b087 e23f 0e2d c529 dbdc e9bf
000000d0: d10f 5311 82c7 e43f 5499 b5cb e2fc e4bf
000000e0: 7ca0 59f9 9cc5 c3bf 2d79 8d63 9945 eebf
000000f0: 727d d8c2 304d ebbf c3c6 a03e 4fa7 bdbf
00000100: 95f6 25e8 2a50 edbf 3831 e3b7 0dd6 edbf
00000110: eaaa 545c 28a0 eebf 20ac 64ff aa6e dabf
00000120: 745f 4192 6e2a ea3f d2ca 6bc9 1ed0 e0bf
00000130: bbf9 8a6c f0ca e3bf 8021 62b8 eae6 e43f
00000140: 7bfa 32d9 d4ac ec3f 8583 2c76 6969 c0bf
00000150: 9e12 3ff1 f323 cc3f a8df 5ce7 c88b 9f3f
00000160: d2e7 e962 289e e73f 3097 747f ae1c eabf
00000170: 9627 0bb2 3e86 e5bf 5c41 461a 0c90 d73f
00000180: 668e f604 8958 e3bf 00c9 627e 8a20 d2bf
00000190: c24e 9dd0 7f34 d33f bcb9 4231 e61e eb3f
000001a0: 7ab7 cbd8 c79d dfbf 6540 f81e c862 e6bf
000001b0: 0502 3d73 03e1 d93f b4fd 4519 9df7 e53f
000001c0: f53b 897d 3621 b6bf b768 f5cd c6d4 d33f
000001d0: 47aa 3c07 e575 e63f e5ba 5171 c2c7 b0bf
000001e0: f129 e0f2 00e9 ee3f 86f4 662b 50c8 d53f
000001f0: 3231 363b 5710 903f a66e dd79 8ba0 c1bf
0.37712129592688654 -0.5498427094983581 -0.12517561030753385 0.607826524015189 -0.15305556957808839 -0.5419788170030807 -0.0216422450823608 0.2130693088884553
-0.8906113081809099 0.7873948007325501 -0.14664246924318558 -0.7563675979073626 -0.9171617957085987 -0.15255142762151205 0.7175567718312982 -0.5292192789682643
0.3182229949026767 -0.19512659240755836 -0.6545423214782311 0.35521521091739966 -0.7790348351365454 0.043356374620686186 0.830294460984103 -0.03402008962793742
0.5790636756733653 -0.8082099738907418 0.649354013287388 -0.6558698633860254 -0.15446817565248583 -0.9459959930789289 -0.8531726651744249 -0.11583419112209996
-0.9160360845705379 -0.9323795882751602 -0.95705049546572 -0.4130046361994477 0.8176796776342443 -0.525405305290713 -0.6185228462198248 0.653188095210723
0.8960975877924534 -0.12821691770752977 0.2198471954308347 0.03080667411924734 0.7380563671024396 -0.8160011758197694 -0.6726373174108058 0.3681669479929235
-0.6045575234351872 -0.2832361444699387 0.3000793015719233 0.8475218736764911 -0.4940051667352844 -0.6995583157422628 0.4043587327360288 0.6864762776967184
-0.08644428791852461 0.3098618518175828 0.7018914357516416 -0.06554808870871971 0.9659428352036327 0.34035114515774756 0.01568733500384773 -0.13771193933904619

decoder.hidden_ff.weight f8 [64, 64]
00000000: ef99 2db4 ab7a 703f e566 d830 2291 b8bf
00000010: ac15 de44 8453 babf 86e2 cc60 8786 b5bf
00000020: bc01 146e 4d7a 9a3f 13be 1b06 980e b23f
00000030: cfd9 eef3 f340 a3bf 48e6 29f3 0dde a4bf
00000040: 5f9b 928b 9ef6 b6bf 7e62 4134 f0a3 b7bf
00000050: 3e8e 4529 be5e 72bf ca84 0cd3 56f4 b83f
00000060: 6019 c853 644b b43f 0c88 8029 d20e b3bf
00000070: ac90 4ba6 75cd b83f cc0c 142c ba7a b13f
00000080: deb0 9ab9 ca26 883f 605a 2f75 1ccc c1bf
00000090: b388 6df7 2059 bebf b052 3e42 6fb8 973f
000000a0: f7bb 02d9 1686 babf c463 29f4 2017 bd3f
000000b0: 7b36 8e3d 9410 b6bf a44d 4406 e27b b4bf
000000c0: e3bd 9053 101c a13f 4b86 4bd0 6320 b53f
000000d0: 7950 92f7 427c c43f 24bb c1c3 84af b7bf
000000e0: 577b cde2 b36c b2bf 8967 72c7 e135 b33f
000000f0: 982f 888c ae49 b8bf def6 ef84 4547 babf
00000100: 6abb a770 2525 b43f 8a72 74be 966f bc3f
00000110: f641 0a23 4067 b93f 4c39 fd3d ce99 953f
00000120: 885b 58b2 dade b83f 790c 11e0 fb67 a5bf
00000130: 6e34 c38c 751c a73f d5be 7f23 f5c5 aebf
00000140: 9f8f c245 e8c8 8ebf 9ff3 16b7 b1a0 b3bf
00000150: c0c4 1d07 a1a7 c0bf b66f 49ed 06b9 afbf
00000160: 30f3 ec83 24db b33f cad6 db87 f12a babf
00000170: 7d90 de09 df58 b7bf 6aa3 99b9 29f5 963f
00000180: 0132 c195 60fc 533f 5f07 1d1c ecf8 af3f
00000190: 3575 18a1 db4f a6bf f8fd 2118 7d6b b43f
000001a0: b07a 7312 1878 9ebf cc30 db9d d49c 98bf
000001b0: 530e 192d ffdb b6bf ef54 8d72 548f bd3f
000001c0: 3d04 9433 48a4 adbf 9751 33c6 1bd2 ad3f
000001d0: 6b1a b781 43e9 91bf 1b53 92de e073 ab3f
000001e0: bb30 155d 53fa aabf 7e11 3ce2 7e20 b0bf
000001f0: 7fde 62ea 40da 92bf ca25 c07b cece 88bf
00000200: 6707 4cd0 793b a03f f6d6 5552 b324 b83f
00000210: ac41 0cc4 ad5e a53f b3d5 853a 6177 a03f
00000220: 5be6 bce5 68d3 a53f d63d c2bf 4e8c c0bf
00000230: 6aa5 69c1 4b34 72bf 60d2 c2dc f6ce 993f
00000240: 80e7 08a1 3c19 9a3f f6b9 0776 7165 c03f
00000250: bff7 98cc 48f6 99bf 65f2 1ab5 27dc bdbf
00000260: 4784 5431 b006 a63f 3bb7 4385 fdbb b43f
00000270: 3a15 65bb 456c c9bf 159e 1c7e 8910 6e3f
00000280: 972d 0100 1ffe ae3f 58bc 6e7a 75c6 b2bf
00000290: ca57 5f85 1bd7 9fbf 4c49 3f1f e08e b0bf
000002a0: 787a ed64 56a3 c23f 0bcc 8f02 d039 a03f
000002b0: 0032 e6f4 510e 983f acfc a5d7 2caa bfbf
000002c0: 3a4e 4a19 b63b 6a3f 6708 2349 24c1 b3bf
000002d0: 2562 8537 d096 afbf 2dc7 4f0d 9a05 bcbf
000002e0: 694e 80c8 98bf b63f e2e2 6d8f b3f5 babf
000002f0: fb69 2f73 1b18 b2bf fdb8 26e1 99eb c1bf
00000300: 156f 15ba 29a0 b93f 0429 d595 f0eb babf
00000310: 9c56 d5c3 9a96 c1bf af21 a3bd bc8f bbbf
00000320: c62b 5f8a 37fd 61bf 0f75 4333 3937 b5bf
00000330: f869 2b0a 1b30 a43f 87d2 baa7 9cb4 b0bf
00000340: c19a 289c c29d 393f 4636 ca6b 6f44 623f
00000350: 3117 5ee7 010f a73f 0e80 f97c 8c01 be3f
00000360: f125 b0fc 8388 8abf 0d56 31c2 5c3e b03f
00000370: 1cae 2675 f220 983f bdbc bb5b 3adf b63f
00000380: 01d9 fbd9 179b 80bf 8d73 d92d 59c7 c4bf
00000390: b1bd 85f1 43b2 b53f 1590 c563 735e c13f
000003a0: 7249 fdbc 39e4 9fbf 3e0c d8a9 b4aa adbf
000003b0: 12a8 6ae8 06d6 963f 8ee6 8c0d 106f c13f
000003c0: c479 140f 9a0d b5bf 5972 744a b33e c6bf
000003d0: b143 102b 8ad4 afbf 42d3 88d9 8df8 973f
000003e0: c913 ba8e 4421 b33f 4404 860b 0dff 9bbf
000003f0: 69aa 3d20 4d55 8dbf 728b 0e8e dc40 b13f
00000400: b423 8814 3519 b4bf b528 1d53 a88b c1bf
00000410: ad35 c5bf 666f ae3f ab91 68aa f2d3 753f
00000420: 0c62 9847 6755 c0bf 9eca 54aa 38ca a8bf
00000430: 80c8 3792 a1a1 843f 7528 9d0d b02e 913f
00000440: 13a1 0566 b6d3 b33f d168 02fa 6396 a43f
00000450: fc88 e648 e3e8 a0bf 4f7c 3ef5 994e b5bf
00000460: 019c fd77 c874 be3f 8382 1034 d3e1 babf
00000470: 5e25 29a0 136c acbf 4ae0 bc85 6a44 ba3f
00000480: d58b 5604 d72a b33f 1bd3 936a 9496 b9bf
00000490: 3952 62de 0165 82bf e9cd 8c86 d604 c53f
000004a0: f929 e23a cb75 bb3f ebc8 7cd9 b5ca cc3f
000004b0: 8aa4 8ba7 e682 b13f 3dcf 3316 dfa8 aabf
000004c0: 3fad d6dc f42b a43f 6caf 852d 82ec b3bf
000004d0: 0635 e650 bd14 c93f f60c f105 fd1e acbf
000004e0: 9d54 afe4 870d c1bf f07b 5589 59ba b63f
000004f0: 45bc 0bae 2369 89bf 772e 1bd6 5d89 973f
00000500: 1e77 be9f d86b bbbf b1e7 cc6a 9299 b23f
00000510: 0904 f70b da0a b7bf 0e4f 1ce5 693b b9bf
00000520: d734 0307 6da4 a5bf 4dd1 0fb1 723a b83f
00000530: 7420 4501 5c31 bcbf a0f1 0476 008a b13f
00000540: 5873 f06f 5b4a adbf 7c48 944e 5c6a b0bf
00000550: eb93 dd18 2bf3 9fbf 762e bae1 e08b a83f
00000560: a230 a51c ea52 b23f 1855 7abb 2a21 b7bf
00000570: f2b3 27b6 9b1b b23f d3e1 6698 fb66 b03f
00000580: 4f2a c61f 46e6 78bf 35b3 e452 c57e 8c3f
00000590: 6672 b12c ea92 b43f 244e 94aa 871b b6bf
000005a0: 6c7b 48fc e686 bfbf 6c29 58ad 24f3 bbbf
000005b0: 73f4 e29f d502 8cbf ec13 ba50 cab4 bdbf
000005c0: 2512 e421 9b65 a5bf b560 7ee9 a04f b2bf
000005d0: 2f1d 86e8 5fa7 b5bf 9103 3bfb 2517 c03f
000005e0: b130 3aaf 9f68 85bf f219 a8b7 4aa8 a0bf
000005f0: 04d0 2aa7 7374 923f 0664 0d37 d6cf bcbf
00000600: 04e5 ac42 1372 b03f 7388 dcb8 9158 b13f
00000610: ba9a 23e9 aa7b a5bf 1103 3161 fbd7 bd3f
00000620: 2a9b 7074 cfd8 b2bf 1cff 50c1 54d8 9a3f
00000630: e7dd 86da b06b b93f 8f0a bf8f 30e1 9cbf
00000640: 00db b273 dea5 bebf abad 751f 2764 be3f
00000650: 64e2 14d2 5728 89bf 608b ce7c 41e3 b33f
00000660: f110 2f94 8551 b5bf 5fca ab5e 4ab1 acbf
00000670: 19e2 0938 94fa ad3f ff3d ccac 27c3 b5bf
00000680: be06 7fd0 2cc9 c0bf afcc a37d 2196 a4bf
00000690: 489f 250a a0cb b63f 4852 ef6d 3043 8abf
000006a0: d668 a63e df5c bb3f 3994 c813 c87c b33f
000006b0: 618c 05a9 4829 a93f 65ba 290f eb0f c0bf
000006c0: 2a6f 45fa bece adbf 563b 3796 03e7 903f
000006d0: 06a2 b34c 0efb 64bf 93dc bfd2 4856 babf
000006e0: 65e7 951b 36c9 c03f b5e4 5a35 7090 a13f
000006f0: b5ab 92cd 7615 b53f 38bb b08f ad94 bd3f
00000700: e39b c7a8 9ddc 8dbf fb60 2a87 f2ff a5bf
00000710: 5da0 1a7c 31e7 b73f 90fc fa79 b635 99bf
00000720: 6bd9 302e db9e b83f 863f e7fe 53b7 afbf
00000730: 4859 fdb6 6163 743f 3b85 c404 131a c0bf
00000740: eebf 258f 25ff b13f e2c7 5ffd 7f2c 4e3f
00000750: b449 bffc 720c a2bf 3d5b f7bb 7333 b5bf
00000760: 2c96 98e0 0190 a63f 6e68 001b 4b1b c13f
00000770: 7456 d286 c148 babf 5bc9 ee34 ba9a a33f
00000780: cfca 1a71 61e0 bbbf 8fb7 cc36 3e2f 87bf
00000790: 9c0f 0a10 1971 963f 105f 6bef 2596 79bf
000007a0: 6898 e176 88fd 893f a85a 4d9f d25b c03f
000007b0: 10d9 a49b b852 a0bf 16df 1803 4fe5 bb3f
000007c0: 7bee 8a96 8eaf a4bf 2ee0 0147 5315 acbf
000007d0: 2c69 5ef1 dddd b83f 6560 99a1 dd9e a33f
000007e0: b88f 7dc1 42b4 b5bf 8570 0894 ab55 bfbf
000007f0: 5b93 06f7 0c9c adbf 9ba4 d635 00c9 a03f
0.0040232379131794746 -0.09596456234467217 -0.10283686333976644 -0.08408399689950316 0.02585717186320989 0.07053518437509636 -0.03760492661188019 -0.04075664132410545
-0.0897006121400472 -0.09234524989859413 -0.0044848850414812 0.09747831966935219 0.07927538915109755 -0.07444489968523288 0.09688506421986415 0.0682789189923369
0.011792739667122406 -0.1390414783661127 -0.11854749718398487 0.023164499681643747 -0.1036085395632965 0.11363416634539109 -0.08619047644443782 -0.08001530316351207
0.03341723461232584 0.08252548060729585 0.16004216278509256 -0.0925219514772207 -0.07197117125677487 0.07504092330273528 -0.0948742955299039 -0.10265001769581825
0.07869180679675272 0.11107771062638441 0.09923172812910494 0.021094534429090303 0.09715048650865132 -0.04180895910442301 0.04513900130550828 -0.0601040464242694
-0.015031637791544315 -0.07667074890100743 -0.13011563155627037 -0.061958519426041844 0.07756260128821846 -0.10221776549209519 -0.09119981757118185 0.022419597581037655
0.0012198394024550698 0.062446001464663274 -0.04357801763056061 0.07976514662913547 -0.02975499737373849 -0.024035761008051534 -0.08929438448927245 0.11546829029733251
-0.057893997474828464 0.05824362558783774 -0.017491392891111717 0.05361845700205078 -0.052691083061831866 -0.06299584410959899 -0.018410696321295546 -0.012113202239578142
0.03170376460731355 0.09431000480784832 0.041737966710687274 0.032160795587440026 0.042628553432632464 -0.12928184855671415 -0.004444404525750437 0.02520356867235518
0.025486895874770266 0.1280958010024304 -0.025353562820093375 -0.11664055034175076 0.04301977731871225 0.08099350455787839 -0.19861671114100848 0.0036699948695007125
0.06053254008346725 -0.0733407424838658 -0.031094007506758982 -0.06468010676261321 0.14560966423137578 0.03169107466955986 0.02349212701078507 -0.1236904169545478
0.003202300702761976 -0.07716585908477357 -0.06169748952624258 -0.10946047615996397 0.08886103529976598 -0.10531160594645031 -0.07068034708155572 -0.14000247472490193
0.10010014336642954 -0.10516265543006759 -0.13740858614135198 -0.10766200666251423 -0.0021959385657956713 -0.08287389279890454 0.03942951678410006 -0.06525591940846641
0.00039087296696253484 0.0022298980896440527 0.04503637265501793 0.11721113253724999 -0.012955695294311705 0.06345157376321016 0.023563183212600078 0.08934368838866909
-0.008108316745602641 -0.1623336290239447 0.08475136419814679 0.13569490787188046 -0.031144048843381573 -0.05794300626077885 0.02230082315023913 0.13620186483040125
-0.08223879688419006 -0.1737884629773301 -0.06216842437436954 0.023409096147776205 0.07472637638609493 -0.027340129688586026 -0.014322855516828175 0.06739595859703032
-0.07850963355316659 -0.1370745092229463 0.05944367495485934 0.005329082405783596 -0.12760630603658318 -0.04841782645452962 0.01007391192885998 0.01677966197102206
0.077449226291382 0.040209888714530025 -0.0330267931451704 -0.08323061215786363 0.11896946839770807 -0.10500831624131916 -0.05551205949866288 0.10260644688685364
0.07487243514928761 -0.0999539146612957 -0.008981718634722845 0.16421014375519796 0.10726614177307416 0.22493622893814033 0.06840364065614515 -0.05206963678383978
0.03939786144050083 -0.07782758342153578 0.1959454197898724 -0.05492392251519533 -0.13322542825941222 0.08878097155455555 -0.012407568692166868 0.022984949296001447
-0.10711435222625851 0.07265582187110799 -0.09000933448898264 -0.09856283038635302 -0.042270094972630616 0.09464184592053933 -0.11012816458708291 0.06851199036913735
-0.05720792523809476 -0.06412293356359727 -0.031201051132843032 0.04794218783817154 0.07157767485949987 -0.0903498370847341 0.07073376843591442 0.0640713927340422
-0.006078981325468093 0.01391367110462625 0.08036674109593775 -0.08635757364782443 -0.12315219554191764 -0.10917882186928346 -0.013677281324243595 -0.11603989096518291
-0.04179081715304659 -0.07152753544358144 -0.08458518435337646 0.1257064320289172 -0.0104534602499132 -0.03253396503355423 0.018022353246763614 -0.11254633754778362
0.06424064996544493 0.06775770915240446 -0.04195913406311065 0.11657687304342469 -0.07362076370973783 0.026215862559410316 0.09929948172690893 -0.02820278050763619
-0.11971845936464476 0.11871571081217407 -0.012283979510003103 0.07768639847794878 -0.08327517383355933 -0.05604011922504947 0.05855239090027826 -0.08500907868096162
-0.13113937550047255 -0.04020790728272893 0.08904457328537518 -0.012823465685792304 0.10688586501638339 0.07612276537891284 0.04914309561970565 -0.12548578491574172
-0.05821797185009665 0.016506248515550347 -0.0025611190118193265 -0.10287909646273112 0.13114048335028908 0.034305101883953006 0.0823587657820742 0.11554989584031439
-0.014580947602508892 -0.04296834850282668 0.0933714797962479 -0.024618960566610115 0.09617395284371859 -0.06194555746662815 0.0049775902733329505 -0.1257957242278652
0.07029947991190941 0.000920832152358605 -0.035251229622775965 -0.08281634654063637 0.04406743876124283 0.13364542787968808 -0.10267266789954893 0.038289851151960895
-0.10889252673477333 -0.011320577666619673 0.021915809253655646 -0.006246708092213074 0.012690607192961958 0.12780220774103168 -0.031881112098220865 0.10896772218336212
-0.04040189349822484 -0.05485019914425525 0.09713542120735913 0.03832142446179957 -0.08478181098831683 -0.12240097393118006 -0.057831196932318384 0.03278351456840164

decoder.hidden_ff.bias f8 [64]
00000000: ad6e 5e8f 0615 bfbf fdb1 c218 b42c b13f
00000010: a516 8740 387f bcbf 53ba 92c4 813c aa3f
00000020: c2f1 3b67 8916 9ebf 5cd5 d8d1 2b2f b63f
00000030: ed9d 6baf 3800 c0bf c3f2 8aae cb8f b6bf
00000040: b8b3 15ca 639e babf 569b 5f4c 0a38 ae3f
00000050: bbaa 9a61 e99c bcbf 0cb2 77de 7c5f ac3f
00000060: 6a0c 6b1b dbd8 a3bf de51 687f 46e3 ba3f
00000070: 100a fba5 d0e4 c1bf 7fd7 9467 b4f1 b0bf
00000080: 6332 f1ab 5c54 b83f 1f58 c3e7 3ff6 87bf
00000090: d8a2 3151 0a77 a4bf f194 ee91 5411 b83f
000000a0: c6ce a40c 6185 b13f 3650 2386 139c a13f
000000b0: 0109 fa03 91f9 b13f 4dcc b748 382e aabf
000000c0: e161 7315 0d49 85bf 622c ad63 0f52 ab3f
000000d0: fffc 3095 f145 a93f b3ca ac1d 7d35 babf
000000e0: 46be 4c0d 3fcf b53f 44cb 6bdc b631 b4bf
000000f0: ac23 7852 9c3a ad3f cb8c 41fd 6bd1 a1bf
00000100: 4598 a07d 4bfc a93f ff10 337e 49f8 a2bf
00000110: aa55 a562 2565 bebf 954f 6d02 ce84 bd3f
00000120: 50fc 0ad2 7f26 b63f 5f55 792d 5b33 98bf
00000130: a39b afc8 9b8c a6bf 3d18 2286 e2fa a43f
00000140: a24e 5f26 e865 973f 84e3 9b4e 776d 923f
00000150: a512 3ff1 80ab c03f bd37 d7b9 cea1 bd3f
00000160: f861 58b4 e4a1 c1bf fc45 5b44 40ed bc3f
00000170: 1bf2 c982 761b 8fbf 660a 3252 88a7 a63f
00000180: e52b 2e61 cf65 983f 80dc 74c6 b617 b53f
00000190: d68d 157b 8c48 acbf 45d0 158a b3e7 bc3f
000001a0: c021 d15c 87cf b73f 0cf9 7b10 d8d5 a33f
000001b0: 5ef8 0bb3 f57f bcbf 5010 d0b5 4b36 b8bf
000001c0: 07c4 7642 fdfc b33f 7dbb 5410 9fe7 a5bf
000001d0: a959 358c ba71 a0bf 2b45 aece fb8c b53f
000001e0: c34d 0157 4035 b23f 4146 6fb6 1082 973f
000001f0: 3ce7 6462 d7e0 a0bf e8b9 75e7 923e a3bf
-0.1214145755788489 0.06708837131981933 -0.11131621909506835 0.05124288105559018 -0.029382845807946152 0.08665727494447623 -0.12500675740669412 -0.08813164721773163
-0.10397933658323566 0.059021303008015266 -0.11176928170122384 0.05541601386707748 -0.03876385411924661 0.10503044710669182 -0.1397953806354768 -0.06618812111704918
0.09503726194197663 -0.011700152645442384 -0.039970705424655584 0.09401444018165585 0.06844145353971517 0.03439389240671213 0.07021433207595253 -0.05113387954397606
-0.010393240182040965 0.05336044399026531 0.04936175295051192 -0.10237867331015131 0.0851935775251543 -0.0788835800301913 0.05708778864579442 -0.03480088678841183
0.05075298222099937 -0.03705053010483716 -0.11873086603494323 0.11530768927815267 0.08652495267868798 -0.023633408213148296 -0.04404150795726671 0.04097659957282971
0.02284968122678655 0.01799570481577774 0.13023387698753655 0.11575023686529469 -0.13775309377594147 0.11299516362057455 -0.015189100138052905 0.044246921571375705
0.023825874620836535 0.08239309640053882 -0.05524100306027051 0.11291048165532043 0.09301038757360569 0.03874087525581346 -0.1113275110364795 -0.09457848728931251
0.07807906029371746 -0.042782755607155366 -0.032117681136401295 0.08418248935619903 0.07112505077502988 0.022957097182205514 -0.03296540332890038 -0.03758677554548112

decoder.output_ff.weight f8 [1, 64]
00000000: a3a6 f85a 3b5c a33f a4ed 926f 62e0 29bf
00000010: b182 0c7b 3666 b73f e1ab 9c9a c907 b8bf
00000020: 64eb c978 75e9 aebf 54c4 b728 4ff5 bc3f
00000030: 80a0 ec61 87ab 9cbf eb26 b786 4292 b2bf
00000040: 6418 6ed2 f043 b83f b502 20e1 16d0 ac3f
00000050: 1247 e166 1fcc b2bf eec2 217f cc8c bb3f
00000060: 1397 c6a0 1bf4 bd3f 4dab 323a 4e8a b13f
00000070: 966d 3e95 3d38 2d3f a100 dea0 8257 a93f
00000080: e777 9599 3971 b2bf 2d03 bee1 06f2 b1bf
00000090: a97c 67eb 0bd2 a23f 41dc 5e9b f449 ac3f
000000a0: 03c9 8b2c f03b aabf b44f 5646 eb6f 933f
000000b0: ea91 2cdf 92fa a43f 3553 49b0 cfab a9bf
000000c0: 4ab5 0f6b a337 b0bf 6ba8 b981 a9ed 94bf
000000d0: 6321 e2e9 eb06 50bf a976 bff2 186d a0bf
000000e0: 129b 4a72 6420 b8bf 3afe 75b4 11ee b4bf
000000f0: e8df 75a2 3acf b1bf 1237 95aa 4d69 b4bf
00000100: c955 f3f2 e8ec b1bf 5ce6 8842 ebaa adbf
00000110: a3c1 fc28 6061 9dbf a5bd 5aa1 bfaa 9cbf
00000120: 6ede 03ed 0634 923f 780e 7e0a af91 a43f
00000130: 30ca fa8c 9280 a6bf c549 94d0 87d9 8ebf
00000140: aa66 3302 14fb a0bf d1e1 3ded 465e 7fbf
00000150: d9aa 87f7 c894 ae3f 195a 5c45 10a7 99bf
00000160: a691 d89a a91c aa3f c9ec 0d5f dfdf b1bf
00000170: 9adb 8fc5 7970 adbf 36e3 7b30 35e8 a53f
00000180: 2b02 2470 4fbd a93f 9007 4ac5 e105 7e3f
00000190: fdb1 f7ff 439f a83f 2bbf 3e41 357a 9c3f
000001a0: f4d1 c07f 5bc4 773f 042c f581 32a6 963f
000001b0: be5c 05bd ec8b b7bf d43a 9f43 afd1 a5bf
000001c0: da4a 0f1c d275 ab3f f623 131e 6cde a13f
000001d0: fd25 d9ab bfa0 b2bf 5fe4 7b13 2d2b b23f
000001e0: 8854 b2c0 e4f4 af3f f3d4 5a7e 7f18 adbf
000001f0: 125b 6f15 73a0 b0bf fc46 c47b f4b2 4fbf
0.03781304822434819 -0.0001974220429355858 0.09140339378474029 -0.09386882805544829 -0.060374899859161585 0.11311812156761053 -0.027998080589128893 -0.07254424847556222
0.09478669297649983 0.056275095921596664 -0.07342716466635249 0.10761716941648178 0.1170060412901786 0.06851662560317813 0.0002229285406628422 0.04949577535353567
-0.07204017638784387 -0.07009928714070375 0.03675877808176981 0.05525173565495623 -0.05123854202055791 0.01898162476352612 0.04097422575276595 -0.050138941068019006
-0.06334897388270125 -0.020437859099196858 -0.0009782127231422126 -0.032082347519218964 -0.09424426832502444 -0.08175764709266611 -0.0695683142311051 -0.07973180212612999
-0.07002120906266564 -0.05794463336173969 -0.02869177103201682 -0.02799510404900975 0.017776592460874978 0.04017397883492618 -0.043949680051259654 -0.015063344052156044
-0.03316557432999663 -0.007658268983384579 0.05972888967138141 -0.02505135939926548 0.05099992766580223 -0.06982227392829822 -0.05749874626774627 0.04278722969860953
0.05027244800476568 0.007329828182834577 0.04809010028461456 0.027809936625714442 0.005802495401486574 0.022118367368687344 -0.0919788323857231 -0.04261539173568499
0.05363327591444085 0.034900072737919105 -0.07276533074868748 0.07097131467516381 0.06241526462796637 -0.05682753007332932 -0.06494826577487015 -0.0009673780218994728

decoder.output_ff.bias f8 [1]
00000000: 75af 96cc 8e77 9cbf
-0.027799826848123616
