saved_model/Lorentz_encdec/best_train.pt (torch, 73409 bytes, 12 tensors)

encoder.input_ff.weight f8 [64, 1]
000000 db 17 5d fc a5 11 db bf bd a6 fc 54 0b 02 d3 bf
       -0.4229521717537616 -0.29699977206710654
000010 d4 08 5d 5e cd 4b e6 bf d7 98 07 d1 3e fa d5 bf
       -0.6967532008204906 -0.34339876568846023
000020 50 58 35 aa 75 a3 dc bf e1 3f d8 e2 a1 41 e6 bf
       -0.44747678396141044 -0.6955117636261968
000030 a8 b4 82 5a 31 9f dc 3f 0d 92 95 b3 e2 8f da bf
       0.4472163566486622 -0.41503207719350216
000040 ce f4 47 ee 05 6b c2 3f b6 07 03 36 88 b8 d2 3f
       0.14389108786409682 0.29251294397920036
000050 ef 52 53 da 1c 51 ed bf 47 7a e3 47 29 17 d2 bf
       -0.9161514534158338 -0.2826636507069548
000060 a5 86 7f c9 33 a2 d2 bf 29 b7 0a 42 c1 30 d5 bf
       -0.2911500423198084 -0.3311007637920392
000070 99 50 71 11 28 8e b9 3f 4a 2c 2f 65 87 13 c7 3f
       0.0998253862938462 0.18028347435606157
000080 bb b2 7e ec c3 11 ec 3f ca 34 b2 f1 af 51 ce bf
       0.8771686190644553 -0.23686789800232183
000090 1c 6e 52 11 01 16 ac bf de 7a f0 ec a2 b3 ce 3f
       -0.054855378498555235 0.2398570687227765
0000a0 12 89 6c 1a 9d 14 eb 3f 90 3d 0d 77 f8 11 e5 3f
       0.846266318902311 0.6584436726788443
0000b0 02 ae 9b 8b b1 da e4 3f 40 54 d9 0c 81 8d e3 3f
       0.6516959883423967 0.6110234499889273
0000c0 44 95 07 20 f3 c5 b0 bf 68 89 2e 01 32 f7 b9 3f
       -0.06552047283147028 0.10142815140583183
0000d0 a3 f6 50 55 0b 21 e8 bf cf cb 69 26 11 9f db bf
       -0.7540337244351644 -0.43158367873473663
0000e0 8f 04 cf 46 7f 1d e9 bf fd 89 cf 62 b5 33 d3 3f
       -0.784850729273005 0.30003103875620224
0000f0 5a 24 b3 1c e5 f4 a1 3f cc dc 16 03 d5 58 c5 bf
       0.03507152533854514 -0.1667734398922448
000100 21 0a a0 6d 7a a7 ac 3f b8 38 cf 24 e1 cf ec bf
       0.0559652575320977 -0.9003759116110563
000110 93 01 4f c6 ef 31 eb 3f fa 89 77 e1 9a b9 d1 bf
       0.8498457787718955 -0.27695343034989117
000120 e2 87 1b c2 13 3f e6 3f 3e 31 5e 1e 50 fc e7 3f
       0.6951998511469777 0.7495499222873503
000130 2f 19 ad b2 f9 1c e1 3f b0 a4 4e 0c 81 25 ec 3f
       0.5347870340126856 0.8795781364798554
000140 6e 53 4f e8 c0 4e e2 bf d3 d2 25 7c 7a b9 c9 3f
       -0.5721134698202215 0.20097285329725043
000150 d4 b0 42 59 fa 0f c6 3f bd ea 6b 67 34 6f cf 3f
       0.172362607559427 0.24558119821434402
000160 97 09 6f 51 2c 13 eb 3f 1f 7b 96 fc 2f b5 bc 3f
       0.8460904684546219 0.11213970104880076
000170 f1 df 0c 99 16 3d b6 bf 47 31 f1 c6 d9 c4 9a 3f
       -0.08686963306979557 0.02614155079599925
000180 17 58 12 16 81 97 e3 3f 15 72 67 0a 20 f8 e1 bf
       0.6122441702925724 -0.56153871566818
000190 e4 bd 1d 25 a8 a3 e1 3f db 65 e1 2f fa 57 d7 bf
       0.5512276387143484 -0.3647447078306791
0001a0 0a 3e c2 34 6c 2e ce 3f d3 f2 20 ca b0 99 ea 3f
       0.23579170776473318 0.831261057646396
0001b0 4d d3 12 b0 53 fd db 3f c0 71 ad 29 2f 73 ec 3f
       0.43733684725457495 0.8890605749143603
0001c0 bd 9d ca ee 31 63 d9 bf 61 31 cf be cd 26 dd bf
       -0.39667938537101205 -0.4554933894512683
0001d0 69 30 37 75 9b 33 e6 bf 45 c8 a2 8d 2e 51 e8 bf
       -0.6937997140280575 -0.7599098936391405
0001e0 3c 9b 42 1a 52 6a d7 bf 82 0b 49 03 79 b7 d4 3f
       -0.3658643013426859 0.323698285301525
0001f0 6a a5 e6 70 3d fe ea bf ec 97 fb 5a 50 db ed bf
       -0.8435351567360787 -0.9330217148788029

encoder.input_ff.bias f8 [64]
000000 5f a3 f5 b6 c0 4e eb bf 3b 90 f3 b7 2b 6b ae bf
       -0.8533633778980451 -0.059411398129470126
000010 b5 28 9f 92 ec 00 e2 3f 8f 2b 4e ea 59 de 8c bf
       0.562612806673562 -0.014095976317340745
000020 ed 0c a5 21 2b 0a 97 3f e6 db ac ea 4e 8b da 3f
       0.022499727180968532 0.4147527019262597
000030 14 32 8d c8 0e 27 bb 3f 59 b4 3d 50 63 7a e7 3f
       0.10606472393300975 0.7336899344642333
000040 24 ba 3c aa 85 a4 cd bf b4 2a 46 71 0e 65 d2 bf
       -0.23158331692089107 -0.2874179941360737
000050 7d 94 17 72 cf b6 d2 bf b0 37 9f 69 96 72 d1 3f
       -0.2924078573399312 0.27261886896746557
000060 af 20 cf 6b 99 5b ef 3f 74 ad ee 0c 2f 6b cd bf
       0.9799315553327882 -0.22983348971807127
000070 a2 fb 9d 92 22 3a e1 3f ad 96 68 68 05 02 d5 bf
       0.5383465636840479 -0.3282483596434343
000080 a1 52 81 1e 92 af da bf c3 17 74 75 9b b8 dc bf
       -0.41696598986644956 -0.4487675330168452
000090 e3 cd 8a 62 3d 40 ec bf e5 eb 4f 3e 22 23 de bf
       -0.8828417706158088 -0.47089439473319167
0000a0 7b 3e 59 cf b0 19 e3 3f 08 a8 f7 66 90 9b d1 3f
       0.5968860673692257 0.27511987739001187
0000b0 70 c8 04 a2 50 0d ec 3f 4a 84 8e 2d b4 ab ef 3f
       0.876625362818471 0.9897099389819541
0000c0 f8 03 3d ce d5 6b ed bf 77 a7 c8 1b 09 0f d8 3f
       -0.9194134739010442 0.375917698986647
0000d0 98 55 1b 14 e0 9c eb 3f bb 96 62 15 0c 6c ef bf
       0.8628998177252241 -0.9819393556287744
0000e0 46 df 9a 47 4d 94 b8 bf 52 b0 33 d1 3e 90 ee bf
       -0.09601290701072882 -0.95510807857273
0000f0 a4 21 16 df ec 2c f0 3f 4f 53 c8 cb 96 55 e4 bf
       1.0109680857004628 -0.6354478817107551
000100 18 bd c0 c7 75 8a ec 3f 56 ae 5b 8c ce 54 cf 3f
       0.8919018651412527 0.24477559903549445
000110 24 b7 4e 5a 57 d7 b1 bf 58 25 9b f9 e5 17 ca bf
       -0.06969209627888212 -0.20385431945605137
000120 e4 d8 04 c9 3d 82 c7 bf c5 b0 dd ee fd 08 eb bf
       -0.1836621505296484 -0.8448476472235816
000130 c2 19 bc ce 68 0d d1 3f 78 b1 e7 f3 03 06 b0 bf
       0.266443445100233 -0.0625917883368795
000140 01 e9 4b 0e c5 1d f0 bf 6c e5 21 9d b2 47 d5 bf
       -1.0072680052240346 -0.3325010809417879
000150 47 2d 8b e1 68 25 eb bf 75 5f 3f 50 cb 57 bd bf
       -0.8483166127347567 -0.1146208830754157
000160 1f dd 8b 9a 94 70 d6 3f 08 c5 c9 53 ea e6 e5 3f
       0.3506213673822049 0.6844379078376344
000170 af d7 2f 3e 3a 63 cf 3f ad 4a b7 2f 58 93 c6 bf
       0.24521568333119378 -0.17637159662134164
000180 14 c6 20 67 05 37 db 3f 9f a1 12 39 4c 5f e6 bf
       0.4252332217321009 -0.6991330256178577
000190 01 00 b8 eb 64 a0 e3 3f cb 84 84 54 ab 1d e1 3f
       0.6133293727762067 0.5348717356429459
0001a0 b8 00 fa f1 e6 78 e5 bf 37 a6 31 c0 e7 96 c2 3f
       -0.6710085607628775 0.1452302635619149
0001b0 2b 65 6a 78 67 70 ed bf 7d 05 15 1d 9b c5 d1 3f
       -0.9199712135188397 0.27768590774584095
0001c0 f8 e4 72 8e 68 79 c6 bf 9d 00 47 47 95 43 e2 3f
       -0.1755800910521328 0.5707498924384883
0001d0 eb 74 d1 7a 8b e2 e8 bf 31 50 bb 7e 66 02 eb bf
       -0.7776543997566966 -0.8440430140713088
0001e0 67 c9 bf d9 c7 39 e1 bf 3f b4 ea bf c8 f2 e4 bf
       -0.5383033039964119 -0.6546367405295611
0001f0 ca 3f 16 8d ed 11 d4 3f 9d 4b 57 9d c1 31 e4 bf
       0.3135942342569221 -0.631073767954479

encoder.hidden_ff.weight f8 [64, 64]
000000 b9 04 ba dd 1d 18 b7 bf b0 68 26 a0 bb 12 a0 bf
       -0.09021174109695353 -0.03139292077976685
000010 17 ce 23 f0 c3 14 a5 3f e5 fc 78 f6 0e 76 97 3f
       0.041174052299450085 0.022911294740194505
000020 33 c5 d4 12 8b 3a b5 3f 13 26 3d da 60 f3 b7 3f
       0.08292454919571383 0.0935574086007807
000030 76 43 c6 24 43 07 b1 bf 80 19 3d cb d7 ba be 3f
       -0.06651706359686024 0.12003849708444214
000040 ea 77 f5 9d 31 fc 97 bf 0f a4 d7 e2 a8 f0 c0 3f
       -0.023422980562251818 0.1323443515423439
000050 bf cb 44 72 91 3f a8 bf 51 2f 89 7f 9d c3 ad bf
       -0.0473599864948464 -0.05813305074533893
000060 e1 74 2d e6 25 1a 90 3f a7 6f d8 c3 59 5c b7 3f
       0.015724746869968057 0.09125290900595805
000070 a8 d4 6d d3 a7 0c b2 3f e4 38 c4 5c 89 78 b7 bf
       0.07050560867158373 -0.09168299212271652
000080 5b 16 5a d4 c1 6f b6 3f e4 9c 8a 8d 85 cd ae bf
       0.08764277872440955 -0.06016175606537802
000090 9c 53 16 16 8a 1b ad bf 0c 4f 03 e3 85 f0 72 bf
       -0.056850733944123294 -0.0046239118530200345
0000a0 04 34 e6 2b d7 74 a7 3f ba 95 46 b6 38 43 b0 3f
       0.04581329737548148 0.06352571916666863
0000b0 ee 59 31 f8 ff 30 ad 3f a7 8f 5a 83 80 ac ac bf
       0.05701446442315104 -0.056003585848230224
0000c0 3e 04 e7 45 2e f8 9b bf 79 00 3d 13 8c 25 b7 3f
       -0.027313921944145607 0.09041667432484414
0000d0 96 44 17 11 52 60 80 bf db 5c 74 19 7c bb b4 bf
       -0.007996216913769321 -0.08098579045723701
0000e0 7b e2 03 0c f4 57 8c 3f b3 0f 2e d2 20 ea 91 3f
       0.01383963262240794 0.017494690731396378
0000f0 dc 3b 2d 3e 84 da b9 bf 0e 0e 82 c7 f5 23 b6 3f
       -0.10099054830537518 0.0864862072067398
000100 97 9c 3a 03 0c 57 83 bf 8d 1d d4 29 c6 1a b4 bf
       -0.009443372581996718 -0.07853353997426478
000110 d1 ea b6 e7 53 c4 bb bf 63 a4 47 d6 ac 09 a0 bf
       -0.10846447379200731 -0.031323815495689876
000120 cc 87 0f f2 e4 64 ba 3f 6d 3f 73 79 ce a1 b4 bf
       0.10310202512439942 -0.08059397187321134
000130 18 c4 79 7d 74 8c a9 3f 19 4e 07 3b 9c 86 8b bf
       0.04989971191105996 -0.013440342475326482
000140 5c 33 29 2b bb eb b7 bf d4 96 26 01 cc 2e a4 3f
       -0.09344072154744992 0.039419531956168236
000150 20 ed 36 f3 03 8d bc bf dc 7d 16 30 f5 d3 87 3f
       -0.11152672469954839 0.011634746103310549
000160 ab 3f 4d e1 5d b9 bd 3f 6e ca c7 68 4e 61 75 3f
       0.11610972166567872 0.005219751631090659
000170 2e c9 60 00 48 47 b6 3f 3a 6c 8e aa 26 a3 bd bf
       0.08702516564588755 -0.11577073730443113
000180 4f 37 08 b3 2a c8 b5 3f b3 8e b4 e4 7e dd b6 bf
       0.08508555289173823 -0.08931725581765697
000190 1c 65 62 26 c3 31 80 bf 92 69 08 25 67 df bb bf
       -0.007907414063355982 -0.1088776078617342
0001a0 9b 9d d0 46 42 86 be bf 48 68 70 c2 2e d0 73 bf
       -0.11923612812881006 -0.0048372103256274016
0001b0 b6 cd 71 84 bd 2a c0 bf 65 81 a2 fd e9 8c bd bf
       -0.1263043305112725 -0.11543142740493335
0001c0 df 20 34 13 14 e0 c0 bf c6 01 93 bd f0 3a a6 bf
       -0.1318383306281765 -0.04341842950953238
0001d0 32 b8 5e 21 7e f2 b7 3f cc 49 8a 78 2d e4 b3 bf
       0.09354389490792483 -0.07770046418071458
0001e0 04 a2 43 77 c3 f7 b6 bf 72 3b bc fd c8 de b1 3f
       -0.08971807157252704 0.06980568117817912
0001f0 64 33 5a 5a 50 3e ba 3f 5f 64 86 3d 69 64 9b bf
       0.10251333433025206 -0.02675022542971239
000200 1a 0c 11 5c 96 66 91 3f 93 fc 14 e6 8b 6a 98 3f
       0.016992902154253732 0.02384394256409601
000210 b7 6d c8 a7 42 69 bc 3f 7a 78 d7 41 ce c6 be bf
       0.11098114582312389 -0.12022103412115995
000220 86 0c d3 5e 4f 5d b8 bf 72 5f c4 34 06 84 a0 3f
       -0.09517379822777813 0.03225726503495609
000230 d4 17 e2 71 7e 71 b1 bf 3e 7e 92 b9 d3 9e 95 bf
       -0.06813802986479739 -0.021113689614706603
000240 14 e0 b5 eb a1 cc 9c 3f f5 bf df 87 b0 09 be 3f
       0.02812436104929368 0.11733535115467915
000250 10 89 1c 7b fb f0 b3 bf 1e 02 94 3f c6 b8 bd bf
       -0.07789584880496059 -0.11610068371010882
000260 31 20 19 f8 d2 47 b1 3f 92 45 41 bc 29 8a b3 3f
       0.06750219876369169 0.07632695051258612
000270 be 17 85 e3 1a 71 76 3f 2e b9 da 6a 2c a0 96 3f
       0.00547895911615187 0.02209538843333652
000280 08 4e b6 cf 40 f1 b0 3f f3 ab 7c 90 05 20 93 bf
       0.06618123122307662 -0.018676840728556198
000290 dd 7e 27 62 c3 1b bb 3f b3 05 3d c4 e6 fa 9f 3f
       0.10589238306374278 0.03123055050605723
0002a0 c5 a8 4b 5f 06 62 8a 3f b1 43 d1 8a 28 1d 5d bf
       0.012882280142964561 -0.0017769714279618316
0002b0 b1 60 aa ed 75 7b 83 bf 74 1e dc 85 18 ca b3 bf
       -0.009512826266743298 -0.07730248706877224
0002c0 e2 44 81 ac 46 6b b5 bf fc ed 13 f6 75 f7 b1 bf
       -0.08366815291926202 -0.07018220193634045
0002d0 ff 20 e7 19 c0 4b a5 3f da 8e 66 4d 23 be a0 3f
       0.041593554651230484 0.032700637052838835
0002e0 6f e3 b7 be e2 3d 34 bf 45 44 0b e4 30 6e a8 bf
       -0.0003088644577640608 -0.04771569045772898
0002f0 6c 6c 87 52 b6 e5 a7 bf c9 7e 65 7b e2 84 bc bf
       -0.04667443997797069 -0.1114026595364478
000300 7e 36 c6 2e 68 22 a5 3f 64 ec 1f 5a 1f 58 c0 3f
       0.0412781293008324 0.12768928433056026
000310 da 9e ae 0c 1f 13 b3 3f 77 5c 70 1b 40 c5 bd bf
       0.0745105176889597 -0.11629105253119741
000320 55 87 d8 d3 39 d1 b4 3f df 84 84 2d 0c 32 a1 3f
       0.08131753370301216 0.03358495765338331
000330 9c 88 df b9 4c a0 92 3f 7a 64 e1 a5 db e1 ba bf
       0.018189619869993665 -0.10500881957831779
000340 ae ba bc d0 ed 71 c0 bf 0a d6 dc 4a 6a 65 b7 3f
       -0.12847683613059274 0.09139122321797558
000350 ee 62 b1 86 be 56 c0 bf 02 66 ea d4 46 e9 b4 3f
       -0.1276472242050412 0.0816845197499774
000360 b3 23 9c 30 0c bc b2 bf 30 6e f0 2b 06 ab 9a bf
       -0.0731818789173662 -0.026043030196986006
000370 6d 1d f9 22 fd d8 b1 3f 44 6c c2 9d d1 2d ab 3f
       0.06971723655543878 0.05308394480490411
000380 5e 14 9f d3 b9 44 be 3f a2 87 31 86 9a bc b8 bf
       0.11823617378748127 -0.09662786270339876
000390 2a 5d 70 b2 ec 25 ad bf 46 1d e0 32 36 be b6 3f
       -0.05692996671876423 0.08883990041805587
0003a0 23 c3 32 b1 0d 47 bd bf b1 ef 29 58 b1 90 b4 bf
       -0.1143654401410115 -0.08033283617436272
0003b0 a1 29 fc d4 cd a3 ac 3f 67 c5 81 be 2c b8 bd 3f
       0.055937225579401735 0.11609153414771854
0003c0 15 0f f8 5f a2 63 b3 3f 53 9f 20 c4 fe 58 a1 3f
       0.07573904841416053 0.033882104340874485
0003d0 a4 34 6f 42 48 fa b2 3f 26 a2 9f ce 71 38 b8 bf
       0.07413150426801224 -0.09461127562065794
0003e0 13 d2 ec ed 55 6a 97 3f 3c 10 d2 a1 74 52 b2 bf
       0.022866575857920134 -0.07157067251870414
0003f0 0f 03 94 0e d9 0d a2 bf ce 92 67 bc fe dc b8 bf
       -0.03526190092998693 -0.09712211703988347
000400 b8 2a 7e 00 c5 8f b7 bf e0 e7 e7 95 17 b9 c1 bf
       -0.09203749906570635 -0.1384610635721506
000410 b9 c4 f3 67 f2 af b4 3f f0 38 0e 7d 28 1d b6 bf
       0.08080973661323555 -0.08638241818536918
000420 d0 47 3d 02 14 17 b5 bf 0b fb 97 74 12 7f a5 3f
       -0.0823833947627286 0.04198510812056185
000430 ad d4 9f 79 0a 8e 69 3f 53 9e a7 c5 4c 5e ad 3f
       0.003119488200349871 0.05736007607248141
000440 30 76 5c 19 20 3a a9 bf 70 40 e3 db 87 d1 b0 3f
       -0.04927158650955865 0.06569718473770236
000450 fc cb 71 ab 74 13 8d 3f c1 ea c8 cc fe d2 80 3f
       0.014197265131064889 0.008214941620385276
000460 30 da d4 7d a2 55 bb bf 95 34 de f8 c8 26 c1 3f
       -0.1067754323201846 0.13399612571484867
000470 59 89 67 02 df b1 b4 bf 27 15 96 f6 e8 1d b1 3f
       -0.08083909805967461 0.06686264057323808
000480 ac a5 58 5e 5f 9f 3b 3f b0 fc 24 85 5f 6b a7 3f
       0.00042148664792537416 0.04574106693552815
000490 f6 b6 e5 8d c7 1b a7 bf 41 4a 63 6a 60 b1 81 bf
       -0.045133815833521426 -0.008639100310039118
0004a0 9c 55 1b 76 7c 26 91 bf d9 38 3f fd 46 22 a0 bf
       -0.0167483756148009 -0.031511515058456126
0004b0 b0 ca 93 4e b2 93 ac 3f 96 8d a2 bd f3 62 ad 3f
       0.05581433495708177 0.05739556970481911
0004c0 ba 98 81 76 5b c0 a5 3f d7 97 7b 6d d7 da 8a 3f
       0.04248319455727896 0.013112719563149895
0004d0 db 0a 23 37 4d 34 bb 3f 67 76 2e 5f 55 ae b7 bf
       0.10626680942645399 -0.09250386785284946
0004e0 07 18 41 dc 0a ec 9d 3f 22 74 63 92 c5 a7 9f 3f
       0.02922074288678547 0.030913435993046197
0004f0 ce 8d 67 b3 69 33 85 bf 6a 3b 69 48 09 d5 bb 3f
       -0.010351968562594484 0.10871942537162985
000500 0a e7 65 8f 92 41 a6 bf 85 4c 5a e4 f7 00 c0 bf
       -0.043469028477330765 -0.1250295510295453
000510 f9 91 8c 2a da 46 81 3f 1a e0 81 38 50 90 b7 3f
       0.008435921119208866 0.09204579715321906
000520 f2 5d b4 3c ce 0e c2 bf 03 12 ca 8e 74 45 b0 3f
       -0.1410768314751603 0.06355980382983976
000530 52 6c 07 f2 a2 d2 a7 3f 1c 4b 0b 87 b3 a1 be bf
       0.046528904003672836 -0.11965486571288547
000540 2d 0e 1e f1 d9 86 9c bf f2 3e 1b ec 67 05 b5 bf
       -0.027858167020452896 -0.08211373819653625
000550 64 44 02 d1 8f 77 c0 3f 1a 98 9b ff de 6c aa 3f
       0.12864873605261373 0.05161187048160816
000560 38 65 64 78 78 f9 1a 3f 0f ed 87 05 fd 6f a2 bf
       0.00010289953033683775 -0.03601065342442144
000570 b1 fb cd 7e 79 0c a6 bf 48 50 e3 d7 d7 e0 aa bf
       -0.04306392357738476 -0.052496667006977804
000580 a3 40 35 67 5c b1 88 bf bc a0 37 3e 9d 92 b8 bf
       -0.012057039165171373 -0.0959871556184479
000590 64 56 5f a2 cc 54 b7 3f 6a 4c 93 f0 0d 2a bd bf
       0.09113768543405737 -0.11392295001432876
0005a0 b0 d2 13 f9 bc fd 98 bf c0 81 1d 6e 15 ae c0 bf
       -0.024405434324722364 -0.1303126132652448
0005b0 80 06 eb 5d 8a 19 bb 3f aa 18 4c 4a 46 9e bf bf
       0.10585846703454571 -0.12350882829568613
0005c0 4b 06 a6 a1 fe 16 b9 bf 21 69 6e bb d9 8e b2 bf
       -0.09800712057588006 -0.07249222589453953
0005d0 82 f6 9d 74 65 d5 81 3f 36 03 98 4c eb 39 b6 bf
       0.00870780241143199 -0.08682127590146824
0005e0 09 fb 9a d4 62 1b bc 3f 05 9a cb db 6a 52 b2 bf
       0.10979287806092598 -0.07157008997055676
0005f0 e4 bf 50 db 56 81 7b 3f c7 77 04 a1 a6 06 98 3f
       0.006715144428241591 0.023462871148801214
000600 b8 53 e5 39 18 03 c1 3f 00 6d 0c b9 f5 8c ba 3f
       0.13290694071716103 0.10371337669169023
000610 2d c2 e2 8a 85 bf ae bf 99 fb 88 65 35 d5 a6 3f
       -0.06005494423277855 0.04459540237848287
000620 66 4e a8 7d ac f1 a3 3f 09 e3 18 e8 38 74 b7 3f
       0.03895319970993398 0.09161716143070121
000630 e5 42 d6 99 1b 10 91 3f 75 06 47 f3 a7 22 bf bf
       0.016663008942091734 -0.12162255944624596
000640 44 63 9b ac f9 44 a2 3f 07 3b 0e 08 ae 2f ba 3f
       0.03568248970049706 0.1022900361697162
000650 11 06 24 8e 19 bc 95 bf 6c 5e 74 63 98 8a a5 bf
       -0.021225356388646036 -0.04207302297635071
000660 b9 b6 16 2a 64 c8 8d bf d7 c3 7e b9 38 94 bb 3f
       -0.014542372259565327 0.1077304318303186
000670 c3 c1 af 7b e5 7f c1 bf d5 0e f3 b9 3c 61 bc bf
       -0.13671558894522037 -0.110858722112478
000680 6f bf ff b9 41 25 b7 bf ed bb 34 e4 dc 31 ab 3f
       -0.09041224280349323 0.053114798409630605
000690 f0 e7 46 a6 b1 40 bc 3f bd 04 13 86 29 6a ad 3f
       0.11036215123650073 0.05745057832383214
0006a0 c5 da 56 35 2e fc ad bf b3 04 39 46 45 39 b0 3f
       -0.058564609538213776 0.06337388004705495
0006b0 86 df 45 af e2 c7 b4 bf ee f9 25 8d ca 49 c1 bf
       -0.08117501048206863 -0.13506442920693423
0006c0 20 12 fb c8 7f bd bc 3f 9d 84 54 cd 23 45 88 bf
       0.11226652771717527 -0.011850623801878785
0006d0 b4 82 33 58 33 75 ac bf d8 fd f2 50 f5 b9 b0 bf
       -0.055581669346570634 -0.06533749796198352
0006e0 f5 54 bf ad 81 c5 92 bf 6c 3e b8 cc a9 6a 9d 3f
       -0.0183315527245513 0.028727200622653035
0006f0 31 26 80 e1 61 0a b0 3f d5 7c 12 86 8e f9 a7 3f
       0.06265842204461404 0.046825841776120626
000700 59 b7 a7 e8 de b6 88 bf 29 24 41 bc f5 7b b5 bf
       -0.012067548251220183 -0.0839227280240641
000710 04 ca 58 4a 8c b5 ba 3f 8c 65 59 a6 7c b4 b1 bf
       0.10433270278080192 -0.06916026173839479
000720 86 c8 f4 da a0 be b1 bf 79 fe 88 1f 62 7f b7 3f
       -0.06931500764474849 0.09178746480847079
000730 d1 dc 03 cd b1 0e b3 3f e8 7c f3 a3 df a4 be bf
       0.07444297080279517 -0.1197032714148808
000740 a6 47 3c 17 af 31 75 bf 2d b3 2a c3 f1 d3 b5 3f
       -0.005174335430426702 0.08526526465238922
000750 c8 f5 cf 08 1c 77 ad 3f 99 da 82 43 85 8a b8 3f
       0.05754935844013748 0.09586365602704418
000760 97 c3 67 ed 61 25 ad 3f 0f ff 22 70 21 f0 98 bf
       0.056925831060545544 -0.024353525609284662
000770 12 c2 40 82 06 8f 8b 3f 92 eb 76 92 ef 52 b1 bf
       0.01345639309883587 -0.06767175031465758
000780 aa ac b0 03 d6 84 be 3f 53 28 3d 75 49 c6 a0 bf
       0.11921441640940836 -0.032762809335125674
000790 2e f5 38 d3 b3 5a c1 bf 73 3a 54 61 4e af b4 3f
       -0.13558051885221672 0.08079995990940762
0007a0 4e 0c 83 23 93 7b 91 bf 50 e4 c0 ee 71 ff 96 bf
       -0.017072962801432383 -0.022458820531231105
0007b0 34 c1 d2 0e bc 97 b7 bf 3a 71 ac ae 54 d6 aa 3f
       -0.09215903627296457 0.05241646415945174
0007c0 c2 cc 51 ff 62 d8 b4 bf 8a 63 8c 24 d8 a9 be bf
       -0.08142679913889864 -0.11977911846442005
0007d0 e1 b6 0c bb 3b 82 a7 bf b7 60 cf 57 e4 34 b5 3f
       -0.04591547640153038 0.08283831733513379
0007e0 1c 06 d5 91 ec 33 bc bf 2e f4 f2 66 6b 31 b2 3f
       -0.1101672988925419 0.07106658233074434
0007f0 65 70 ab de 7f c7 ad bf bf 67 8c 01 fe b1 ac bf
       -0.05816268532882488 -0.056045472802181966

encoder.hidden_ff.bias f8 [64]
000000 ff cb a5 10 3a a5 ab 3f cd 37 06 64 9d 61 b3 3f
       0.05399495557039557 0.07570823375701181
000010 41 b9 06 ab 75 14 b4 bf 8d 2b 4e ea 29 9d 8d bf
       -0.07843718934484391 -0.014459922278339277
000020 b8 bc 96 f7 74 43 b2 bf c1 90 4c 55 58 33 b4 bf
       -0.0713418106522451 -0.07890846331116831
000030 14 32 8d 48 e6 d6 b4 3f c2 e7 92 f0 49 89 82 bf
       0.08140410681989635 -0.009050920156699397
000040 48 43 97 47 31 3e 7f bf d4 a9 ce 75 ef c2 a9 3f
       -0.007627670763626089 0.05031536400868544
000050 4e 1d e5 85 20 fd 70 bf 4f c0 f9 cc c6 11 ab 3f
       -0.004147650759768707 0.052869999429163365
000060 54 05 79 5e 40 bd b1 3f 14 b6 ba b3 d6 01 af bf
       0.06929399782622642 -0.06056090301477127
000070 06 ba df a9 61 f8 ac 3f 8f 4c bb bc d9 9f a0 3f
       0.0565825004449501 0.03246956280568113
000080 f0 4a 05 7a 87 9b b2 bf a7 7b 41 57 aa b4 9a bf
       -0.07268568734188441 -0.026079808784171068
000090 c5 dd ac a8 e5 fc ac bf 9c fa f5 27 9f 0b 62 bf
       -0.056616951790086335 -0.002202807285072451
0000a0 53 e6 93 75 3c 6a aa 3f 3a 06 0b 21 a7 45 8f bf
       0.051591767647505414 -0.015269571014303474
0000b0 fd bd d9 af 8b e5 b8 bf d0 10 3a 56 2c 68 c1 3f
       -0.09725258868433424 0.1359916134862318
0000c0 c2 20 e8 b1 05 36 ba bf 7a 9d 22 af 6a ea bd 3f
       -0.10238681405474195 0.11685816550981612
0000d0 7a 53 25 1f 57 f6 bb bf 18 b5 14 eb 5b 2c bc bf
       -0.10922760496516828 -0.11005186547545909
0000e0 3e 90 32 3c 42 31 c0 3f b0 82 9d c9 6f 18 b2 bf
       0.12650325717288696 -0.0706853739952844
0000f0 43 41 c4 e2 b3 02 a6 3f d9 66 bd 21 6f 9a b9 3f
       0.04298936980387904 0.1000127274868662
000100 b6 5d 2f f0 fb 4b 87 3f ea 5b b7 18 43 fd bd 3f
       0.011375396983494972 0.11714572289871197
000110 93 23 c5 96 62 09 99 3f de 69 93 99 85 56 af 3f
       0.02444986386516097 0.06120698451714522
000120 6d 64 13 24 3c 74 a1 bf d4 f6 24 92 52 9b a9 3f
       -0.03408992710473844 0.05001314195622589
000130 9c c9 7c 28 4a f8 84 bf 80 b1 e7 73 60 4e b7 bf
       -0.010239199982241591 -0.09103968457902134
000140 f9 8f be 24 8c 40 b9 bf 22 58 1e d2 87 9e 93 bf
       -0.09864116570548721 -0.0191594335552382
000150 53 96 a6 33 67 f1 b9 3f 23 bf 7e a0 73 b1 ad bf
       0.10133976946834737 -0.05799447378319502
000160 96 2d 42 57 25 1e 92 bf 80 27 4e 1e f7 cb b3 3f
       -0.017693122340046573 0.07733101358294725
000170 86 af 5f 3c 0b f9 b9 3f ad 4a b7 0f 27 1b c1 bf
       0.10145635818451923 -0.13364113108999245
000180 c6 ce f9 c6 9d 2c ae bf 29 f3 6a f7 b5 e8 bd 3f
       -0.058934145487822984 0.11683213510964365
000190 93 f9 ff 76 1e ba 98 3f 8b 6e 6f 6f 64 ad 90 bf
       0.024147487652948007 -0.01628643922945953
0001a0 25 fb 2f 70 1c d6 bc 3f d2 32 8d 01 50 cf 90 3f
       0.1126420759100993 0.01641583451719237
0001b0 51 b3 66 e5 23 79 89 3f 8c d3 57 17 9a ae ac bf
       0.01243808788134407 -0.05601960692357641
0001c0 52 28 97 73 b1 25 9d bf 33 05 38 ba a2 3f b5 3f
       -0.028464100532609678 0.08300225302084101
0001d0 cd 4c 17 ad 37 fb a7 bf 86 7d 25 8a 59 59 bb 3f
       -0.046838512305521364 0.10683211920467359
0001e0 f9 d5 06 c8 44 ac 93 3f 37 d1 aa 3f bf 2c c0 bf
       0.019211840351735152 -0.12636557205918006
0001f0 3b 03 4e 97 3b ad a5 bf e7 5a ba 2a bc f2 b2 bf
       -0.04233728620511675 -0.07401634257471877

encoder.output_ff.weight f8 [1, 64]
000000 00 00 00 40 15 ee be 3f 00 00 00 40 21 60 b0 bf
       0.12082035839557648 -0.06396682560443878
000010 00 00 00 80 65 3a a7 3f 00 00 00 00 00 52 29 bf
       0.04536740481853485 -0.00019317865371704102
000020 00 00 00 80 0c 6a b4 3f 00 00 00 00 d1 7c a4 bf
       0.07974317669868469 -0.04001477360725403
000030 00 00 00 00 6c 2a bf bf 00 00 00 c0 ba 19 b7 bf
       -0.12174105644226074 -0.0902363508939743
000040 00 00 00 00 ce 1e 85 3f 00 00 00 c0 71 a5 b0 3f
       0.010312661528587341 0.0650244802236557
000050 00 00 00 00 dd c8 99 bf 00 00 00 00 a8 fd 82 bf
       -0.02518029510974884 -0.009272873401641846
000060 00 00 00 c0 1d e0 bf bf 00 00 00 80 99 e2 b8 3f
       -0.12451349198818207 0.09720763564109802
000070 00 00 00 00 3e 04 b6 bf 00 00 00 00 12 12 8b bf
       -0.08600223064422607 -0.01321806013584137
000080 00 00 00 80 93 5f a9 3f 00 00 00 00 70 b4 8a bf
       0.049557313323020935 -0.013039469718933105
000090 00 00 00 80 fc 81 ac 3f 00 00 00 80 37 02 a8 3f
       0.05567921698093414 0.04689191281795502
0000a0 00 00 00 80 29 ba ba 3f 00 00 00 40 05 53 b6 bf
       0.10440310835838318 -0.08720429241657257
0000b0 00 00 00 00 56 1c bf bf 00 00 00 00 4c fc b2 3f
       -0.12152612209320068 0.07416224479675293
0000c0 00 00 00 00 80 ef bb bf 00 00 00 00 ee ba b1 3f
       -0.10912322998046875 0.06925857067108154
0000d0 00 00 00 00 bc 3a a1 bf 00 00 00 00 87 ea a9 3f
       -0.03365123271942139 0.05061742663383484
0000e0 00 00 00 c0 7a 9e bf bf 00 00 00 80 79 c9 b2 bf
       -0.12351195514202118 -0.07338675856590271
0000f0 00 00 00 80 6f 1c bd bf 00 00 00 80 8a 6a b0 3f
       -0.11371514201164246 0.06412568688392639
000100 00 00 00 00 87 21 be bf 00 00 00 00 d6 a0 a0 3f
       -0.11769908666610718 0.03247708082199097
000110 00 00 00 00 b0 5e ac bf 00 00 00 c0 ec b4 b9 3f
       -0.055409908294677734 0.10041694343090057
000120 00 00 00 40 9a ff bf bf 00 00 00 40 8c 31 b3 bf
       -0.1249939352273941 -0.07497479021549225
000130 00 00 00 c0 28 71 ba 3f 00 00 00 00 30 28 7d bf
       0.1032891720533371 -0.007118403911590576
000140 00 00 00 80 1a b0 a5 bf 00 00 00 40 ee 83 b7 3f
       -0.042359188199043274 0.09185685217380524
000150 00 00 00 80 cd 1a ad 3f 00 00 00 00 69 3d a4 3f
       0.05684511363506317 0.03953102231025696
000160 00 00 00 80 d1 25 b6 3f 00 00 00 80 a3 45 a5 bf
       0.08651456236839294 -0.04154692590236664
000170 00 00 00 00 a0 dd 84 bf 00 00 00 00 a2 16 a7 3f
       -0.01018834114074707 0.04509454965591431
000180 00 00 00 80 d4 32 aa 3f 00 00 00 c0 f8 e0 bb bf
       0.051169052720069885 -0.10890154540538788
000190 00 00 00 00 87 32 b5 3f 00 00 00 c0 f1 c2 b5 bf
       0.08280223608016968 -0.08500586450099945
0001a0 00 00 00 80 c4 89 ab 3f 00 00 00 80 f5 a2 a4 bf
       0.05378545820713043 -0.04030577838420868
0001b0 00 00 00 00 6e f5 a7 3f 00 00 00 00 9e 95 af bf
       0.046794354915618896 -0.061688363552093506
0001c0 00 00 00 80 a8 2b bf bf 00 00 00 00 de fb b7 3f
       -0.12175992131233215 0.09368693828582764
0001d0 00 00 00 40 2b 8d bb 3f 00 00 00 00 32 a1 9b bf
       0.10762281715869904 -0.026982098817825317
0001e0 00 00 00 00 4d 1d a8 bf 00 00 00 00 ff 20 a7 3f
       -0.0470985472202301 0.04517361521720886
0001f0 00 00 00 00 95 ad 9f 3f 00 00 00 00 c6 23 8b 3f
       0.03093560039997101 0.013251826167106628

encoder.output_ff.bias f8 [1]
000000 00 00 00 00 2c 16 bf 3f
       0.12143206596374512

decoder.input_ff.weight f8 [64, 1]
000000 00 00 00 80 ec 35 ee 3f 00 00 00 80 5c 67 ef bf
       0.944082498550415 -0.9813673496246338
000010 00 00 00 40 8a 44 ed 3f 00 00 00 80 86 a3 d5 bf
       0.9146167039871216 -0.33810579776763916
000020 00 00 00 80 23 78 d7 3f 00 00 00 00 80 41 a7 3f
       0.3667076826095581 0.045421600341796875
000030 00 00 00 80 15 87 df 3f 00 00 00 00 43 a5 d8 bf
       0.4926198720932007 -0.3850867748260498
000040 00 00 00 00 34 b3 ef 3f 00 00 00 c0 d0 e9 e6 3f
       0.9906253814697266 0.7160419225692749
000050 00 00 00 00 0c 84 c8 3f 00 00 00 80 97 63 ea bf
       0.1915297508239746 -0.8246572017669678
000060 00 00 00 00 09 8b d4 bf 00 00 00 c0 8d d3 e3 3f
       -0.3209860324859619 0.6195744276046753
000070 00 00 00 80 7d 80 de bf 00 00 00 00 7e ea c6 bf
       -0.47659242153167725 -0.1790311336517334
000080 00 00 00 40 5a b0 e7 3f 00 00 00 c0 52 22 e5 3f
       0.7402774095535278 0.6604398488998413
000090 00 00 00 00 f6 38 ce 3f 00 00 00 00 f3 29 d0 bf
       0.2361133098602295 -0.2525603771209717
0000a0 00 00 00 00 f5 a7 d6 bf 00 00 00 00 b6 e1 cc 3f
       -0.3540012836456299 0.22563815116882324
0000b0 00 00 00 00 78 60 94 bf 00 00 00 c0 81 89 eb 3f
       -0.01989924907684326 0.8605355024337769
0000c0 00 00 00 c0 8c 64 ee bf 00 00 00 80 f8 12 de bf
       -0.9497741460800171 -0.46990787982940674
0000d0 00 00 00 c0 6c 5c ec 3f 00 00 00 00 a4 f3 cf bf
       0.8862823247909546 -0.24962282180786133
0000e0 00 00 00 00 64 66 e6 bf 00 00 00 80 da 41 ec 3f
       -0.6999988555908203 0.8830387592315674
0000f0 00 00 00 00 87 43 de 3f 00 00 00 80 80 f5 e0 bf
       0.4728715419769287 -0.5299685001373291
000100 00 00 00 c0 34 8f ef 3f 00 00 00 00 9b f1 ef 3f
       0.9862312078475952 0.9982428550720215
000110 00 00 00 00 b6 8a e6 3f 00 00 00 00 a8 58 b7 bf
       0.704432487487793 -0.09119653701782227
000120 00 00 00 80 e3 8a d7 3f 00 00 00 40 ad 1e e4 bf
       0.3678520917892456 -0.6287447214126587
000130 00 00 00 80 50 a3 e5 bf 00 00 00 80 8e f6 d3 3f
       -0.6761858463287354 0.311923623085022
000140 00 00 00 c0 30 35 e2 3f 00 00 00 80 3a ce d2 bf
       0.5689929723739624 -0.29383718967437744
000150 00 00 00 00 c9 44 d0 3f 00 00 00 00 69 70 d2 3f
       0.2541983127593994 0.28811097145080566
000160 00 00 00 80 83 9d de bf 00 00 00 80 4b 60 dd bf
       -0.47836387157440186 -0.45900237560272217
000170 00 00 00 00 f9 6a c9 bf 00 00 00 00 65 a9 c8 bf
       -0.19857704639434814 -0.19266951084136963
000180 00 00 00 00 ef db d8 bf 00 00 00 c0 f7 e5 e9 bf
       -0.3884236812591553 -0.8093222379684448
000190 00 00 00 80 31 2f e5 bf 00 00 00 40 3d 69 e4 bf
       -0.662010908126831 -0.6378465890884399
0001a0 00 00 00 c0 d6 fc e5 bf 00 00 00 00 96 37 e2 bf
       -0.6871141195297241 -0.5692853927612305
0001b0 00 00 00 00 74 c1 d5 bf 00 00 00 00 29 28 d0 bf
       -0.3399324417114258 -0.25245118141174316
0001c0 00 00 00 00 c9 df d0 bf 00 00 00 00 9c 86 c1 3f
       -0.2636587619781494 0.13692045211791992
0001d0 00 00 00 00 cb 3f d9 3f 00 00 00 00 fe 36 dd bf
       0.3945186138153076 -0.4564814567565918
0001e0 00 00 00 00 34 d0 a5 bf 00 00 00 00 7b df de bf
       -0.04260408878326416 -0.4823901653289795
0001f0 00 00 00 00 30 6a b4 bf 00 00 00 c0 20 6d e8 3f
       -0.07974529266357422 0.7633212804794312

decoder.input_ff.bias f8 [64]
000000 93 7f 4e 4d f4 74 d2 bf 17 3e 7a df 4c 3c d6 3f
       -0.2883883242557143 0.3474304373166616
000010 89 5f 7a 5c ef e8 e4 bf 85 72 d4 df 59 ef de bf
       -0.6534344488345464 -0.4833588300551031
000020 39 5a 61 10 7b 8c d6 3f 39 6e 27 2e 34 03 e5 3f
       0.35232426261555677 0.6566410924382985
000030 e5 5d 50 8b 6f c3 d1 3f db e0 0b 94 dc eb db 3f
       0.27755344967724077 0.43627085168510654
000040 4d 57 25 f9 20 23 cb 3f 48 ce fd 16 2a 24 cf 3f
       0.21200954594922408 0.2432911503088795
000050 af e6 05 ee b3 f4 d2 3f 4e 8f 6d 68 a0 38 ed bf
       0.29618547672690004 -0.9131624259575604
000060 f5 fb d4 16 23 03 db bf 03 87 dd 8e da 7e da 3f
       -0.42206647138294723 0.4139925379914617
000070 2d 4d fa 98 b8 47 d3 3f 59 4d ab 0d 9a 8e e6 bf
       0.30125250758392746 -0.7049074427581373
000080 17 c7 8a 5f 9a 11 e5 3f 7a 13 1e 04 41 04 e4 3f
       0.6583988061958931 0.6255192833346961
000090 66 5c 5c e0 4f 85 db bf 3b b2 75 f5 b2 7f e6 bf
       -0.43001171980126285 -0.7030882639060744
0000a0 fc 7c ef 0a c0 c5 c3 3f cd 2a d7 5a b0 c6 cf bf
       0.15447235616645816 -0.24825100360461363
0000b0 19 cf 83 82 0c 94 ec bf c7 65 da ba 3c bd d4 3f
       -0.8930723713988044 0.3240501236665207
0000c0 8d 18 ea 7d 89 5a e0 3f ba c7 c2 b2 9d da c1 3f
       0.5110518893495893 0.1394841311317217
0000d0 d8 35 58 44 00 26 b8 3f d6 7a 04 bd 38 40 dc 3f
       0.0943298498970856 0.4414197774766938
0000e0 99 ba 9e 5a d5 92 9a 3f d4 df 0d 68 18 d5 c4 3f
       0.025950750022895794 0.16275315361758536
0000f0 19 e2 90 fa 16 a2 ea bf 22 e4 10 9b 05 cb e0 3f
       -0.8322863477579318 0.5247829464561884
000100 39 97 99 d6 82 22 ee 3f a8 0e 10 69 e0 e6 c0 bf
       0.9417127791791479 -0.1320457947732525
000110 3a fe 28 59 13 cc e6 bf ac bc 69 51 38 e1 99 3f
       -0.712411569729688 0.025273208588654825
000120 ac 1b 4f 84 33 01 a5 bf 3e 69 a7 71 3a 48 8c 3f
       -0.0410247897157697 0.013809639543002402
000130 c2 b1 e0 ad 1e 6f d7 3f d5 e3 86 82 c7 08 df bf
       0.3661572168373618 -0.48491084810990276
000140 82 b1 c0 48 15 71 d5 3f 6b 04 2a b8 37 3f eb 3f
       0.335027047202651 0.8514669987636244
000150 86 2e 70 0a 18 e7 e5 3f 8e 99 ed a5 de 70 c7 3f
       0.6844597057219779 0.18313201047858424
000160 31 53 47 00 a7 84 ec bf e8 89 77 dd 40 a9 ed bf
       -0.8911929135743774 -0.9269108129049615
000170 66 59 81 9f 76 45 ed 3f df 02 a9 67 06 07 e0 bf
       0.9147294154488861 -0.500857546292618
000180 56 3f c7 59 9f ea c8 3f 08 22 f5 1c b0 b8 d3 bf
       0.19466010936457206 -0.3081474573887424
000190 2d b7 f2 7b 4b 5f bc 3f 5d 4c bc a2 75 98 e2 bf
       0.11082908416821331 -0.5811107805660743
0001a0 2d 5e a3 db 02 5c be bf bf 7d fe c3 63 31 dd 3f
       -0.11859147894153273 0.4561395086293167
0001b0 35 c5 b0 3e 52 c8 ec bf a4 a5 20 31 d6 dd b1 bf
       -0.8994532799171454 -0.06979120921518828
0001c0 06 27 f1 3c d0 20 e4 3f b1 14 45 e9 d5 3b e6 bf
       0.6290055456422301 -0.6948041492511462
0001d0 7b aa 6f 7e 4e 2d ec bf cb c2 b6 0c bc 2f ee bf
       -0.8805305928666053 -0.9433269737547446
0001e0 9c 37 7b b9 65 16 df 3f 18 23 37 2b bb 3c d7 bf
       0.4857420264569272 -0.36308173389675025
0001f0 f5 29 b7 e6 b1 53 e6 bf 33 1e 72 cf 11 a5 dd 3f
       -0.697716665855579 0.4632000470960264

decoder.hidden_ff.weight f8 [64, 64]
000000 48 83 8d 8a ff 27 92 3f 0f 31 56 82 b3 ab 9d 3f
       0.0177307060542973 0.0289753006268692
000010 7f 0a 78 62 c7 91 bb 3f 6a 4b 85 e5 a7 e4 b0 3f
       0.10769315866495253 0.0659890113213756
000020 0a 75 27 a5 4e 08 64 3f 89 d3 1c 89 0b 60 b4 3f
       0.002445367435241712 0.07959053132510809
000030 6e fb a7 c2 f6 3d 98 3f e6 ab 26 4d fa 74 b3 bf
       0.023673873549337747 -0.07600368865557491
000040 02 e6 52 55 2b 89 b3 bf d8 3f f5 3f b8 30 a0 3f
       -0.07631178696728827 0.03162170201051112
000050 d2 49 d9 11 ec 0b 87 bf c3 28 9a 71 b8 cf b5 3f
       -0.011253208441449756 0.0852008130406459
000060 ef 02 40 e9 1d f3 b3 bf 56 75 e3 1c 7b d8 9f bf
       -0.07792841858464404 -0.03109924663373439
000070 3d 99 a1 1c 25 47 86 bf ed 88 2d fe d4 0e 9c 3f
       -0.010877885757690659 0.027400329602991148
000080 91 e6 63 02 66 f2 b1 3f 6d 4d 9e dc 47 56 b0 bf
       0.07010495718341249 -0.06381653915587089
000090 c1 8b e8 20 44 69 c0 3f 44 4e 70 a3 14 b0 bd bf
       0.1282124672589742 -0.11596802702143189
0000a0 0f d9 fc a1 c9 f8 a2 3f bb 5b 56 9b ec 4c 94 bf
       0.03705434896839865 -0.0198246927080523
0000b0 ff 0d 59 93 0f 1d bb bf bb 23 d5 a1 e8 6a 82 3f
       -0.1059121832595835 0.008992974699724479
0000c0 50 77 77 79 00 0f b5 bf cd 0e 4b eb 50 be a9 3f
       -0.08226016011709913 0.05028012153846149
0000d0 43 7a a0 67 72 a8 ac 3f a7 b9 a8 7a 5a 13 af bf
       0.0559726478097571 -0.060694529984505245
0000e0 04 e6 3d b1 d7 1b a4 3f 0c 08 b0 07 f0 bd 94 3f
       0.039274921785317246 0.02025580450936819
0000f0 4f 32 5a c2 dd 04 9d bf e3 e8 14 e3 25 f2 b8 bf
       -0.02833887575848087 -0.09744488519655507
000100 90 91 ae 50 8b 92 b3 bf e6 fc ec cf 66 02 b8 bf
       -0.07645483703396949 -0.09378664566337455
000110 25 7e 32 d9 e6 80 b7 bf 94 b6 02 81 9b 47 bd bf
       -0.0918106346384709 -0.11437389278099835
000120 4f 23 63 17 df 89 af bf 63 39 05 0f d0 8a b5 3f
       -0.061598750691308816 0.08414936415394929
000130 49 c5 45 96 a5 0f 9b 3f d8 4e 2c c2 cb 35 bc bf
       0.026426875397594505 -0.11019586077264465
000140 4f 84 15 ad a9 7f b4 3f 46 5a 1e 2a 32 f8 bb 3f
       0.08007297969517534 0.10925591972623136
000150 9f 1d c5 d9 ef ce b6 bf 9c 0b fb 49 c4 c3 7d 3f
       -0.08909510676050168 0.007266775850157805
000160 e7 04 e9 a5 3e 08 9b 3f 12 4f 52 7e 16 3d 7e bf
       0.02639863860736549 -0.007382476677907384
000170 5f 06 ef 24 fe b9 a8 bf 89 f8 22 52 38 83 6d 3f
       -0.048294012077815245 0.0036026096359754217
000180 39 48 6d 2f 02 f4 b7 3f fd 97 4b 53 c0 29 a7 bf
       0.09356702478297131 -0.045240411918527436
000190 7d 0d a0 c2 3e be a9 bf ab e9 86 c1 0f a7 bb bf
       -0.05027958036228151 -0.1080179069021258
0001a0 a9 ee fb e3 0e 9a ba 3f 5f 9a e8 3e 5e ba 9c bf
       0.10391324106233903 -0.02805468806232125
0001b0 30 bd 92 95 d7 5d a8 bf 10 0b 19 88 6e 54 bc 3f
       -0.047590958603331734 0.1106633264799195
0001c0 e2 55 81 43 52 b1 b6 3f 72 c7 9b fe cb 27 a9 3f
       0.08864320896221714 0.04913175089849532
0001d0 5a 98 21 b2 d4 cb a2 bf d0 72 ae 45 74 83 93 bf
       -0.03671135591939452 -0.019056145432488958
0001e0 a6 b8 13 9a 70 2a b0 3f af 12 73 12 16 ab b0 3f
       0.06314758073469537 0.06511056852748241
0001f0 3b 7a 6e f7 28 0b b1 bf dc 04 aa 56 13 ce a7 bf
       -0.06657653847512617 -0.046494106606596225
000200 2b 97 43 65 27 ed b1 3f ac 4d 72 80 5b 4c ab 3f
       0.07002493116632695 0.053316935948852645
000210 13 10 f6 b6 10 4e ac bf df 9c 36 cd a6 71 b2 3f
       -0.05528309091008068 0.0720466853150472
000220 50 2c e7 b0 47 f2 a9 3f e0 06 3e 8b 7b 79 85 bf
       0.05067657503567402 -0.010485615908467805
000230 b5 42 aa f4 80 05 aa 3f 14 9f 1c 27 ec cd 99 bf
       0.050823240152685946 -0.0251995943901014
000240 b3 34 8c d6 4b aa 9f 3f 02 7f a7 b4 81 07 7b 3f
       0.030923066110564345 0.006598955786529139
000250 bb 5e 64 24 30 79 b1 bf 33 1e c3 ab 6a 65 bb bf
       -0.06825543297270091 -0.10701624577915751
000260 c0 0a a0 9c 20 ab 76 3f 0a f6 40 9a 2d f0 b1 bf
       0.005534293546591129 -0.07007107749901578
000270 eb 56 c8 d2 f5 75 c0 3f c1 d9 f6 f3 f7 e5 a8 bf
       0.12859986106985075 -0.04862952092246387
000280 cf c6 3a d8 97 9f b5 3f b9 c6 46 be d6 ee b1 bf
       0.08446644810717462 -0.07005064149304986
000290 a4 01 e5 8e d9 39 9e 3f 83 3e b3 5b ec 9c b1 3f
       0.02951755461367757 0.0688007091405272
0002a0 45 9c c4 ab 2c 68 b7 bf a4 ab ab bc 4c 65 a0 bf
       -0.09143332665972632 -0.03202285578830491
0002b0 ce c0 8a 1e c0 91 79 3f f5 f4 e5 c2 29 4d a5 bf
       0.006242514101060871 -0.041604332963268854
0002c0 a8 28 c2 69 c1 e6 83 3f 61 fb 7c df ac 83 b1 3f
       0.00971747497557758 0.06841545540099282
0002d0 97 e3 b6 e4 cb 83 91 bf ee d0 f5 6c 26 f1 b8 3f
       -0.017104326090450064 0.09742965850984195
0002e0 32 1a 83 90 a3 22 ad 3f af a2 74 ff 96 f9 a1 3f
       0.05690489901603647 0.03510734432558615
0002f0 cb bf f3 b6 d2 cf bc bf 6a f3 7d 90 a3 31 ac bf
       -0.11254612890820608 -0.055066214931662597
000300 36 25 ba fb 4e 1a ae 3f 6e 7b 2d a0 b9 41 92 bf
       0.058794468143853626 -0.017828846360653676
000310 2c 22 75 8c a2 06 a5 bf 5e ef e5 98 a4 cb a5 bf
       -0.041066245694825504 -0.042569297470406595
000320 99 20 f4 2b 3f f6 64 3f e8 a5 70 35 68 ce b2 3f
       0.002558825857367064 0.07346202187240858
000330 70 3d 29 86 4f e7 9a 3f 9b aa 76 86 ab f9 ad bf
       0.02627300506929714 -0.058545456089025914
000340 6f 61 34 9a 8d 40 65 bf 33 35 a9 ae b4 05 bd 3f
       -0.0025942578955772603 0.11336831344779767
000350 6b ea c9 c8 da 30 ba 3f cd aa dd 03 5f d8 88 3f
       0.10230796243733102 0.012131445222356341
000360 d4 96 1a 3d 68 c6 bd 3f 2b 42 50 f8 ad 15 8d bf
       0.11630870334428361 -0.014201506748606615
000370 2c e3 70 a8 4b 80 b1 3f 7c 0e 7b 7d 51 5e b4 3f
       0.06836388456657677 0.07956418336385157
000380 8f 51 df a7 3b a9 85 3f af 2f fd ad 60 99 b1 bf
       0.010576692638928601 -0.06874660728243386
000390 88 93 05 90 31 e0 b5 3f 5d 56 a0 f5 be 75 ba 3f
       0.08545217291027829 0.1033591603921535
0003a0 9e 9c 91 a3 c6 af 8a 3f 47 bf f7 f4 f7 79 b9 3f
       0.013030578486178886 0.09951734285982382
0003b0 b0 36 45 6b 6d 1e bc 3f f9 0e 82 d9 db 08 81 3f
       0.10983928555398381 0.008317678046530374
0003c0 e5 73 57 e7 66 67 bb bf a5 4b 60 9d 65 3a a3 bf
       -0.10704653881062105 -0.0375549082383693
0003d0 5c 11 e6 49 44 28 36 3f c7 42 cb 07 8d e2 b9 3f
       0.0003380934448602624 0.1011131423977175
0003e0 22 00 fa ca 99 25 a7 3f 32 58 d6 08 6b 99 a5 3f
       0.04520874598256365 0.04218611224057191
0003f0 a1 0a cd 44 9f 1d 9b 3f f4 b2 2d a3 69 4e 88 3f
       0.026480187010074933 0.011868310253441795
000400 23 46 69 6f 82 84 a9 bf c8 d7 85 41 ba 21 b0 bf
       -0.04983909235000918 -0.06301464175871196
000410 e6 ac 23 61 a8 df be 3f ee 02 09 33 7f 5f c0 3f
       0.12060024615827877 0.12791433326676532
000420 fd 92 19 a6 0b 26 79 3f 57 98 87 eb 60 00 9e 3f
       0.006139798644288372 0.029298319221105675
000430 df f6 dc 1e fa 72 bb bf 69 fa 9f 49 f9 b8 b9 bf
       -0.10722316030020405 -0.10047872588618535
000440 33 99 3d 0a ac 05 bc bf 96 36 f1 bb 4c 77 62 3f
       -0.10946154832854375 0.0022541521753172795
000450 35 05 5f f2 0d de bb 3f e0 ad 77 2d d5 35 ad 3f
       0.10885703246369334 0.05705133609793811
000460 87 8d a6 7e 2c 6a b6 3f 18 1c 9e 4a 75 9b bb 3f
       0.08755758373313514 0.10784085342139382
000470 90 f5 64 a1 3d b1 bd 3f df a9 6e 33 e0 10 57 3f
       0.11598572912494931 0.0014078320943818818
000480 b1 16 16 08 57 9d c0 bf 0b 44 c5 78 6d a5 a9 bf
       -0.12980163473928522 -0.050090237610341225
000490 14 99 c4 b0 bf 47 b5 3f 23 8d a1 c1 f1 ee ae 3f
       0.08312604966758769 0.06041675079975508
0004a0 4c 1c 5c dc ad 4e bd 3f 29 eb fe 41 a0 80 be 3f
       0.11448179845693679 0.11915017710900301
0004b0 f7 0c 33 e5 4c b6 5e bf da e4 80 3c e2 4e b5 3f
       -0.0018745184832347753 0.08323492028366122
0004c0 28 8a 28 d5 63 00 67 3f a1 1f 9b ab 82 d1 a6 3f
       0.0028078031403009525 0.044567187736503706
0004d0 52 f5 b7 de 54 ed b2 bf f8 48 e6 3c f3 1c b4 bf
       -0.07393389165368561 -0.07856674420171206
0004e0 1a da 91 ea e4 f9 b0 bf 0d eb b6 4d 0d da b3 bf
       -0.06631308295059349 -0.07754595897032975
0004f0 1a a0 68 29 54 f5 be 3f 3a 75 ae 44 2c 04 60 bf
       0.12093091975168627 -0.0019551148047428886
000500 d7 f9 b2 30 f4 11 b9 3f b1 46 bd 4d 8b 04 c0 bf
       0.09793020428603626 -0.12513867660395797
000510 09 96 aa fa 20 f6 85 bf e5 d9 7a fa da 8c aa bf
       -0.010723359727601982 -0.05185589130035221
000520 9d cb 7b 84 4a fd b8 3f 11 23 be de 1d 42 6a bf
       0.09761491522276207 -0.0032053550148173422
000530 b2 35 e2 b2 9f 08 99 bf 7b 89 54 f8 67 c7 aa bf
       -0.024446959775152606 -0.05230259806036749
000540 2e 57 f7 fc fc 0b ab bf d1 8c 5b d5 95 43 ba 3f
       -0.05282583797422401 0.10259376963545043
000550 b6 ab cf 10 f9 66 b9 bf 30 4c 2b 7c 88 ee a6 3f
       -0.09922749195508981 0.044788613469471605
000560 35 06 ce 9a 23 5d a3 bf 06 c4 63 2b a8 0d b8 3f
       -0.03781996979433836 0.09395838794058883
000570 6b 9a c7 93 db d7 a2 bf 6b 45 4a f0 76 d3 bb 3f
       -0.03680311373664299 0.1086954437871747
000580 c6 03 d2 ad 2c 99 b6 bf c9 0a 59 9f 22 95 a5 bf
       -0.08827475780164126 -0.042153436614645275
000590 f6 dc 64 af 68 e0 bf bf 7e a9 ab f9 15 e7 ba 3f
       -0.12451795847015376 0.1050885901019338
0005a0 7d 5e b6 6a 0b 23 b8 bf 47 b9 ba 13 c1 9a 96 3f
       -0.09428473811419198 0.022074715451418283
0005b0 10 9f 50 d8 99 78 ac bf a3 2e 5d 89 72 6c b6 3f
       -0.05560761228144717 0.08759227613080127
0005c0 dd a9 a7 94 d5 11 b7 bf 22 f3 fd 93 a9 22 be bf
       -0.09011587981482401 -0.1177164064701626
0005d0 d2 06 7a c1 00 c3 bb 3f 31 bd cb 84 c3 c7 bb bf
       0.10844425891448431 -0.10851690284811323
0005e0 d5 a2 65 f0 69 76 b9 3f 9f 2a 03 bf fc 83 86 bf
       0.09946310156886835 -0.010993933276400468
0005f0 50 bf f1 23 d1 bd bc 3f 88 cc 39 c1 e9 9e 91 bf
       0.11227137687251099 -0.017207767885747433
000600 24 c3 1c 37 e4 1d be 3f 05 1d 5f f0 06 4a ae 3f
       0.11764360757366582 0.05915853199217661
000610 19 15 47 ee 04 53 b3 3f de 3e 19 dc fc 53 bf 3f
       0.07548552338910887 0.12237530110837322
000620 88 91 4d da 6e 6a ab bf 17 c9 d6 98 64 b6 a4 3f
       -0.053546394489589366 0.04045404782972833
000630 e5 6a 3e 9a 8b eb a2 3f e8 54 98 8d 4b 7f 8c bf
       0.03695331819399942 -0.013914671190870156
000640 6c d2 5b 60 95 93 a9 bf 0f e4 aa ec 69 42 bd 3f
       -0.049954097759756205 0.11429464366928264
000650 56 da 4b 02 41 4f b4 3f 6a e9 6c 17 4e 1b 89 3f
       0.07933431917249698 0.012259111490142433
000660 54 1f 9c 5f 5f 67 a8 3f 28 ab 47 fd 1d 91 a5 3f
       0.04766366998779739 0.04212278096004801
000670 cb 50 d3 5a a1 21 a8 bf d6 b6 5b cd ed af be bf
       -0.04713157876690984 -0.1198719622004448
000680 bb 0a 74 60 67 1f 85 bf e6 5e c1 9a dd cd bb bf
       -0.010313804274578833 -0.10861001041609661
000690 20 84 32 65 65 81 b9 bf 27 c9 e6 dc 66 8d b5 bf
       -0.09963067742002396 -0.08418887036421961
0006a0 87 83 50 47 24 ca b5 3f 00 09 3b 73 9f 44 b0 bf
       0.08511568776203947 -0.06354710162398547
0006b0 54 68 26 83 ea a4 b0 bf 2a be 2a 96 a6 f7 a1 3f
       -0.0650164194288732 0.03509255011647057
0006c0 94 e5 37 6f c7 b0 b8 3f 42 72 e1 78 5d 5c b8 3f
       0.09644743409434958 0.09515937997043358
0006d0 18 42 b1 ae 6c 8d bc bf 54 96 ce 93 51 8a b5 bf
       -0.11153296723319561 -0.0841418252808464
0006e0 a9 84 fb 20 4d ea bb bf 2a c7 65 e1 02 bd aa bf
       -0.10904390387760778 -0.052223291410781705
0006f0 31 de c6 be ba b1 ba bf 38 cc 47 85 22 8d be 3f
       -0.10427443654668235 0.11934104684751012
000700 82 d8 71 89 15 7e be 3f 09 4e 8d 9d aa a5 b9 3f
       0.11911139112075556 0.10018411966785136
000710 c1 a8 44 d9 84 03 a1 bf 95 71 06 86 1d b0 b3 bf
       -0.03322997238349635 -0.07690605661486523
000720 00 f0 83 74 00 a3 b5 bf be 5b 3f ed a5 80 96 bf
       -0.08451845974553862 -0.021975128751218646
000730 27 8e 64 85 3b 29 bc 3f b3 09 8c d2 8f a3 b9 bf
       0.11000415808353435 -0.10015200510318926
000740 35 0a 98 b8 c9 50 b8 bf 1d b4 f0 e3 4c cc ab bf
       -0.09498272663771774 -0.05429306299661383
000750 d5 8e e2 ca ab 7c a9 3f 11 66 2a 2b 0e 46 91 3f
       0.04977928973792493 0.01686880243742023
000760 fc 97 b7 47 db fa ad bf 99 7f 96 91 32 30 aa 3f
       -0.058554508690392 0.05114896800227981
000770 bc dd de 6a 69 d7 a9 3f 19 22 3d 26 d9 76 bc 3f
       0.05047158650944136 0.11118848022045603
000780 2f c1 96 37 95 01 aa bf 02 1e 35 2e 13 50 be 3f
       -0.05079332641196498 0.11840934637177017
000790 5b ad 31 b4 0d 69 b2 bf c9 09 7a d0 0f 06 b4 3f
       -0.07191548966664156 0.07821749534381363
0007a0 0b 25 23 34 60 f4 93 3f d8 44 69 ca 08 ff af bf
       0.019486907179076456 -0.062492632587813624
0007b0 74 2b 2d eb 4c 99 ad 3f 64 50 0d 99 67 1d 9b 3f
       0.05781021471792416 0.02647935744910547
0007c0 0b ad e1 58 3e f1 bf bf f1 8f 3e e9 be a3 bd bf
       -0.1247748343463863 -0.11577981180613485
0007d0 ee b8 fc 65 61 cd 84 3f 17 66 de da a1 f6 bd 3f
       0.010157357144262549 0.11704455941653467
0007e0 a2 38 2c fa 18 ef b7 bf 13 28 07 2d 42 cc b9 bf
       -0.09349208934529199 -0.10077298735919298
0007f0 bd 1e 2e 7a bc ad bd bf 61 fa 55 02 29 ac 83 bf
       -0.11593225462831476 -0.009605713256630457

decoder.hidden_ff.bias f8 [64]
000000 1f 04 8c 15 df 59 ad 3f 34 f2 d1 fb 99 18 a4 3f
       0.057326289539567414 0.03925019453979353
000010 4c fe d2 e3 71 e2 b1 bf 0a a0 1c f5 4b e9 7c bf
       -0.06986152469743806 -0.007058426579341423
000020 7a 97 7a fe bd b0 b1 bf 96 8c c4 0e 41 6d b8 bf
       -0.06910312140334254 -0.09541708574811233
000030 f0 0f 7d 25 3f 34 a4 bf ce 7c d0 6f d8 d3 b2 bf
       -0.03946111042617406 -0.07354500512927872
000040 32 5d 95 64 21 2b a2 3f bc 8d 11 48 67 d5 90 bf
       0.03548530915093763 -0.016439069532123915
000050 6b 64 e8 c7 69 17 b9 bf 23 7a 6c 83 90 47 b6 bf
       -0.09801350718079653 -0.08702948769175882
000060 8c 20 58 49 12 9f a0 3f ca 1b 76 7b 13 0f bb 3f
       0.032463618710665804 0.1056987930697765
000070 b2 cb 16 9c 0b 76 b8 bf 9f 29 4b a5 42 74 af 3f
       -0.0955512291027805 0.061433870961610675
000080 86 71 ac f8 f8 5c ac 3f 55 64 0f 9f 9f 26 b7 bf
       0.055396824222245164 -0.0904330981569655
000090 51 71 71 c1 c8 74 bc bf c0 91 ad 6b 85 a2 bb bf
       -0.11115698549969479 -0.10794862631661939
0000a0 8b 05 21 2a 24 79 b1 bf 85 55 ae f5 b7 71 b6 bf
       -0.06825471905269447 -0.08767270801612
0000b0 b5 79 1e d4 45 45 ba bf 13 39 9a 25 45 fc 5e bf
       -0.10261951855361569 -0.001891200567488098
0000c0 73 3b af 10 73 5f b4 bf 61 70 7a 5a 75 bf b5 bf
       -0.07958144337974975 -0.08495267352049175
0000d0 28 ca a7 bb f5 30 b2 bf 81 ea 11 b4 f4 19 bb 3f
       -0.07105956870490415 0.10586480518569809
0000e0 bb ae a7 56 aa 47 bd 3f f3 04 44 fe 26 44 7f bf
       0.11437477698899105 -0.007633354489599886
0000f0 dd 43 1c 52 48 e9 9f bf c7 f9 38 c4 44 3e 82 3f
       -0.031163339625951515 0.008907830465543122
000100 13 73 99 69 ac 61 a2 3f c3 c4 bf db 53 67 aa 3f
       0.03590143956237148 0.05156957681163867
000110 fa f1 47 49 1b 96 b3 bf 63 6f 5a 54 72 50 b1 3f
       -0.07650919474685472 0.06763376769452871
000120 83 dc 78 22 c8 7b 7e bf c6 12 cb 31 ab 8c b5 bf
       -0.007442266250612953 -0.08417768445640225
000130 81 71 fa 10 bb 73 a1 bf d5 8f 1b 8a e0 cb bc bf
       -0.03408608038191386 -0.11248591777581336
000140 a2 39 fd dc 5f f2 bd bf dd dd af 3e 0b c6 bb bf
       -0.11697959084742718 -0.10849066048091723
000150 3c 73 81 13 53 ce b5 3f c5 98 d9 5e 70 f4 8b 3f
       0.0851795122739078 0.013649824041931055
000160 9b 01 ad b8 ef de 66 3f 50 26 de 15 be 06 c0 bf
       0.002791851240005095 -0.12520576541673956
000170 61 34 f5 03 79 84 ba bf 5e 16 48 bd 14 a9 b1 bf
       -0.10358387323977204 -0.06898622151501274
000180 1b 05 c6 31 64 b1 9b bf 18 88 d4 33 a4 52 b7 bf
       -0.027043881929334917 -0.09110475793252737
000190 2d b7 f2 7b ae 60 b4 3f c4 3a 3b d4 2b 12 a6 3f
       0.07960024381710858 0.04310738530840788
0001a0 3b 78 8d 6e 3b dd 9c bf ce 21 18 c0 0d 54 95 bf
       -0.028187683699222737 -0.020828451966765908
0001b0 a9 bf ce 53 78 0c 82 3f 5c 5a df 0e 37 c8 b4 3f
       0.008812847192387912 0.08118003953073
0001c0 0b 92 ed 30 2a 3c a5 bf f5 2a 45 51 9c 59 8c bf
       -0.04147464606538528 -0.013842793684167168
0001d0 32 52 7d f3 5f 2c b4 bf 37 d1 93 34 c2 64 a6 3f
       -0.07880210585182892 0.04373747722448445
0001e0 63 de ec 25 f0 17 be 3f c7 8c dc ec 5f 7f be bf
       0.11755276609334823 -0.11913108380081204
0001f0 1f 9b 72 eb b4 85 ac bf 3f e4 21 f7 33 99 99 3f
       -0.05570760130040341 0.02499848552585981
