saved_model/Lorentz_encdec/best_valid.pt (torch, 73409 bytes, 12 tensors)

encoder.input_ff.weight f8 [64, 1]
00000000: 5b27 12dc b41a dbbf 236d b03f 0800 d3bf
00000010: b876 d17e 3f48 e6bf 9eae dd1c 13f8 d5bf
00000020: 361e 2584 35a3 dcbf 3a24 91c5 a043 e6bf
00000030: 212a 19de b89e dc3f 1971 4bd2 ad92 dabf
00000040: 4465 b40b ad67 c23f 56de 7c2c bfce d23f
00000050: a231 64f0 e651 edbf 8585 1cb2 9317 d2bf
00000060: 9fa4 3d68 0e9d d2bf 1da3 4ea3 cf2d d5bf
00000070: 2991 9fa1 778d b93f d03c 1159 430d c73f
00000080: ff19 0c2e c50f ec3f 37af 0e7b 9a47 cebf
00000090: 1249 e5d2 c32b acbf f28e e4e5 f4af ce3f
000000a0: c884 7654 ab12 eb3f 07c9 be7f 7912 e53f
000000b0: 442c dae8 2fe0 e43f ee90 9743 198e e33f
000000c0: de4c d89f d1dd b0bf 1dcb f7b1 f509 ba3f
000000d0: 31a3 d80e 7425 e8bf bc60 daee 519f dbbf
000000e0: 3367 e1a1 a426 e9bf f3a5 4acb 9635 d33f
000000f0: 2cfd aa6c dada a13f 95fa cd92 7d66 c5bf
00000100: 4dea 0d0e a2a3 ac3f 2efc b3f3 89d5 ecbf
00000110: f6f5 386d 732e eb3f 058e 7ecb acbb d1bf
00000120: be40 07b3 9c3f e63f c446 3d07 e5f8 e73f
00000130: 22e8 7f4c 3d1f e13f ba9c d6e1 942a ec3f
00000140: ad89 9aad c34f e2bf 5aca 1731 ddc2 c93f
00000150: ea56 9fa4 6816 c63f 0027 d7c3 3668 cf3f
00000160: cbcb bca6 1415 eb3f f1a1 ca97 73b5 bc3f
00000170: 75ab 1959 af43 b6bf 5fbb ba98 abc6 9a3f
00000180: 787e 91ce 0799 e33f e7c0 7a81 42fa e1bf
00000190: 2855 d68c ffa3 e13f c6b3 3418 824a d7bf
000001a0: a065 5f49 ac38 ce3f bf62 70fe 719a ea3f
000001b0: e08b c399 1af9 db3f c671 5bdc 1073 ec3f
000001c0: 6504 3550 a764 d9bf c5a7 cc97 342b ddbf
000001d0: 19aa b4bf 6f34 e6bf f2e3 bb14 8d52 e8bf
000001e0: 3fee dcb8 f266 d7bf bf08 e4d4 56b9 d43f
000001f0: f472 62df 8bff eabf eed0 b0f2 ffda edbf
-0.4235050343637476 -0.2968769666637902 -0.6963193394583049 -0.3432662755865098 -0.44746148972305677 -0.6957553728799504 0.4471876305512144 -0.41520257507888086
0.14378893920437907 0.29386882156857064 -0.916247815622729 -0.28268902200405704 -0.2908359544731613 -0.330921086768784 0.09981486984139977 0.1800922570132344
0.8769250773773932 -0.236560163580515 -0.05502139996919388 0.23974477029070546 0.8460289621035821 0.658505200865222 0.652366595067527 0.6110960312039688
-0.06588468697036684 0.10171447367592319 -0.7545719423261287 -0.43159912419788404 -0.7859671746948379 0.3001458153981666 0.03487284256470455 -0.16719026249116511
0.05593592092096298 -0.9010667571855089 0.8494202740909589 -0.27707977173324166 0.6952651497504332 0.7491326466935893 0.535063409245826 0.880197945681082
-0.5722368612953709 0.20125927826991835 0.17255886114315128 0.2453678566219466 0.846323323878431 0.11214373069618212 -0.08697029042529698 0.02614849204718028
0.6124304804361165 -0.5617992905518151 0.5512693167426379 -0.3639226185212546 0.2361045225396028 0.8313531846534586 0.43707909599305417 0.8890461257793099
-0.39676840622639126 -0.4557620508591039 -0.6939009422542909 -0.7600770382842923 -0.3656584554007373 0.323812206174022 -0.8436946261386695 -0.9329833736469746

encoder.input_ff.bias f8 [64]
00000000: 737b 3c84 464e ebbf b588 2500 c87a aebf
00000010: 2036 b5b9 d000 e23f dc67 2867 cedf 8cbf
00000020: 8d95 636e 353c 973f 2408 f759 f48d da3f
00000030: bc82 82e4 c21a bb3f 9f1d f9a1 fc79 e73f
00000040: 4c18 a373 7fa4 cdbf 2ce8 e10b 7c68 d2bf
00000050: 731c 6c85 02b6 d2bf bcd2 e1cf 8472 d13f
00000060: acee 3060 cc5a ef3f 5dd2 9a3f 9a6c cdbf
00000070: b790 15b1 ff39 e13f f3b6 5acb 7d02 d5bf
00000080: e54a 4ee7 d1af dabf 9c48 a407 4fb8 dcbf
00000090: c711 d982 3941 ecbf e559 0f37 6924 debf
000000a0: 14dc 5d5f 481a e33f 0fc9 23d2 439b d13f
000000b0: 8fae 6d8f b30c ec3f b9c3 ca99 6fab ef3f
000000c0: 4f8b 73b2 dd69 edbf c10b c339 b60d d83f
000000d0: 2b0d 89d7 e09b eb3f 7de2 e8d2 c66b efbf
000000e0: 58cd ade7 b5a2 b8bf 9235 ea05 ef8d eebf
000000f0: 7992 ea9f 5e2c f03f cda0 e802 e853 e4bf
00000100: 91f6 2337 7f8a ec3f 7309 38fa a94c cf3f
00000110: fc64 8c6b 83dc b1bf 4b7a 9ad9 6f16 cabf
00000120: 180e d3a1 c085 c7bf f0e0 f175 770b ebbf
00000130: 5157 8137 e70d d13f 1e3a d3fb f3fb afbf
00000140: 0503 f49f 521d f0bf 21f2 bd93 b447 d5bf
00000150: a897 9162 8925 ebbf a7a7 8ec0 de59 bdbf
00000160: a0ff bb0e e470 d63f 55b6 708a 17e7 e53f
00000170: c61f 33ef e864 cf3f 07c6 77b0 f692 c6bf
00000180: f15f 530a ec34 db3f a6b4 3f6b 5a5f e6bf
00000190: e022 f859 06a0 e33f de3b 773f 381f e13f
000001a0: 6f26 cce6 f077 e5bf 142c 3a66 8a94 c23f
000001b0: 7556 3c19 be70 edbf 3a07 ad0f 69c4 d13f
000001c0: 230d 5ecc ad75 c6bf 2482 e0f4 7643 e23f
000001d0: 24d6 4ed1 ede1 e8bf 2af0 e731 d401 ebbf
000001e0: be08 d68a f439 e1bf 3367 e1d7 72f2 e4bf
000001f0: b73a 2d52 5d13 d43f 6ea9 6a2a 6b30 e4bf
-0.8533051092853 -0.05953049661435853 0.5625995280367455 -0.014098751567008287 0.022690615522966296 0.4149142149509564 0.10587709502079695 0.7336409724747915
-0.2315825762399889 -0.2876272312202015 -0.2923589995338666 0.2726146726702543 0.9798337820752372 -0.229876786286371 0.5383299311329414 -0.3282770620233883
-0.4169811972471236 -0.4487493109346674 -0.882961993753775 -0.47097235085439443 0.5969583380345989 0.27510161897147695 0.8765504647576153 0.9896772388220746
-0.919173096215994 0.37583690300760614 0.862778111426825 -0.9819063300447649 -0.09623276621078014 -0.9548258891606329 1.0108324286203738 -0.6352424675760858
0.8919063641512414 0.24452709882468646 -0.06977101684278247 -0.2038097202793828 -0.1837693014295929 -0.8451497367487075 0.26647358341630417 -0.062469124307984666
-1.0071588752909417 -0.3325015490334256 -0.8483321118517226 -0.11465255929093009 0.3506403106584859 0.6844594673072587 0.24526702575371767 -0.17635997406573287
0.42510510452620937 -0.6991397947982889 0.6132842786037962 0.5350610007825443 -0.6708912379992408 0.1451581000477239 -0.920012521065202 0.2776129391751173
-0.17546627501369824 0.5707354338410977 -0.7775792205854413 -0.8439732527472235 -0.5383246146814356 -0.6545957771697658 0.313681917429601 -0.630910475583091

encoder.hidden_ff.weight f8 [64, 64]
00000000: 6c86 8a7c 201d b7bf 29dc b903 8105 a0bf
00000010: b270 88b2 33f2 a43f 138f a666 6e61 973f
00000020: 320f 6d2a 4e36 b53f 511b ca7d 6be8 b73f
00000030: a018 55c6 4503 b1bf 2c79 79d8 e9bf be3f
00000040: 6605 afca 351f 98bf ed8a cc19 f3ef c03f
00000050: a953 1759 cd4d a8bf 4f77 15f7 1fde adbf
00000060: ffde de05 512a 903f 970f a054 ff56 b73f
00000070: 0f9d 27d9 6b10 b23f 99cc a69f a078 b7bf
00000080: d7b0 bae5 7574 b63f 8dfb 2b2d 08c6 aebf
00000090: e435 45ef c422 adbf cd97 61d8 16fc 73bf
000000a0: faa4 3205 9e83 a73f 99e0 b84b 8d48 b03f
000000b0: db56 6ed0 9c3c ad3f 1d7b 0b43 bfa2 acbf
000000c0: 4fe6 962e 3810 9cbf bfe4 5449 dd2c b73f
000000d0: da48 4b38 1b4e 80bf 3103 b606 72c2 b4bf
000000e0: 72f5 4574 4b7b 8c3f 1dac ad92 5fd8 913f
000000f0: b65d 6c1b fcd5 b9bf 7186 ba59 5a1e b63f
00000100: 7dd1 e6e4 a14d 83bf 526e e988 c508 b4bf
00000110: 5048 22c6 dbc0 bbbf 7a3d 46ab f012 a0bf
00000120: d6c0 7613 196e ba3f 9f09 3853 80b0 b4bf
00000130: f216 0f34 a991 a93f 6034 3fd2 6232 8bbf
00000140: 9e0d b16f a6f0 b7bf b47e 9c2f 5063 a43f
00000150: 1653 4ce1 e290 bcbf 7891 16fd 6d54 873f
00000160: 695b 2a1a 92c0 bd3f 77cd a528 cb84 753f
00000170: 774a 3379 dd52 b63f 975a 2bda 57a6 bdbf
00000180: a164 89cb 9fcb b53f 9014 5c8e bde9 b6bf
00000190: 3942 8397 f1bf 7fbf 91c3 d091 94e2 bbbf
000001a0: 26a5 a6c2 ea8f bebf 8e37 83cf 0d46 73bf
000001b0: 5db4 b301 802d c0bf 7fc8 23e8 1381 bdbf
000001c0: e633 3444 0ce3 c0bf 5e8b a150 4828 a6bf
000001d0: 0b3b 2b71 1bed b73f 0dfe 3da1 dbe9 b3bf
000001e0: 4d64 4be8 b3fc b6bf 9b5a 6048 a5da b13f
000001f0: cde7 51d1 7433 ba3f a5a7 f0e4 1a81 9bbf
00000200: 9270 9beb 596e 913f 0253 1c44 892e 983f
00000210: 10c6 c9e1 a868 bc3f bb9c fcbe b0c0 bebf
00000220: c655 1647 0650 b8bf d419 45b8 6f8c a03f
00000230: 72cd 6eb9 9672 b1bf c44b 117e 35bd 95bf
00000240: 793f ee02 a79f 9c3f 64f3 72ae 84f5 bd3f
00000250: cbf0 b602 4ceb b3bf 96d9 b3e6 aead bdbf
00000260: 9d7a 860b e645 b13f fae1 d4dd 2593 b33f
00000270: 6fc3 9e26 3ced 753f cedf 48e3 31c8 963f
00000280: 14dc b16f 57fd b03f 2941 ca1f 8508 93bf
00000290: 41cc d668 9525 bb3f a692 5004 99ef 9f3f
000002a0: d0c3 eef0 9a66 8a3f 5bdf 9869 e8f4 5ebf
000002b0: 749a a2ae 0496 83bf c31b 32a5 bdd1 b3bf
000002c0: 769c 7eb1 9061 b5bf cdbc 8e33 a203 b2bf
000002d0: dc10 6090 c651 a53f b91b 67c9 c3c0 a03f
000002e0: 034f cf51 01c2 37bf 4561 33fc a362 a8bf
000002f0: 5338 8d92 7df5 a7bf 554e 84ee 3679 bcbf
00000300: 0da2 da98 2023 a53f 1418 7fbd 3e55 c03f
00000310: 44bf 7d28 9312 b33f 9d65 cda9 5bbd bdbf
00000320: d10e f004 cfca b43f 8eed 082e 8028 a13f
00000330: b8ab 98eb 1b98 923f d38f f770 b7e3 babf
00000340: 5fd2 586f 5e6e c0bf 575e 896b 8b59 b73f
00000350: b474 f641 1653 c0bf 7802 dae1 bacd b43f
00000360: 6ce4 b338 31be b2bf 2b95 c85e 46b2 9abf
00000370: d799 7270 b7d0 b13f c956 d1a2 e643 ab3f
00000380: 7578 bb65 3143 be3f b86c 1103 24c2 b8bf
00000390: 87d7 f445 1330 adbf e35b 48f1 dcce b63f
000003a0: 8307 c80d 9f43 bdbf 5ce2 99d5 4794 b4bf
000003b0: e674 65a6 6aae ac3f 2cfb c63b e7ba bd3f
000003c0: 759d fefe 306b b33f d8c5 1ea2 c45b a13f
000003d0: 7490 b308 0c01 b33f 940b 21bc f131 b8bf
000003e0: 4065 7c78 4d8d 973f cc75 b417 8b49 b2bf
000003f0: 1205 0d0a 4105 a2bf 9c1a a1f6 fdd9 b8bf
00000400: 005c b144 1a8e b7bf ff38 e5c3 75b7 c1bf
00000410: c3af 823a 34bc b43f f396 be3d df18 b6bf
00000420: 4fdc 71e4 2d17 b5bf 2d01 36f3 9082 a53f
00000430: fa1d 65db 7fb3 683f b021 85d5 d05c ad3f
00000440: 41e9 116b d739 a9bf ce28 01c0 7dd2 b03f
00000450: 12ea 7fe6 ab20 8d3f fa3e ac48 1bd5 803f
00000460: b700 892d fc56 bbbf a2d8 39c9 0927 c13f
00000470: b5db fefc b5b2 b4bf eef0 305f 0a1c b13f
00000480: 0622 e862 8c5d 333f 8f26 7ac4 6e76 a73f
00000490: 6776 9bb9 f623 a7bf 17f9 8d52 3ca3 81bf
000004a0: 01b6 bc09 5c31 91bf 40fb 0017 f424 a0bf
000004b0: f4fc d360 518e ac3f 2670 4df2 1560 ad3f
000004c0: 5c0c 96c2 b1c0 a53f 9722 c4f9 33d8 8a3f
000004d0: e27d e407 1f35 bb3f c1ea 20fc 54ad b7bf
000004e0: 65dd 8a79 7efd 9d3f a2a8 e0bd 33ae 9f3f
000004f0: d59d b74f f241 85bf 3f7c 42e3 67d6 bb3f
00000500: 3900 1871 9c4d a6bf 4042 aa63 0801 c0bf
00000510: 738e dd2e 4430 813f 9058 818c 5991 b73f
00000520: e14e ad0c 810f c2bf 3f84 57dc c74a b03f
00000530: e7b5 93c3 16cd a73f 99ee a7db 44a2 bebf
00000540: 85d1 7f43 7384 9cbf a740 1614 83fb b4bf
00000550: b369 4f09 5078 c03f 095c 4113 e66a aa3f
00000560: d145 4814 4f64 113f 6404 d9e9 3f6a a2bf
00000570: 2dd9 bee3 e305 a6bf 0a7d 4a67 62e4 aabf
00000580: 5805 9e7f 3912 89bf 329f 18a7 9b8f b8bf
00000590: a61a 243f 8152 b73f 2dde 8d5b 542b bdbf
000005a0: 9672 3d05 ba06 99bf 5c2b 9b4e f3ae c0bf
000005b0: fa75 459d c418 bb3f e870 4408 a1a1 bfbf
000005c0: 85c9 a304 9215 b9bf cd17 1cca 1b89 b2bf
000005d0: 622d 092d 24e1 813f 3644 5630 e437 b6bf
000005e0: 11f1 a9ba ec1c bc3f 52f2 c724 9a52 b2bf
000005f0: c4a2 fcbd f2ac 7b3f de90 e46d 5511 983f
00000600: c854 6c5b fa01 c13f 5609 f7a1 1e8a ba3f
00000610: a60f 8857 7fbb aebf fdaf e4e7 25d9 a63f
00000620: f8a5 3231 6aef a33f 8c1b 1fcd 4176 b73f
00000630: 6f04 ad35 cf07 913f d99d c861 6d23 bfbf
00000640: e5d6 d172 124a a23f 24e4 9a0e 3d2f ba3f
00000650: 4605 1ee0 12b6 95bf 6fd9 3fc7 dd8a a5bf
00000660: b92f 00e2 9ed7 8dbf b6b2 1ffa a494 bb3f
00000670: 18bf 8e3e 0980 c1bf be8d fdbb 2361 bcbf
00000680: 0de6 71ae 5f1e b7bf e327 6d4a 3f36 ab3f
00000690: 67a2 0a90 e53f bc3f f58d 3ef4 2a70 ad3f
000006a0: 8ad2 61e8 6dfe adbf 1f5f 113c a538 b03f
000006b0: 1f6e 875e e5c8 b4bf b691 eee3 0f4a c1bf
000006c0: ec7a 2a2f 95bd bc3f 62b0 4a6f fe43 88bf
000006d0: e0dd 1249 8386 acbf 7c16 c86b 71ba b0bf
000006e0: 9b5e e697 d6f3 92bf 1e37 e0d7 2d71 9d3f
000006f0: 6fd3 0f48 380a b03f fc4f 3a69 3bfa a73f
00000700: 84a3 553e f1aa 88bf eb5d 39bc 2e84 b5bf
00000710: 05f2 3905 6fb4 ba3f 97c4 9341 f6b3 b1bf
00000720: 7976 cd48 ecbf b1bf 9066 2929 5689 b73f
00000730: a1ba 3066 fc10 b33f 927f cb3b e4a6 bebf
00000740: 5a0f c4f5 9c2a 75bf f8c8 d6c1 15db b53f
00000750: 6844 5f22 187a ad3f 8f3f 45bd 358d b83f
00000760: f7b7 1e98 6621 ad3f 2b1e ee78 bfdf 98bf
00000770: 3cc7 f84e 1097 8b3f fd3f 56fb 5452 b1bf
00000780: ca54 1ddc 7a85 be3f 1a45 8355 5fcb a0bf
00000790: 313e 8837 135b c1bf 2030 8f97 dba9 b43f
000007a0: af99 b892 5e76 91bf 8365 8f33 2106 97bf
000007b0: d956 88a2 0496 b7bf 0018 4de8 2bdc aa3f
000007c0: 20b4 4e32 ead7 b4bf 1f88 5edf 8ead bebf
000007d0: c699 4ea5 1e81 a7bf 5c3a 6ff9 e035 b53f
000007e0: 3a28 771f 7233 bcbf c7c6 2bc0 4e32 b23f
000007f0: 647c b3ad d1c1 adbf 76e7 a0d1 4bae acbf
-0.09028819122843296 -0.03129199190600957 0.040910354178977384 0.022832608237549467 0.08285988364974342 0.0933901960471364 -0.06645618526553898 0.12011586699506854
-0.02355655717452034 0.132322681042829 -0.04746858322656717 -0.05833530322227764 0.015786424620926272 0.09117122474714133 0.07056306888226892 -0.0916843786024394
0.0877145467627004 -0.060104613794457064 -0.0569058935239857 -0.004879082907882149 0.04592603505563804 0.06360705469785656 0.057103062098730915 -0.055929161962686026
-0.027405622333139864 0.09052832641909257 -0.007961475997408863 -0.08109200157015263 0.013907041059378431 0.017426961257495422 -0.10092139882578163 0.08640064898147572
-0.009425415800117016 -0.07825884430479249 -0.10841153704885298 -0.0313945015978971 0.10324246144478208 -0.08081819564544056 0.049939429859973475 -0.01327969745752905
-0.0935157797512631 0.03982019978707055 -0.11158578873103084 0.011391505514276132 0.11621964587025747 0.005253594960197608 0.08720192154877703 -0.11581944538498089
0.08513830870778573 -0.08950409627512301 -0.007751411169195915 -0.10892609176586478 -0.11938349964352266 -0.004705480525627593 -0.12638855059722945 -0.11525082032656718
-0.13192895250577336 -0.04327608093514955 0.0934617186824022 -0.07778713881088369 -0.08979343816044257 0.06974251763345267 0.10234766111707856 -0.026859684203521934
0.01702251911670822 0.023615021497863438 0.11097198021322918 -0.12012772238505225 -0.09497107730415796 0.0323214447440027 -0.06815473582428469 -0.02122958738284432
0.02795277552974038 0.11702756175050194 -0.07780909601473522 -0.11593144543062403 0.06747281819705582 0.07646404901323214 0.005353198017403623 0.02224805783973221
0.06636568524287184 -0.018587188782988626 0.1060422306971285 0.03118743027529782 0.012891016462022536 -0.0018894452717983154 -0.00956348092979662 -0.07741914065455462
-0.08351997693408628 -0.07036794432382294 0.04163952362435605 0.03272067864923351 -0.0003625157567601485 -0.047627567802637695 -0.04679481901131113 -0.11122458766140515
0.041283625277461856 0.1276014733577432 0.07450217951349908 -0.11617062469067325 0.08121961470174745 0.03351212083768039 0.018158375029240864 -0.10503717906936964
-0.1283681911169365 0.09121009231000109 -0.1275356123050294 0.08126419080691416 -0.07321460375159611 -0.026070689711692168 0.06959101195625493 0.053252417922221414
0.11821278318117996 -0.0967123515596765 -0.05700741032562378 0.08909397974672077 -0.11431306921443078 -0.08038758244391303 0.056018193065691155 0.11613316735654838
0.07585436082319126 0.033903260030807736 0.0742347260707577 -0.09451208918566883 0.022999964217068625 -0.07143468216641863 -0.03519633529368539 -0.0970762946245522
-0.09201206376143034 -0.13841125550465702 0.0809967654083144 -0.08631701714929445 -0.08238493754639474 0.04201176613696798 0.00301527950356095 0.05734875303693643
-0.04926942045217909 0.06571184098825997 0.014222472163955256 0.008218968539523076 -0.10679603683184068 0.13400385213362137 -0.08085191179894376 0.0668341143036206
0.0002954929103969054 0.045825444683100895 -0.045196256787431825 -0.008612128514638813 -0.01678985413962231 -0.03153193264778631 0.055773299283822825 0.057373700931492785
0.042485766413869114 0.013107687053449708 0.10627931540192706 -0.09248858600123368 0.029287315529214725 0.030937965835769028 -0.010379689271714657 0.10874032305081104
-0.04356087570704443 -0.12503151766260778 0.008392841987819843 0.09206161194137708 -0.14109814757340813 0.06364106301727278 0.04648657929815752 -0.11966352808661397
-0.02784900760157562 -0.08196276894000452 0.12867165045356685 0.05159682259607485 6.634457265188651e-05 -0.035966870590080885 -0.04301368861290409 -0.05252368460537056
-0.012241791922636011 -0.09594128446098862 0.09110267440346806 -0.11394240603646529 -0.024439722604585677 -0.1303390630549427 0.1058466800654613 -0.12356001331176325
-0.09798538792873586 -0.07240461048431186 0.008730204224000008 -0.08679033451177606 0.10981635625097776 -0.07157290838217392 0.006756733142346764 0.023503622848822008
0.1328728624727431 0.10367003874038025 -0.06002424186229342 0.04462545829514395 0.0389359650665248 0.09164820916985955 0.016631353045572114 -0.12163432729050018
0.03572137500388609 0.10228330236977051 -0.021202368668587178 -0.04207509095424455 -0.014571419975275878 0.10773688417948332 -0.13671985201426007 -0.11085723247156573
-0.09030721672925086 0.053148248515370054 0.11034998671187567 0.05749639731882531 -0.05858176671691691 0.0633643409395259 -0.08119042928540708 -0.1350726950596603
0.11226780320655977 -0.011848438044886393 -0.05571375147831836 -0.06534489518534231 -0.018508294125779128 0.028752056408897102 0.06265594252893235 0.04683099421995959
-0.012044796671675469 -0.08404819579424554 0.10431569936367431 -0.06915225125318823 -0.06933476235777815 0.09193933968472323 0.07447793478852784 -0.11973406276547241
-0.005167592167939572 0.08537422163388786 0.05757213038999326 0.09590469237195819 0.05689545256551292 -0.02429103065108344 0.013471724901225827 -0.06766253601222157
0.11922424196139328 -0.03280160826546759 -0.13559189044507172 0.08071682405642422 -0.01705310602678772 -0.02248432042310845 -0.0921328446205182 0.05246102534015051
-0.08141959884842764 -0.11983578637458024 -0.04590698020847443 0.0828533753367337 -0.11016000049781463 0.07108013335871553 -0.05811934705138169 -0.05601727422658957

encoder.hidden_ff.bias f8 [64]
00000000: e348 383c ddac ab3f b13b ed3f cf59 b33f
00000010: 0e4f 5672 5415 b4bf da67 2867 9e9e 8dbf
00000020: a41a 6764 f236 b2bf 65df 2398 c228 b4bf
00000030: bc82 8264 9aca b43f 789b b881 f5a2 82bf
00000040: d806 6374 6a3d 7fbf 24be f0a0 82a7 a93f
00000050: 1626 075b e5c9 70bf f795 0eff 3911 ab3f
00000060: 0d75 8701 d8b6 b13f 9c49 6b7e 8307 afbf
00000070: 080c 5991 33f6 ac3f bd48 2aa5 169c a03f
00000080: 342c 399d 869c b2bf 258a 447a e3af 9abf
00000090: b71d 91ad a70c adbf 30ed ac87 1baf 62bf
000000a0: f6bf dd75 b573 aa3f 87e0 86bb 394f 8fbf
000000b0: 868c 9244 74ea b8bf 120f 2b07 1a67 c13f
000000c0: 5e5b 9cd3 4426 babf ff2e 0c27 1fe5 bd3f
000000d0: a097 b703 51fe bbbf 4d13 47d7 312a bcbf
000000e0: 4c19 29ec 0d2a c03f 4cad 516f f105 b2bf
000000f0: 8253 52fd ebf0 a53f 48fa ba68 e5a7 b93f
00000100: 47aa fdc8 574e 873f 6312 70f4 f9ec bd3f
00000110: f56b ce51 b2f4 983f f316 9619 5e5c af3f
00000120: 6f38 4c87 4782 a1bf 18f3 e120 ba73 a93f
00000130: 7813 d50f 7de8 84bf 259d e97d 5646 b7bf
00000140: 9131 403f 6539 b9bf 1b22 df3b a79e 93bf
00000150: 9942 732b 63f0 b93f 5f4f 1d81 9ab5 adbf
00000160: 6805 4014 2e19 92bf b0b2 85d3 60cd b33f
00000170: ef3f 669e 68fc b93f 07c6 7790 c51a c1bf
00000180: a400 65ad 683d aebf bb5a 0266 44e8 bd3f
00000190: 1e53 043f 4cae 983f 1889 1811 c77b 90bf
000001a0: 2ccc 9ec9 ccdd bc3f b960 d131 65bc 903f
000001b0: 0369 eab0 7b63 893f e6c5 9782 2ab8 acbf
000001c0: 1769 f062 db07 9dbf 8f11 0427 b03e b53f
000001d0: 0a61 ed14 5df1 a7bf 997e c0f0 eb5d bb3f
000001e0: 3ded 3ea5 aea6 933f e29c 859f 672b c0bf
000001f0: ce2a 966e bda1 a5bf 574c 5593 08e8 b2bf
0.054053224183137315 0.07558913527212387 -0.07845046798166441 -0.014462697528006819 -0.07115092231024761 -0.07874695028647023 0.08121647790768355 -0.00909988214614342
-0.007626930082723603 0.050106126924557765 -0.0040987929537066505 0.05286580313194727 0.06919622456867476 -0.06060419958307081 0.05656586789384482 0.03244086042572423
-0.0727008947225592 -0.026061586701994117 -0.05673717492805557 -0.002280763406273721 0.05166403831287873 -0.015287829432836254 -0.09732748674518818 0.13595891332635596
-0.10214643636969131 0.11677736953077654 -0.10934931126356995 -0.11001883989145007 0.12628339797283628 -0.07040318458318956 0.04285371272377515 0.1002181416215332
0.011379895993475787 0.11689722268790485 0.0243709433012604 0.06125158369381536 -0.03419707800468152 0.049711052431098135 -0.010209061666168515 -0.0909170205501267
-0.09853203577239912 -0.019159901646874738 0.10132427035137893 -0.058026149998709135 -0.017674179063765477 0.07735257305257437 0.10150770060704394 -0.13362950853438368
-0.05906226269371587 0.11682536592921171 0.024102393480535438 -0.016097174089858418 0.11275939867373158 0.01634367100300047 0.012396780334985374 -0.05609257549430051
-0.028350284494174618 0.08298779442345093 -0.04676333313426724 0.10690188052876194 0.019190529666713408 -0.12632460869938372 -0.042249603032436064 -0.07385305020334108

encoder.output_ff.weight f8 [1, 64]
00000000: 0000 0040 15ee be3f 0000 0040 2160 b0bf
00000010: 0000 0080 653a a73f 0000 0000 0052 29bf
00000020: 0000 0080 0c6a b43f 0000 0000 d17c a4bf
00000030: 0000 0000 6c2a bfbf 0000 00c0 ba19 b7bf
00000040: 0000 0000 ce1e 853f 0000 00c0 71a5 b03f
00000050: 0000 0000 ddc8 99bf 0000 0000 a8fd 82bf
00000060: 0000 00c0 1de0 bfbf 0000 0080 99e2 b83f
00000070: 0000 0000 3e04 b6bf 0000 0000 1212 8bbf
00000080: 0000 0080 935f a93f 0000 0000 70b4 8abf
00000090: 0000 0080 fc81 ac3f 0000 0080 3702 a83f
000000a0: 0000 0080 29ba ba3f 0000 0040 0553 b6bf
000000b0: 0000 0000 561c bfbf 0000 0000 4cfc b23f
000000c0: 0000 0000 80ef bbbf 0000 0000 eeba b13f
000000d0: 0000 0000 bc3a a1bf 0000 0000 87ea a93f
000000e0: 0000 00c0 7a9e bfbf 0000 0080 79c9 b2bf
000000f0: 0000 0080 6f1c bdbf 0000 0080 8a6a b03f
00000100: 0000 0000 8721 bebf 0000 0000 d6a0 a03f
00000110: 0000 0000 b05e acbf 0000 00c0 ecb4 b93f
00000120: 0000 0040 9aff bfbf 0000 0040 8c31 b3bf
00000130: 0000 00c0 2871 ba3f 0000 0000 3028 7dbf
00000140: 0000 0080 1ab0 a5bf 0000 0040 ee83 b73f
00000150: 0000 0080 cd1a ad3f 0000 0000 693d a43f
00000160: 0000 0080 d125 b63f 0000 0080 a345 a5bf
00000170: 0000 0000 a0dd 84bf 0000 0000 a216 a73f
00000180: 0000 0080 d432 aa3f 0000 00c0 f8e0 bbbf
00000190: 0000 0000 8732 b53f 0000 00c0 f1c2 b5bf
000001a0: 0000 0080 c489 ab3f 0000 0080 f5a2 a4bf
000001b0: 0000 0000 6ef5 a73f 0000 0000 9e95 afbf
000001c0: 0000 0080 a82b bfbf 0000 0000 defb b73f
000001d0: 0000 0040 2b8d bb3f 0000 0000 32a1 9bbf
000001e0: 0000 0000 4d1d a8bf 0000 0000 ff20 a73f
000001f0: 0000 0000 95ad 9f3f 0000 0000 c623 8b3f
0.12082035839557648 -0.06396682560443878 0.04536740481853485 -0.00019317865371704102 0.07974317669868469 -0.04001477360725403 -0.12174105644226074 -0.0902363508939743
0.010312661528587341 0.0650244802236557 -0.02518029510974884 -0.009272873401641846 -0.12451349198818207 0.09720763564109802 -0.08600223064422607 -0.01321806013584137
0.049557313323020935 -0.013039469718933105 0.05567921698093414 0.04689191281795502 0.10440310835838318 -0.08720429241657257 -0.12152612209320068 0.07416224479675293
-0.10912322998046875 0.06925857067108154 -0.03365123271942139 0.05061742663383484 -0.12351195514202118 -0.07338675856590271 -0.11371514201164246 0.06412568688392639
-0.11769908666610718 0.03247708082199097 -0.055409908294677734 0.10041694343090057 -0.1249939352273941 -0.07497479021549225 0.1032891720533371 -0.007118403911590576
-0.042359188199043274 0.09185685217380524 0.05684511363506317 0.03953102231025696 0.08651456236839294 -0.04154692590236664 -0.01018834114074707 0.04509454965591431
0.051169052720069885 -0.10890154540538788 0.08280223608016968 -0.08500586450099945 0.05378545820713043 -0.04030577838420868 0.046794354915618896 -0.061688363552093506
-0.12175992131233215 0.09368693828582764 0.10762281715869904 -0.026982098817825317 -0.0470985472202301 0.04517361521720886 0.03093560039997101 0.013251826167106628

encoder.output_ff.bias f8 [1]
00000000: 0000 0000 2c16 bf3f
0.12143206596374512

decoder.input_ff.weight f8 [64, 1]
00000000: 0000 0080 ec35 ee3f 0000 0080 5c67 efbf
00000010: 0000 0040 8a44 ed3f 0000 0080 86a3 d5bf
00000020: 0000 0080 2378 d73f 0000 0000 8041 a73f
00000030: 0000 0080 1587 df3f 0000 0000 43a5 d8bf
00000040: 0000 0000 34b3 ef3f 0000 00c0 d0e9 e63f
00000050: 0000 0000 0c84 c83f 0000 0080 9763 eabf
00000060: 0000 0000 098b d4bf 0000 00c0 8dd3 e33f
00000070: 0000 0080 7d80 debf 0000 0000 7eea c6bf
00000080: 0000 0040 5ab0 e73f 0000 00c0 5222 e53f
00000090: 0000 0000 f638 ce3f 0000 0000 f329 d0bf
000000a0: 0000 0000 f5a7 d6bf 0000 0000 b6e1 cc3f
000000b0: 0000 0000 7860 94bf 0000 00c0 8189 eb3f
000000c0: 0000 00c0 8c64 eebf 0000 0080 f812 debf
000000d0: 0000 00c0 6c5c ec3f 0000 0000 a4f3 cfbf
000000e0: 0000 0000 6466 e6bf 0000 0080 da41 ec3f
000000f0: 0000 0000 8743 de3f 0000 0080 80f5 e0bf
00000100: 0000 00c0 348f ef3f 0000 0000 9bf1 ef3f
00000110: 0000 0000 b68a e63f 0000 0000 a858 b7bf
00000120: 0000 0080 e38a d73f 0000 0040 ad1e e4bf
00000130: 0000 0080 50a3 e5bf 0000 0080 8ef6 d33f
00000140: 0000 00c0 3035 e23f 0000 0080 3ace d2bf
00000150: 0000 0000 c944 d03f 0000 0000 6970 d23f
00000160: 0000 0080 839d debf 0000 0080 4b60 ddbf
00000170: 0000 0000 f96a c9bf 0000 0000 65a9 c8bf
00000180: 0000 0000 efdb d8bf 0000 00c0 f7e5 e9bf
00000190: 0000 0080 312f e5bf 0000 0040 3d69 e4bf
000001a0: 0000 00c0 d6fc e5bf 0000 0000 9637 e2bf
000001b0: 0000 0000 74c1 d5bf 0000 0000 2928 d0bf
000001c0: 0000 0000 c9df d0bf 0000 0000 9c86 c13f
000001d0: 0000 0000 cb3f d93f 0000 0000 fe36 ddbf
000001e0: 0000 0000 34d0 a5bf 0000 0000 7bdf debf
000001f0: 0000 0000 306a b4bf 0000 00c0 206d e83f
0.944082498550415 -0.9813673496246338 0.9146167039871216 -0.33810579776763916 0.3667076826095581 0.045421600341796875 0.4926198720932007 -0.3850867748260498
0.9906253814697266 0.7160419225692749 0.1915297508239746 -0.8246572017669678 -0.3209860324859619 0.6195744276046753 -0.47659242153167725 -0.1790311336517334
0.7402774095535278 0.6604398488998413 0.2361133098602295 -0.2525603771209717 -0.3540012836456299 0.22563815116882324 -0.01989924907684326 0.8605355024337769
-0.9497741460800171 -0.46990787982940674 0.8862823247909546 -0.24962282180786133 -0.6999988555908203 0.8830387592315674 0.4728715419769287 -0.5299685001373291
0.9862312078475952 0.9982428550720215 0.704432487487793 -0.09119653701782227 0.3678520917892456 -0.6287447214126587 -0.6761858463287354 0.311923623085022
0.5689929723739624 -0.29383718967437744 0.2541983127593994 0.28811097145080566 -0.47836387157440186 -0.45900237560272217 -0.19857704639434814 -0.19266951084136963
-0.3884236812591553 -0.8093222379684448 -0.662010908126831 -0.6378465890884399 -0.6871141195297241 -0.5692853927612305 -0.3399324417114258 -0.25245118141174316
-0.2636587619781494 0.13692045211791992 0.3945186138153076 -0.4564814567565918 -0.04260408878326416 -0.4823901653289795 -0.07974529266357422 0.7633212804794312

decoder.input_ff.bias f8 [64]
00000000: e0b9 6c20 ef74 d2bf d12d da24 493c d63f
00000010: adf0 5460 eae8 e4bf 1174 b37e 55ef debf
00000020: cac7 9f20 768c d63f af13 8d05 3303 e53f
00000030: 11a3 0126 77c3 d13f 1903 26a5 dbeb db3f
00000040: 7d90 be28 1c23 cb3f 5387 a2df 2e24 cf3f
00000050: cc30 eed2 b2f4 d23f 8f39 3a28 9e38 edbf
00000060: 136e fad0 1703 dbbf c74e ece7 e07e da3f
00000070: a7f7 6961 ad47 d33f 9c0f aefb 9c8e e6bf
00000080: 2cd4 1ea8 9f11 e53f 16d8 fe4b 3f04 e43f
00000090: f851 7498 5185 dbbf 182a b333 ad7f e6bf
000000a0: 2359 ee1d afc5 c33f 1e84 81f5 b6c6 cfbf
000000b0: 6dfc d87a 1494 ecbf d5c3 774c 36bd d43f
000000c0: bf1c 0b8e 835a e03f e66a dad6 a3da c13f
000000d0: 4f50 b1c4 1326 b83f 0ccd 86b9 4440 dc3f
000000e0: 4d85 fc44 9592 9a3f 2749 edce 09d5 c43f
000000f0: a702 6a5f 15a2 eabf 4ef1 c45b 05cb e03f
00000100: f323 17b3 8e22 ee3f dfea c612 dde6 c0bf
00000110: deb0 08da 0fcc e6bf 2e90 f38d 1ee1 993f
00000120: 057e f297 5701 a5bf 8b99 9411 de47 8c3f
00000130: ba8e 30f1 0f6f d73f bbde 93f9 c808 dfbf
00000140: 31b9 7eba 1071 d53f 0ab8 4cac 373f eb3f
00000150: 976d 04e7 18e7 e53f 10b0 5411 3f71 c73f
00000160: 891c f94d a284 ecbf a016 9f98 76a9 edbf
00000170: 33de e06c 6745 ed3f ccd3 9c6e 0707 e0bf
00000180: 666a f2c7 a1ea c83f 3115 2e51 b8b8 d3bf
00000190: 4aa3 ee3b 8d5f bc3f a9f3 ab6a 7598 e2bf
000001a0: c8c5 c6e7 fb5b bebf 7571 7625 6331 dd3f
000001b0: 6f7e 9eb9 4fc8 ecbf e893 dbbd 15de b1bf
000001c0: cce1 93f8 d120 e43f 64db 6973 d43b e6bf
000001d0: 625f ba1a 4c2d ecbf ddfa bfd5 be2f eebf
000001e0: 5a2c b3a9 6316 df3f 3d23 7cf8 b53c d7bf
000001f0: 4440 433e b153 e6bf 6f4e d3ea 11a5 dd3f
-0.2883870903632708 0.34742954825261757 -0.6534320718269747 -0.48335778592246564 0.3523230856509342 0.6566405399722636 0.2775552626758762 0.43627062919408527
0.21200897206756855 0.24329172057792423 0.29618521307635315 -0.9131613527004435 -0.4220637837222238 0.413994051444416 0.30124983323173143 -0.7049088397620724
0.6584013255693484 0.6255184635435878 -0.43001212967035896 -0.7030855188143645 0.15447033845402655 -0.24825179088205201 -0.8930761718146535 0.3240485903507396
0.5110490583691883 0.1394848631942615 0.09433101226869776 0.44142263524845826 0.025949795089336637 0.1627514133820764 -0.8322855819279383 0.5247828285569456
0.9417184350833153 -0.13204539696547266 -0.7124099024272501 0.02527282468226149 -0.04102586488556529 0.013808951293481161 0.36615370324782825 -0.48491119740308947
0.33502596104053156 0.8514669766643703 0.6844601165825449 0.1831435045836547 -0.8911906741058299 -0.926936433876751 0.9147221685916008 -0.5008580360796429
0.1946603990844153 -0.3081494133733314 0.11083300316989866 -0.5811106761390096 -0.11859106453518742 0.45613936098541014 -0.8994520783780454 -0.06979499707411174
0.6290063719780448 -0.6948034528894422 -0.8805294534713364 -0.9433283018878132 0.48574153492217464 -0.363080494557426 -0.6977163520878169 0.4632000725953053

decoder.hidden_ff.weight f8 [64, 64]
00000000: 84d8 c130 7d20 923f 93c9 3ef0 00aa 9d3f
00000010: dac4 5433 a191 bb3f 071f 8597 c2e4 b03f
00000020: 6963 cc21 181f 643f 1b59 faab f55f b43f
00000030: afca 2f02 f53e 983f 4666 da60 0675 b3bf
00000040: a6d8 c3e3 3889 b3bf 1357 03a5 2e30 a03f
00000050: 9ad4 52ab 740c 87bf c411 778b 9acf b53f
00000060: 580f 478a 27f3 b3bf e2f8 a50a 46d9 9fbf
00000070: 9ef3 6d9e 0b41 86bf a239 59e8 2407 9c3f
00000080: d1a5 d473 9df2 b13f 7d01 a941 f955 b0bf
00000090: bb19 d365 5b69 c03f 6d56 3ecc f3af bdbf
000000a0: dd98 f313 1efa a23f 8a1b d19d 194d 94bf
000000b0: 9e5d fd85 091d bbbf cf42 3732 826b 823f
000000c0: 31c5 3530 1f0f b5bf cf32 1991 20c2 a93f
000000d0: 612f c20f 7ea7 ac3f 9d52 4a03 4413 afbf
000000e0: d0ad 6dd6 2219 a43f 15b7 cbc9 dfc6 943f
000000f0: 7f1e 8d58 d004 9dbf 5fc0 5098 2bf2 b8bf
00000100: c67d cc8e 5992 b3bf 59cf fb43 4902 b8bf
00000110: a639 5f37 c480 b7bf 4f1d ca1f 1147 bdbf
00000120: ca4e f46b 4e8a afbf 2c65 1dcc f68b b53f
00000130: bb6f 1c82 650f 9b3f cf91 11d8 5d35 bcbf
00000140: 31ef d152 3980 b43f 9625 0f00 52f8 bb3f
00000150: 6cc8 397f 02cf b6bf 71bf 0fa0 1bc7 7d3f
00000160: 98f7 d8b0 e208 9b3f b758 9d56 1a3f 7ebf
00000170: 7728 398a 01ba a8bf e22f 1ced 0c92 6d3f
00000180: f0fa fb05 0ef5 b73f 9399 079c 8d2b a7bf
00000190: 0c47 20bf 3dbd a9bf 04f0 2dd3 1aa7 bbbf
000001a0: 6195 a9e2 7a9a ba3f ffcf 1759 55b6 9cbf
000001b0: 3deb e8b7 4c5e a8bf 86a1 2f89 7555 bc3f
000001c0: 03ac 3165 b4b1 b63f e112 02a0 6c27 a93f
000001d0: cf4d 7d72 21cc a2bf 6876 7701 d883 93bf
000001e0: d0af 09bd 802a b03f a4a6 3efd 30ab b03f
000001f0: ad87 bf80 560b b1bf 71d4 713c 7ecf a7bf
00000200: 5136 9b36 cded b13f 6b84 1a47 6f4c ab3f
00000210: a11b 3f8f 154e acbf d6a1 fcd8 8071 b23f
00000220: 8b4b 3333 eef0 a93f 6de4 65bb 537a 85bf
00000230: 8865 2c9c 6b05 aa3f 0f49 bafd a1cd 99bf
00000240: 66f5 de5b 9aa8 9f3f 0051 1b41 130c 7b3f
00000250: d6f7 1eb6 5479 b1bf f342 b87d 6665 bbbf
00000260: 6da9 bf52 bca5 763f e9e0 2619 48f0 b1bf
00000270: 3abf 9e7b 3476 c03f 1e3d 8fa0 9ee5 a8bf
00000280: 7330 cf7e a69f b53f 02cb 3641 f2ee b1bf
00000290: 087c b004 a339 9e3f daee f119 e89c b13f
000002a0: 1bdf c912 5868 b7bf e07b d782 6866 a0bf
000002b0: f867 d7bf 3493 793f 42fe d02b 714d a5bf
000002c0: 686e 24d7 93e6 833f 2ed5 a9dc f082 b13f
000002d0: c838 e519 b584 91bf acc3 9055 23f1 b83f
000002e0: 7dc7 ae2e 6622 ad3f 1a41 7483 2afb a13f
000002f0: 3342 6ee9 d5cf bcbf bfd0 0e93 6a31 acbf
00000300: 02a8 b121 4b1a ae3f 68d7 92cf 3243 92bf
00000310: 2a26 41fa 8b06 a5bf d05c 6769 61cc a5bf
00000320: 2412 1ced c200 653f da15 bb4a 7fce b23f
00000330: e251 ca34 01e8 9a3f 975a 6049 dbf9 adbf
00000340: 2458 fe8e 9135 65bf bb3c 93ca ab05 bd3f
00000350: a178 8025 e030 ba3f f322 f19a 17d9 883f
00000360: e7fa 0ce4 43c6 bd3f 3f63 fc1a 7215 8dbf
00000370: 8700 1d1d 3680 b13f 41dc b575 3c5e b43f
00000380: 5013 0f46 73a8 853f c04a 8754 4499 b1bf
00000390: bddd 8d10 1de0 b53f 16f1 2565 bb75 ba3f
000003a0: 0138 19df 4fae 8a3f 1521 82f6 157a b93f
000003b0: 08ba c365 981e bc3f c6e6 29bf 1308 813f
000003c0: 456e 4601 8167 bbbf 3fc4 6b75 783a a3bf
000003d0: 6f49 1a6e 2635 363f 7755 9969 a2e2 b93f
000003e0: ca72 7f36 b325 a73f 026a 0070 5699 a53f
000003f0: e3e2 d494 ca1d 9b3f 16c4 7e16 914e 883f
00000400: c484 bc20 148c a9bf 5002 b1b0 1d22 b0bf
00000410: 700d e402 75df be3f 232a dfc6 4f5f c03f
00000420: 2b86 4e82 7c6a 793f a8d3 8292 3f01 9e3f
00000430: dbfc 3cec 0973 bbbf 8b55 eb79 5cb8 b9bf
00000440: 8d93 581f 7705 bcbf 3790 d876 556c 623f
00000450: dd48 1480 7dde bb3f 0fca b63c 4335 ad3f
00000460: 6824 5495 1a6a b63f 16b2 4b62 9f9b bb3f
00000470: 8c37 6de7 faaf bd3f 2c97 2184 f610 573f
00000480: 31bb 8901 239d c0bf 47e2 2565 04a5 a9bf
00000490: 45c8 325b b047 b53f 877f 0e4e e8ed ae3f
000004a0: 3590 4967 9b4f bd3f cee6 f44d 8580 be3f
000004b0: 9d09 7e9e bbc4 5ebf 0bc5 0ce0 f24e b53f
000004c0: 8789 0e98 9af6 663f c0da d893 6cd2 a63f
000004d0: fe43 fd92 beed b2bf 5163 bce6 d01c b4bf
000004e0: 66e8 cc5b f1fa b0bf 7bab dd49 70d9 b3bf
000004f0: 140f d446 28f5 be3f 2171 e825 cdee 5fbf
00000500: c5f0 e0c6 2b12 b93f 6117 92ef f504 c0bf
00000510: a4dd 4054 fbf5 85bf 05ae e0b5 3f8b aabf
00000520: af9b 5ac5 e6fc b83f b783 122f b05a 6abf
00000530: c13a 9ec1 fd05 99bf 32f0 d103 13c8 aabf
00000540: 93af fcf7 1f0c abbf c71e 5847 bb43 ba3f
00000550: 67c6 9538 0167 b9bf bc37 4e78 c9ee a63f
00000560: 644c c570 015e a3bf d5be c249 8c0d b83f
00000570: cb9c d863 add7 a2bf 8ab4 c41a 93d3 bb3f
00000580: 07c6 93be dc98 b6bf f498 684f 5999 a5bf
00000590: ce87 a682 0ae0 bfbf e1ed a810 e5e6 ba3f
000005a0: ddff 0066 c122 b8bf 1b9d e0d7 cba2 963f
000005b0: e662 e388 e278 acbf 405f 461a 156d b63f
000005c0: 8ef1 6fc7 9811 b7bf 12ab 58f3 0e23 bebf
000005d0: f2fd 8dd5 d2c2 bb3f ad0b b8fc fac7 bbbf
000005e0: ba11 c6cb 8476 b93f d4c2 37c5 4683 86bf
000005f0: bb12 79b9 a4bd bc3f a0a5 d65c b3a0 91bf
00000600: 0133 f5b3 f51c be3f 9904 ef5a eb49 ae3f
00000610: 78d2 8055 fd52 b33f 10cd f550 fc53 bf3f
00000620: b7a3 97fc bd65 abbf 6a25 d2f4 c4b6 a43f
00000630: 3fbb 46a6 56eb a23f 8653 d4b6 c97d 8cbf
00000640: bb94 852f 1f93 a9bf 51fb 0d89 2042 bd3f
00000650: 36ae a889 7d4f b43f 8c2a 5cca ab1a 893f
00000660: 4760 ec60 0668 a83f d50d 5cbb 8f91 a53f
00000670: 2c4f bfa7 1525 a8bf f8bc f88b 2faf bebf
00000680: 25d0 cae6 4c1f 85bf 545f b317 d1cd bbbf
00000690: c321 0bf8 8581 b9bf 3339 6146 a38d b5bf
000006a0: 0c99 0f87 8bca b53f 9584 6c46 ef43 b0bf
000006b0: c37f b58f 1aa5 b0bf 290e b6a6 e7f7 a13f
000006c0: e055 a139 c0b0 b83f 18cc ebb3 735c b83f
000006d0: 5db5 372a 378d bcbf c70d f29c 488a b5bf
000006e0: db3f 17e3 4fea bbbf 06be bd71 d8be aabf
000006f0: 3524 3686 d6b1 babf 7b4b 42ed 418d be3f
00000700: d241 e22c 127e be3f 51a4 2f0c 9ba5 b93f
00000710: 84d3 74d1 a203 a1bf ac5c 6dd0 6faf b3bf
00000720: a14d 31ec 25a3 b5bf 8a0a 040e 9785 96bf
00000730: 214c 8f96 6329 bc3f cb4d b70f a6a3 b9bf
00000740: e311 6d46 5051 b8bf 6300 3c01 31cc abbf
00000750: b219 15fa c17c a93f 859f 30c4 8845 913f
00000760: e7a9 fd47 d9fa adbf 7fc2 3c7f 1d30 aa3f
00000770: 73c1 e69a a2d7 a93f 98a1 31b4 c976 bc3f
00000780: 6b16 6e68 3402 aabf 8417 ecba 814f be3f
00000790: e346 f530 fe68 b2bf 519a 6408 fc05 b43f
000007a0: a160 0b0e eff4 933f 0489 72be 9efd afbf
000007b0: 4b8b 178f 0a99 ad3f 5b66 5792 5e1d 9b3f
000007c0: 3b1c 6947 2df1 bfbf 0eae d2b6 d2a3 bdbf
000007d0: ab7c 1b71 f7cc 843f c07e 686b 83f6 bd3f
000007e0: 2110 1100 2cef b7bf 4f3a 118f 2dcc b9bf
000007f0: e5ff c090 cbad bdbf 7198 d33c eaac 83bf
0.01770206079569238 0.02896882501927107 0.10769088271333108 0.06599060248583664 0.002456233151303545 0.07958922814063778 0.023677662142243146 -0.07600440849855614
-0.07631259499234719 0.03161760105437685 -0.011254226187114736 0.08519903092298536 -0.0779289925185912 -0.031102270507738512 -0.010866251728424644 0.02737100284712713
0.07010826185128073 -0.0638118539145633 0.12821524116425373 -0.11596606956876494 0.03706449502515039 -0.019825363404631292 -0.10591182252152584 0.008994118840662505
-0.08226199080470022 0.05030919810505951 0.055965365813874575 -0.06069386043706013 0.03925427310499752 0.020289894763599287 -0.028338675884951755 -0.09744522541655119
-0.07645187126444516 -0.09378488454586655 -0.09180857040266818 -0.11436564470397069 -0.06160206859399649 0.08416693194648833 0.026425920549726572 -0.11018930935967507
0.08008154174779915 0.10925781728214753 -0.08909621816727203 0.007269962226004499 0.02640108303443575 -0.007384398349890179 -0.04829411327644178 0.0036096813645425255
0.09358298917866725 -0.045254159256546654 -0.05027192075807649 -0.10801856666324744 0.10391967805624837 -0.02803929668694138 -0.04759444947236211 0.1106790027548695
0.08864905806119343 0.049128908664931144 -0.03671364328934212 -0.01905763157798504 0.06314854254895796 0.06511217291577026 -0.06657925265565608 -0.04650492179727273
0.07003481467401086 0.05331752531970654 -0.055283235298296825 0.0720444230797804 0.05066627860073599 -0.010487226635392777 0.05082260400213118 -0.02519848929529994
0.03091660676704091 0.0066033126947397935 -0.06825761267006611 -0.10701599664049492 0.005529151570934904 -0.07007265676554976 0.12860733066690405 -0.048626858806182435
0.08446732135706884 -0.07005228130473642 0.029516741906373795 0.06880045541214078 -0.09143591364579289 -0.032031312915698384 0.006243902256267468 -0.041606461142234
0.009717135432359927 0.06840424907007467 -0.017107801156549113 0.09742947424889675 0.05690306968553125 0.03511937002815753 -0.11254631947509423 -0.055064516497993925
0.05879435335448592 -0.017834466857230252 -0.04106557302345622 -0.042574924580259244 0.0025638396408587272 0.07346339773638225 0.02627565273958677 -0.058546879489019314
-0.002589020055846285 0.11336778350527059 0.10230828204700738 0.01213282052607798 0.11630653684276702 -0.014201060722869861 0.06836260042928376 0.07956292985714787
0.010575199676063157 -0.06874491752322864 0.08545095113901531 0.10335894793928832 0.013027786250997766 0.09951913135785546 0.10984184727178825 0.008316187163689103
-0.10704809456950055 -0.03755546983109825 0.0003388613532503614 0.10111441686725252 0.045209503557747846 0.042185498401710944 0.026480832418402833 0.01186860418224182
-0.04989684009184139 -0.06302056850200555 0.12059718437745004 0.12790868006261844 0.006205068934748629 0.029301636998485897 -0.10722410218749039 -0.10046937920136238
-0.10945839419635046 0.002248923227641721 0.10886368157324307 0.05704698673379848 0.08755651612968196 0.10784336232945466 0.1159664931303423 0.0014078528770595329
-0.1297954328069522 -0.05008710608212091 0.08312513567469278 0.060408839729688295 0.11449595710433942 0.11914857056845138 -0.0018779594629171122 0.0832359120365888
0.00280313676962968 0.044574158714046686 -0.07394019211393751 -0.07856469758224917 -0.066329083358967 -0.07753660014502188 0.12092830399711502 -0.0019490245246123821
0.09793351750789998 -0.12515138814722618 -0.010723079212865035 -0.05184363455949995 0.09760896986209276 -0.003217071637280768 -0.02443691725016595 -0.0523076955950902
-0.052826880475861725 0.10259600154688107 -0.0992279780528179 0.044790550170645343 -0.03782658101649686 0.09395672608183799 -0.03680173724961263 0.10869712260746858
-0.08826999333157214 -0.0421855840143496 -0.12451234521589002 0.10508567482695909 -0.09428032627420131 0.02210539345847194 -0.055609778604496715 0.08760196582295254
-0.09011225575517853 -0.11772244874070406 0.10844152177559588 -0.10852020902534205 0.09946470236724894 -0.01099257745133412 0.11226872947834014 -0.017214586774263574
0.11762939113141259 0.05915770993261411 0.07548507058602094 0.12237526871267712 -0.05351060589220629 0.04045691956077742 0.036951740071677446 -0.013911796466837389
-0.04995057540035349 0.11429026933727228 0.07933792696774664 0.012257902253187035 0.04766864712854662 0.0421261707506592 -0.04715793297478252 -0.11986062209392745
-0.010313607018680735 -0.10860926464681359 -0.09963261895894164 -0.08419247120148014 0.08512184188257182 -0.06353660077413033 -0.06501928337593114 0.0350944891934229
0.0964470043848773 0.09516070501904073 -0.11152977734282872 -0.0841412909667759 -0.1090440682812636 -0.05223728550378941 -0.10427609230659203 0.11934291880088026
0.11911119075580892 0.10018319175255043 -0.03323086554374924 -0.07689570272974561 -0.08452069298191713 -0.021993980627494504 0.11000654626632002 -0.10015333064739378
-0.09499074668298806 -0.05429223194187285 0.04977995088352162 0.016866814589007646 -0.05855444911761137 0.05114834001722545 0.050473290833340644 0.11118755959763005
-0.05079807066708216 0.11840067685633754 -0.07191456504122189 0.07821631626993876 0.019489035827832017 -0.06248184275433924 0.05780823704460277 0.02647922294804626
-0.12477381699965033 -0.11578099215937973 0.01015656770635894 0.1170427453257572 -0.09349322320582633 -0.1007717584882155 -0.1159331539538467 -0.009607152920988878

decoder.hidden_ff.bias f8 [64]
00000000: fc30 9a7c 085a ad3f 856f d126 7c18 a43f
00000010: 9486 a702 4ae2 b1bf 7904 ddac 33e8 7cbf
00000020: 59e1 80bd d1b0 b1bf bc61 9753 4a6d b8bf
00000030: f8e6 f24f 0234 a4bf 56f3 672b dcd3 b2bf
00000040: 0f42 fa22 0e2b a23f 6bc5 eb02 41d5 90bf
00000050: 223d 4734 6e17 b9bf 52cc d181 7e47 b6bf
00000060: ba8f 2c78 6c9f a03f 9c3b b1df 2c0f bb3f
00000070: 5b21 587a 3876 b8bf c707 1fc5 1374 af3f
00000080: b542 ed81 4d5d ac3f d13e 0960 ad26 b7bf
00000090: d047 d1a1 cf74 bcbf f74f 995d 57a2 bbbf
000000a0: ab4d 2304 4679 b1bf 7808 032b c571 b6bf
000000b0: 6de3 c796 8545 babf 7b12 3c88 b302 5fbf
000000c0: 1c1a a78f a25f b4bf 0e2a 4b12 69bf b5bf
000000d0: b1af 4e3b e230 b2bf c033 1ba6 241a bb3f
000000e0: 5721 3f51 9a47 bd3f a1da 5622 fa45 7fbf
000000f0: c253 40ed 14e9 9fbf da59 3cf1 343e 823f
00000100: 273f 7231 6a62 a23f 7754 e434 6167 aa3f
00000110: fb86 4550 ff95 b3bf 1be4 7ce3 6b50 b13f
00000120: 0ef0 93bf e87c 7ebf b66c cdbd b68c b5bf
00000130: e889 7bf6 3074 a1bf dd7a 4f66 e6cb bcbf
00000140: fe1a 0516 72f2 bdbf 8b3f 9a9d 0bc6 bbbf
00000150: cc6b 23f8 59ce b53f c300 4b15 77fa 8b3f
00000160: 4f69 e306 a2e3 663f 255a 7c02 9507 c0bf
00000170: 480e f998 f284 babf 439e e6f4 1ca9 b1bf
00000180: b2ad 6cc0 50b1 9bbf 6e54 b804 c552 b7bf
00000190: 4aa3 ee3b f060 b43f 9ac5 4055 2f12 a63f
000001a0: e416 1b9f 1fdd 9cbf 90e6 98a8 1754 95bf
000001b0: 1266 6098 190d 823f 186c 2482 f7c7 b43f
000001c0: 98e4 c176 0e3c a5bf 02d8 76da 3e59 8cbf
000001d0: b1fa d2d5 4c2c b4bf a651 00a4 9564 a63f
000001e0: 94b1 cce6 e717 be3f 568d f021 4b7f bebf
000001f0: bd01 3464 aa85 acbf a5e6 34ad 3599 993f
0.057327523432009614 0.0392493054757486 -0.0698591476898634 -0.0070573824467042795 -0.06910429836796562 -0.09541763821415022 -0.03945929742753934 -0.07354522762029822
0.0354847352692823 -0.016438499263079203 -0.09801377083134757 -0.08702841443464251 0.03246630637138943 0.10570030652273349 -0.09555390345497498 0.06143247395767975
0.055399343595700236 -0.09043391794807155 -0.11115739536879166 -0.1079458812249071 -0.0682567367651276 -0.0876734952935595 -0.1026233189694616 -0.0018927338832678542
-0.07958427436015153 -0.08495194145795201 -0.07105840633329198 0.10586766295746397 0.11437382205543166 -0.007635094725108844 -0.031162573795956446 0.008907712566309667
0.035907095466539744 0.05156997461941953 -0.0765075274444164 0.06763338378813481 -0.007443341420408712 -0.0841783727059234 -0.034089593971447674 -0.11248626706899807
-0.11698067700954692 -0.10849068258016652 0.08517992313447492 0.01366131814700145 0.00279409070854545 -0.12523138638853584 -0.1035911200970584 -0.0689867113020393
-0.027043592209492658 -0.0911067139171153 0.07960416281879393 0.04310748973547192 -0.02818726929287764 -0.02082859961067257 0.00881404873148298 0.08117625167180653
-0.041473819729568706 -0.013842097322463335 -0.07880096645656455 0.04373614909141858 0.11755227455859646 -0.11912984446148775 -0.05570728753264429 0.02499851102513752

decoder.output_ff.weight f8 [1, 64]
00000000: 9b91 afd2 e5c2 b0bf f5bc 25ef b1ca be3f
00000010: 4334 bc8e 6c26 b0bf c4a8 3424 7b84 b6bf
00000020: 89e2 3754 9381 b83f 6c8c 4cae 8c97 b83f
00000030: 349b d891 532f b8bf 4223 e7db c3d7 adbf
00000040: f0c1 55be 7835 c03f 408e f000 e206 bbbf
00000050: b86d c43d 3010 93bf a83b 4de9 2a56 b2bf
00000060: d165 bbb9 02b4 a2bf 4fca cfe4 18b4 aabf
00000070: 4dfa 9d39 d2dd a6bf 8301 e56c a6a6 70bf
00000080: 0ee6 965d 044b a9bf e9e4 d24c 0f79 a13f
00000090: 66bc 4043 92cc b13f dc6e e34e 341c 7fbf
000000a0: 4356 4a29 0d47 c03f 593a 707a a995 a73f
000000b0: 8dae e807 5657 953f 0913 295d 3228 b63f
000000c0: 6f4e 65ae 6a90 5abf e810 e4c0 b3cb b1bf
000000d0: 5613 1dfc bd3a aabf e19a 074f 0a0c b8bf
000000e0: 178d 5323 e2c2 b0bf 277f 4ed7 bfd6 9fbf
000000f0: 87f8 831d 3fe1 b43f 67be 7f35 1510 a3bf
00000100: fab1 eefe e7f6 aa3f a9d4 e29f d37d abbf
00000110: 85e9 e133 547a a83f 36d8 713b ff81 b03f
00000120: ebee 510b a95b a63f e83b db56 4415 bf3f
00000130: 1f95 3296 90c6 a83f 9dd2 3e56 b8ef b7bf
00000140: 1c9b b679 9f29 b03f d85b 6d92 bbf8 a9bf
00000150: 3613 6f20 2f6f bcbf d060 c69d 085c b23f
00000160: e052 48f0 4dde 903f c025 8274 e562 ad3f
00000170: 229d d1f5 78d3 863f 6f25 d4db 6a10 b93f
00000180: 0c75 d568 691c 84bf e66b f428 f383 583f
00000190: 10f5 970c 38fb 99bf 83db 6590 9fa7 74bf
000001a0: a4ba 7414 e530 93bf b558 356f db65 883f
000001b0: ce37 cde7 dcb3 a83f d640 b63f 8d9e b13f
000001c0: 4972 b652 ff5b 99bf 6948 5a5b bc67 bebf
000001d0: bc17 f0db 73d2 b6bf af7f eabd 9e15 be3f
000001e0: b871 df10 4619 ae3f 14d5 9d8f c325 bebf
000001f0: 6ef5 d36b b705 b0bf 1239 045a d1ee a8bf
-0.0654739035958926 0.12028038109359669 -0.06308630451913282 -0.08795899995735385 0.09572716528044557 0.09606246238085853 -0.09447214422889944 -0.0582867818771491
0.1266318253870078 -0.10557377360287834 -0.01861644150731731 -0.07162731357423857 -0.03652962224232293 -0.052155282908547755 -0.04466111138662097 -0.004065179919337305
-0.04940045969437899 0.034126737716585094 0.06952776090541732 -0.007595257118932355 0.12716831699497008 0.04606370563134438 0.020840973122331397 0.08655085348534554
-0.001621345692531497 -0.06951449832201073 -0.051229416871626896 -0.0939337199157353 -0.06547368395290608 -0.031092641369126952 0.08156198950379877 -0.037232077389373334
0.05266499506919682 -0.053694356219616886 0.04780829556780745 0.06448359681402924 0.04366806281265475 0.12141825790898475 0.04838992913691186 -0.09350158792114845
0.06313511582866876 -0.050725804924404094 -0.1110715345558447 0.07171682216574315 0.016473024168663808 0.05739514395925083 0.01114553928546386 0.09790675990020302
-0.00981981612374707 0.0014963030442405266 -0.025372386711741746 -0.005042670533263019 -0.018741206525357726 0.011913027125654766 0.04824724511728072 0.06882555776087726
-0.024765004561788016 -0.11877038221635562 -0.08914875144554818 0.11751739632245405 0.0587865729901042 -0.11776373153937342 -0.06258722670096059 -0.04869703506311586

decoder.output_ff.bias f8 [1]
00000000: f2c7 3cb7 bfd8 9cbf
-0.02817058139698498
