saved_model/Lorentz_encdec/saved_model.pt (torch, 73409 bytes, 12 tensors)

encoder.input_ff.weight f8 [64, 1]
00000000: 6428 f307 e211 dbbf 4ab4 1f61 0002 d3bf
00000010: 78bc fce6 b74b e6bf 51bc 5c0c 32fa d5bf
00000020: c49d 05c4 77a3 dcbf 85a7 fb06 bb41 e6bf
00000030: fea4 c4a6 2e9f dc3f 9c01 a3c8 f78f dabf
00000040: 05bf 7117 f16a c23f 7eb5 ab53 f7b8 d23f
00000050: 061e af64 2851 edbf 06fd a691 2d17 d2bf
00000060: 40e3 8f46 1ca2 d2bf 48d5 4ee4 a730 d5bf
00000070: 0d53 b032 238e b93f 903b eac4 5f13 c73f
00000080: 7c7b 6426 bc11 ec3f 6029 6d9d 7f51 cebf
00000090: 668e e59d 8416 acbf 1f6d 7ae6 95b3 ce3f
000000a0: 196d 226c 9014 eb3f f60b a13b fc11 e53f
000000b0: 0d1b 3a83 c6da e43f 02ce 015a 888d e33f
000000c0: 6f7e 08bb 4fc6 b0bf 4ee7 0b04 79f7 b93f
000000d0: af8d e4cf 2a21 e8bf e797 e8a3 129f dbbf
000000e0: 8511 c7bb be1d e9bf 613e 091f c033 d33f
000000f0: 1acf ef7d f0f3 a13f a411 c260 1859 c5bf
00000100: 0baf b46c 5aa7 ac3f d56b fb74 ffcf ecbf
00000110: a2e6 966d dd31 eb3f d03f 4a1d a8b9 d1bf
00000120: 94ae 65b8 183f e63f c4c2 adf3 40fc e73f
00000130: 9ac0 0d40 071d e13f 8a78 2dc2 a125 ec3f
00000140: e906 b6a1 d04e e2bf ca33 5307 a9b9 c93f
00000150: 7a06 66b7 2a10 c63f e050 627b 086f cf3f
00000160: 9b9e 8e88 3c13 eb3f ab31 a808 32b5 bc3f
00000170: 69d6 25de 393d b6bf 4569 0bfd eac4 9a3f
00000180: 3960 f4b0 8b97 e33f 85cc f094 2af8 e1bf
00000190: c6a1 1cdc aba3 e13f f165 f63f c257 d7bf
000001a0: 30b1 d487 c12e ce3f 9f8f e7c7 b899 ea3f
000001b0: 77a9 79eb 31fd db3f f882 ce28 2d73 ec3f
000001c0: ee34 7ac4 4063 d9bf b912 febe ec26 ddbf
000001d0: fc63 3ceb a233 e6bf f1d9 3596 3751 e8bf
000001e0: 0db9 5cb3 2d6a d7bf b4cd ee8a 86b7 d43f
000001f0: 4e78 dcdb 49fe eabf 5a7c 39c3 4ddb edbf
-0.4229664876589878 -0.29699716076612914 -0.6967429648847334 -0.34339572150469616 -0.4474772848393196 -0.6955237518679814 0.4472157124133246 -0.4150371035903164
0.14388860363714442 0.2925394360634853 -0.916156956337489 -0.28266467307908305 -0.29114443674875545 -0.33109471603105023 0.09982509601134044 0.18027875056256137
0.8771649122098633 -0.2368621367152839 -0.054859298967838296 0.2398555159933062 0.8462602722169407 0.6584454693442001 0.6517059863116131 0.6110269315672101
-0.06552599254836776 0.1014323840026041 -0.7540487347036356 -0.43158403402992324 -0.784880987885615 0.3000335982405656 0.03506423508943453 -0.1667814705325671
0.05596430375075386 -0.9003903660590092 0.8498370304507328 -0.276956585506011 0.6952022172458379 0.7495426902151725 0.5347934962319585 0.8795937340289737
-0.572120967714196 0.2009784017340322 0.17236837344175965 0.24557596230136536 0.8460982005244263 0.11213982306816798 -0.08687173532038063 0.02614180726491468
0.612249227156105 -0.5615437420841692 0.5512294100818103 -0.36473137136780936 0.23580187923779183 0.8312648682008222 0.4373287963450347 0.8890596196179947
-0.3966829222416227 -0.4555007805977698 -0.6938032717181382 -0.7599142011447936 -0.3658556224426242 0.3237015110746271 -0.8435410780109664 -0.9330204785327496

encoder.input_ff.bias f8 [64]
00000000: 2e85 9263 ba4e ebbf 5401 381b 846b aebf
00000010: fcdc 7696 ec00 e23f e2d7 2561 80de 8cbf
00000020: 3604 3c69 210b 973f 3eaa 16b3 738b da3f
00000030: 00b3 85fa ac26 bb3f 0816 0848 607a e73f
00000040: 32bd 8763 83a4 cdbf 0b4e b911 2c65 d2bf
00000050: e453 8ec1 c5b6 d2bf 5d17 ccdd 9472 d13f
00000060: 3d44 0430 975b ef3f c59d caf9 3c6b cdbf
00000070: 1734 fbd2 213a e13f 9a1a e77a 0702 d5bf
00000080: bb69 2c44 92af dabf a0eb 1781 99b8 dcbf
00000090: c726 4983 4640 ecbf 6ac5 8d10 2823 debf
000000a0: 1861 8b32 b419 e33f 6b3a d01a 8f9b d13f
000000b0: 192d 24dc 4b0d ec3f c06e c69b b1ab ef3f
000000c0: 0acc bd5b cc6b edbf 5d78 8195 030f d83f
000000d0: 598d 0ad6 d49c eb3f 8b8c 3411 0a6c efbf
000000e0: e473 2d7a ee94 b8bf 3556 1855 3290 eebf
000000f0: 512e 720c e72c f03f ba42 05d5 8855 e4bf
00000100: 4f86 7274 758a ec3f 852c d65a 9c54 cf3f
00000110: e144 dd18 7cd7 b1bf 2b63 d8b5 da17 cabf
00000120: 244b cab4 5c82 c7bf e4b1 aa19 0b09 ebbf
00000130: 1c5d 72b7 6b0d d13f ff3d 3394 cc05 b0bf
00000140: 00ef 60a9 be1d f0bf bfaa e1f1 b147 d5bf
00000150: 8c44 156b 6a25 ebbf 2462 2709 e157 bdbf
00000160: 1e1a a4a7 9870 d63f b5d8 55f8 eae6 e53f
00000170: ba09 423b 4563 cf3f 27ce 66a0 5693 c6bf
00000180: cb63 cf19 f536 db3f 37cb dc75 4d5f e6bf
00000190: f316 52db 61a0 e33f 9bac 3570 b21d e13f
000001a0: 3132 575f de78 e5bf e3e6 b9d5 d196 c23f
000001b0: 8b25 a325 6a70 edbf 755f 3070 8ec5 d13f
000001c0: 71da 9dac 4679 c6bf 84f8 caef 9243 e23f
000001d0: e627 1d61 86e2 e8bf eca9 0440 6302 ebbf
000001e0: 734a d52a ca39 e1bf b138 4983 c6f2 e4bf
000001f0: 06ba bc42 f911 d43f 8142 a4d9 b731 e4bf
-0.8533603615543706 -0.059414032290080826 0.5626128138309521 -0.01409626289817462 0.02250339703369183 0.41476147164454236 0.10605889431253601 0.7336884886614721
-0.23158304557680648 -0.2874250577053494 -0.29240554716062506 0.2726185003269757 0.9799304902863991 -0.22983514973496547 0.5383462067344479 -0.32824885370465895
-0.4169660249478075 -0.4487670670202366 -0.8828461231398358 -0.4708957826288357 0.5968876826473517 0.2751195680474782 0.8766230868945143 0.9897087137682874
-0.9194089690994371 0.37591638183756065 0.8628944569103779 -0.9819383941688938 -0.09602251513338406 -0.955102125359821 1.0109625326321245 -0.6354412231977087
0.8919017099726235 0.24476961551076584 -0.06969428641356813 -0.20385297660029641 -0.18366583659789015 -0.8448539258293377 0.26644413866729777 -0.06258848779838642
-1.007261907229747 -0.33250092145196314 -0.8483173457590438 -0.11462217782480671 0.35062233325189307 0.6844382143306321 0.24521699326949237 -0.17637141067608406
0.425229335026924 -0.6991336156846505 0.6133279117209142 0.5348751250834484 -0.6710044729348451 0.1452276509842739 -0.9199724898436882 0.2776828857035903
-0.17557605198426843 0.570748775811595 -0.7776519676929154 -0.844041466746885 -0.5383044087014482 -0.6546356739215949 0.3135970260363198 -0.6310691119015958

encoder.hidden_ff.weight f8 [64, 64]
00000000: 21bc 0422 5e18 b7bf acc9 6f03 6412 a0bf
00000010: 0e55 3f15 1514 a53f 6b2f c7c8 5675 973f
00000020: a0b2 5e48 623a b53f 7c91 4339 0af3 b73f
00000030: b4a6 dd1e 1a07 b1bf 8a03 13be 12bb be3f
00000040: 5d06 ec54 d8fd 97bf 2f00 8122 adf0 c03f
00000050: 8316 fceb 2140 a8bf 2b3c 4662 25c4 adbf
00000060: 707e 7161 2b1b 903f 28cf bb3b 225c b73f
00000070: 6204 a063 d80c b23f ef00 a77d 9378 b7bf
00000080: 2988 83bf dd6f b63f b21f a0bd 17cd aebf
00000090: ce29 1a78 e71b adbf dff8 b365 3bf7 72bf
000000a0: f792 5ac7 8a75 a73f c143 2483 7443 b03f
000000b0: e2ee a722 9b31 ad3f cf5e 7706 11ac acbf
000000c0: ad30 ee87 00f9 9bbf cf7d 7a81 c225 b73f
000000d0: 844a d822 8a5f 80bf 891c 7a22 cbbb b4bf
000000e0: dffe 8f7e 0759 8c3f 317b 4b9d 47e9 913f
000000f0: 27f4 3c45 4fda b9bf d307 5264 c723 b63f
00000100: c638 0ca6 0156 83bf eb2d 0f77 6c1a b4bf
00000110: bd38 d169 22c4 bbbf 4bd1 fede 120a a0bf
00000120: 544d 4d06 3265 ba3f 94c8 a449 33a2 b4bf
00000130: a6e6 03f6 b98c a93f f61e ad30 6183 8bbf
00000140: 67dd 282c f6eb b7bf e9c8 aba2 a12f a43f
00000150: 1885 6190 318d bcbf ab97 a8aa 4cd1 873f
00000160: c8a1 de76 b5b9 bd3f e823 aa14 1a65 753f
00000170: dad0 c95f 9847 b63f 4d64 ccda 48a3 bdbf
00000180: e3f9 c38b 4bc8 b53f ddc8 144a e7dd b6bf
00000190: c3c8 b89a 552f 80bf 103e e767 83df bbbf
000001a0: d1ff 340f 9886 bebf be56 a0d2 a2ca 73bf
000001b0: 7fbe 0da4 e32a c0bf fc00 fb6a 968c bdbf
000001c0: 2a42 b8ba 2be0 c0bf d1a6 0c61 393a a6bf
000001d0: 9c68 722b 3ff2 b73f 4592 623c 6de4 b3bf
000001e0: 3ab4 6fe4 f8f7 b6bf 8739 57ad 97de b13f
000001f0: 1e6b d40b fe3d ba3f 5e64 2968 c865 9bbf
00000200: 43e8 22f8 cc66 913f 3804 f554 c969 983f
00000210: 7f8a db61 3a69 bc3f 664c 640e b3c6 bebf
00000220: 4b5d 135f 155d b8bf 7dac fe36 2784 a03f
00000230: 55c2 2d4f 8071 b1bf ac1f 0620 729f 95bf
00000240: f7ce b528 e7ca 9c3f 4fbe 499e 6e09 be3f
00000250: 0a25 3885 e0f0 b3bf e40a 7441 a0b8 bdbf
00000260: 6695 0ec3 c847 b13f bea9 b08d 558a b33f
00000270: 44d8 d353 416e 763f ec36 4d6e d4a1 963f
00000280: 97cd 1dcf 77f1 b03f 611e 4c4c 121f 93bf
00000290: 68cd 6558 f91b bb3f 1758 735a 9efa 9f3f
000002a0: 23be 5d19 5962 8a3f 1c0b e531 a326 5dbf
000002b0: 1f46 4163 0c7c 83bf 5fd5 494b 40ca b3bf
000002c0: 6b8d 9778 1e6b b5bf 7fea 4b8a a3f7 b1bf
000002d0: 5c63 ab72 f94b a53f 6171 0f33 2cbe a03f
000002e0: 9768 69b7 3849 34bf 5c47 b48f f86d a8bf
000002f0: 0e32 57b0 07e6 a7bf 99fe 0831 b484 bcbf
00000300: bfe6 8b9e 7c22 a53f e285 88e9 1758 c03f
00000310: c6ed 1900 1f13 b33f 418f 67fc 18c5 bdbf
00000320: 45f6 698c 1ed1 b43f 19a2 9368 cc31 a13f
00000330: 3e9d c0ec 01a0 923f e8ee 6dbf e0e1 babf
00000340: 4e9d c0aa da71 c0bf 545e f7f3 4565 b73f
00000350: 289c e123 ac56 c0bf 694c c6b3 cae8 b43f
00000360: 6e4d b708 15bc b2bf de80 0d33 b0ab 9abf
00000370: f382 3946 dcd8 b13f 21fd 6e7e 332e ab3f
00000380: 903f 3286 b444 be3f adc7 2c08 c6bc b8bf
00000390: 3a1f d6d7 1626 adbf e391 e09d 78be b63f
000003a0: 5b45 fcbc 0047 bdbf abf9 5e3a c190 b4bf
000003b0: aa83 a0f1 0ba4 ac3f 50ee d14c 40b8 bd3f
000003c0: 649b e837 c263 b33f ee1e 9b4d 1d59 a13f
000003d0: f3fe 0217 6cfa b23f 4d74 db3b 5038 b8bf
000003e0: cd05 0278 056b 973f d399 dcca 4652 b2bf
000003f0: 1bec 0ab4 ba0d a2bf 278e a05d f0dc b8bf
00000400: 56b7 87e6 bc8f b7bf 1d4f ab10 0fb9 c1bf
00000410: e4dc 40e9 1ab0 b43f e894 5231 1b1d b6bf
00000420: 5906 b4be 1817 b5bf 8a92 6418 177f a53f
00000430: 76c8 ae0b 458a 693f 688a cefc 4e5e ad3f
00000440: 4531 0953 1a3a a9bf 52fd 0938 90d1 b03f
00000450: 71fb 2ac0 8c13 8d3f b325 d37f dcd2 803f
00000460: 63c9 804c aa55 bbbf e44a 5891 c726 c13f
00000470: cf39 0f78 deb1 b4bf 9f82 0323 da1d b13f
00000480: 4884 c5f2 9f78 3b3f e732 353c a16b a73f
00000490: 673f 333c 001c a7bf bc39 27af 31b1 81bf
000004a0: 06e8 ba47 af26 91bf c929 6d6f 4a22 a0bf
000004b0: 40ae 6d95 9c93 ac3f 32b3 7548 ef62 ad3f
000004c0: 6008 999b 52c0 a53f 801c 8b78 f6da 8a3f
000004d0: 4886 ba76 5434 bb3f ce1c a528 53ae b7bf
000004e0: 6f51 bd57 63ec 9d3f 7723 cca9 d7a7 9f3f
000004f0: f0e2 453f 8e33 85bf 59cc 149c 09d5 bb3f
00000500: 324d 99ff 5442 a6bf 74fe 3cb8 f500 c0bf
00000510: 14f9 6d4a 7646 813f cefb c325 5090 b73f
00000520: 4941 9eba ce0e c2bf 7019 3bc5 8d45 b03f
00000530: 947b 51f3 85d2 a73f 4ce0 6d60 b1a1 bebf
00000540: e93c ac67 e186 9cbf 68c6 3753 4005 b5bf
00000550: d8d7 5a18 9177 c03f 028d c7d9 de6c aa3f
00000560: e259 096a 5ed7 1a3f d0e2 2e8c 8c6f a2bf
00000570: 4397 ab3b 520c a6bf a948 acde f1e0 aabf
00000580: 91b1 86e7 0cb3 88bf 5060 c026 8e92 b8bf
00000590: 0eff f075 c754 b73f 0209 7c9f 162a bdbf
000005a0: cfab 0d6f 01fe 98bf c4dc c066 17ae c0bf
000005b0: 9b7e 0a29 8019 bb3f c9b7 d412 539e bfbf
000005c0: f9a8 f910 fe16 b9bf 3205 ab4f b18e b2bf
000005d0: 9bb6 61da 7cd5 813f feca 29cb e539 b6bf
000005e0: 9ead fff4 641b bc3f 20cb 99f0 7052 b2bf
000005f0: e745 0336 b981 7b3f bb2c b073 d006 983f
00000600: 83c3 f181 0f03 c13f a7c3 5148 e68c ba3f
00000610: 9390 05f6 6fbf aebf 34a3 b28e 50d5 a63f
00000620: a49b 683a a7f1 a33f 2c70 a480 4674 b73f
00000630: 5ab0 8b7c dc0f 913f fc87 b455 b022 bfbf
00000640: 6aba db59 3e45 a23f 2d1a 4894 a82f ba3f
00000650: ac0c 89c0 e8bb 95bf e089 894a 918a a5bf
00000660: 7d4c 2c95 13c9 8dbf a26b 8f8e 3e94 bb3f
00000670: 2e1d ea28 e87f c1bf 0366 0ec8 3961 bcbf
00000680: 3e21 ea95 1525 b7bf a745 35d4 0e32 ab3f
00000690: 4f47 0945 b040 bc3f 5928 d95b 506a ad3f
000006a0: 1e67 b3b4 45fc adbf 3277 9df5 3d39 b03f
000006b0: b70a 7031 edc7 b4bf 63b3 3ff7 cd49 c1bf
000006c0: 7f83 fb28 84bd bc3f 5993 304b 3e45 88bf
000006d0: 667b c67d e175 acbf 50d9 ad7c f5b9 b0bf
000006e0: 503a 27b7 98c6 92bf 256d f7a2 e26a 9d3f
000006f0: f981 723a 5d0a b03f 4f61 033f 99f9 a73f
00000700: f829 8269 abb5 88bf e0ea 7c03 197c b5bf
00000710: 3947 264b 80b5 ba3f 759b 3003 76b4 b1bf
00000720: e556 81f0 aabe b1bf d762 7392 9b7f b73f
00000730: 90c7 61c0 c60e b33f b28a fc00 efa4 bebf
00000740: 36bb 6227 4931 75bf 4908 6cf6 07d4 b53f
00000750: c974 4a2b 3577 ad3f 8c5c fe1a 928a b83f
00000760: 2b5f ee16 4025 ad3f 1a8e c714 2cee 98bf
00000770: 1fcf 3a79 0b8f 8b3f 623f 47c2 e852 b1bf
00000780: d4a4 39c0 d784 be3f d898 9818 6cc6 a0bf
00000790: 0cc4 e48a b75a c1bf de8e 8a9a 36af b43f
000007a0: b41d 108f 657b 91bf e875 5332 a8ff 96bf
000007b0: a97f 1c2d aa97 b7bf d6a8 2efa 73d6 aa3f
000007c0: cbfb 1a24 5dd8 b4bf 5fb3 9433 00aa bebf
000007d0: 14b5 90a0 2d82 a7bf a63a cfd6 ed34 b53f
000007e0: 1cac 4065 e633 bcbf 146b bc5f 7431 b23f
000007f0: 1217 c7dd 5dc7 adbf 5e53 492f deb1 acbf
-0.09021557169465712 -0.03139030973388243 0.04116884121291707 0.022908550266762456 0.08292211787074644 0.09355224512143495 -0.06651461843071155 0.12004201069340872
-0.023429279502130352 0.132344858024227 -0.047364292198875745 -0.05813710045469408 0.015728643248051843 0.09124959905949181 0.07050850326778993 -0.09168359582600137
0.08764444280271334 -0.06015848340763287 -0.05685351697055162 -0.0046303100782536235 0.04581865008848312 0.06352928353977828 0.057019088726489434 -0.05600026325163087
-0.027317055031333016 0.09041991864295727 -0.007994727314359247 -0.08099050132487852 0.013841684865837532 0.017491454101100593 -0.10098739090331375 0.08648344229916853
-0.009441388015627782 -0.07852819353791289 -0.10846152385167591 -0.03132685634719453 0.10310661939484095 -0.08059998081151526 0.04990178230395985 -0.013434180543881773
-0.09344423845401693 0.03942589865427399 -0.11152944350171301 0.0116296758252011 0.11611494209376538 0.00522337138921445 0.08702995623190493 -0.1157727750945849
0.08508751070255686 -0.08932347830412675 -0.00790278318809035 -0.10887929236127314 -0.11924124118104308 -0.004831920648958819 -0.12630887518342956 -0.1154264460738012
-0.1318411504476143 -0.04341296491322811 0.09354014216151757 -0.07770426487201927 -0.08972125603732276 0.06980274183226785 0.10250842846691596 -0.026755458219075094
0.016993715901414196 0.023841043291444403 0.11098065270520328 -0.1202194128166397 -0.09517034121687577 0.03225824877093773 -0.06813814099383227 -0.021116049961647995
0.028117763385536922 0.11733142246679872 -0.07789424183296859 -0.11609841917019598 0.06750159036763179 0.07632956227522578 0.0054762412885250335 0.022101706726337975
0.06618450933983976 -0.018673215777225475 0.10589559944292193 0.031229471464790572 0.012882896505941826 -0.0017792314243513857 -0.009513947276135913 -0.07730485761734006
-0.08366575664654412 -0.07018491865520991 0.04159526371740327 0.03270090220732658 -0.00030954012564666497 -0.0477140117092307 -0.04667686488719279 -0.11139990040919158
0.04127873835927919 0.12768839743607346 0.07451051475975765 -0.1162887207242962 0.08131590774606774 0.033583057180127614 0.018188505244464574 -0.10500912355012881
-0.1284745534660296 0.09138905721862872 -0.12764503242507996 0.08167712105778126 -0.07318240607064805 -0.026045563808453014 0.06971527780980206 0.05308686178568168
0.11823585773731637 -0.09663045596678783 -0.056931222769945625 0.08884385923790421 -0.11436466802503757 -0.08033378291199848 0.05593907665775728 0.11609269977082559
0.07574094643551416 0.033883014415151055 0.0741336399250903 -0.09460927449568253 0.022869191598607053 -0.07156794026068462 -0.03526099632059517 -0.09712126050777013
-0.09203701618363644 -0.13846004785465818 0.08081215090429655 -0.08638162569203056 -0.082383677061466 0.04198524639858643 0.003117689947850495 0.057360142097668654
-0.04927141440984654 0.06569768303051163 0.014197444548128964 0.00821468606081308 -0.10677589767218403 0.13399595829886046 -0.08083906584872767 0.0668617568476386
0.00041917710293232604 0.04574302539785951 -0.04513550505509905 -0.008638752134086818 -0.01674913287454418 -0.0315116177576616 0.055813687554146174 0.057395436854540086
0.042482930654401896 0.01311295085305475 0.10626724146507016 -0.09250373594578606 0.029222061376758143 0.030913705576526476 -0.010352240854204692 0.10871944485261177
-0.0434748231897636 -0.12502929206856417 0.008435176988993244 0.0920457927895619 -0.1410768901082611 0.06356130662161319 0.04652803988641732 -0.11965473751286132
-0.02785827822941381 -0.08211137801824864 0.12864888848497347 0.05161186607781511 0.00010239137419296816 -0.03600730143756936 -0.04306275347134527 -0.052497442657242495
-0.012060261550538328 -0.09598625608521272 0.09113737706593047 -0.11392346757569174 -0.02440645447078876 -0.13031284825567557 0.10585785867669488 -0.12350959024180876
-0.09800708689150274 -0.07248981661816314 0.008707976736526837 -0.08682094774284718 0.10979300481238005 -0.07157045244256866 0.006715510826511096 0.02346349435906057
0.13290590138378996 0.10371245637521885 -0.060054301053953506 0.0445962118331579 0.03895304286952886 0.09161797180826231 0.016662068463958547 -0.12162305920040234
0.03568453642752874 0.10228971119077164 -0.02122462916510119 -0.04207281145933783 -0.01454367922773358 0.1077307794616176 -0.13671590802935313 -0.11085854658303877
-0.09040961179755855 0.05311628666334949 0.11036206899123367 0.05745173569864965 -0.05856530981846063 0.06337344404661563 -0.08117563683485228 -0.13506483624169183
0.11226678848789894 -0.01185082117997076 -0.055586859324867885 -0.06533750814364692 -0.018335710696016527 0.028728047558485365 0.0626581447309106 0.04682616132930894
-0.012065257222521261 -0.0839248307719731 0.10433198771195586 -0.06915986612203347 -0.06931560870847482 0.0917908890290947 0.07444421955895408 -0.11970418714603673
-0.005173955685832612 0.08526658788835663 0.05755010751202289 0.09586442145369939 0.056924822615825064 -0.02434605480983807 0.013456430089128056 -0.06767134421465706
0.11921451991078708 -0.0327638416313662 -0.13558096200861802 0.08079854271869233 -0.017072283608312325 -0.022459629127174724 -0.09215797044134767 0.05241739682181083
-0.0814264500759087 -0.1197815061502303 -0.045915056085826716 0.08283888334629327 -0.11016693088519997 0.07106711709313301 -0.05816167194602263 -0.05604452445246609

encoder.hidden_ff.bias f8 [64]
00000000: 4bae d746 9fa5 ab3f 41ff 6332 7161 b33f
00000010: 6617 498c 7514 b4bf e0d7 2561 509d 8dbf
00000020: ebfe b065 3743 b2bf 9e57 a533 c532 b4bf
00000030: 00b3 857a 84d6 b43f 1780 fafd 0b8a 82bf
00000040: 8da3 f770 e83d 7fbf 4a8e 3572 02c2 a93f
00000050: b7f9 9463 b4fa 70bf a6bc 606e ba11 ab3f
00000060: f621 2280 2ebd b13f 4f77 2a67 0e02 afbf
00000070: c242 b3af 55f8 ac3f 4f2c c728 c99f a03f
00000080: 4ca7 b110 889b b2bf 2eba 7e11 8bb4 9abf
00000090: e56c 92b4 77fd acbf 11b9 e246 880e 62bf
000000a0: 3711 b6a8 726a aa3f 4eb9 f8a5 d045 8fbf
000000b0: dd98 dede b1e5 b8bf 2bbb 190f 2268 c13f
000000c0: 1561 ee1d ba35 babf 7ae1 0596 54ea bd3f
000000d0: 8c95 ab0f b1f6 bbbf a263 a4c9 4b2c bcbf
000000e0: e645 e9a2 f130 c03f e5b1 c2e8 0b18 b2bf
000000f0: bad5 458e f901 a63f deeb d5d7 de9a b93f
00000100: 99a5 a11c e74b 873f 5658 acb5 defc bd3f
00000110: 4cec 8a9c cf08 993f 3a73 9ea8 b256 af3f
00000120: 262d 29d3 b774 a1bf 24e3 54e5 7f9a a93f
00000130: 455b b411 edf7 84bf 073e 3314 294e b7bf
00000140: aef1 0ed6 2540 b9bf b2ac 1a1e 7d9e 93bf
00000150: 05dc 55e7 5af1 b93f 88c4 4e12 9fb1 adbf
00000160: ad5c be85 e41d 92bf b8c4 ae42 fccb b33f
00000170: 7b13 8436 21f9 b93f 27ce 6680 251b c1bf
00000180: d6e1 8431 202d aebf 28a6 1911 ace8 bd3f
00000190: f5d6 426a bcb9 983f 3272 4af9 80ac 90bf
000001a0: 896e 4605 61d6 bc3f a337 cfad a0ce 903f
000001b0: ad9c 3697 7878 893f 5a04 7d7e ffae acbf
000001c0: aad4 ee64 a224 9dbf 79c4 57fe 8f3f b53f
000001d0: ff7c d211 e6fa a7bf 21b0 da7f 7359 bb3f
000001e0: 12b3 56a5 faab 933f c8e2 244d b62c c0bf
000001f0: a630 1aea ddac a5bf bd12 220d 6ef2 b2bf
0.05399797191406871 0.07570559959640112 -0.07843718218745507 -0.014460208859173151 -0.07133814079952187 -0.07889969359288648 0.08139827719942261 -0.00905236595946239
-0.00762739941954117 0.05030830043940833 -0.004145340580463167 0.052869630788671615 0.06929293277983803 -0.0605625630316654 0.056582143495352635 0.03246906874445498
-0.07268572242324217 -0.026079342787563124 -0.05662130431411486 -0.002204195180716025 0.05159338292563336 -0.015269880356836876 -0.09725486460829154 0.13599038827256868
-0.10238230925313403 0.11685684836073121 -0.10923296578001479 -0.11005090401557863 0.12649364905023147 -0.07067942078237584 0.04298381673553871 0.10001938599991386
0.0113752418148632 0.11713973937398356 0.02444767373047467 0.06120832737290134 -0.034093613172979695 0.050006863350466696 -0.010238506415175439 -0.09103638404052826
-0.09863506771120598 -0.019159274065412908 0.10133903644405969 -0.05799576853258609 -0.017692156470357535 0.07733132007594434 0.10145766812281735 -0.13364094514473487
-0.05893803219300124 0.11683154504284998 0.024146026597654708 -0.016283049788954958 0.11264616373812876 0.01641322193955087 0.012436811556496197 -0.05602262896582806
-0.028460061464745813 0.08300113639394792 -0.04683608024174112 0.106833666529099 0.01921073564669757 -0.12636450545121236 -0.042334494425717836 -0.07401168652183805

encoder.output_ff.weight f8 [1, 64]
00000000: 0000 0040 15ee be3f 0000 0040 2160 b0bf
00000010: 0000 0080 653a a73f 0000 0000 0052 29bf
00000020: 0000 0080 0c6a b43f 0000 0000 d17c a4bf
00000030: 0000 0000 6c2a bfbf 0000 00c0 ba19 b7bf
00000040: 0000 0000 ce1e 853f 0000 00c0 71a5 b03f
00000050: 0000 0000 ddc8 99bf 0000 0000 a8fd 82bf
00000060: 0000 00c0 1de0 bfbf 0000 0080 99e2 b83f
00000070: 0000 0000 3e04 b6bf 0000 0000 1212 8bbf
00000080: 0000 0080 935f a93f 0000 0000 70b4 8abf
00000090: 0000 0080 fc81 ac3f 0000 0080 3702 a83f
000000a0: 0000 0080 29ba ba3f 0000 0040 0553 b6bf
000000b0: 0000 0000 561c bfbf 0000 0000 4cfc b23f
000000c0: 0000 0000 80ef bbbf 0000 0000 eeba b13f
000000d0: 0000 0000 bc3a a1bf 0000 0000 87ea a93f
000000e0: 0000 00c0 7a9e bfbf 0000 0080 79c9 b2bf
000000f0: 0000 0080 6f1c bdbf 0000 0080 8a6a b03f
00000100: 0000 0000 8721 bebf 0000 0000 d6a0 a03f
00000110: 0000 0000 b05e acbf 0000 00c0 ecb4 b93f
00000120: 0000 0040 9aff bfbf 0000 0040 8c31 b3bf
00000130: 0000 00c0 2871 ba3f 0000 0000 3028 7dbf
00000140: 0000 0080 1ab0 a5bf 0000 0040 ee83 b73f
00000150: 0000 0080 cd1a ad3f 0000 0000 693d a43f
00000160: 0000 0080 d125 b63f 0000 0080 a345 a5bf
00000170: 0000 0000 a0dd 84bf 0000 0000 a216 a73f
00000180: 0000 0080 d432 aa3f 0000 00c0 f8e0 bbbf
00000190: 0000 0000 8732 b53f 0000 00c0 f1c2 b5bf
000001a0: 0000 0080 c489 ab3f 0000 0080 f5a2 a4bf
000001b0: 0000 0000 6ef5 a73f 0000 0000 9e95 afbf
000001c0: 0000 0080 a82b bfbf 0000 0000 defb b73f
000001d0: 0000 0040 2b8d bb3f 0000 0000 32a1 9bbf
000001e0: 0000 0000 4d1d a8bf 0000 0000 ff20 a73f
000001f0: 0000 0000 95ad 9f3f 0000 0000 c623 8b3f
0.12082035839557648 -0.06396682560443878 0.04536740481853485 -0.00019317865371704102 0.07974317669868469 -0.04001477360725403 -0.12174105644226074 -0.0902363508939743
0.010312661528587341 0.0650244802236557 -0.02518029510974884 -0.009272873401641846 -0.12451349198818207 0.09720763564109802 -0.08600223064422607 -0.01321806013584137
0.049557313323020935 -0.013039469718933105 0.05567921698093414 0.04689191281795502 0.10440310835838318 -0.08720429241657257 -0.12152612209320068 0.07416224479675293
-0.10912322998046875 0.06925857067108154 -0.03365123271942139 0.05061742663383484 -0.12351195514202118 -0.07338675856590271 -0.11371514201164246 0.06412568688392639
-0.11769908666610718 0.03247708082199097 -0.055409908294677734 0.10041694343090057 -0.1249939352273941 -0.07497479021549225 0.1032891720533371 -0.007118403911590576
-0.042359188199043274 0.09185685217380524 0.05684511363506317 0.03953102231025696 0.08651456236839294 -0.04154692590236664 -0.01018834114074707 0.04509454965591431
0.051169052720069885 -0.10890154540538788 0.08280223608016968 -0.08500586450099945 0.05378545820713043 -0.04030577838420868 0.046794354915618896 -0.061688363552093506
-0.12175992131233215 0.09368693828582764 0.10762281715869904 -0.026982098817825317 -0.0470985472202301 0.04517361521720886 0.03093560039997101 0.013251826167106628

encoder.output_ff.bias f8 [1]
00000000: 0000 0000 2c16 bf3f
0.12143206596374512

decoder.input_ff.weight f8 [64, 1]
00000000: 0000 0080 ec35 ee3f 0000 0080 5c67 efbf
00000010: 0000 0040 8a44 ed3f 0000 0080 86a3 d5bf
00000020: 0000 0080 2378 d73f 0000 0000 8041 a73f
00000030: 0000 0080 1587 df3f 0000 0000 43a5 d8bf
00000040: 0000 0000 34b3 ef3f 0000 00c0 d0e9 e63f
00000050: 0000 0000 0c84 c83f 0000 0080 9763 eabf
00000060: 0000 0000 098b d4bf 0000 00c0 8dd3 e33f
00000070: 0000 0080 7d80 debf 0000 0000 7eea c6bf
00000080: 0000 0040 5ab0 e73f 0000 00c0 5222 e53f
00000090: 0000 0000 f638 ce3f 0000 0000 f329 d0bf
000000a0: 0000 0000 f5a7 d6bf 0000 0000 b6e1 cc3f
000000b0: 0000 0000 7860 94bf 0000 00c0 8189 eb3f
000000c0: 0000 00c0 8c64 eebf 0000 0080 f812 debf
000000d0: 0000 00c0 6c5c ec3f 0000 0000 a4f3 cfbf
000000e0: 0000 0000 6466 e6bf 0000 0080 da41 ec3f
000000f0: 0000 0000 8743 de3f 0000 0080 80f5 e0bf
00000100: 0000 00c0 348f ef3f 0000 0000 9bf1 ef3f
00000110: 0000 0000 b68a e63f 0000 0000 a858 b7bf
00000120: 0000 0080 e38a d73f 0000 0040 ad1e e4bf
00000130: 0000 0080 50a3 e5bf 0000 0080 8ef6 d33f
00000140: 0000 00c0 3035 e23f 0000 0080 3ace d2bf
00000150: 0000 0000 c944 d03f 0000 0000 6970 d23f
00000160: 0000 0080 839d debf 0000 0080 4b60 ddbf
00000170: 0000 0000 f96a c9bf 0000 0000 65a9 c8bf
00000180: 0000 0000 efdb d8bf 0000 00c0 f7e5 e9bf
00000190: 0000 0080 312f e5bf 0000 0040 3d69 e4bf
000001a0: 0000 00c0 d6fc e5bf 0000 0000 9637 e2bf
000001b0: 0000 0000 74c1 d5bf 0000 0000 2928 d0bf
000001c0: 0000 0000 c9df d0bf 0000 0000 9c86 c13f
000001d0: 0000 0000 cb3f d93f 0000 0000 fe36 ddbf
000001e0: 0000 0000 34d0 a5bf 0000 0000 7bdf debf
000001f0: 0000 0000 306a b4bf 0000 00c0 206d e83f
0.944082498550415 -0.9813673496246338 0.9146167039871216 -0.33810579776763916 0.3667076826095581 0.045421600341796875 0.4926198720932007 -0.3850867748260498
0.9906253814697266 0.7160419225692749 0.1915297508239746 -0.8246572017669678 -0.3209860324859619 0.6195744276046753 -0.47659242153167725 -0.1790311336517334
0.7402774095535278 0.6604398488998413 0.2361133098602295 -0.2525603771209717 -0.3540012836456299 0.22563815116882324 -0.01989924907684326 0.8605355024337769
-0.9497741460800171 -0.46990787982940674 0.8862823247909546 -0.24962282180786133 -0.6999988555908203 0.8830387592315674 0.4728715419769287 -0.5299685001373291
0.9862312078475952 0.9982428550720215 0.704432487487793 -0.09119653701782227 0.3678520917892456 -0.6287447214126587 -0.6761858463287354 0.311923623085022
0.5689929723739624 -0.29383718967437744 0.2541983127593994 0.28811097145080566 -0.47836387157440186 -0.45900237560272217 -0.19857704639434814 -0.19266951084136963
-0.3884236812591553 -0.8093222379684448 -0.662010908126831 -0.6378465890884399 -0.6871141195297241 -0.5692853927612305 -0.3399324417114258 -0.25245118141174316
-0.2636587619781494 0.13692045211791992 0.3945186138153076 -0.4564814567565918 -0.04260408878326416 -0.4823901653289795 -0.07974529266357422 0.7633212804794312

decoder.input_ff.bias f8 [64]
00000000: f506 4225 f474 d2bf f624 42ca 4c3c d63f
00000010: 8ef5 7433 efe8 e4bf de06 6bc8 59ef debf
00000020: d372 3aed 7a8c d63f 87bc f333 3403 e53f
00000030: d121 aabf 6fc3 d13f 4616 2454 dceb db3f
00000040: 8bb0 38fe 2023 cb3f 734a 570e 2a24 cf3f
00000050: 6d20 8cac b3f4 d23f 9384 5957 a038 edbf
00000060: 10e9 02ed 2203 dbbf 488b 63ca da7e da3f
00000070: 818a e652 b847 d33f 6e91 e12a 9a8e e6bf
00000080: d464 7b28 9b11 e53f d895 a2fd 4004 e43f
00000090: 46a9 27cf 4f85 dbbf 1119 54da b27f e6bf
000000a0: c39c e384 bfc5 c33f 618a 2d6c b0c6 cfbf
000000b0: 29bf 8fcf 0d94 ecbf 11f7 0380 3cbd d43f
000000c0: 6c6f cf9d 885a e03f fe66 6ec7 9dda c13f
000000d0: 65f8 97f1 0026 b83f b4ca a580 3940 dc3f
000000e0: 7a47 1960 cf92 9a3f e261 907b 17d5 c43f
000000f0: eb1d 77c5 16a2 eabf 8c23 9880 05cb e03f
00000100: afd4 fdc7 8322 ee3f bef9 5e7d e0e6 c0bf
00000110: 9507 40f5 12cc e6bf 596a 2fc6 39e1 993f
00000120: 0bdb 244a 3401 a5bf 5592 3b58 3948 8c3f
00000130: 33fd 739e 1d6f d73f 00b4 2abf c708 dfbf
00000140: 4e61 ea3c 1571 d53f 40e4 41a1 373f eb3f
00000150: df79 b303 18e7 e53f a383 1041 e670 c73f
00000160: 9024 7598 a684 ecbf 9118 0f02 42a9 edbf
00000170: 588e 32c2 7545 ed3f f396 c162 0607 e0bf
00000180: f2c4 303f 9fea c83f ffd2 e9b9 b0b8 d3bf
00000190: 3434 cdd0 4f5f bc3f fc68 c9b6 7598 e2bf
000001a0: 0142 f604 035c bebf d9d6 f9dc 6331 dd3f
000001b0: 53ac 00fc 51c8 ecbf 859d f92d d9dd b1bf
000001c0: b12e 0046 d020 e43f d2c6 99e1 d53b e6bf
000001d0: bf0d 8569 4e2d ecbf bb8a 2022 bc2f eebf
000001e0: f1eb a7cd 6516 df3f 6d59 62ff ba3c d7bf
000001f0: ee54 8ef2 b153 e6bf 7b9d 94a7 11a5 dd3f
-0.2883882869574415 0.34743041755480364 -0.6534343724267033 -0.4833588082511663 0.3523242298777351 0.6566411032380451 0.277553498432579 0.4362707921685324
0.21200954831272542 0.24329114628070023 0.29618541574791984 -0.9131623941467687 -0.4220664324344776 0.4139925934270434 0.3012524423194592 -0.7049074971696834
0.658399180475636 0.6255192712603117 -0.43001170377705866 -0.7030882133701956 0.15447229374624358 -0.24825101167796773 -0.8930729917464976 0.3240500688697106
0.5110514719230941 0.13948414075712628 0.0943298902347763 0.4414199596714454 0.02595066093483165 0.16275304349325298 -0.8322862488502641 0.524782897148826
0.9417132288059714 -0.13204580423002982 -0.712411383632786 0.025273230286851554 -0.04102481274678923 0.013809631352566113 0.3661569640534765 -0.484910904585206
0.33502703617843543 0.8514669560964947 0.6844596931730925 0.18313291718461952 -0.8911927201926506 -0.9269113579000693 0.9147290032310122 -0.5008575371582239
0.19466009698366055 -0.3081476035652457 0.11082934234328051 -0.5811108179143782 -0.11859148856297709 0.45613953189545736 -0.8994531557012898 -0.06979138729513153
0.6290055625153937 -0.6948041349662282 -0.8805305539066736 -0.9433270136399509 0.48574204524601244 -0.36308169307576216 -0.6977166879102279 0.4632000099686235

decoder.hidden_ff.weight f8 [64, 64]
00000000: 5ec7 e4a9 a326 923f 5852 0829 9aab 9d3f
00000010: 828e c69b c591 bb3f 6e95 14b3 a9e4 b03f
00000020: 3740 d9ef 0b09 643f 3ab4 40c8 0960 b43f
00000030: c10c 5e6d 083e 983f 3607 9f07 fc74 b3bf
00000040: c2ed 3708 2c89 b3bf b72b 2e8b b330 a03f
00000050: 70fd 09d6 f20b 87bf ddd2 ac87 b7cf b53f
00000060: 4dfa d904 1ef3 b3bf a459 483e 8bd8 9fbf
00000070: 29ed a907 0447 86bf 7782 b332 ed0d 9c3f
00000080: 89cf 671c 69f2 b13f 5ead 67c2 4356 b0bf
00000090: 57a5 b2a1 4669 c03f 9089 6a7b 12b0 bdbf
000000a0: ffdc bbc2 d7f8 a23f 75cf a4d8 f34c 94bf
000000b0: 6ac0 6fb5 0e1d bbbf a74e 1946 ec6a 823f
000000c0: ba06 780b 030f b5bf fa2b b527 e4be a93f
000000d0: 9381 ce5d 5ea8 ac3f 0090 ac94 5913 afbf
000000e0: af79 b7db c61b a43f cd2b 983e 2abe 943f
000000f0: 6471 bbf8 da04 9dbf a1b2 a1d3 26f2 b8bf
00000100: ff0e a585 8892 b3bf 86a5 8fc9 6302 b8bf
00000110: 0f45 4324 e480 b7bf b077 799e 9747 bdbf
00000120: 8d7e 779b e489 afbf 12d1 8f90 e18a b53f
00000130: 3e88 abf7 9e0f 9b3f d623 f12d c635 bcbf
00000140: de01 ffcb af7f b43f 5a41 5b97 33f8 bb3f
00000150: 7ce9 fa6d f1ce b6bf 3d01 d7fd 0ec4 7d3f
00000160: ad98 08aa 4f08 9b3f 2d74 1187 2c3d 7ebf
00000170: ada7 7894 ffb9 a8bf c882 c8b8 e584 6d3f
00000180: b2a1 9472 18f4 b73f fe8f e3ee fb29 a7bf
00000190: 0758 8e36 30be a9bf 3060 9ad7 0fa7 bbbf
000001a0: dec9 3ae6 159a ba3f 1a6e a591 b7b9 9cbf
000001b0: 9d1f 58bc dd5d a8bf 3f88 4315 7b54 bc3f
000001c0: 8413 9891 59b1 b63f 33d2 66a3 c727 a93f
000001d0: 389a 10f9 d7cb a2bf e982 ffb7 7883 93bf
000001e0: 1214 f603 712a b03f 3a02 bf3a 18ab b03f
000001f0: 6858 9d01 2b0b b1bf c64d 270d 35ce a7bf
00000200: 95bd dc2d 43ed b13f 001c 08e1 5d4c ab3f
00000210: aa6f 7449 124e acbf 1c63 dc8f a471 b23f
00000220: 6dbd 5798 3bf2 a93f 4b7b 98ed 8479 85bf
00000230: 9211 f868 8005 aa3f a473 d1c3 e3cd 99bf
00000240: 1e3d 3ad8 3caa 9f3f 1893 5aab ad07 7b3f
00000250: bdec f9bf 3279 b1bf 01e1 ae1c 6b65 bbbf
00000260: 333e 02e5 c5aa 763f 4bb1 498a 2ff0 b1bf
00000270: 55a0 f569 f875 c03f 3393 981b ede5 a8bf
00000280: 2230 2160 999f b53f 331d 50ef d7ee b1bf
00000290: 6376 c624 d139 9e3f 5c01 6e75 eb9c b13f
000002a0: 1d4d 9411 2e68 b7bf 7dbd 912c 5765 a0bf
000002b0: 9bd1 c7f9 d291 793f fe5d 28e4 2c4d a5bf
000002c0: 125a 7ca3 c0e6 833f 06af db66 9183 b13f
000002d0: 45fd 661b dd83 91bf 351c 128a 26f1 b83f
000002e0: 26e4 8208 a022 ad3f e563 622e 9ff9 a13f
000002f0: 4e6a d061 d3cf bcbf 02ee 26e8 9c31 acbf
00000300: 5f49 14de 4f1a ae3f 1932 9535 ea41 92bf
00000310: 60d5 9a0b a206 a5bf b288 59ff a9cb a5bf
00000320: 387e 2674 b6f6 643f 1973 65dc 68ce b23f
00000330: 1b49 7499 5ee7 9a3f 50fb c953 aef9 adbf
00000340: 1395 16b7 fe3f 65bf d20b 3ba2 b405 bd3f
00000350: 74e7 fc69 db30 ba3f 2fb5 c5bc 73d8 883f
00000360: ad84 c944 64c6 bd3f a857 94fb ae15 8dbf
00000370: 21a0 67dc 4a80 b13f b5b8 8375 4e5e b43f
00000380: 7a65 d217 2ea9 853f 5231 076a 5d99 b1bf
00000390: f20d 8204 31e0 b53f b07e 6f32 be75 ba3f
000003a0: 8411 b770 aeaf 8a3f a4e5 fe94 fe79 b93f
000003b0: 3608 a8b0 6f1e bc3f af34 d746 d608 813f
000003c0: c4c0 478e 6867 bbbf 71ac 76e8 673a a3bf
000003d0: 4fbb 9704 6728 363f e223 36ff 8de2 b93f
000003e0: b8ad 1400 9c25 a73f 6198 b17d 6899 a53f
000003f0: bfc9 3874 9f1d 9b3f 8266 cdb1 674e 883f
00000400: 655a 7416 2485 a9bf b843 4349 bf21 b0bf
00000410: a090 556e a6df be3f ac73 3c3d 7e5f c03f
00000420: 9821 322e 3228 793f f811 4589 6900 9e3f
00000430: 9c7a 4ab4 fb72 bbbf 376e 0315 f3b8 b9bf
00000440: d505 d3ec aa05 bcbf 1a46 d116 f776 623f
00000450: faf0 c632 13de bb3f 004d b061 d035 ad3f
00000460: 4be9 9806 2c6a b63f 9230 219e 779b bb3f
00000470: a846 bf78 32b1 bd3f 91ab e075 f310 573f
00000480: 7057 0990 549d c0bf 0a36 df97 69a5 a9bf
00000490: 285a ac67 bf47 b53f 29e4 cfe4 e9ee ae3f
000004a0: 6f07 0d98 b64e bd3f fbb9 c2e7 9d80 be3f
000004b0: edd7 5bf1 efb6 5ebf 449a 9143 e24e b53f
000004c0: f54e 70ce d1ff 663f 1e82 57c6 96d1 a63f
000004d0: d36a 0544 5ced b2bf 2614 24b3 f11c b4bf
000004e0: fc6d 4ed6 eaf9 b0bf d954 c33c 08da b3bf
000004f0: 16cb 7c59 52f5 be3f 6862 2981 4503 60bf
00000500: a0f3 e7ae f611 b93f 52b9 17f0 9604 c0bf
00000510: 92eb c596 1af6 85bf adc1 d987 d08c aabf
00000520: 0d0a 109f 46fd b83f 30ff 467e fa42 6abf
00000530: 76c8 aba4 7a08 99bf d3c7 fb2f 6ec7 aabf
00000540: a299 9427 fe0b abbf e7c6 9921 9743 ba3f
00000550: e376 7a8d f966 b9bf 9390 c870 8cee a63f
00000560: 377e a555 345d a3bf 4a53 e96b a70d b83f
00000570: f541 62a2 dad7 a2bf 79c0 f356 7ad3 bb3f
00000580: ece2 53ab 2799 b6bf 0f91 6f7e 8d95 a5bf
00000590: cb9f 74ba 64e0 bfbf 6bb4 823b 14e7 ba3f
000005a0: 5d38 f9ae 0723 b8bf 3aee b3ff 639b 963f
000005b0: ff2f a63b 9c78 acbf d2b8 75c7 786c b63f
000005c0: 40ca d723 d211 b7bf ef18 47c1 ad22 bebf
000005d0: 17bb 663d ffc2 bb3f e402 05e8 c5c7 bbbf
000005e0: 2249 65c2 6a76 b93f e1df f7a2 ed83 86bf
000005f0: 5030 67ba cfbd bc3f 73aa 35a2 059f 91bf
00000600: d41a 6a91 ba1d be3f d530 7576 044a ae3f
00000610: fdd9 6c13 0553 b33f d243 778f fd53 bf3f
00000620: 66bc e273 4b6a abbf 2093 4260 68b6 a43f
00000630: 2104 4ee6 86eb a23f fb2f 151c 3e7f 8cbf
00000640: 3a0a 434a 9293 a9bf d732 49bd 6742 bd3f
00000650: c3af ffef 434f b43f 8ade 9850 4b1b 893f
00000660: 5fbd b802 6967 a83f 5201 3ab3 2491 a53f
00000670: 3de1 23c3 ba21 a8bf c756 aca2 daaf bebf
00000680: 0d36 3624 6a1f 85bf c5a9 5488 ddcd bbbf
00000690: 3a12 c351 6781 b9bf b3be 318b 688d b5bf
000006a0: b918 eceb 27ca b53f 375b 0f73 9944 b0bf
000006b0: 9590 8abf eca4 b0bf c736 9cd2 a8f7 a13f
000006c0: 5df8 8e97 c6b0 b83f 43cc 59a7 5f5c b83f
000006d0: c2d0 4f8c 698d bcbf 2093 6b85 518a b5bf
000006e0: 4beb f874 4cea bbbf 4959 a1fe 0bbd aabf
000006f0: 64ef 0dc2 bbb1 babf ece2 4f59 248d be3f
00000700: 4441 e1bc 147e be3f 895e 8e1e a8a5 b93f
00000710: 74fe 3e58 8503 a1bf 07cc 43e5 18b0 b3bf
00000720: c502 3059 02a3 b5bf 922e 8685 e080 96bf
00000730: ee1b aa98 3d29 bc3f 5b0e b84a 90a3 b9bf
00000740: 38df c5c3 cf50 b8bf 165c 3068 4ccc abbf
00000750: 7a1e 0765 ac7c a93f 0cb8 bdcb 0146 913f
00000760: 35c5 0adc d9fa adbf 378c 4aa2 3230 aa3f
00000770: 99f3 a55f 6bd7 a93f cb40 4243 d876 bc3f
00000780: 7401 70cd a101 aabf 6d25 2a79 0250 be3f
00000790: 1026 2985 0d69 b2bf 55c1 6750 0f06 b43f
000007a0: b936 2ada 66f4 933f a02b 9e14 cffe afbf
000007b0: 7921 0d5f 4a99 ad3f dcac 7cd8 641d 9b3f
000007c0: 57fe 4ec7 3df1 bfbf 9983 1c58 bfa3 bdbf
000007d0: 0292 82ab 60cd 843f 0097 6687 a0f6 bd3f
000007e0: 03bf 0a6c 1aef b7bf 8bff 2a90 40cc b9bf
000007f0: 2ff7 05b3 bcad bdbf 41dc fc4f 39ac 83bf
0.017725522274481313 0.02897492289965195 0.10769305279841926 0.06598911878662303 0.0024457200186489797 0.07959042681677966 0.023674136805777794 -0.07600379167618318
-0.07631182861944466 0.03162156175593316 -0.011253258854820841 0.08520075857525052 -0.07792842501110293 -0.031099486996106443 -0.010877639278297284 0.027396875590854877
0.0701051420544997 -0.0638162946340137 0.12821276564981574 -0.11596789849367029 0.03705477001306611 -0.019824800584685904 -0.10591213159182336 0.00899300183224423
-0.08226031332017217 0.050284509513026834 0.0559720506200875 -0.060694503210726225 0.03927442009056691 0.02025667197271357 -0.028338834220322254 -0.09744494120395554
-0.07645467055140996 -0.09378646536756294 -0.09181047330209345 -0.11437366122251436 -0.06159891507900026 0.08415040759411266 0.026426776758747154 -0.11019552823667253
0.08007334452032164 0.10925600476480693 -0.0890952008730092 0.007267054138935966 0.026398892167116262 -0.007382558761574604 -0.04829405486482528 0.003603409457597049
0.09356835172059766 -0.045242188369030586 -0.05027914682356998 -0.10801791204210143 0.10391365881768119 -0.028052204384364378 -0.04759114193080836 0.11066407460342108
0.08864364437620337 0.04913162107132898 -0.036711453584122145 -0.019056211691238643 0.06314760538778355 0.06511069711906084 -0.06657666005534824 -0.04649511132779653
0.07002658719715378 0.053317006797492184 -0.05528313776650802 0.07204655182102865 0.0506762145486118 -0.010485685826152077 0.0508232238899239 -0.025199469401161814
0.030922842690924594 0.006599119563962551 -0.06825558840675945 -0.10701627207061294 0.005533955598493945 -0.07007119299095625 0.1286001698856604 -0.0486291977106589
0.08446653935351425 -0.07005071251488885 0.02951742922743107 0.06880065552650677 -0.09143340996915979 -0.032023166838253105 0.006242584346626857 -0.04160442624214154
0.009717469205083016 0.06841381798920673 -0.017104582593444623 0.0974296652876639 0.056904793776489535 0.035107588207388386 -0.11254616869011011 -0.05506601652038158
0.058794494494707854 -0.017829570312914187 -0.04106623069439297 -0.04256945840894967 0.00255904803744025 0.07346206074494112 0.026273229709723993 -0.05854553959669906
-0.002593991747476773 0.11336831055363852 0.10230799996943835 0.01213159961545304 0.1163084667146161 -0.014201514294238951 0.06836383706070183 0.0795640026951528
0.010576591588960172 -0.06874641264511652 0.08545214042720042 0.103359114945756 0.013030398192207533 0.09951773774709821 0.10983942091846263 0.00831763652504444
-0.1070466372837045 -0.0375549765843396 0.00033810153089935 0.10111320000409266 0.045208811769352264 0.04218603643748576 0.026480189770333725 0.011868295777890173
-0.04984390997031055 -0.06301494158402832 0.12060013002116188 0.1279142188076582 0.006141849534408904 0.029298447612079642 -0.10722325469621768 -0.10047835600874398
-0.10946148187488032 0.0022539926490388164 0.10885734548259399 0.05705119316567142 0.087557555781051 0.10784099207484335 0.11598506400994302 0.0014078500312375323
-0.12980134041816482 -0.050090122021725206 0.08312603264889928 0.060416516476785205 0.1144823189943318 0.11915003689021113 -0.001874670333049884 0.08323492192867216
0.002807531145217252 0.04456778689541728 -0.0739343324725426 -0.07856665252263947 -0.06631343586052901 -0.07754565700027473 0.12093081173661022 -0.001954684973764654
0.09793035288016805 -0.1251400635077951 -0.010723312116842885 -0.0518555799325243 0.09761468299260674 -0.0032057659575172245 -0.024446407604905983 -0.05230278335319807
-0.05282587273750329 0.10259384699181916 -0.09922752098142555 0.04478873135329411 -0.03782046838273028 0.09395834335857703 -0.03680308563446381 0.10869564650397646
-0.08827445919804305 -0.0421566216316781 -0.12451772262704634 0.10508848622221627 -0.09428451558889735 0.022077143174995074 -0.05560768345011979 0.08759264821648863
-0.09011567473479776 -0.11771665543264807 0.10844416855864512 -0.10851704515972532 0.09946315046298485 -0.010993820701500514 0.11227129269463032 -0.017208183312883606
0.1176411252036858 0.05915845819490221 0.07548553203819348 0.12237534287056853 -0.05354533948536115 0.04045416045236139 0.03695317803704535 -0.01391457102968018
-0.04995400578038241 0.11429451342810225 0.07933449372620686 0.01225909080231637 0.047663957197410005 0.042122980955357506 -0.04713233596879938 -0.11987081977380419
-0.01031382487306145 -0.1086100061262761 -0.09963079210417272 -0.08418897054957135 0.08511590490170108 -0.06354674395639114 -0.06501655269909386 0.03509261675763536
0.09644738388212333 0.09515950999939186 -0.11153278041439577 -0.08414182193116604 -0.10904386382837321 -0.052223563034817184 -0.10427449691445428 0.11934115581960797
0.11911134349179969 0.10018397089003818 -0.03322998716566597 -0.076905780766353 -0.08451857259206992 -0.02197600188223576 0.11000428177986496 -0.10015203308290081
-0.0949830868684075 -0.054293048590061385 0.04977930768251056 0.0168686180690472 -0.058554466353039215 0.051148969946801896 0.050471644807635836 0.11118842737255645
-0.05079370148451093 0.11840835054512917 -0.0719154787158447 0.07821746552486293 0.01948700625012265 -0.062490912691905764 0.05781013880056469 0.026479316438025133
-0.12477480045253607 -0.11577983761936962 0.010157351717063005 0.11704448037798088 -0.09349217546218473 -0.10077289123273496 -0.11593226786314113 -0.009605834725887276

decoder.hidden_ff.bias f8 [64]
00000000: dcc8 ef55 e059 ad3f 3829 1152 9918 a43f
00000010: f5ad a79b 70e2 b1bf 0fb4 c11a 46e9 7cbf
00000020: 0435 168b beb0 b1bf e11a 62e0 406d b8bf
00000030: 04f1 ae82 3d34 a4bf dca6 6f6f d9d3 b2bf
00000040: e9c1 e278 212b a23f 9cac 458d 67d5 90bf
00000050: 147e cfcd 6a17 b9bf e423 ccfa 8f47 b6bf
00000060: 9cb7 e897 139f a03f d22c 8e69 140f bb3f
00000070: 9bd6 65b4 0c76 b8bf 68e8 e6d1 4074 af3f
00000080: ef4b b687 055d ac3f 7951 ebd2 9f26 b7bf
00000090: 39a5 9e7c c874 bcbf d1c8 a092 84a2 bbbf
000000a0: 69c6 3836 2579 b1bf 3915 5b18 b871 b6bf
000000b0: 1bfa 7d3c 5045 babf 67d5 08fc 7ffc 5ebf
000000c0: 4584 8411 7a5f b4bf d431 2331 75bf b5bf
000000d0: 9b07 680e f530 b2bf 1f2a 97c2 f719 bb3f
000000e0: f251 06d8 a847 bd3f 90c3 f38d 4444 7fbf
000000f0: 30bd e3ae 41e9 9fbf 59e2 0826 3e3e 823f
00000100: 664a dd7f bb61 a23f 9018 848a 5367 aa3f
00000110: f73c 002a 1896 b3bf cfda 8bb1 7250 b13f
00000120: f0d7 2651 ce7b 7ebf ad8d f854 ab8c b5bf
00000130: fd15 608c c373 a1bf 9ad0 aa7c e1cb bcbf
00000140: 377a 560c 60f2 bdbf bede f0f5 0bc6 bbbf
00000150: 6ece 9bdd 52ce b53f 8438 0811 eaf4 8b3f
00000160: e79b db8a 57df 663f ff60 3ca8 c206 c0bf
00000170: 548d 6bee 7f84 babf b8b7 0c96 14a9 b1bf
00000180: e4d8 7906 65b1 9bbf a34b a7a7 a652 b7bf
00000190: 3434 cdd0 b260 b43f 546f 6993 2a12 a63f
000001a0: a607 d913 3cdd 9cbf 8191 6230 0c54 95bf
000001b0: f0ef d4ff 880c 823f 7b62 0612 34c8 b43f
000001c0: 6116 fd9f 293c a5bf 54b4 7166 9a59 8cbf
000001d0: ba6c 284c 5f2c b4bf 0c53 f7dd c064 a63f
000001e0: 73af 9f76 f017 be3f 5066 893d 5f7f bebf
000001f0: f34b e5a8 b585 acbf ddd8 4979 3199 993f
0.057326326837839864 0.03925017477793563 -0.06986144828959324 -0.007058404775404105 -0.06910315414116402 -0.09541707494836828 -0.039461061670836656 -0.07354506464585192
0.03548531151443852 -0.01643907356030337 -0.09801356815977896 -0.08702945588096572 0.03246365765913525 0.10569884850535807 -0.09555129436724956 0.0614338165500648
0.05539719850198554 -0.09043311023135016 -0.11115696947549204 -0.10794857578074192 -0.06825478147291054 -0.08767271608947604 -0.10262013890130854 -0.0018912553642967624
-0.07958186080624426 -0.0849526638950871 -0.07105952836721345 0.10586498738045023 0.11437468790092689 -0.007633464613932342 -0.03116324071828308 0.008907781158186955
0.035901889189194944 0.05156956735486162 -0.07650900864995323 0.06763378939272545 -0.007442289281632583 -0.08417769264683868 -0.03408633316579921 -0.11248597425111698
-0.1169796018716419 -0.10849070314804529 0.0851794997250239 0.01365073074796564 0.0027920446217310937 -0.12520631041184768 -0.1035842854576477 -0.06898621238062119
-0.02704389431024702 -0.09110490410902954 0.07960050199217578 0.04310734796010132 -0.028187693320667194 -0.020828428700626404 0.008812971408239861 0.08117986145078675
-0.0414746291922199 -0.01384277939924964 -0.07880206689189864 0.04373743733927968 0.11755278488243252 -0.11913104297982469 -0.055707623355054546 0.024998448398456986

decoder.output_ff.weight f8 [1, 64]
00000000: d242 5d37 45c2 b0bf 1c15 9918 b5ca be3f
00000010: c526 27c4 6f26 b0bf 508b 69c1 bd84 b6bf
00000020: 92fa 2cf5 7b81 b83f 83f3 a38d 9797 b83f
00000030: 2866 c05b 462f b8bf 05ca 3ccf c6d7 adbf
00000040: 96c5 23c2 9035 c03f b9e2 1687 dc06 bbbf
00000050: 4075 5e4c 2c10 93bf 07fd 2aff 2f56 b2bf
00000060: 690f 0404 fdb3 a2bf a3ae 8e6f 16b4 aabf
00000070: bb20 be96 ebdc a6bf 2e85 0e46 29a6 70bf
00000080: 2e84 cb55 f24a a9bf a83e f6b2 1579 a13f
00000090: 2576 26d5 7dcc b13f c781 0e86 491d 7fbf
000000a0: 9d19 c1c0 0747 c03f 1464 3aca 8b95 a73f
000000b0: 0470 0bcb 3c57 953f b493 ce3c 3228 b63f
000000c0: 4ee8 a931 8b8e 5abf 96d4 4e9f a9cb b1bf
000000d0: 7dc8 ec4b df3a aabf 033d 8776 070c b8bf
000000e0: c46e fd07 e6c2 b0bf 9659 02e1 a5d8 9fbf
000000f0: ee8c 607f 35e1 b43f 068c e999 3010 a3bf
00000100: d834 726e e8f6 aa3f e09b bcc9 c37d abbf
00000110: c510 d9c7 447a a83f 3702 9888 0882 b03f
00000120: ad62 0ec6 ae5b a63f de89 a5ee c414 bf3f
00000130: 339a 52ac bfc6 a83f 44ca 42ae e1ef b7bf
00000140: cca7 ceeb 9729 b03f 6f0a dd31 a5f8 a9bf
00000150: b581 04b1 0f6f bcbf cbcd e439 2b5c b23f
00000160: 926f b463 6ede 903f 7894 3f6e da62 ad3f
00000170: 60ac eac4 a9d3 863f dc1f c2cd 5310 b93f
00000180: 1747 cc1c 861c 84bf 99d6 5fb6 4771 583f
00000190: d151 be60 34fb 99bf 090c 9b93 65a8 74bf
000001a0: 1282 22dc e530 93bf c050 2009 7c66 883f
000001b0: fcf2 22e4 d5b3 a83f a10f 79f1 7a9e b13f
000001c0: 2b0f 7bc0 1b5c 99bf 5331 8d94 c667 bebf
000001d0: 8378 9844 7bd2 b6bf 3a31 d56f 9915 be3f
000001e0: e33a 6652 6119 ae3f 0d56 a1aa d125 bebf
000001f0: 4d85 7adc b705 b0bf 0faa 290d fcee a8bf
-0.0654643306891203 0.12028056955849248 -0.06308649577035925 -0.08796297046641866 0.09572577224478554 0.0960631104280321 -0.09447135677364626 -0.05828686980966683
0.1266346881816786 -0.10557344720917684 -0.018616382752602023 -0.07162761668859129 -0.03652945207616549 -0.05215520965370259 -0.04465423789139452 -0.00406471369288512
-0.04939992234518119 0.034126928420957825 0.06952654317725455 -0.007596289827148834 0.12716767227011597 0.04606282085041627 0.02084059705053677 0.08655084595245804
-0.001620899135245785 -0.06951389445642273 -0.05123040963953061 -0.09393355029827792 -0.06547391600673352 -0.031099883898230006 0.08156141624253951 -0.03723289374172371
0.052665008051101914 -0.05369388425452093 0.04780783595609387 0.0644841512185018 0.04366823356321468 0.1214106638558756 0.0483913324217621 -0.0935040522042892
0.06313466555607689 -0.05072513803181244 -0.11106966087073185 0.07171888507291795 0.01647350772428486 0.057394815404941235 0.011145902940674357 0.09790538571735347
-0.009820029977649676 0.001491851836815361 -0.02537233200526307 -0.0050434081874213355 -0.018741218148195023 0.011914223698149207 0.04824703607434874 0.0688244666608271
-0.024765428183641063 -0.11877099158045228 -0.08914919304558748 0.11751708011906184 0.05878738528109808 -0.11776457229401434 -0.06258725292947993 -0.04869830761602511

decoder.output_ff.bias f8 [1]
00000000: b557 c487 9dd8 9cbf
-0.028170071994359797
