saved_model/find_max_rnn/best_train.pt (torch, 11159 bytes, 6 tensors)

input_ff.weight f8 [32, 1]
000000 0c 6b ce 26 33 30 c4 3f e2 07 dd 23 5a b9 c2 3f
       0.15772094149436844 0.1462814974893823
000010 fb 93 ad 96 ce ba f2 3f 50 c8 50 8a 90 f6 db 3f
       1.1706071744786175 0.43692410952929084
000020 f3 bb bd ea 43 0b d9 bf 21 e9 89 a3 57 3a e9 3f
       -0.3913125793832812 0.7883718675723551
000030 fa 55 ce 91 33 2c e1 bf 20 4d 7b df 76 0c ce 3f
       -0.5366456840299059 0.23475538170041776
000040 c5 55 9d 66 fe db bf 3f 14 ba ec f6 9b 99 e9 bf
       0.12445058827628148 -0.8000011275051429
000050 58 ad 93 15 16 48 b0 bf 22 ca 2e 29 2e 0b dd 3f
       -0.06359994913844014 0.45380739232783374
000060 11 70 c9 78 ee b9 d4 3f dc 3e 5f 43 2f c8 e1 3f
       0.3238483600196114 0.5556865993366631
000070 56 35 b8 40 6f 11 ea bf 5e c9 05 fe 12 de e5 3f
       -0.8146282447866422 0.6833586655978185
000080 54 ab 62 ad 24 d5 b9 bf bb c6 3d 45 67 b0 d4 bf
       -0.10090855820696493 -0.32326680909964595
000090 a5 d1 17 b2 12 c3 e3 3f 46 0b 19 6f ed 00 e1 bf
       0.6175626257304897 -0.5313632173423251
0000a0 a2 ac 16 26 70 d1 c4 bf f4 4b e7 1a 67 76 e5 3f
       -0.162641543004928 0.6707034612139737
0000b0 1c 0d 2b 84 d0 54 ea bf 48 db a6 ac 0c a9 c2 3f
       -0.8228533345613047 0.14578398161185135
0000c0 b3 18 67 97 b3 5c da 3f c8 26 d3 bc bd 38 d0 bf
       0.41190805230543076 -0.25346320571825887
0000d0 4d 3f 8a b4 92 1f e4 bf e4 8e d0 e7 a1 21 e9 bf
       -0.6288541341946058 -0.7853555228834606
0000e0 9d c2 0f a2 b2 2f a3 bf 58 5a 7a 14 83 ee e0 3f
       -0.03747328022280281 0.5291152381858621
0000f0 c7 60 e4 9c 6d 93 ea bf 11 66 66 86 2c d1 ea 3f
       -0.8304966034220563 0.8380339264869595

input_ff.bias f8 [32]
000000 17 2a 46 8a ac ef b0 bf bf 0e d1 74 fd d1 dc bf
       -0.06615713477928185 -0.4503167763507285
000010 1c 49 f9 c5 70 5e eb 3f c4 b3 cd f9 85 4c e2 3f
       0.8552783838916045 0.5718412283873637
000020 5b 4c f2 2c d9 62 bc bf 2e f1 47 e2 d4 8f e5 3f
       -0.11088330600095857 0.6738075656462905
000030 6d 77 f0 1a 1a ba bb bf 1a fb d3 9d c6 2b d7 bf
       -0.10830844075868891 -0.3620468655862382
000040 46 80 76 09 53 88 a6 bf c2 09 69 e2 fa 03 f0 3f
       -0.04400882235063412 1.0009716838982148
000050 ad 3c 17 e8 1c 6a e7 3f c3 7f 11 52 5c 83 d9 3f
       0.7317032368681758 0.3986426164101397
000060 50 10 17 ed e8 cc ba 3f 59 3e 3e ec 21 90 a1 bf
       0.10468917644817677 -0.03430276879145983
000070 7f 74 38 55 37 53 df 3f fd 7e 25 67 d1 1c d1 bf
       0.48945411035840175 -0.26738390992066724
000080 ef 32 b1 56 4b e4 e7 3f 29 be 62 67 e7 1e d9 3f
       0.7466179555136402 0.3925112256647219
000090 35 ef a2 1b 2b 91 e5 3f 42 80 be aa 3e 02 d4 3f
       0.6739707507872256 0.3126370112822806
0000a0 43 99 b7 8a e5 b3 a3 bf 0d 82 d5 b3 fb 59 b4 bf
       -0.03848187750172596 -0.07949803486327074
0000b0 a3 e0 c1 4d 81 1b d6 3f 9c 3c b4 99 f8 4e e8 bf
       0.34542877763261454 -0.7596400262863372
0000c0 c5 5b 6e 7d 62 b2 d8 bf 52 3b 2c 94 33 7b c0 3f
       -0.3858877396500556 0.12875981078146964
0000d0 64 26 76 cd 24 da e4 3f e9 87 d3 a9 cd c2 e5 bf
       0.651628876964605 -0.6800297085685517
0000e0 c3 c4 03 eb 54 c8 ec bf 0b 6a e2 4e ba 09 e5 3f
       -0.8994545545703193 0.6574374714576278
0000f0 3e 60 32 cd 42 4f e8 3f 68 43 44 03 f7 9c ee bf
       0.7596754081487302 -0.9566607536126925

hidden_ff.weight f8 [32, 32]
000000 6f 9d 84 67 b1 dd bd bf e6 af 69 8b 45 d8 c9 3f
       -0.11666401650710666 0.20191258723514166
000010 1d 28 dc 61 b1 4c c6 bf 4b 27 2f 99 72 30 b8 bf
       -0.17421548155135805 -0.09448925247047872
000020 f4 9e 60 98 97 a5 c3 3f 99 4c 68 a2 07 95 8e 3f
       0.15349097194961525 0.014932689327031222
000030 ce 96 f1 a0 3c d6 c0 3f d4 d0 5d c2 14 4c c4 3f
       0.131537989221377 0.15857181063223058
000040 83 59 84 c2 8a c7 cf bf f4 38 b3 57 b2 23 b0 bf
       -0.24827703950786537 -0.06304468766322541
000050 80 86 16 1c 33 90 ac 3f f8 ea 14 42 59 8f ab 3f
       0.055787656000814145 0.05382803851758483
000060 e5 b8 9b 2d 43 e6 cc 3f 4a e0 15 41 7f 50 bb bf
       0.22577705122916494 -0.10669703806877454
000070 dd e8 b2 9e 61 87 c7 bf 93 0a a1 f0 84 3e c6 3f
       -0.18381901024787953 0.17378293752161209
000080 75 9b ba 69 bc 75 ab bf bf af 94 2a f1 fb a3 3f
       -0.05363262930523308 0.0390315403440975
000090 e0 ff 78 48 e0 f8 8c bf 76 30 26 94 0a d9 9a 3f
       -0.014146568500223056 0.02621857194166962
0000a0 be d6 3b b0 95 f2 a2 bf 2d 67 b8 ab 22 ac a7 bf
       -0.03700702453890646 -0.046235164129213004
0000b0 d8 7d c1 a1 06 18 c6 3f e2 2b 46 d5 4e d6 bb bf
       0.1726082124541637 -0.10873882967841511
0000c0 59 ae ca f3 57 8d c0 3f 31 bb b6 29 01 bc c2 3f
       0.1293134632481834 0.14636244332128848
0000d0 0f 15 25 e9 0d 22 c1 3f e3 ea 12 d0 6d e3 bb 3f
       0.13385175594354634 0.10893904046944729
0000e0 43 c0 6c 4c cf 17 b3 3f e9 e9 59 ff 2e 98 a3 3f
       0.0745820581039434 0.03827044360237492
0000f0 79 12 88 00 1c d5 c6 3f 62 6b 83 96 53 10 b9 bf
       0.17837858224824624 -0.09790537285463821
000100 3e d2 a4 42 46 08 b6 bf 25 eb cd a4 40 e9 ae 3f
       -0.08606375815436082 0.06037332546016775
000110 49 ae e5 fc da 71 ab bf 84 19 01 f7 3d a1 bc 3f
       -0.053603022929419604 0.11183535843256293
000120 de 9e a4 4b 56 b9 af bf de 40 ee 71 d3 51 a4 3f
       -0.0619608847940165 0.03968678251033152
000130 bc 3c ee ce fd 7c b3 3f 96 6b 5c af 0d 4f a1 bf
       0.07612596799866628 -0.03380625501286898
000140 e2 22 dd 6a 88 4a c0 3f 47 ed 3d d6 93 d5 b5 3f
       0.12727456300696988 0.08529018383517438
000150 8b 78 dd 4d a4 ef 90 bf 5c 83 85 6a c2 b4 95 bf
       -0.016539160969266702 -0.021197355033453533
000160 e2 bc 43 9d 00 64 b1 3f 0d e7 10 82 fc 7f c5 3f
       0.06793216552226825 0.1679683337295547
000170 1d 99 9d 39 c3 37 81 3f 34 b1 2f 46 51 0d ba 3f
       0.008407139964856253 0.10176570857556017
000180 65 71 1c 6a 8b 99 b2 bf 3d c6 3d 2b 7b 94 c5 bf
       -0.07265540447810322 -0.16859378444091702
000190 cc 91 bb 78 f3 2f c7 3f 8a 46 98 8b d2 58 b6 3f
       0.18115085024977728 0.0872928229148561
0001a0 c4 35 83 b6 2b 4f af bf a7 65 c3 ee a5 ca c1 3f
       -0.0611508999150874 0.13899683149683748
0001b0 8b e9 4a b1 f3 e8 b6 bf e1 25 70 a9 e3 39 c3 3f
       -0.08949206427033667 0.15020414136260654
0001c0 69 80 76 e1 c2 cb c1 3f 60 f0 a6 0a ff e6 92 bf
       0.13903079995089065 -0.018459305787232316
0001d0 9f 0a 6f 8c fb f1 a1 bf 20 81 fe a4 7a 17 ae bf
       -0.03504930581359144 -0.05877288116539803
0001e0 10 22 f8 13 75 0c ad bf 93 02 c4 9a 6a a9 99 3f
       -0.056735666930823325 0.02506033486952448
0001f0 fa 79 16 9b d3 aa cb bf 35 67 57 86 37 0b c4 bf
       -0.2161507136597292 -0.1565923124278982
000200 f8 fd 1a 81 41 1e c3 bf e2 2d 62 26 4d 39 c8 3f
       -0.14936083606697514 0.1892486989421363
000210 e5 43 ff 4d 88 b7 bb 3f 58 9b 01 f1 f4 be b3 3f
       0.10826923279024887 0.0771325195688467
000220 b7 a4 58 75 ef e6 bd bf ca f3 56 bd b8 17 bc bf
       -0.11680504431628234 -0.10973696348715048
000230 43 61 ae 55 78 55 b5 3f d8 91 c0 3d 84 d6 c6 3f
       0.08333541957688788 0.17842152610059148
000240 47 1e 39 9e 23 f6 ca bf 7e 2d 06 29 53 a6 bc 3f
       -0.2106365702222652 0.11191291572156634
000250 af ea 01 c9 d7 c8 af 3f 19 f9 86 c1 94 46 c9 bf
       0.06207918480591467 -0.1974664635617465
000260 0e 76 8b a0 16 92 c1 3f 50 4c 51 3b 7a 27 c0 3f
       0.13727076377010444 0.12620475670209652
000270 a1 35 76 d6 c8 b4 cb 3f 3c 6b e0 f0 21 13 a4 3f
       0.21645460578694745 0.039208470014463676
000280 67 46 73 6d b8 ac a4 bf 79 77 d6 1d 49 ea b4 3f
       -0.04038025222838542 0.08169991472683859
000290 e1 4f bb f3 00 be ba bf 80 9e 54 72 b8 ff a9 3f
       -0.1044617266700807 0.050779117542615104
0002a0 19 e6 e7 44 1c 37 b5 3f 01 73 d7 8b f8 ad c0 bf
       0.08287216837188573 -0.1303091700382524
0002b0 f3 a7 7e 22 78 01 bb 3f 2d a9 94 ee 2f 4a a2 3f
       0.10549116937787044 0.03572225367891444
0002c0 69 f1 aa 38 6f 41 b0 3f f7 a1 de 56 a1 f3 c9 3f
       0.06349845059862037 0.20274750463182986
0002d0 80 15 10 aa 1f d9 bf bf 37 c6 cb 1a 79 ca c8 3f
       -0.12440679456638826 0.19367898758314236
0002e0 c5 e1 b0 99 41 6d a7 3f 66 bc 59 c1 aa 5a 6c 3f
       0.04575543404684227 0.0034612021507239186
0002f0 9f a1 ca be 58 5a c0 3f 2f b8 be 41 a6 30 c3 bf
       0.1277571612929593 -0.1499221631069658
000300 3b 33 7f ae 2b 6c 70 3f 40 64 d4 8d 37 e0 ca bf
       0.004009409552918448 -0.20996756005550488
000310 b5 48 7e c2 8d 80 c4 3f e6 4d ab 2a 4e ad c4 3f
       0.16017314907782568 0.16153885920958472
000320 a1 84 e9 3d 4f 73 80 3f ea 42 34 05 12 2b c7 bf
       0.008032435490522185 -0.18100190404995625
000330 07 8a 73 18 ad 0e 5b 3f 90 ad 7e 40 4b a9 be bf
       0.001651448286616232 -0.1197707207162948
000340 be 02 6f 4f 0c d7 d1 3f 18 f6 88 c6 aa f3 b9 bf
       0.27875049359503723 -0.10137431475683234
000350 e5 a3 69 41 66 1f a6 3f 1c fa 81 7b 86 26 b9 3f
       0.04320830868238782 0.09824409976315746
000360 e7 93 71 11 cd 85 9a bf e4 2a 94 1d e8 79 c6 bf
       -0.02590103548972769 -0.1755952972819933
000370 8b de 61 29 9d 66 81 3f 58 4f be 4e 37 3b d0 bf
       0.008496501756084093 -0.2536142605761049
000380 ec 94 81 83 fc 8c a0 3f 22 0d 62 05 82 1c 93 bf
       0.032325640728950805 -0.01866343648772529
000390 fb 42 ce 12 bb da bd 3f bf 6e 62 ed 66 d7 cd bf
       0.11661881646274345 -0.23313604918518213
0003a0 38 aa 8c bc 9f e9 d0 3f 74 11 ef 34 07 b2 c6 bf
       0.26425927556070716 -0.17730798802052627
0003b0 ce 8f 7d 36 e0 f3 7d bf 20 25 3d 7b 8d bd b0 3f
       -0.007312656241854355 0.06539234408150607
0003c0 b3 41 1a 70 2a 24 af bf 8e 06 ef 0c f4 cd a0 3f
       -0.060822797951121464 0.03282129915124897
0003d0 fc 03 e7 3f ad 8c 92 bf 56 2c 00 4c dd 78 c4 bf
       -0.01811476423768353 -0.15993849001856358
0003e0 81 b2 78 c1 f4 99 c4 3f b1 42 1e 7f da 08 b6 bf
       0.16094836661195092 -0.08607259372207456
0003f0 4c 76 ab eb d6 84 8f 3f c2 b8 60 19 f1 03 bb bf
       0.015390090052672133 -0.10552889699531234
000400 43 54 3e 71 24 b0 c2 bf ea dc 2d 4d 77 45 b2 bf
       -0.14600043801752535 -0.07137246736771244
000410 50 fd fd 2d 61 fd bb bf 0f 84 63 b5 9e da af 3f
       -0.10933501599173678 0.06221481289117758
000420 9b 30 92 e5 1a f0 b9 3f 3d c1 a8 bd 3e 5c a0 3f
       0.10131996254694046 0.03195377412009968
000430 37 20 9d 42 25 a9 c4 3f 14 28 8d 2f 3c ec a7 bf
       0.16141191246629358 -0.04672420578442896
000440 f6 ce 09 05 3a 95 b3 3f 5e 28 1a 1b c1 b7 b8 bf
       0.07649576781278342 -0.0965538684050968
000450 c0 42 f1 a3 1c f7 c4 bf eb a8 5c 7a e5 47 be 3f
       -0.163791255998623 0.11828455197670322
000460 20 a6 0b 45 93 64 b5 3f d7 a9 bf 3c 95 5b 7e bf
       0.08356590686494103 -0.007411559065057158
000470 08 ab d6 03 e5 21 c1 3f c1 73 1e 57 58 28 bd 3f
       0.13384688079289497 0.11389686705520231
000480 63 8f 22 da 6b 36 ab 3f 58 f5 f8 75 a0 0e c8 3f
       0.05314957654743926 0.18794637451530138
000490 d5 05 7d 2c 90 81 94 bf 52 e3 7b 36 35 0f a5 bf
       -0.02002549430404151 -0.0411316517838204
0004a0 d5 b5 e0 38 91 6c b1 bf c9 24 44 f9 30 15 bb bf
       -0.06806285513513129 -0.10579210363006832
0004b0 89 de 55 8f ff 36 97 3f f9 be 0f 44 f3 89 98 bf
       0.022670739291668105 -0.023963738469261895
0004c0 43 df e1 36 63 ef b5 3f 97 fc 05 07 b8 e0 ad 3f
       0.08568401422405451 0.058355093819949015
0004d0 fa 32 c3 5f 27 9a c1 3f 05 3b 3e 80 0a 45 b7 bf
       0.13751690078642992 -0.09089723235068099
0004e0 b7 d7 a5 03 28 b1 56 bf 59 97 d6 49 3a 18 c1 3f
       -0.0013850107921746632 0.13355187039740704
0004f0 b3 3e 51 bc d8 02 c4 3f 24 c3 80 71 e3 a9 bf 3f
       0.15633687205489863 0.12368604203289785
000500 45 b4 67 74 51 f2 c3 bf 0d 6f c2 d9 93 a2 c8 3f
       -0.15583246406404974 0.19246147282398632
000510 41 d0 7c aa 00 f2 c1 bf 47 37 e7 51 eb 44 c0 bf
       -0.14019783329570326 -0.12710324763468803
000520 3d 1d 33 c2 a2 4f ca bf 2b 26 82 f4 95 77 c1 bf
       -0.20555529100804817 -0.136461967839112
000530 a1 d4 59 90 aa da ac 3f 47 ee 85 8c 72 d0 a0 3f
       0.05635579120727497 0.032840327886301916
000540 d9 ae 93 33 76 1e 89 bf bd 2e 05 11 34 d4 c6 3f
       -0.012265132378579778 0.17835093337122557
000550 fc fe 4f d6 f6 40 c0 3f 69 38 a2 14 27 80 bc 3f
       0.1269825502822569 0.11133045438529766
000560 6f c4 dd d8 e6 fe a4 3f 18 1a 07 bc 60 68 b5 3f
       0.041007245991644285 0.08362392988701861
000570 78 c9 ce 5e ca 47 a2 bf e6 de c9 bc 05 ab 95 bf
       -0.03570396811791715 -0.02116021122716818
000580 a5 f5 62 10 aa 7a 8a 3f bb 93 c7 1c ec ef bc 3f
       0.012929276108816288 0.1130359239828768
000590 18 4c 9f b3 ca ff 82 3f 22 24 f6 37 f4 99 c3 bf
       0.009276946646343417 -0.15313580257887432
0005a0 61 b2 3c 1c b7 6c c4 bf e8 6e a3 c3 b7 96 d3 3f
       -0.15956772688641066 0.30607408623994425
0005b0 67 ab 3b a5 e5 df ba bf 92 47 98 7b 53 8b c7 bf
       -0.1049788978959164 -0.18393939528374098
0005c0 44 7a 78 37 21 8d c3 3f 75 62 9a 16 cf 8b bb 3f
       0.15274443825269846 0.10760206510384214
0005d0 32 a5 1a d4 68 c6 c1 bf 84 fd 90 a3 10 e2 c0 3f
       -0.1388674770035237 0.13189895617140845
0005e0 53 d9 d0 3c c6 24 a8 bf d1 6b b7 5f 5e 84 ae bf
       -0.04715556614285057 -0.0596036426392953
0005f0 c1 06 cf e1 40 99 c8 bf 47 ff 0f ba 5d 55 c0 3f
       -0.1921769239980247 0.12760516724665136
000600 96 a1 da 1b 71 6e 8c 3f 66 95 7b 6f 62 73 5f 3f
       0.013882526075875739 0.001919599655530868
000610 96 bc 8d ac 2c 00 a7 bf a0 df 7d fe 7f b5 b9 bf
       -0.044923206390074785 -0.10042571986366378
000620 af 16 c1 fd 23 c4 a5 3f 9e 87 03 3c fd 26 c5 3f
       0.042512058950291524 0.16525235586510417
000630 ba 0a db ba 00 33 c3 bf 4e b5 dd 73 e9 9d c8 3f
       -0.14999398349580934 0.19231908948442328
000640 1c 72 50 49 7e 4d c0 bf 89 e1 03 89 50 b6 be 3f
       -0.12736490802571232 0.11996939988228496
000650 6d 39 2e ac 0d 7b bc bf 8d 52 d7 98 80 f7 ac 3f
       -0.11125264600398106 0.05657579293953061
000660 d6 2c 9a 9f 99 f6 b9 bf a8 19 be ab 3e c4 b5 bf
       -0.10141906878031945 -0.08502570813116128
000670 24 03 63 f3 69 50 ad 3f 23 87 32 e3 3a f6 c0 bf
       0.05725413414029948 -0.13251434415456584
000680 50 e6 de 77 57 a8 c1 bf ab c0 38 b0 e0 57 b8 3f
       -0.13794988015233622 0.09509090711867667
000690 da bc ad c2 17 9f be bf b4 27 41 6a f7 2d a3 3f
       -0.11961506369492572 0.03746007129718923
0006a0 57 ff 81 50 d7 45 bc 3f 7a 21 db 05 8f 50 b5 3f
       0.11044069018862267 0.08326047795265437
0006b0 38 2a 98 b0 e1 ad a0 3f 35 d0 13 37 94 46 a9 3f
       0.032576611334736716 0.04936659977275363
0006c0 61 7b 68 3e 79 69 a6 bf 23 5a 81 1e 41 88 b4 bf
       -0.043773449772053004 -0.08020407671697476
0006d0 8b ae 8f a9 98 0e b6 bf 89 3e 99 a7 41 21 94 bf
       -0.08616022243193748 -0.019658113340766312
0006e0 a1 fe 82 f1 ef 58 b2 3f 10 a4 27 9f 1d 66 63 bf
       0.07166957517892537 -0.0023680285023499684
0006f0 d9 95 9e 68 42 ca bc bf d7 1e 54 b7 fb 1d a3 bf
       -0.11246123365579964 -0.037338129166583016
000700 36 83 5c c2 f7 e5 c4 bf 8e 64 b1 70 a7 ed b7 bf
       -0.16326806059171312 -0.09347006322185988
000710 1e 54 ad 08 16 49 a3 bf 40 87 f2 ab 8f c1 98 3f
       -0.03766697746201707 0.024175877446970917
000720 4f 6a db b2 b8 b3 ad bf fe 17 e0 72 a9 0a cc 3f
       -0.05801179107011888 0.21907537564419494
000730 68 d2 61 22 19 7b c2 bf 79 cf 80 ef 91 8a c6 3f
       -0.14438165835203454 0.17610382265558736
000740 36 47 ab 9c 29 d8 cc bf da a0 7c 95 81 ff ac 3f
       -0.22534675741058557 0.056636857507614116
000750 a7 17 eb 84 06 72 c5 bf ce c6 16 e0 d8 36 c4 3f
       -0.1675422810569078 0.15792380277485168
000760 9d 2e e8 71 02 16 bc 3f c2 2a 22 43 1c 30 c8 3f
       0.10971083908969566 0.18896821287156312
000770 df df de 29 cd 6b b7 3f be 80 4d 8a 82 7f c5 3f
       0.09148866913062602 0.1679537940317512
000780 c1 a9 80 c5 2d de 8c 3f f3 ba 21 cc 3c 8c a0 bf
       0.014095647420693138 -0.032319927137782666
000790 e2 d0 20 48 13 4e a0 bf 62 36 e2 09 b6 d3 b1 3f
       -0.031845667414389 0.06963670483875142
0007a0 39 e0 07 c0 8b c3 b2 3f 51 5d 45 75 64 6d ce 3f
       0.07329629362345792 0.23771339155312401
0007b0 20 55 91 00 84 a6 b0 bf a2 73 f3 a6 ac 39 b2 3f
       -0.06504082692966451 0.07119254184676874
0007c0 6f a3 ee 8b 90 33 ab bf 2b 61 95 56 6b c3 aa 3f
       -0.0531277819457675 0.05227218086173687
0007d0 f8 06 ee 52 06 ff b6 3f dc 1e 0b 35 61 50 a6 bf
       0.08982886814740343 -0.0435819985628407
0007e0 f6 87 01 25 c0 13 c1 bf 31 d3 1f 85 8b 1d a5 bf
       -0.13341523940022143 -0.04124103546192826
0007f0 59 44 fd 30 68 10 b5 3f 31 0c 10 e7 6b 4c 9b 3f
       0.08228160091427252 0.02665871236605372

hidden_ff.bias f8 [32]
000000 1a 2a 46 8a 38 69 b8 bf 2e e3 5d 16 8b da c1 3f
       -0.09535554290611295 0.1394819125378261
000010 33 b9 35 f0 99 40 bd bf 7c 74 b6 99 6c 08 91 3f
       -0.11426698793886629 0.016633698350791523
000020 de d9 86 29 c2 8f c1 3f ef c4 1f 69 4a ba c6 3f
       0.13719965961145325 0.1775601399708999
000030 97 88 0f a5 89 da ba 3f 79 27 60 71 6c 80 a7 3f
       0.10489712028314312 0.0459016693494751
000040 67 a0 5d b2 99 9f cb bf 33 97 90 a0 69 15 b2 3f
       -0.21580811700119115 0.0706392304424213
000050 1f ca 73 99 47 95 a7 3f ee fe 45 68 b8 16 b0 3f
       0.046060788614245 0.06284668489206144
000060 eb 77 74 69 d8 10 c0 bf 88 1f 1f f6 c8 d0 b6 bf
       -0.12551407956283298 -0.08912330635859977
000070 ca 17 8f d5 61 7f c5 bf 24 fb 95 6c f9 2b b3 bf
       -0.16794989516910014 -0.07488974476835303
000080 b9 66 76 6a 27 b9 b6 bf a4 76 50 a7 da bc 71 bf
       -0.08876272534544229 -0.0043304959445131
000090 f6 0c d1 05 cd fc a9 bf 9c ff 82 0a 2e 36 c1 bf
       -0.050756842575106306 -0.13446593774096705
0000a0 5c 65 de aa 64 0f 8c bf 00 c1 ea 59 e1 fe c6 bf
       -0.013701235260486548 -0.17965332880476836
0000b0 a5 c1 83 cb 84 2e c1 3f 3c e3 a1 0d 6a 31 bb bf
       0.13423213898887557 -0.106222751930443
0000c0 04 25 8d 14 57 62 a4 3f 9e 26 9e de a2 14 9d bf
       0.039812775858601795 -0.028399033391485966
0000d0 c2 cc 4e 14 f3 19 bb bf f9 1c 3c 96 06 8d 7d 3f
       -0.10586470838352383 0.007214570741559395
0000e0 22 52 3c f0 07 b1 a7 bf 00 57 76 c4 2e 78 c8 bf
       -0.04627251441539594 -0.19116768448719057
0000f0 ea 01 93 69 fb 5e bb 3f 56 6c 88 28 87 73 9a bf
       0.10691806151863373 -0.025831329201633522

output_ff.weight f8 [1, 32]
000000 51 b4 32 2f b2 cf cc 3f 5f e0 91 26 60 75 b4 bf
       0.22508837990372624 -0.07991600934644925
000010 2d af 77 91 d5 e4 a8 3f 33 61 b8 d9 76 f7 c7 bf
       0.04862086678244135 -0.18723950987692603
000020 21 74 3d 9d 68 f1 bb 3f 0f 3b 73 91 c0 61 b5 3f
       0.10915235365742194 0.08352283049610441
000030 89 b4 03 5d 4c 7e 92 3f 47 40 61 64 2c d1 c5 3f
       0.018059914757874416 0.17044596577989266
000040 8e bc 28 d4 c4 11 c0 3f 3c c6 0b 1d 52 68 b8 3f
       0.1255422626431692 0.09534180840616896
000050 62 b3 b5 12 9a 1e a3 bf da 77 78 fc 81 91 c0 3f
       -0.037342848571688916 0.12944054439225178
000060 44 93 4b d3 45 e1 b6 bf 7a 23 ad 8d 82 80 ca 3f
       -0.08937488945555311 0.20704681318082035
000070 6b 91 f9 76 c7 53 b7 bf a0 24 36 b2 4f 5c c6 3f
       -0.09112211851749456 0.17469211770756932
000080 f6 4f a3 39 3f 39 b6 bf fb 33 c7 bb 34 ec b6 bf
       -0.08681101948906175 -0.0895417173807828
000090 41 6c 81 b7 47 0a c4 bf 1d d5 d1 42 e9 45 b8 3f
       -0.1565637250922425 0.09481675988520917
0000a0 83 83 02 31 a0 77 a2 bf f0 14 32 fa d0 d6 a8 bf
       -0.03606892202629466 -0.04851391843934916
0000b0 5e 0e 55 e1 a3 6b c0 3f 69 3e 12 77 8a 8a c6 bf
       0.1282849169020776 -0.17610293211008646
0000c0 12 41 59 10 0e d8 b3 bf 80 0b 71 de 2e 01 cf 3f
       -0.07751548670899336 0.24222360478787763
0000d0 62 63 b6 c0 ca e8 c5 bf c1 bd 6c dd b0 8e c2 3f
       -0.17116674814021865 0.14497958003765457
0000e0 2c 77 52 61 8f 7d c2 bf 8b 0c 6b 13 f4 3e b0 bf
       -0.14445678951317953 -0.06346059297634292
0000f0 fd 83 59 7b 6a 38 b5 bf 52 f8 00 7d 77 f3 be bf
       -0.0828920889994293 -0.12090250779962844

output_ff.bias f8 [1]
000000 c8 99 3c 82 3f 00 b3 3f
       0.07422253541572055
