saved_model/find_max_rnn/saved_model.pt (torch, 11159 bytes, 6 tensors)

input_ff.weight f8 [32, 1]
0	0x3fc4ad83e3086216	0.16154526315291723
1	0x3fc2d338353dbdc7	0.14707090949694487
2	0x3ff2c6e6c0ba3193	1.173559906807985
3	0x3fdc1300ee184495	0.43865988971180886
4	0xbfd90f21dca8d4bd	-0.3915486006620304
5	0x3fe935206a979141	0.7877351838947463
6	0xbfe1320b8e70283b	-0.5373590261454021
7	0x3fce0bdbc4742ced	0.23473689167472092
8	0x3fc066b356b8bf65	0.1281341718145043
9	0xbfe9cae76cf6ac63	-0.8060185554690061
10	0xbfb0254d3e4f968d	-0.06306917926084506
11	0x3fdd0d418e298ea2	0.45393408663788126
12	0x3fd4e1a7f030520e	0.3262729497521669
13	0x3fe1d20a6454f4d4	0.5568897208792358
14	0xbfea2f0045a71476	-0.8182374344256818
15	0x3fe5e807d74511ed	0.6845740513313651
16	0xbfbab09ab6c9b5d9	-0.10425726854892704
17	0xbfd4c7cc3e24a6ea	-0.3246946913592256
18	0x3fe3c705d3d08c7f	0.6180447709088098
19	0xbfe108b1ebc77341	-0.5323114018498033
20	0xbfc4bc911777061b	-0.1620046009611976
21	0x3fe573a49ea976fe	0.6703665827623977
22	0xbfea71475a6768e9	-0.8263279691412012
23	0x3fc29f02a870362a	0.14547761177566204
24	0x3fda851a26264ebc	0.41437391019392655
25	0xbfd04d1478fa0bdd	-0.2547045880712043
26	0xbfe40e87d3475320	-0.6267737509284395
27	0xbfe925fc26952fd5	-0.78588683639236
28	0xbfa346432ceeb183	-0.03764543460360683
29	0x3fe0f53b2571ee33	0.5299354297016577
30	0xbfeaa2f77270b9b3	-0.8323933825648083
31	0x3feae144da503978	0.8399986518796103

input_ff.bias f8 [32]
0	0xbfb0e1a91369bbe1	-0.0659433052439762
1	0xbfdcd7e4cc2c341c	-0.45067710818040196
2	0x3feb5a07b899e02f	0.8547400098314081
3	0x3fe24b5b8fdc7d3b	0.5716989335814228
4	0xbfbc501e1a7cdf13	-0.11059749743150986
5	0x3fe58bddfbf56fd9	0.6733236237591839
6	0xbfbbd94b368ec56e	-0.10878439027762507
7	0xbfd72d3fcec599b4	-0.36213679497304985
8	0xbfa658c5fd8b99c8	-0.04364603729281985
9	0x3ff003df8ddb8b8d	1.0009456197082927
10	0x3fe768b8d23f35f5	0.7315334421525096
11	0x3fd97da89611d4d9	0.39829458861579564
12	0x3fbabdc3433f6655	0.10445804969585855
13	0xbfa18cc96639a673	-0.034277242401754025
14	0x3fdf5950083266ac	0.4898262100265167
15	0xbfd117ae43fd3521	-0.2670703567462898
16	0x3fe7dafb3739098a	0.7454811171121929
17	0x3fd9185d298ff54a	0.39211205538579874
18	0x3fe592e16a869fc2	0.6741797524055004
19	0x3fd40099669c58cd	0.3125365736062918
20	0xbfa3a66cb08b732b	-0.038379093695516474
21	0xbfb45ec3912392f4	-0.07957098287040393
22	0x3fd5ffbd2dff56ca	0.343734068793634
23	0xbfe84eeb72e97d20	-0.7596337551475791
24	0xbfd8a427a2652517	-0.385019215191805
25	0x3fc07d3715c71ad6	0.1288212639176069
26	0x3fe4da263500e62d	0.6516295466637466
27	0xbfe5b96f55325986	-0.6788860954282405
28	0xbfecc86b277f993e	-0.8994651576474906
29	0x3fe50bc0e3b0459a	0.6576847502748706
30	0x3fe84920ced55adf	0.7589267768588249
31	0xbfeea18e18bed7e8	-0.9572210772810168

hidden_ff.weight f8 [32, 32]
0	0xbfbe369af7ff1810	-0.11802071146584603
1	0x3fc9c3106a77b518	0.20126538466085075
2	0xbfc68fccc6518757	-0.17626342471617804
3	0xbfb6a386a3d43505	-0.08843270778398356
4	0x3fc3da8415657e1f	0.1551060776209718
5	0x3f894d45782dfb5d	0.01235441468247494
6	0x3fc0f98e1a802655	0.1326158170125377
7	0x3fc3e04cd27b6b1d	0.15528259541937298
8	0xbfcfaf3050dd385a	-0.24753383587307348
9	0xbfb074698ed9ba5f	-0.06427631127892529
10	0x3fad8066f80eb5b2	0.05762025621457258
11	0x3fab4d27631c1b1b	0.053323012207377306
12	0x3fccbd417acb4dba	0.22452562804992998
13	0xbfbb612a56a4a5e5	-0.10695137610732493
14	0xbfc771b65528c855	-0.18315772207421568
15	0x3fc6a5464727103d	0.17691877817390092
16	0xbfac1775d8a94627	-0.05486648816862454
17	0x3fa39280a1c1905f	0.03822710012971763
18	0xbf9162678892831e	-0.016976945601189113
19	0x3f9a70c0c517294a	0.025820743588874685
20	0xbfa145572f6c53d1	-0.03373215154548571
21	0xbfa8263ded3cdb8b	-0.04716676255195925
22	0x3fc63f40a8218b15	0.1738053151085174
23	0xbfbb7086be37f7db	-0.10718576568612496
24	0x3fc0eb98266d8798	0.13218976856574893
25	0x3fc27a5f2851585a	0.14435948818817473
26	0x3fc133041ea774ee	0.1343693875959739
27	0x3fbc19742f47cf48	0.10976339487370723
28	0x3fb325e4de8b0d37	0.07479696686919089
29	0x3fa188947d9996f4	0.0342451480217231
30	0x3fc6b43b3d26d566	0.1773752258865599
31	0xbfb8cceb9b2e0916	-0.09687683619089102
32	0xbfb5efd490915cf8	-0.08569077043044959
33	0x3fafb4ee8db218fc	0.06192727546390306
34	0xbfab9b404dafc016	-0.05391884754487834
35	0x3fbc594c3a1eb9ff	0.1107375757116884
36	0xbfaff31be17e3fc4	-0.062401648784657066
37	0x3fa42f89f087cd11	0.039425192462568266
38	0x3fb3cbdc33ea9987	0.07732940928926811
39	0xbfa101bdb95c41c5	-0.03321640861225065
40	0x3fc067c8fc37a6cf	0.12816726985265922
41	0x3fb5bf3d4bbdf573	0.08494933222933358
42	0xbf91aac655f46f90	-0.017253016468302074
43	0xbf962b738eb88fd9	-0.021650128923411536
44	0x3fb17e02886e9519	0.0683290083967062
45	0x3fc59b0f87e21400	0.16879457602422576
46	0x3f829ee9979ded66	0.009092163981896117
47	0x3fba6e8d7b42e6d6	0.10324939975080424
48	0xbfb2b875a756d48d	-0.07312712989262789
49	0xbfc5ac88572365b8	-0.1693277764777983
50	0x3fc71126ac5c8604	0.1802109090431686
51	0x3fb6802ae3782de2	0.08789318135693905
52	0xbfaf51b550a00874	-0.06117025956338376
53	0x3fc1c4efdff1f0e1	0.1388225406152577
54	0xbfb70b69df39a569	-0.0900179071410513
55	0x3fc3426c2b242d53	0.1504645548487625
56	0x3fc225892cb9e559	0.14177050289053275
57	0xbf90f1b8b4624911	-0.016547094354401774
58	0xbfa2a5b765f4637e	-0.03642056579173579
59	0xbfadff844c03499f	-0.058590063361083404
60	0xbface10858bb81b2	-0.05640436251792681
61	0x3f98dab6a25099ce	0.0242718254632111
62	0xbfcb9d93f7453fca	-0.21574639867549045
63	0xbfc40ad61e3fe4ca	-0.15658070065527446
64	0xbfc44b0c5437a54d	-0.1585402880876167
65	0x3fc8f9f167a6d748	0.19512765465850124
66	0x3fbbf444e110b010	0.10919600004916696
67	0x3fb42634a2189403	0.07870797116682131
68	0xbfbe5b82d7750fac	-0.11858384857356324
69	0xbfbbceaa137ddb5f	-0.10862219787473525
70	0x3fb584cb71a81daf	0.0840575363619027
71	0x3fc6441f68a9d472	0.17395393953816868
72	0xbfcb1e3ad513ef1d	-0.21186004070465794
73	0x3fbd74079f845513	0.11505172390419131
74	0x3fb02383aaeb01d1	0.0630419056206002
75	0xbfc98920a1a09a52	-0.1994972981639927
76	0x3fc18befbd2d1c8c	0.1370830224716183
77	0x3fc02f2d64a75fc2	0.12643973746048515
78	0x3fcbdb1f02fb7916	0.21762454648610036
79	0x3fa44b022f75c150	0.03963476971955748
80	0xbfa5399f2d8c33c1	-0.04145524435998694
81	0x3fb52305dfd89ff7	0.08256565775866408
82	0xbfb9c956a5632391	-0.10072843110823572
83	0x3faacf7bde4fdbbf	0.05236422623413927
84	0x3fb613183fd5d5d1	0.08622886236647466
85	0xbfc0e640a5fcc6c2	-0.13202674965719124
86	0x3fbc0eea8acd3269	0.10960260285100677
87	0x3fa22069613295b5	0.035403531184140226
88	0x3fb04193d385dd87	0.06350063242086011
89	0x3fca3d262d4c6139	0.20499112331231986
90	0xbfbf60cc021e36b8	-0.12257075359067471
91	0x3fc8d989660dbd09	0.1941386936482348
92	0x3fa7beb8d51067d8	0.046376968392180806
93	0x3f80e5accdb1ff5b	0.008250570323297948
94	0x3fc0735216c399e2	0.12851930724646282
95	0xbfc3d664e51bae26	-0.15498028933448998
96	0xbf65616c862d24cb	-0.002609931908783202
97	0xbfcaed90feb7b1b7	-0.2103749507654251
98	0x3fc4926d61a9b59b	0.1607186056966555
99	0x3fc4c5db31965f4c	0.16228809281596523
100	0x3f7ead0bc5e89660	0.0074892482648799275
101	0xbfc737ac344fbb71	-0.1813864951540967
102	0x3f590b62b2d40457	0.0015285934308055993
103	0xbfbebbf9e581a54d	-0.12005578854736605
104	0x3fd1d3916fcd8aa5	0.2785380927872814
105	0xbfba298203c2d630	-0.10219585983107815
106	0x3fa65e34c79c0be5	0.04368748604431242
107	0x3fb91748a55c4adb	0.09801153218385698
108	0xbf99e5b2d9e0c26f	-0.025290293262687443
109	0xbfc6a54676f5a097	-0.17691880043571892
110	0x3f80f6f3900036eb	0.008283522445732902
111	0xbfd0351cb15c1394	-0.2532417041805328
112	0x3fa064913e5a30dd	0.03201726804863523
113	0xbf939170ab20aa27	-0.019109497494506435
114	0x3fbdfd7bf408cfdf	0.11714911182281139
115	0xbfcdf0b44efdd61a	-0.23390821320542515
116	0x3fd0ed746303ef3e	0.26449308080167444
117	0xbfc69a231b562ee1	-0.17657889208600522
118	0xbf7f65e79eeaf9b8	-0.007665543335575391
119	0x3fb0ee49aed75cf0	0.06613598364434714
120	0xbfada6900a85322f	-0.05791139725133509
121	0x3fa06e7861d47d01	0.03209282106603873
122	0xbf92d33fe09f512f	-0.018383977970942652
123	0xbfc463aa4b560750	-0.15929154089468023
124	0x3fc4a7138414e600	0.16134876202868043
125	0xbfb625236c6d4679	-0.08650418660297444
126	0x3f8eccb5e52283fd	0.015038891844882935
127	0xbfbad5eeb170908a	-0.10482684928916988
128	0xbfc35857f1335d95	-0.15113353040099456
129	0xbfb2a091e6ebe2ed	-0.07276260268907793
130	0xbfbc454874c83e22	-0.11043217517021067
131	0x3fb0261a913fa924	0.06308141752348156
132	0x3fb9478e577a66e6	0.09874810825058553
133	0x3fa0840837a6fc2a	0.032257324975482796
134	0x3fc47513780889b5	0.15982287751201132
135	0xbfa995bd78b4734a	-0.04997055147598546
136	0x3fb39a93a794321f	0.07657740441590775
137	0xbfb897581de3e312	-0.09605932931652841
138	0xbfc4e91bbe207fa9	-0.1633639028887022
139	0x3fbe4c5076b5838a	0.11835196397943384
140	0x3fb562db51c2a306	0.0835396837816341
141	0xbf78cc08ffb0cc3c	-0.006053958083657437
142	0x3fc12e15b201d976	0.13421889487990385
143	0x3fbd40afdbba1be3	0.11426829447201174
144	0x3fab9ed35adec5a4	0.05394611820464526
145	0x3fc82f07d8b8b9f2	0.18893526155575519
146	0xbf942560f7c2d144	-0.019673838731891338
147	0xbfa50c6fa31bbc18	-0.04111050478046979
148	0xbfb1a0189264688c	-0.06884912084606948
149	0xbfbac893e192a632	-0.10462307221555348
150	0x3f96bd0c8059a167	0.02220553906809766
151	0xbf98c750eb50c70b	-0.024197830545921877
152	0x3fb68bebf50dd5bf	0.08807253582730022
153	0x3fadece29705a755	0.05844791501551919
154	0x3fc1a9dc18bbe2ea	0.1379962082644604
155	0xbfb793ab82573192	-0.09209701473372991
156	0xbf5c99dd43e84662	-0.0017456684869369345
157	0x3fc1313904d1bf7e	0.13431465850180396
158	0x3fc3c168e586be7c	0.15433989722577113
159	0x3fbfa2e23c55d48f	0.12357915852574507
160	0xbfc2c50e36ceae23	-0.14663865734233736
161	0x3fc87fb4bfc854b4	0.19139727939969975
162	0xbfc2080ba715bb82	-0.14087052973215114
163	0xbfc062d97c57ac5f	-0.128016648973559
164	0xbfca6ee2f48c4327	-0.20650898876967824
165	0xbfc194b388e3b859	-0.13735050376948513
166	0x3fad4ec59cca2dba	0.05724160708367827
167	0x3fa121eb11342c37	0.03346190056807823
168	0xbf88b14e61e37658	-0.012056934702225394
169	0x3fc6c4432045bd7d	0.17786444736291776
170	0x3fc0419b2cd8ff6f	0.1270021409018187
171	0x3fbc53733cd0d86a	0.11064834818611904
172	0x3fa52db79beab6c9	0.04136441973001365
173	0x3fb5817da4813ff3	0.08400712267143699
174	0xbfa20dfe3c8f555c	-0.035263008968892534
175	0xbf94c653fda52923	-0.020287811619064244
176	0x3f896e16f08eeb87	0.012417010513549943
177	0x3fbc942eca6c3819	0.11163608972512441
178	0x3f826f7eaefd82a0	0.009001722064284678
179	0xbfc399b28a8b06e9	-0.15312797322081131
180	0xbfc46e77d7d985b0	-0.15962122001205392
181	0x3fd394d4ca4bfbf1	0.3059589362673583
182	0xbfbb0c40548a576a	-0.10565568984961052
183	0xbfc780a99698d4c1	-0.18361396649712527
184	0x3fc3bc9f8a622bd8	0.1541938234043687
185	0x3fbb45651297bc81	0.1065276308433898
186	0xbfc1dec9dd637b4a	-0.13961146650305017
187	0x3fc0ec83db23e9ff	0.13221786689958034
188	0xbfa7d04926eda4f8	-0.0465109691638847
189	0xbfaedbeea75b6e5c	-0.06027169983800881
190	0xbfc8c1b8968aec4b	-0.19341189718929494
191	0x3fc06a70f981c34e	0.12824833090737758
192	0x3f8c842b8b9c2117	0.013923969457679193
193	0x3f5e59fba6c10b37	0.001852508309654067
194	0xbfa7a8eb23ddc45e	-0.046210621002395355
195	0xbfb9ec2c076a7c96	-0.10125994854978368
196	0x3fa5e7273e4613a7	0.04277918467690905
197	0x3fc51d931cee63c9	0.1649650470033335
198	0xbfc3105dceaca5c7	-0.1489369639541975
199	0x3fc86d1999a68ae8	0.19082946779697996
200	0xbfc02ab7e21e5187	-0.1263036588758377
201	0x3fbead1e24b13211	0.11982906719021737
202	0xbfbc9d8f80a4654a	-0.11177918329885475
203	0x3fac9f75afbd63ac	0.05590408106099373
204	0xbfba0a115c86d3db	-0.10171612271263035
205	0xbfb5e3f453dff766	-0.08550955817915237
206	0x3fae0dfa8fcf48a5	0.05870039945115594
207	0xbfc0fdf02b20aaa3	-0.13274957757797265
208	0xbfc1bd234c8e6f96	-0.13858453024010647
209	0x3fb863595385e940	0.0952659443773074
210	0xbfbee38ce0a837c1	-0.12065964207451342
211	0x3fa391685b9e28a6	0.038218747314276144
212	0x3fbc4bbadf207f6b	0.11053054759440577
213	0x3fb4d40c2ae30911	0.08136058852236185
214	0x3fa10b5c8ea24674	0.03328980675827334
215	0x3fa9820dfde288ea	0.04982036327534607
216	0xbfa6333087cedcfa	-0.043359295442707294
217	0xbfb4319b930a9796	-0.07888195361974079
218	0xbfb653f10fab0153	-0.08721834785956632
219	0xbf93e91132d060b3	-0.019443768240393577
220	0x3fb26e22799a5215	0.07199302166765904
221	0xbf6cdbba962f8b75	-0.0035227436323891866
222	0xbfbc867c9c033a9f	-0.1114271050348443
223	0xbfa334bb3e53e642	-0.0375116838058145
224	0xbfc505444c27e528	-0.16422322958514113
225	0xbfb811144f34bd33	-0.09401060994854475
226	0xbfa3377be6b1aab0	-0.03753268424118994
227	0x3f98e4ac535a770a	0.024309818828093056
228	0xbfadbf8bc3e78029	-0.05810200468454269
229	0x3fcc06702ac093c2	0.2189464768172496
230	0xbfc27dc4948f322e	-0.1444631314647195
231	0x3fc6882670dffb88	0.17602997313948898
232	0xbfccd96083395106	-0.22538381965080861
233	0x3fad03e134e2afee	0.05667022486281313
234	0xbfc571ddb069d330	-0.16753741372999675
235	0x3fc4323a16efde5d	0.15778280372591072
236	0x3fbc21c75d6e3b81	0.10989042311687848
237	0x3fc8255c763c0233	0.18864017270245056
238	0x3fb7721f15d0c867	0.09158510477644342
239	0x3fc58685c509edb3	0.1681678020575937
240	0x3f8cdc8074900668	0.014092448765953239
241	0xbfa0c8c7d9678eee	-0.03278183487762286
242	0xbfa0540d70d385df	-0.03189126970552158
243	0x3fb1ddc6dd7455e2	0.06979029566385678
244	0x3fb2c548ed14dbdd	0.07332282817956988
245	0x3fce7309354ff17d	0.23788561919344522
246	0xbfb0a94da3d6c0f3	-0.06508336305592248
247	0x3fb23c5922ac537b	0.07123334023010656
248	0xbfab0ad8a3e5c3a8	-0.0528171253271304
249	0x3faaa06da56dd49c	0.05200522083661349
250	0x3fb705b90f2082a8	0.08993107432662362
251	0xbfa66c22cc523d53	-0.04379376167446005
252	0xbfc10e42d35a6f45	-0.13324771232589164
253	0xbfa51875f5769cb3	-0.04120224591616175
254	0x3fb51c36679b6c70	0.0824617388674811
255	0x3f9b4ef038c0a5e6	0.026668313468837378

hidden_ff.bias f8 [32]
0	0xbfb85b351369bbe1	-0.09514171337080725
1	0x3fc1cebc67a79865	0.1391215807081522
2	0xbfbd63e25b310083	-0.11480536199906237
3	0x3f90e31f5b8fa20f	0.0164914035448494
4	0x3fc1991fb2c19099	0.1374854681809026
5	0x3fc6aa6ecfd5bff5	0.17707619808379574
6	0x3fbabb5889713a95	0.10442117076420694
7	0x3fa774a2e9d332d9	0.04581173996266381
8	0xbfcb93b66f62e6c4	-0.21544533194337678
9	0x3fb213b457b8b459	0.07061316625250082
10	0x3fa77f063bf35f1f	0.04589099389857964
11	0x3fafffd2f08ea648	0.0624986570977169
12	0xbfc0186b3e604ce3	-0.12574520631515104
13	0xbfb6cf1cb31cd390	-0.0890977799688939
14	0xbfc573306f9b3365	-0.16757779550098487
15	0xbfb3176cdff4d3f8	-0.07457619159397655
16	0xbfb703a86637b238	-0.08989956374689079
17	0xbf735f6a1c02b315	-0.004729666223437308
18	0xbfa9e168179603e6	-0.050547840956831
19	0xbfc1397892c74e77	-0.13456637541695546
20	0xbf8bd981422dcd25	-0.013598451454277136
21	0xbfc701454891c95b	-0.17972627681190087
22	0x3fc0f6fc8bfeae0b	0.1325374301498957
23	0xbfbb3100d74be761	-0.10621648079168501
24	0x3fa4d42decd6da0b	0.04068130031685165
25	0xbf9d0486d1c72a80	-0.028337580255348715
26	0xbfbb19e7d7f8cea1	-0.10586403868438278
27	0x3f811e187369a847	0.008358183881871052
28	0xbfa7b26bb7f997cb	-0.04628311749256361
29	0xbfc87014713ee901	-0.19092040566994942
30	0x3fbb2deb76aad656	0.10616943022872624
31	0xbf9b0669d7dafecc	-0.026391652869959967

output_ff.weight f8 [1, 32]
0	0x3fcbede8265c1645	0.21819784043343496
1	0xbfb4878a66e701c5	-0.08019318592324172
2	0x3fa86872a1a50729	0.04767187331391504
3	0xbfc7fea40504a40a	-0.1874585175039843
4	0x3fbbd030bafe24a0	0.10864548268559071
5	0x3fb55f7e03848cbf	0.08348834596522446
6	0x3f924866d45dd2b7	0.01785431548292379
7	0x3fc5c17ad037a940	0.16996703307024497
8	0x3fc008aaeceac95b	0.12526451652736167
9	0x3fb86830316c2f74	0.09533978659254477
10	0xbfa30e95419b2b61	-0.03722063470703208
11	0x3fc08ba148f5969e	0.12926117002932797
12	0xbfb6f0d4a9a35963	-0.08961228505663636
13	0x3fca7dc409e88ba6	0.20696306690032634
14	0xbfb76404f76eebe6	-0.09136992493488058
15	0x3fc6592aa350db29	0.17459614729315234
16	0xbfb622e21e67e779	-0.08646977655726386
17	0xbfb6fa4ce84b49e9	-0.08975678130381194
18	0xbfc40da2a03c7cb3	-0.1566661150363636
19	0x3fb84015751eb8bc	0.09472784146666674
20	0xbfa269c057bcaf7a	-0.0359630686856169
21	0xbfa8ac580f7fda3d	-0.04818988026811553
22	0x3fc068e97d4871f6	0.12820166222890322
23	0xbfc682a5e3a6417b	-0.1758620606965556
24	0xbfb3439008d30dfa	-0.07524967399063334
25	0x3fceff434cafba50	0.2421650051541797
26	0xbfc5d095f4cf6350	-0.17042803243273363
27	0x3fc27ef366cd5260	0.14449923057204028
28	0xbfc279d575276019	-0.14434307308579333
29	0xbfb036be72e4375d	-0.06333532624213718
30	0xbfb55e9b7260b089	-0.08347484152244723
31	0xbfbef6caad0fdbca	-0.12095324254174425

output_ff.bias f8 [1]
0	0x3fb2fc2ef9edd938	0.0741605148485619
