saved_model/text_generation/best_train.pt (torch, 867299 bytes, 6 tensors)

rnn.weight_ih_l0 f8 [512, 65]
4.502520416212724 0.33487662065139084 2.191508208469956 0.05290328338742256 0.015465016476809978 1.6521894184498422 -4.467166405996431 2.376122015972769
0.8711772200098824 -0.6817872818761896 4.730393118357092 2.5859015544172634 2.974949951214299 -4.830015491795759 -5.564053795735646 0.349884391896867
1.1422396814829225 4.27606679156544 2.8956667115516272 5.104744064427044 -0.5850814566003449 -3.528696429683987 1.4436872902465627 1.9287135230313819
-1.247759118551041 3.262403934408228 3.7078617553050948 2.0511165588973848 1.947841342855571 0.555307470215228 1.5122925360584705 1.2762274430989085
-3.5401912764615373 1.159652840064367 3.910554309559192 -7.070942650543073 -1.253075513099461 -3.173594223284712 -0.3499723754646463 3.311190084045755
3.0215963157840418 0.8863985603036745 0.5553759814609251 -5.138850810929369 1.0983336849663536 4.904314976993802 1.5419184287564602 1.0651957205198819
1.3390928993038722 3.2820534099756253 0.8158633096606284 2.225506068292521 1.0873596234891891 0.2978744251488729 2.517519795092052 1.237049774115243
1.4250380150930597 0.24790484123188622 1.5985182679175511 1.730555431776943 0.827696128413519 0.6277907741828155 -2.22124156213388 -1.4343001136579017
2.906038929515526 1.0222225759814854 0.7275391690320443 -0.8722426008712769 0.0746276006102562 -0.05550988391041756 -0.6335808586640692 0.4687207700558657
-4.486029660064256 -1.5430570598990467 -0.3690644780812125 4.646348107452477 0.06615788945106343 -0.13174093039827586 -2.598323966950877 -1.3495471387481304
-3.628512400403795 1.311824203457482 -2.4620322275720357 0.7241099792224064 3.912072446206198 -0.17397426869097593 4.137137453245772 0.32165780947607037
0.08362177946071904 5.319622591486166 -4.583750765853598 6.6038764376841605 -3.550871966490682 -2.0536819648387312 -2.470419315425189 2.9186397537943023
-0.07442397492524136 0.8523790121451866 5.8274380606169816 -4.835760770020151 -1.4929154820493618 0.8526012759868029 5.310698751076636 -0.1721228718999274
-0.6865463636753434 1.1490266543816081 1.2322656114345576 -2.8019181265244324 0.527774349292249 -1.3792428250537294 2.9439136141203868 3.5520942065901506
0.957573233130197 -1.3191416151659094 0.14899653774086935 -0.4686236497185443 -1.8647622985345615 6.099603962405817 -4.3825407843137425 4.612456234891708
0.09425174937239127 5.069219181845875 -0.450605822436363 -0.0356719303760015 2.145630501557148 3.286177503206092 -0.56068770040084 -2.547166399083384
1.4638597849909618 -1.794143670135589 1.1599420072149882 -2.239569521269928 -1.0149320749595478 -0.05509251728653908 -0.028543932363390923 0.8055585854080385
-4.31117093965895 -2.4322906048173354 -1.6929367438715333 3.0116249757040894 -3.698752617324627 -1.0003475654773053 -1.3562759920279592 3.851781728541356
4.409743084933394 2.5437936953143327 3.4062044182642652 6.121037659809681 3.695302275136733 -0.7712214937708453 7.681034035197651 0.37657400327521234
-2.1925674517929514 -0.7515505170169569 -1.2278114805296612 1.5784095237905857 1.7739096569514199 2.3682312167262904 3.4012778779110535 -2.470612060705974
2.822067288951668 1.7267786506066296 4.862915699895289 3.349935940391583 0.8079123451490421 9.2842854031215 -1.2857938562848457 -1.457232327589095
0.2443462478495803 -0.14351931398226347 1.4152948098900138 0.4674853616084773 2.481913655057962 -2.863827925491383 1.7053507580999059 -0.8106609075028716
-3.7969609639092567 4.146583911851854 2.2899449253220623 0.808972748468507 2.130846012571204 0.6930453075482361 5.386525116413573 2.276642188227432
2.4131072667688485 1.9393709262263885 2.799465480681585 -2.869672845285874 2.4592610272974746 -4.024557183954157 0.6307514086613809 1.766648765209685
0.5119632815825759 5.826237223527027 1.8662917890424533 -2.1470025545536244 -1.521312600329879 0.0768120697792789 0.029866911470890045 0.051232464611530304
-1.083471429482262 -4.185333126542931 0.06030380241055251 -1.567771398215502 0.5543663908098874 -0.11620516892094826 -4.7819254591158 -3.8662745058856456
0.07491417177738043 0.4948868651480723 -0.10862044854237743 3.2096332754839727 2.86907802904963 4.702871967249908 -2.782440240412034 2.8621304160532053
-1.8337186059115067 1.4140535697053842 -8.2637878741095 2.617572192673645 2.0748860710727848 1.3321908022389624 -0.8342999274532363 4.929953823773701
0.26981375786779244 4.242818684554089 4.9945451316980085 1.677299383556122 3.3184952881083913 -4.526683103581515 4.492130927461064 1.2759301753234522
2.8338956505303226 2.8474815807869316 -6.858959864292955 2.163323932247222 1.2625658248838298 1.80204019332519 -5.64899664367888 0.9202976129184404
-1.293451841986979 0.8813884934049245 0.1579120344933586 0.0451629839640325 0.8067580636209898 0.7009451626286957 -2.609787815072324 -0.06365279441039975
-1.5232463668156881 1.370556465838151 1.2161440412278453 5.097679593432654 0.8494041679584288 3.210995981385688 3.157366167417494 -2.035463619813207
00000000: e7d2 44b6 9402 1240 5b22 7959 9e6e d53f
00000010: 235a a274 3588 0140 0000 00a0 2316 ab3f
00000020: 0000 0060 1fac 8f3f 1aa1 f02b 5e6f fa3f
00000030: 992d cede 60de 11c0 e144 6f42 4c02 0340
00000040: f6cd 9e0c afe0 eb3f 3e95 cf8f 33d1 e5bf
00000050: c844 722c eceb 1240 832e 7727 edaf 0440
00000060: 209e 5d8f b2cc 0740 9cbe c194 ef51 13c0
00000070: 207a 7751 9741 16c0 2bfc 2481 8164 d63f
00000080: 0c9a c21d 9d46 f23f 0f24 c540 b11a 1140
00000090: 41d7 114f 532a 0740 37a8 2c07 426b 1440
000000a0: 5906 33bf fcb8 e2bf 9a09 9831 c53a 0cc0
000000b0: 5528 14d8 5719 f73f 185d 0cb6 02dc fe3f
000000c0: 6f66 f743 d2f6 f3bf 2400 e53b 6719 0a40
000000d0: 0dff 886c b3a9 0d40 92fc 65cc af68 0040
000000e0: 4cc8 15af 5b2a ff3f 9390 f92b 14c5 e13f
000000f0: 4eb2 85a8 5932 f83f 55e1 a577 6d6b f43f
00000100: f6e4 cfcd 4f52 0cc0 bda3 ec22 f08d f23f
00000110: 084f a6b2 d048 0f40 6fe5 af30 a548 1cc0
00000120: c2e3 c2e8 980c f4bf 4642 3e5e 8563 09c0
00000130: 12f1 c788 f265 d6bf 3087 0e3a 517d 0a40
00000140: 690d 70b0 3a2c 0840 7939 7783 605d ec3f
00000150: 7479 abd9 a3c5 e13f dfdb 2fe8 2e8e 14c0
00000160: 1669 9057 c692 f13f afe2 cdbe 049e 1340
00000170: 3fbd 89a8 b2ab f83f 838d f7aa 0a0b f13f
00000180: 240e 0dad ec6c f53f 9290 dc37 a541 0a40
00000190: 83f5 1f5f 8d1b ea3f 68ed 2220 d6cd 0140
000001a0: f307 5e34 d365 f13f c311 95e4 5f10 d33f
000001b0: b69f 176b e123 0440 2596 35b4 f4ca f33f
000001c0: 671a 66a9 f4cc f63f 0636 ce88 58bb cf3f
000001d0: 2e3b 2ce4 8793 f93f a45a 76e4 5ab0 fb3f
000001e0: edfa 5197 7c7c ea3f 1610 7bad dc16 e43f
000001f0: 380c cf4b 1ac5 01c0 d2f4 0cad e4f2 f6bf
00000200: 5360 9956 913f 0740 762c 510f 065b f03f
00000210: 16a7 3139 0048 e73f 9671 9d50 69e9 ebbf
00000220: 0000 0060 cb1a b33f 0000 00a0 ca6b acbf
00000230: 4aae 6a5d 4b46 e4bf e322 9666 85ff dd3f
00000240: aa72 5bc2 b1f1 11c0 980d 8299 5cb0 f8bf
00000250: ed57 de9d c09e d7bf 0a5c 3d47 dc95 1240
00000260: 3c90 9033 b9ef b03f 6d77 cd05 e3dc c0bf
00000270: 6bbc 7313 5ec9 04c0 6756 95bd be97 f5bf
00000280: 06eb 6682 3107 0dc0 da37 3f60 3bfd f43f
00000290: 9af5 d8f3 3db2 03c0 8ef5 eeb0 e82b e73f
000002a0: 854e 80a3 ec4b 0f40 eec6 2ff1 c944 c6bf
000002b0: 41fd b2c2 6d8c 1040 62f9 0ca3 0a96 d43f
000002c0: 8161 04a8 3c68 b53f c0fb 0525 4b47 1540
000002d0: b46c c1c2 c255 12c0 bcb6 ba95 5e6a 1a40
000002e0: b0e2 c28f 2f68 0cc0 61f0 5acf f06d 00c0
000002f0: 5f43 b933 6bc3 03c0 f0d0 9acc 5f59 0740
00000300: c29c 571a 730d b3bf 4cbb 9e59 b046 eb3f
00000310: 2d43 47ec 4b4f 1740 b810 daab d157 13c0
00000320: 5e81 3158 fbe2 f7bf 9e84 9c78 8248 eb3f
00000330: f820 3bd0 273e 1540 a515 da4c 1f08 c6bf
00000340: db8b 6514 30f8 e5bf 22d2 ecc5 6962 f23f
00000350: c68c 5125 5cb7 f33f acef fb0c 546a 06c0
00000360: ad17 3c08 87e3 e03f 1e93 adec 6011 f6bf
00000370: 782b b794 228d 0740 16ed 0c5e b06a 0c40
00000380: b936 fa9e 70a4 ee3f 18e2 fe3c 341b f5bf
00000390: ca39 688c 5112 c33f 7817 6b0c eefd ddbf
000003a0: d150 f0fd 10d6 fdbf 0a57 c494 fe65 1840
000003b0: 0b0e 78c5 b887 11c0 5e5d 2cba 2773 1240
000003c0: 6b2c 25f5 e120 b83f b922 a964 e146 1440
000003d0: 5116 b0cd b9d6 dcbf 5442 b35c 9743 a2bf
000003e0: 7be7 0b53 402a 0140 03f8 486e 174a 0a40
000003f0: b7b6 0f55 27f1 e1bf 0844 ecc6 9860 04c0
00000400: ce73 e73c f86b f73f 9dec 38fe cfb4 fcbf
00000410: 66eb a359 1f8f f23f 20c8 d76c a3ea 01c0
00000420: 88cd 596a 293d f0bf 0000 0020 1635 acbf
00000430: 0000 00e0 9e3a 9dbf 94dd 6acc 22c7 e93f
00000440: 0034 4598 a33e 11c0 d777 d0c6 5475 03c0
00000450: daff d1d6 4416 fbbf 14ba d3d5 ce17 0840
00000460: ba3a bb9c 0b97 0dc0 5fbb e572 6c01 f0bf
00000470: bbc2 6174 4eb3 f5bf e452 5bf0 72d0 0e40
00000480: 4e34 f6b0 93a3 1140 1b2b 4982 b059 0440
00000490: 5d7c 1f1a e83f 0b40 29de d94b f17b 1840
000004a0: 905f a4a3 fa8f 0d40 40fa b6b2 d8ad e8bf
000004b0: 1c8c 72fc 60b9 1e40 39d0 25d9 c919 d83f
000004c0: 5bcc ddcd 608a 01c0 ad26 7cab b30c e8bf
000004d0: a773 a8a6 1da5 f3bf 0c02 4658 2a41 f93f
000004e0: 8ba3 aa17 ef61 fc3f 49a5 4935 23f2 0240
000004f0: dae3 112d d135 0b40 bfae 8e41 d0c3 03c0
00000500: 3745 c903 9893 0640 7195 7ca6 e2a0 fb3f
00000510: 5805 592c a073 1340 336a dd36 abcc 0a40
00000520: c364 8efd 6ada e93f 2746 3adb 8d91 2240
00000530: 1842 2294 9c92 f4bf b9b4 5ad8 d250 f7bf
00000540: 6606 b5e3 bc46 cf3f 78f7 f243 d75e c2bf
00000550: 7fd1 aa2b 0ca5 f63f b0e5 ddb8 47eb dd3f
00000560: 18c2 df8b f5da 0340 2bdb 8a9d 1ee9 06c0
00000570: 69f7 63e0 1d49 fb3f 41db bb24 eff0 e9bf
00000580: 606e e111 2d60 0ec0 0618 ce17 1a96 1040
00000590: 0332 1fa5 ce51 0240 0ce1 40d1 1ae3 e93f
000005a0: 4f71 86fe f80b 0140 261c 525a 6d2d e63f
000005b0: c850 783d cd8b 1540 ab0b f92d 9036 0240
000005c0: e318 c42e 0b4e 0340 014a efce a907 ff3f
000005d0: 7477 6e28 4e65 0640 dbc6 6509 17f5 06c0
000005e0: 658f a40b 91ac 0340 1fdc b784 2519 10c0
000005f0: f568 0394 1d2f e43f 9482 e17e 3144 fc3f
00000600: d2cc e4d1 0062 e03f 4c25 7721 114e 1740
00000610: d1b0 6bc7 54dc fd3f e3e3 e1ac 0f2d 01c0
00000620: 838d 96e1 4b57 f8bf d0db a3af f4a9 b33f
00000630: 0000 0080 6e95 9e3f 0000 0040 243b aa3f
00000640: 4e6d 3c23 e655 f1bf 2278 95f7 c7bd 10c0
00000650: 8a04 5bd6 23e0 ae3f 5009 2f76 9715 f9bf
00000660: eff5 d095 5ebd e13f c241 2438 9fbf bdbf
00000670: a33f 4b11 b120 13c0 6919 0154 21ee 0ec0
00000680: 3d70 ca3d 932d b33f cdfa 41f5 39ac df3f
00000690: b296 2aba 8cce bbbf 2edb f235 54ad 0940
000006a0: bb85 832e dff3 0640 4374 42ab bdcf 1240
000006b0: 0b27 5d07 7042 06c0 e1ae aea1 a4e5 0640
000006c0: 5f4e 2752 e956 fdbf b0d3 caa2 f69f f63f
000006d0: 6ac3 4834 0f87 20c0 589e 93b0 c9f0 0440
000006e0: e577 51de 5d99 0040 a15f 7a4d a750 f53f
000006f0: 36f0 eec2 95b2 eabf c097 afd0 45b8 1340
00000700: dd64 83ec a044 d13f f911 1476 a5f8 1040
00000710: e527 fc09 6afa 1340 9297 dfe0 37d6 fa3f
00000720: 59d8 f241 478c 0a40 1cf4 c4d0 521b 12c0
00000730: 822e 7b2b f1f7 1140 7fe6 6fc2 356a f43f
00000740: 5f6f 9a7b d1ab 0640 bc89 4b6c a4c7 0640
00000750: ffdb b62c 936f 1bc0 5d3f 1dc7 7c4e 0140
00000760: e3c5 ee38 7833 f43f 1e8c 0619 28d5 fc3f
00000770: 1b42 7f93 9298 16c0 4a4a c2fa 1373 ed3f
00000780: 808f 048f fab1 f4bf ead5 47a4 5534 ec3f
00000790: 369b e527 7636 c43f 8f07 3b46 9a1f a73f
000007a0: 812a 6149 f6d0 e93f e3f2 b88c 246e e63f
000007b0: 22e1 196f d8e0 04c0 72ab 4aae 8c4b b0bf
000007c0: 5396 1395 375f f8bf 098a e19d cced f53f
000007d0: 2dc8 4474 5375 f33f 8b1e 8d1e 0664 1440
000007e0: 1cf6 4ea6 512e eb3f 941c 3da9 1eb0 0940
000007f0: a370 7431 4942 0940 305d 7a26 a148 00c0

rnn.weight_hh_l0 f8 [512, 128]
-3.440666311349383 0.1942428355125675 -1.6006798894343515 -0.7987242893665327 -1.514541799889123 -0.17511165784349586 -0.45824458572686627 3.6754607103096215
-1.079263927893853 0.25628739490399133 -1.4190457820585767 0.17037053931098695 5.1308768585463165 -1.6117122577200815 4.289105070047601 -0.8872584989937574
-0.2309438645143033 2.753197061972963 1.1632952730741 -2.3507196667350296 1.117139617861925 -0.2524571996316743 2.0035295066300103 -1.461092998481098
-0.6152834964770758 -5.139512015432166 1.4464196269451064 0.22913909645846864 -0.9830109345072251 -2.7487629032739567 0.2966559716885289 -0.37655988387206824
0.9376108965625495 2.299257646361009 0.02996039801699017 -1.1206939155376479 1.1143884881532267 2.567345961104119 5.941403978142057 2.3794958885103883
-2.0107286330934984 -0.3097727449530651 0.29444544086610275 -0.9232370416942239 1.821396351739348 0.3550823645760967 0.4342039236700356 -4.048217074161189
1.379962013909961 1.8432368785649644 -0.8068255800730743 -2.6410275460073045 -2.541513097894117 -2.0073819273680167 1.4493793748196875 0.04707213541089219
2.7509276199692394 -0.3807737339236354 3.493970456638404 -1.169424180373908 0.9761254565527415 2.3943822219134434 -0.8875643532939286 0.023918967573632995
-0.5359795068649611 3.1121924186552676 -2.7586975274502623 -0.6656145777866891 -1.368959218607998 0.9965356918789066 0.1699405167180806 0.5359434381198531
2.423008250290273 -3.190628206620519 -0.726271103155807 0.19122650669285837 0.11262232969542323 -1.0359271753456358 -0.32732575374812944 -0.47711911785993766
1.545070696073836 -0.6797059286673443 1.4602075851242065 -0.241793878029493 1.0645299015957215 0.7809303592299622 1.6543327197209792 -1.709498300242591
-0.5591970183514543 0.178902772383156 0.5015466422216885 -0.9828178720289585 -1.2075917118014898 -0.3407244915162415 -0.3665707575559763 -0.2555308610604449
-1.1516017674791166 -3.8051564736387427 -1.5736818875238516 -0.7346149821542016 3.4272040338961274 3.4785359514935785 1.5655600669958452 -2.01457111303382
0.141835040628476 4.2607238045512 -3.363201740528189 -0.2096812077357791 -0.26704467168138607 -0.8315720995590198 -0.7534038937459213 -2.308191361189335
-1.2948214437175307 0.0018623889489159905 -2.219265035167418 0.5405242510872984 -1.6915359646356771 -3.353587178577848 -1.0029110340161127 3.0802637337301944
-2.946328132501033 0.6538679306846412 1.387688740815331 0.6836118708192399 -3.3239862910877993 -0.761105458646419 1.9478849698386913 3.8947746925822195
2.032893092782766 0.32420273052385395 2.7878728725595288 -0.08630233018469943 1.4653552774711243 1.7063056136877088 -0.09153801144200255 0.7345531059628547
1.960607886259921 -1.6515870035068283 1.9815827255807075 -2.385498912417554 -1.8485032362026652 3.00037489111234 -0.8705629492125615 3.3153804960151914
0.5696451304540376 0.773280664748568 3.1004560748989305 3.5962931975951538 -1.3059796727012931 -1.3572186132660649 3.8654118759561893 4.4796429967428155
-1.3908989989262415 2.8429671100543104 0.09361558537528332 -1.3880844137375454 0.3417734150817667 -0.2586166135114892 1.00759893992043 4.226400312186697
-0.0011511499684306366 -0.09342270137897407 -0.637369992261683 -1.0203548838947103 -0.759029410321945 0.04552791102747323 2.1217803021500945 1.8540570067467306
-1.2092003998593757 -3.4121609222840212 1.2465564587050413 -0.003845529768573909 2.43554463691687 1.5925108294663404 0.84402837251732 -4.987644921091912
7.627551688569577 1.4604776252943963 0.4147844803966508 -1.8220055297927766 0.5994865806290189 -0.8975191827319077 -3.846328235811695 -0.4730313414200546
8.283945264706896 2.839984008988039 1.0158107309645892 0.04318450965874558 -2.163649728491119 -0.254780556501953 -0.3700835374069215 0.4817968835647816
0.82095104130854 1.874905943668508 -2.024304685927992 3.49422074439907 -0.49611981666573146 2.6032281438940523 6.248942551970803 1.289773522857294
0.5786925114523451 -2.905838341387342 2.869832018417038 1.9148362108949906 0.09539512430416698 0.6962421631540217 -2.825673059929208 -2.597657260432666
3.7442396000179667 3.733529792045179 1.1762031658658834 -0.3225868643071503 1.5958937455739888 -0.5488123700386058 -2.962748731498256 2.219341215669611
2.421974177487917 1.7794206472276386 0.0335267765976003 -1.4627094170597557 -2.5292071532756593 -3.971283619835703 -0.20483711336478289 0.30822009256418886
-0.41813944683452653 1.6335736569679 -0.30067453667934924 3.732889089018133 0.9748104384760211 0.4918218449242451 -2.215506036233902 2.4967372631357962
-3.9932620895094737 0.38825599280908213 -6.181857823021054 0.12194105035261497 1.43152642614286 -0.34151916416618433 2.0024594648478957 1.6751025220574254
-0.6855270259119676 -2.5025568326120573 -5.213565114450951 5.02134954822223 1.5519999370695594 -0.4441146898116571 -0.3649560436712527 -1.5563941868194717
-6.089281195435382 2.435919017029784 -4.627654462360391 -1.30710369321668 2.0558244561456798 1.2404282279939287 -0.8285253009636168 3.3292806577415197
00000000: 728e 1d0f 7c86 0bc0 dc1f 0101 f3dc c83f
00000010: 58c4 0784 629c f9bf 0234 ab3d 268f e9bf
00000020: 1f2e af2e 903b f8bf 2e07 cb0d 0f6a c6bf
00000030: 7905 5119 e153 ddbf 1f1a e4f1 5767 0d40
00000040: d6e7 a040 aa44 f1bf ea56 df3e 0367 d03f
00000050: 487e 9759 69b4 f6bf fa72 45ab b3ce c53f
00000060: e109 4d95 0486 1440 6c85 d7ca 92c9 f9bf
00000070: 54d9 d328 0b28 1140 efd6 88ef 6b64 ecbf
00000080: 3580 a68c 918f cdbf f2ef 642e 8c06 0640
00000090: 481d 1781 db9c f23f 1c87 d51c 46ce 02c0
000000a0: c886 bcca cddf f13f bdb2 033e 4228 d0bf
000000b0: 1260 5c7a 3a07 0040 1a41 4e0d a360 f7bf
000000c0: fd66 e403 67b0 e3bf 86b8 de3c dc8e 14c0
000000d0: 1959 20e8 8824 f73f 1c16 c30e 6e54 cd3f
000000e0: ac34 ea58 d374 efbf 4128 b067 77fd 05c0
000000f0: 6d2e 2454 69fc d23f 6fd4 8da0 8e19 d8bf
00000100: 1d80 2391 e800 ee3f 7696 6131 e164 0240
00000110: 2be9 a146 f0ad 9e3f 55f7 40be 5cee f1bf
00000120: 0a83 fa05 89d4 f13f d5ad e3ad ec89 0440
00000130: 1ac7 8967 ffc3 1740 daf2 f023 3509 0340
00000140: 8d23 c2e4 f815 00c0 fffe 3010 51d3 d3bf
00000150: 477a beb0 31d8 d23f 140a 9168 288b edbf
00000160: 2d63 3c80 7024 fd3f 5f67 cf61 abb9 d63f
00000170: ae4a fd40 ffc9 db3f 4386 12d1 5f31 10c0
00000180: 0473 770c 5314 f63f 7a7b 03f4 e57d fd3f
00000190: c3ae ffe0 83d1 e9bf f87d cf0c d320 05c0
000001a0: ae7c aed1 0455 04c0 4204 8541 1e0f 00c0
000001b0: 4b8f 656d a830 f73f 730b 49c4 d619 a83f
000001c0: b072 0b57 e601 0640 332e 98cb 985e d8bf
000001d0: f79d 63c8 a6f3 0b40 7cb8 1d21 f6b5 f2bf
000001e0: acfc 1574 6b3c ef3f baef c9dd b127 0340
000001f0: 20c5 cf5b ed66 ecbf 226d eebd 367e 983f
00000200: 7af5 a97e be26 e1bf 3dde 8723 c5e5 0840
00000210: b7a3 5f02 d011 06c0 aeb5 6af1 b64c e5bf
00000220: 41aa 17c8 41e7 f5bf 1655 bdd1 9ee3 ef3f
00000230: 4be5 c860 9cc0 c53f d260 67da 7226 e13f
00000240: af7a 4726 5262 0340 c60a c914 6886 09c0
00000250: 67b0 82e5 9c3d e7bf 35e4 2f34 1c7a c83f
00000260: 1357 d726 d1d4 bc3f c85a b25f 2893 f0bf
00000270: 2a27 dfb7 e7f2 d4bf ac4e e09f 1e89 debf
00000280: 4152 da0c 9cb8 f83f f1c0 d0a5 26c0 e5bf
00000290: 74ac f7a0 025d f73f 5f3d 410f 1af3 cebf
000002a0: ca7b 8f81 5008 f13f 3b14 2baa 61fd e83f
000002b0: 2d78 fe95 2578 fa3f 95c0 c1e3 1a5a fbbf
000002c0: fce2 3a25 f1e4 e1bf 5052 463a 49e6 c63f
000002d0: 3058 388b ab0c e03f f33c 4977 3e73 efbf
000002e0: 99ba d1af 4b52 f3bf 0c8b 0019 6ece d5bf
000002f0: fddc d731 e575 d7bf a7e4 d71c 9e5a d0bf
00000300: ea6a 95f9 f56c f2bf 5887 93e0 f570 0ec0
00000310: 558f 130f cd2d f9bf 1c20 7047 f781 e7bf
00000320: d66c d2f2 e96a 0b40 5500 2da8 0ad4 0b40
00000330: 49bb 7ab6 880c f93f 9792 af75 d71d 00c0
00000340: 9d8b 768e a627 c23f 2b58 572e fb0a 1140
00000350: ce59 6b50 d6e7 0ac0 53cd e774 d5d6 cabf
00000360: bb53 dc88 4217 d1bf cde7 7b17 3d9c eabf
00000370: 582b 8a7b e21b e8bf 4cbe 4908 2d77 02c0
00000380: 1fd2 aeb0 96b7 f4bf f093 31e8 6c83 5e3f
00000390: 519a d906 0ec1 01c0 c3ac a383 f94b e13f
000003a0: 84e3 0104 8810 fbbf d336 c283 25d4 0ac0
000003b0: 1459 be70 ec0b f0bf 8668 fb4f 61a4 0840
000003c0: 7703 e37b 1492 07c0 0733 4670 7cec e43f
000003d0: ad44 ed1b f933 f63f b16e 8a00 26e0 e53f
000003e0: 7198 e41f 8697 0ac0 be30 b6d5 f95a e8bf
000003f0: e83b 1d6e 892a ff3f c56e 4fa2 7f28 0f40
00000400: 5421 2e74 5d43 0040 38ed 37cf bcbf d43f
00000410: d863 e84a 904d 0640 9e3d b6d5 e817 b6bf
00000420: d926 1c60 1872 f73f 9751 7c1d 074d fb3f
00000430: 6ef9 7bfd 086f b7bf 5224 e983 7581 e73f
00000440: bc41 fc5f a65e ff3f aaf7 687e e66c fabf
00000450: be00 8b16 90b4 ff3f d2d0 2b74 8015 03c0
00000460: 57a6 2021 7893 fdbf 5789 088d c400 0840
00000470: b845 7fd4 a6db ebbf b973 a135 e685 0a40
00000480: 1b06 b46c 883a e23f f92c b717 b7be e83f
00000490: e300 23ea bbcd 0840 d4fc 335e 35c5 0c40
000004a0: aae2 f7f0 4ae5 f4bf e700 58dd 2ab7 f5bf
000004b0: 2c6a c60f 5dec 0e40 3510 a388 27eb 1140
000004c0: 69d6 064f 1f41 f6bf 904b 4a8a 65be 0640
000004d0: 4d2e 95e5 30f7 b73f 0371 9100 9835 f6bf
000004e0: 69c7 1a9a 9ddf d53f c9fb 4eb2 2c8d d0bf
000004f0: 8b14 e710 201f f03f 8f95 c27b d5e7 1040
00000500: 189f e6dd 45dc 52bf 4c6d 20d7 8cea b7bf
00000510: 07e7 06c1 5565 e4bf 3b44 8aa4 5f53 f0bf
00000520: 0e1e c10b f849 e8bf b11d d631 6f4f a73f
00000530: d440 78f3 67f9 0040 8959 0eae 37aa fd3f
00000540: 5b4c bb84 e258 f3bf 4b31 8f06 1b4c 0bc0
00000550: 7517 6c2f e5f1 f33f 362f f012 a980 6fbf
00000560: 990c 9cd3 fe7b 0340 1a57 b1a2 ec7a f93f
00000570: b174 1bca 4702 eb3f de99 b030 59f3 13c0
00000580: dad2 ebe8 9c82 1e40 e6dd 52c9 1d5e f73f
00000590: 3549 8c34 d48b da3f 4475 3945 ef26 fdbf
000005a0: fd28 467b fe2e e33f d7b7 2b26 7ab8 ecbf
000005b0: dbf0 f3bc 47c5 0ec0 0f75 583f 2546 debf
000005c0: 558a 1346 6191 2040 fe21 3e89 49b8 0640
000005d0: 43b3 c6c0 c240 f03f 0631 5bb1 471c a63f
000005e0: f7f2 be96 274f 01c0 cd48 751b 534e d0bf
000005f0: 9bd8 7cdc 72af d7bf e36d 8e98 c2d5 de3f
00000600: c331 411e 3b45 ea3f bd1d f25f 9dff fd3f
00000610: 2b9a b9a7 c631 00c0 1a97 7101 2af4 0b40
00000620: 6c84 de54 6dc0 dfbf f569 f046 69d3 0440
00000630: 8430 ddcb eafe 1840 59b3 be8f e9a2 f43f
00000640: fc17 6428 a684 e23f abc5 1d2c 283f 07c0
00000650: 35eb 407d 6af5 0640 44d9 6f4b 2ba3 fe3f
00000660: 8991 159b d06b b83f 60f8 1aa5 9d47 e63f
00000670: 6fac 2c7a fa9a 06c0 b933 9e87 00c8 04c0
00000680: e9b8 33e4 33f4 0d40 49ce 1bde 44de 0d40
00000690: b687 2d69 bad1 f23f ab60 1460 43a5 d4bf
000006a0: 8119 52e1 c788 f93f 1098 9ef5 de8f e1bf
000006b0: 6a67 609b b5b3 07c0 16ba 9ff7 35c1 0140
000006c0: 6d89 60ff 3360 0340 c0b7 dac8 8178 fc3f
000006d0: d2d1 0df2 6b2a a13f 7f2a 5dfd 4167 f7bf
000006e0: 9606 c1f5 d03b 04c0 c1ad b258 30c5 0fc0
000006f0: 2253 743f 1a38 cabf 5321 62c4 e0b9 d33f
00000700: bc98 54f4 cbc2 dabf 4d8c 8421 1e23 fa3f
00000710: c7c6 7169 403e d3bf c76c 67f4 f4dc 0d40
00000720: cdb9 21a9 a531 ef3f f01c da54 027a df3f
00000730: bbb8 8d3a 5bb9 01c0 7afb de62 51f9 0340
00000740: 0566 f664 33f2 0fc0 41d3 e5a9 2fd9 d83f
00000750: b796 e9ef 38ba 18c0 3beb 4d57 8737 bf3f
00000760: 224b fa40 88e7 f63f dc43 4332 73db d5bf
00000770: f1b2 c877 0905 0040 aff0 5a4d 38cd fa3f
00000780: 0b1d 9a5f d6ef e5bf df99 4384 3c05 04c0
00000790: 8888 38d0 b0da 14c0 6d98 eda7 dc15 1440
000007a0: 9db9 d1e2 fdd4 f83f 1983 1a05 606c dcbf
000007b0: c0ea 0298 705b d7bf b32f 4197 fde6 f8bf
000007c0: c72b 9a87 6c5b 18c0 74c7 0e1c c37c 0340
000007d0: f91a f4d9 b782 12c0 178b ed8f e5e9 f4bf
000007e0: 92b3 ab17 5472 0040 764e 0445 cbd8 f33f
000007f0: 6983 f17d 4783 eabf 3ea4 c1e5 5da2 0a40

rnn.bias_ih_l0 f8 [512]
-1.5055203995851894 -0.8988832348627505 -0.9763894261642673 -1.6561750499365675 -0.8354028630072903 -1.3221048115551122 -1.8162883195582034 -1.6796803517232037
-2.0073757470359395 -1.5289505872886324 -1.2081568105264369 -1.3688900030916262 -1.1660761838342228 -2.015954751465456 -1.6917263114801946 -1.055102717627712
-1.5685434795700899 -2.159713469665481 -1.534058248284794 -2.0312351011148326 -1.4368887533805115 -1.9403918563444362 -1.3986620380937969 -1.031417493881255
-0.8471960013686397 -1.8566355964790433 -1.5772845611004318 -0.00156539817197596 -2.1802270588824544 -2.804692975122889 -1.8081068770484188 -1.3712306573221213
-2.0164860366280304 -0.8791054411111588 -1.251673953633307 -1.8573634088195856 -0.6981779856979897 -0.5288797503968783 -1.4529455895313559 -0.9278186882702656
-0.27864771013772893 -1.933840716912515 -1.5933277199615705 -1.0792326365925278 -2.255202923106864 -0.43273960343953477 -1.4370169722717039 -2.7716880836579394
-1.5532406625983697 -1.9272491015448014 -0.5915061179105124 -1.0834713605148107 -0.9102444099533452 -1.5668314172195468 -2.098512743422317 -1.2516342540045655
-1.6737330526417855 -1.8838249268100653 -2.2058402776679813 -1.1666048256540247 -1.3614201468276694 -0.8531407965173847 -1.6589620512825447 -1.8316295804479075
-1.8997976842988198 -0.743102091590619 -1.7891776199145268 -1.438562154495853 -1.658626200773314 -1.9761805558568208 -2.339384395242919 -1.158603953870168
-2.222653731395689 -0.854004828324381 -1.8674610519456356 -1.0279924023072586 -1.0951528964217565 -1.0752842056216847 -0.8265012012637482 -1.7843937676541615
-1.1425526166356736 -1.2459060361812633 -1.8316302267944145 -1.7650373911963053 0.7777588884964474 -1.5484704907611926 -2.0716020870431664 -2.46497776791643
-1.5628474137273947 -1.7019334785377709 -2.6925092841369573 -1.5876258845120186 -2.212498618795523 -2.3375279593262666 -1.1010630260711927 -1.3066549703895303
-1.68834100618729 -2.144390184689233 -1.9184726674919537 -1.1297250385460955 -0.6530859039888248 -2.1758528874208674 -1.545717634638226 -0.9998923953024582
-0.15690371593041283 -1.8473130608004282 -2.0460069521892317 -1.5909701440847226 -1.239833281745432 0.4414783177545605 -0.9184155730613245 -1.6988311898822608
-1.0803111957085934 -1.7052669330370707 -1.4620114320125037 -1.781906716702515 -0.4271383940349273 -1.6973933440974547 -1.9886137672742268 -2.0330380476839247
-1.6538837481615842 -0.3014261549840829 -1.1160186576925146 -1.1045195208967225 -1.5804384924038815 -2.5209387798909484 -1.9908233231174477 -1.443212905986358
-1.6653908190898228 -1.4235888328766162 -1.8747106893779089 -2.1302606792151573 -0.7366666255487136 -1.6635198791882082 -1.8001521176444284 -1.6027331978200747
-1.0956690926470958 -1.9858852437128092 -0.7503635374968773 -2.0126960263767044 -0.9355343969336992 -0.6613715343496445 -1.4161876631056927 -1.785747443554734
-1.1906399672501022 -1.5559177772557005 -1.380529090453329 -1.9539070176148672 -1.85843756765654 -1.602738754757079 -1.2480340407447863 -1.126494443676958
-0.9449019917766353 -1.9206873598389016 -0.971705588479714 -1.1233481232521045 -1.7265679265037701 -1.8125512358972233 -2.291135879722456 -1.4844677899250567
-1.8058462519588905 -0.5917210104317142 -0.9014514699767204 -2.0342297511659906 -1.9845697362297532 -1.48028227855535 -1.8953105392164757 -1.1417926614549236
-2.0313679927951958 -0.8471984983383573 -2.41221261711453 -1.4077379202468803 -1.380180349942471 -0.33150208095389566 -2.702726550193947 -0.8057087565169105
-0.8406498961738464 -2.460603744556793 -1.3314309417296344 -1.7828178708391542 0.39045020661387386 -1.4929271292937336 -0.4501685420437234 -1.2527073980109287
-1.0501546406073334 -2.302549969573462 -1.6647304083859997 -1.0848508244334378 -1.480933392824164 -1.4204382114777296 -1.2801323740028951 0.599501473137107
-0.7940177677446061 0.20211355135605927 -1.8569693669294935 -0.020771999462162356 -0.8739173876779346 -1.1817047041339948 -1.1896256927575537 -1.6502196482137996
-1.4010169375025976 -1.6230221777970906 -1.7121585387896208 -1.586707630443565 -2.0968688996248135 -1.4939256337867388 -0.06435450249102843 -2.348828880624055
-2.275004979835038 -0.9757174919903406 0.4516924883762113 -1.427372441216906 -0.9698551529366208 -1.06450134236482 -1.9077595608667555 -2.108033275130174
-2.2911756285023825 -0.6449437146781061 -0.9104095438408275 -0.9018381566239062 -1.602406188202822 -1.404345451668833 -0.9916258687305033 -2.103619798237017
-1.209030114508692 -1.2154579067320974 -1.2069075497059525 -1.2432654101872929 -1.126032994626229 -1.960173693916591 -0.9688031832101173 -0.3369165706754476
-1.3272809435601045 -1.0229607890589543 -0.7280067893213445 -1.7324150065961237 -0.6429680312515058 -0.4164976379018194 0.30380310063251725 -1.3543292009833565
-0.46735992137589166 -1.9044117825400115 -1.2331456527574887 -0.5594250341741978 -1.6162620812305164 -0.8023284107076285 -1.1516522595988168 -1.6648356440467273
-1.4166212324350507 -1.4279699328457538 -0.1239330068392047 -1.3616904000006234 -1.6410170893208085 -1.044238164401901 -1.4895441782227923 -1.5448607313026033
00000000: 2bde fa8e 9c16 f8bf fa0f 15c6 a6c3 ecbf
00000010: bd24 b109 953e efbf 0edc be68 b17f fabf
00000020: 0c3c f3c8 9ebb eabf 1737 f85f 5727 f5bf
00000030: 9dbf 4957 840f fdbf b428 2681 f8df fabf
00000040: 666c 0204 1b0f 00c0 baac 19e4 9476 f8bf
00000050: 5469 5a3c 9c54 f3bf 1599 3134 f9e6 f5bf
00000060: 4866 2380 3fa8 f2bf 5c14 7ee2 ac20 00c0
00000070: 3c71 d99b 4f11 fbbf a11b 2263 b3e1 f0bf
00000080: a6b8 310c c118 f9bf 2b8d 07db 1747 01c0
00000090: 02ad 68a9 808b f8bf 2434 4e30 f83f 00c0
000000a0: f026 bc0f 7ffd f6bf 0cc9 c654 d80b ffbf
000000b0: 2250 fc71 eb60 f6bf 57e0 4ba1 af80 f0bf
000000c0: d8c4 e5c9 3a1c ebbf 9a78 f786 c7b4 fdbf
000000d0: d597 66bc 8e3c f9bf 8ef5 0b7d c1a5 59bf
000000e0: 0709 5ee2 1a71 01c0 3dca dbde 0270 06c0
000000f0: ca87 097a 01ee fcbf 9a89 c78e 8ff0 f5bf
00000100: af43 616e c321 00c0 cddb e9bb a121 ecbf
00000110: ddc2 8144 db06 f4bf d8ac 9ab1 c2b7 fdbf
00000120: 4c85 eb5b 7957 e6bf 5c14 ef39 95ec e0bf
00000130: 4c79 dedf 433f f7bf 0da1 57d1 b0b0 edbf
00000140: b865 8934 5dd5 d1bf c7ff acf6 02f1 febf
00000150: 1bb9 1035 457e f9bf 5a0d ef70 8944 f1bf
00000160: 5fb3 84d4 a70a 02c0 643c 1d73 01b2 dbbf
00000170: 3443 3b82 05fe f6bf aa30 50cd 6a2c 06c0
00000180: 80d6 8ae1 12da f8bf bb15 6627 03d6 febf
00000190: 01e8 f93c 9eed e2bf 1205 b910 e655 f1bf
000001a0: d5b9 83e2 b820 edbf 41da f4d1 bd11 f9bf
000001b0: 9ce7 990c c1c9 00c0 260c b8a3 b106 f4bf
000001c0: 9c4a 354f 9cc7 fabf 069f 409b 2524 febf
000001d0: b044 6696 8fa5 01c0 18a3 58d2 69aa f2bf
000001e0: 82d8 eb7d 60c8 f5bf 2c9e 7ded ed4c ebbf
000001f0: 8604 b9ca 1b8b fabf 368f a6d1 5a4e fdbf
00000200: 8847 b141 9265 febf a811 9f09 7ec7 e7bf
00000210: c649 44b6 78a0 fcbf f52a edbf 5904 f7bf
00000220: 06c3 89a0 bb89 fabf 9e56 a680 6f9e ffbf
00000230: 86ba 722a 0fb7 02c0 f837 ae4c a489 f2bf
00000240: 326a f5ad fec7 01c0 1df0 08ef 0154 ebbf
00000250: 6f90 0ad7 1ee1 fdbf 6f23 4729 a872 f0bf
00000260: 9604 240b bf85 f1bf bfce 1036 5d34 f1bf
00000270: 570a b1a5 b272 eabf 6d2c b47a e08c fcbf
00000280: 158d a640 e547 f2bf ad99 f42a 3bef f3bf
00000290: 3627 277f 5b4e fdbf 117c f6d8 973d fcbf
000002a0: 677f c89b 66e3 e83f 0c3f 4afe 88c6 f8bf
000002b0: ed67 711d a492 00c0 908b 9443 46b8 03c0
000002c0: b68e 294a 6c01 f9bf 8d98 6499 1e3b fbbf
000002d0: 595b bc4e 428a 05c0 f131 4466 ea66 f9bf
000002e0: 2360 d179 32b3 01c0 e155 d6db 41b3 02c0
000002f0: 16f8 7c43 f49d f1bf 7fa9 cf0a 0fe8 f4bf
00000300: 501f e1db 7103 fbbf 49d4 880a b627 01c0
00000310: 7c5d 5265 10b2 febf f371 e08f 5a13 f2bf
00000320: 068a e368 14e6 e4bf d209 038f 2568 01c0
00000330: 4ff2 196a 42bb f8bf 2ffb 2a56 1eff efbf
00000340: 2b60 45c4 6b15 c4bf b3c8 d923 988e fdbf
00000350: c254 98e4 385e 00c0 c519 1c1c 9d74 f9bf
00000360: 7b6c 596c 5bd6 f3bf 2088 2946 2e41 dc3f
00000370: 83ef 4d0e a963 edbf 5681 1f9d 692e fbbf
00000380: 1423 7164 f448 f1bf d482 c5fa c548 fbbf
00000390: 05f3 6d19 6664 f7bf 1f29 0c9e b082 fcbf
000003a0: 0bbe 4f46 3c56 dbbf d98b 55ec 8528 fbbf
000003b0: 2e17 6dab 5cd1 ffbf f29b b273 a943 00c0
000003c0: a6d6 1bce 4e76 fabf d433 74ed 904a d3bf
000003d0: 223e 4861 36db f1bf 5eb8 40a9 1cac f1bf
000003e0: 6d6d 63df 7949 f9bf 52cc 76f3 e12a 04c0
000003f0: a674 8e8e 69da ffbf 4506 866a 6617 f7bf
00000400: 83ca f0d7 70a5 fabf 787e 8215 05c7 f6bf
00000410: 8c6f c5a2 d0fe fdbf 8578 691c c60a 01c0
00000420: 372a 19e3 c592 e7bf 63bf 5505 c79d fabf
00000430: 39ba 914e 6ccd fcbf 8c9c cd90 cba4 f9bf
00000440: 2e84 8250 dc87 f1bf 26b0 f59a 2fc6 ffbf
00000450: 601e b564 fa02 e8bf e69d d05f 001a 00c0
00000460: 53a0 e3d4 e5ef edbf a02f d1a2 f429 e5bf
00000470: 139a 2065 b4a8 f6bf 24bb 4fe9 6b92 fcbf
00000480: 2c65 8a7e dc0c f3bf 7f40 090a 0ae5 f8bf
00000490: 5ec7 eaab a516 f6bf c14a 4101 3443 ffbf
000004a0: cce1 eb07 29bc fdbf 2a6a 7b64 d1a4 f9bf
000004b0: 8ab2 d48a f2f7 f3bf f27d ab09 1f06 f2bf
000004c0: 9c63 131a a33c eebf 2394 45ab 22bb febf
000004d0: b98b 7b51 3618 efbf 9440 b6e1 3bf9 f1bf
000004e0: e57f aab0 05a0 fbbf 1b0c 88b9 3500 fdbf
000004f0: 15cd 500c 3f54 02c0 a518 1b4c 61c0 f7bf
00000500: 2248 1c0a bfe4 fcbf 1321 85e6 60ef e2bf
00000510: 8065 cfc0 b0d8 ecbf 1677 6e3f 1a46 00c0
00000520: 68cf 1b32 ccc0 ffbf bfe5 7378 3caf f7bf
00000530: a62e db24 3153 febf e92f bc61 c844 f2bf
00000540: 7e92 b9dc 3d40 00c0 7bac 7206 401c ebbf
00000550: 370b ec20 364c 03c0 5fca 8c32 1886 f6bf
00000560: 215b 99fd 3715 f6bf f22f 1081 5437 d5bf
00000570: 47e9 f818 2f9f 05c0 20e9 eaba 5dc8 e9bf
00000580: 9a7a 6e9c 9ae6 eabf e24a 1a04 51af 03c0
00000590: bac7 f987 8a4d f5bf 04a8 1f08 6c86 fcbf
000005a0: bedf 07dd 22fd d83f 430b ba8e 07e3 f7bf
000005b0: c102 71b7 8fcf dcbf 8aa0 9ee9 160b f4bf
000005c0: 086b d2f3 6ecd f0bf 5fca 8551 9f6b 02c0
000005d0: 22cb 4a5a bca2 fabf 1eaf bf89 8c5b f1bf
000005e0: e5be 9b36 e7b1 f7bf bd91 046b 1dba f6bf
000005f0: db4a 8e15 6c7b f4bf e5e2 a0b6 1d2f e33f
00000600: 02fe 1cf3 9768 e9bf 618b 935a dbde c93f
00000610: 0d2d ca82 25b6 fdbf a237 7349 4145 95bf
00000620: 7f70 ef98 21f7 ebbf cd8e 1c31 43e8 f2bf
00000630: 2700 4ef3 b408 f3bf e3b7 c4b7 4c67 fabf
00000640: a473 7bbc 906a f6bf a423 651a e6f7 f9bf
00000650: 75b2 1a5a 0065 fbbf aa19 518a 2763 f9bf
00000660: ca1a 9f33 63c6 00c0 6552 bc90 1ee7 f7bf
00000670: 15a0 8c63 8979 b0bf e171 d1cb 66ca 02c0
00000680: 6e07 95cf 3533 02c0 1a7a c7e3 1339 efbf
00000690: 152e 5b9c 87e8 dc3f 0dd0 237c 84d6 f6bf
000006a0: 2209 77ac 0d09 efbf 7c14 408f 3208 f1bf
000006b0: 55dd a8e3 2e86 febf cd82 bc8c 40dd 00c0
000006c0: d67a 4ee3 5354 02c0 fcb3 4900 61a3 e4bf
000006d0: 7c67 1832 1322 edbf de81 9fb1 dbdb ecbf
000006e0: 86d3 d3ab 74a3 f9bf 8743 b3ef 3278 f6bf
000006f0: 4e15 822c 66bb efbf 3a2b e59d 36d4 00c0
00000700: 7d1a 1bf6 2f58 f3bf 7d43 71fd 8372 f3bf
00000710: 5e85 744a 7e4f f3bf 070a 5045 6ae4 f3bf
00000720: 812f 622c 3b04 f2bf d09e 5d17 df5c ffbf
00000730: a5bd 8488 6f00 efbf 6d04 2285 0a90 d5bf
00000740: 5f1d 53f1 8a3c f5bf b793 e121 0c5e f0bf
00000750: 1dd6 ece4 d44b e7bf 2ee1 46cc f8b7 fbbf
00000760: be28 53b1 3193 e4bf 7692 69b5 e5a7 dabf
00000770: b8f6 688f 8271 d33f 7adc a318 55ab f5bf
00000780: 4851 7196 39e9 ddbf ca05 427d 7878 febf
00000790: 8dc4 9cef f6ba f3bf 88f0 4a54 cfe6 e1bf
000007a0: 4066 caa0 35dc f9bf 6c82 94a1 acac e9bf
000007b0: 7576 75eb 2a6d f2bf 2955 46b3 2aa3 fabf
000007c0: 4b0b 8206 7baa f6bf b9e6 1300 f7d8 f6bf
000007d0: b7f2 44d3 12ba bfbf 357a 74df 7bc9 f5bf
000007e0: b1f5 ac22 9b41 fabf b475 d513 33b5 f0bf
000007f0: 1ba0 b646 2cd5 f7bf f41b dde2 bfb7 f8bf

rnn.bias_hh_l0 f8 [512]
-1.5468407905845054 -0.81486129403538 -0.9407003711759406 -1.5342184258458906 -0.9178429505790325 -1.460711058115932 -1.863794614702761 -1.6680471120367133
-2.104256767850129 -1.569538359438231 -1.1582322375966965 -1.457253965339597 -1.0405982775177016 -1.9534787621255834 -1.6088130208873586 -0.9218917903797096
-1.6512096959882416 -2.074526095982616 -1.6647053487930128 -2.12718191411706 -1.492846458745069 -1.932782444270345 -1.31019676424786 -0.9807101247697757
-0.833525449778024 -1.8950529767821942 -1.5200860310374003 -0.025465307280852646 -2.0905048204014047 -2.7997962803285947 -1.794482849677011 -1.3886785461732858
-2.0207031546528578 -0.9471413361160212 -1.248374739687442 -1.7702208276994469 -0.6641828751564067 -0.5412522418124684 -1.4420334244856157 -0.8948497708743458
-0.33883512652172515 -1.98454835703885 -1.6007145664294213 -1.023879294037072 -2.351102229344571 -0.4445494027940574 -1.3566571482699117 -2.916853005537699
-1.4315987026033434 -1.9316539183213173 -0.7402028832141244 -1.1615784977478345 -0.9952171957391395 -1.5585537029670775 -2.0967903703539834 -1.2221556928714283
-1.653503821075592 -1.8663882287309526 -2.118935963379587 -1.199168723202268 -1.2539323677169991 -0.8547363707738822 -1.5556432147425645 -1.8280665172287163
-1.928624842567358 -0.8648658015231874 -1.6800708855195032 -1.5009508675017877 -1.6679312550951952 -2.0153119141227083 -2.355451557399026 -1.2673104915043039
-2.322241108556481 -0.8276577164137978 -1.9133490213798898 -1.1954611512939843 -1.0966156446959638 -1.0179398578229009 -0.9144172290182883 -1.8283207927040885
-1.0788692907452362 -1.135348710996915 -1.9494775353109102 -1.7329829017178386 0.7559283394984786 -1.6981176968292298 -1.9378820355459323 -2.572826492266764
-1.6369123334524498 -1.6530250474548047 -2.807016180722201 -1.6084398523117809 -2.1480739834187395 -2.2612946393880784 -1.0963658019459255 -1.3828072736456272
-1.6118650450534495 -2.206378557044947 -1.980447974323242 -1.0443073804555036 -0.6816737416923494 -2.1394853103858846 -1.5914304446479475 -1.0308012592939566
-0.0963113514105786 -1.8512521678608602 -2.1001865665990356 -1.5595444742954072 -1.1077456189293864 0.3310384882262243 -0.8538446404122447 -1.7692629680896825
-1.1108002679122242 -1.6053434862625828 -1.4953334896992534 -1.832688950179158 -0.5365480820755417 -1.5808262762955032 -2.0460769382347737 -2.0304850652641973
-1.59024406451264 -0.17136854441269497 -1.0822304054198728 -1.0509392889321265 -1.6490371984026109 -2.5731360090081137 -2.083561014594401 -1.4264012594652664
-1.6874844839445853 -1.5495247822617746 -1.9863876133085576 -2.075504620835153 -0.7327665576679628 -1.645624042805105 -1.8458126962901842 -1.5512248493849201
-1.1620079586648557 -1.8704960121203926 -0.7240984234167156 -2.128565753362399 -0.8301943575761592 -0.7157043010315532 -1.3860447225248471 -1.8971643515357697
-1.2086984833352452 -1.449787577748817 -1.4583791882437047 -1.9821954029800317 -1.8665029552631582 -1.526110149853262 -1.1507908956365605 -1.225650748870851
-1.0189009720007642 -1.9048937867276017 -0.8127470640141436 -1.2286817979511733 -1.8056079884190672 -1.841776470770816 -2.3615956842201133 -1.446460076070751
-1.7537692581977409 -0.5848137112707575 -0.7565442636797997 -2.0149812320731892 -1.852262024241064 -1.5994312184032993 -2.0037366034693243 -1.1447746334042634
-2.122543779946059 -0.906825563773408 -2.3779739843461343 -1.4299482132306789 -1.3014559078926182 -0.3252603011794686 -2.6805334722422707 -0.7562578812569732
-0.8149293091735925 -2.459384889408613 -1.440054945557216 -1.7782861371474645 0.5406888174179584 -1.450369779865197 -0.36405478924647444 -1.2252207756774063
-1.152334164164744 -2.2870550809250725 -1.616195954306652 -1.2115731490729837 -1.505282469497548 -1.528152559019058 -1.2757845951461444 0.6020359743916656
-0.9308557717376484 0.2165007996728394 -1.932712047508923 -0.04286269153526973 -0.8195920287357908 -1.1677738953812191 -1.0773274611856514 -1.7135131383070052
-1.2972539606773599 -1.6272876500899942 -1.623049083088665 -1.584013804110875 -1.9639827059321193 -1.5891760000423791 -0.09011814453390389 -2.3327812315385263
-2.2250918789367646 -0.9430560030121404 0.5708160738983907 -1.4643282895531244 -0.9078254317212493 -1.1134657589730312 -2.022829203529752 -2.0962939764288837
-2.2219475223240424 -0.5284606707988345 -0.9213731514202949 -0.999503034396241 -1.4730128378698593 -1.450441953540782 -1.0352347698214246 -2.210190807619608
-1.1619622227023279 -1.2630850665920852 -1.0755173208384252 -1.3063564163172763 -1.0339339566734962 -2.0240932120595123 -0.9104440985592448 -0.3016331578911044
-1.3478542541141332 -0.9659610032333447 -0.864445974910891 -1.7776014330866667 -0.730202111089302 -0.2553226104121565 0.20173973907717926 -1.35990998201103
-0.41836397949853527 -1.8652503444176158 -1.131951990024662 -0.6058748649297896 -1.68032460139365 -0.7326731990652454 -1.211748797293155 -1.614995333458239
-1.3371118251531766 -1.4723224233006644 -0.01760501490657382 -1.4514125360361785 -1.6023966769710987 -1.0794420981177248 -1.4281949520609558 -1.5075211408127396
00000000: 26de fa20 dcbf f8bf f30f 15fe 5713 eabf
00000010: ab24 31aa 371a eebf f6db be9e 288c f8bf
00000020: 1f3c f32d f85e edbf 3a37 f88e 125f f7bf
00000030: 9cbf 494d 1ad2 fdbf ae28 262b 52b0 fabf
00000040: 7b6c 8292 84d5 00c0 d5ac 3941 d41c f9bf
00000050: 5269 da86 1e88 f2bf 2399 b188 e950 f7bf
00000060: 3d66 2361 4aa6 f0bf bb28 4cf2 7241 ffbf
00000070: 5671 e1b8 b2bd f9bf 3737 4436 2380 edbf
00000080: bbb8 b1db 5a6b fabf 188d 4723 a198 00c0
00000090: 1cad 6813 a2a2 fabf 2134 8ef3 7704 01c0
000000a0: d926 e4f7 b2e2 f7bf 02c9 c648 adec febf
000000b0: 3450 dce1 90f6 f4bf a5c0 1733 fa61 efbf
000000c0: 0cc5 6590 3dac eabf b778 f711 2352 febf
000000d0: dc97 e6ba 4552 f8bf cabe d0d7 9313 9abf
000000e0: fc08 5e97 5ab9 00c0 44ca 9b97 fb65 06c0
000000f0: c587 09a6 33b6 fcbf 9489 c7fe 0638 f6bf
00000100: b243 616a 662a 00c0 96db e958 fb4e eebf
00000110: e0c2 81ca 57f9 f3bf c0ac 1a13 d352 fcbf
00000120: 4485 eb71 fc40 e5bf 5d14 af38 f051 e1bf
00000130: 4379 dea3 9112 f7bf 0ba1 97fc 9ba2 ecbf
00000140: b165 c986 79af d5bf 8fff 2cc7 b5c0 ffbf
00000150: 13b9 90e0 869c f9bf 7c0d 2f41 cf61 f0bf
00000160: 74b3 84af 0ecf 02c0 563c 9d56 7f73 dcbf
00000170: 2643 3b20 deb4 f5bf 9630 5007 b755 07c0
00000180: 97d6 8a0a d4e7 f6bf c315 66f0 0de8 febf
00000190: 03e8 f9f4 bdaf e7bf 2805 b955 d395 f2bf
000001a0: d5b9 83bb d1d8 efbf 4dda f401 d6ef f8bf
000001b0: 9ae7 9907 3ac6 00c0 4f0c b820 f38d f3bf
000001c0: 8f4a 356c c074 fabf f69e 40e7 b9dc fdbf
000001d0: c544 c8b2 94f3 00c0 18a3 088b cb2f f3bf
000001e0: 81d8 eb62 1b10 f4bf 249e e516 005a ebbf
000001f0: 9604 b923 eae3 f8bf 2f8f 26ad c23f fdbf
00000200: 7b47 11b9 a5db febf c011 9f0b fbac ebbf
00000210: d649 4402 92e1 fabf 0a2b 8d0e e503 f8bf
00000220: f5c2 09af d8af fabf 672b 53da 5b1f 00c0
00000230: 8aba 72fc f6d7 02c0 ff37 ae5d e746 f4bf
00000240: 3c6a 7525 f393 02c0 0ff0 0809 2c7c eabf
00000250: 4f90 0add 139d febf 8423 47df 9b20 f3bf
00000260: 9704 a4d8 bc8b f1bf d84e ea4d 7b49 f0bf
00000270: 290a b1eb e742 edbf 772c b44d cd40 fdbf
00000280: 558d 0672 0c43 f1bf 9f99 f468 632a f2bf
00000290: 1827 275b 0f31 ffbf 1b7c 7647 4cba fbbf
000002a0: 647f 08a1 9030 e83f 043f 4a76 7d2b fbbf
000002b0: 9fcf e297 9001 ffbf 918b 540e 2695 04c0
000002c0: 9e8e a9fc ca30 fabf 8398 6464 ca72 fabf
000002d0: 815b 3ce6 c474 06c0 d831 346d 2bbc f9bf
000002e0: 1e60 a169 412f 01c0 d555 d6a4 2117 02c0
000002f0: 11f8 fcdd b68a f1bf 8aa9 0f85 fa1f f6bf
00000300: 431f 6100 33ca f9bf 6ad4 08cd a9a6 01c0
00000310: 465d 1237 eaaf ffbf f171 e0a7 7bb5 f0bf
00000320: f989 6373 45d0 e5bf cc09 7379 aa1d 01c0
00000330: 5ff2 19c5 7f76 f9bf 957d 1576 297e f0bf
00000340: 6bc0 8a58 dca7 b8bf b1c8 d997 ba9e fdbf
00000350: c154 589d 2ecd 00c0 c019 1ce8 e4f3 f8bf
00000360: 846c 5978 53b9 f1bf d087 290e bc2f d53f
00000370: 61ef cdfe b152 ebbf 5881 9faf e64e fcbf
00000380: fc22 7180 d6c5 f1bf bd82 c5a6 7caf f9bf
00000390: 15f3 2dcf e2ec f7bf 3129 0ca6 b152 fdbf
000003a0: 08df 27e2 662b e1bf dd8b 557e 104b f9bf
000003b0: 9a8b f695 5d5e 00c0 f69b 32f4 6e3e 00c0
000003c0: a5d6 9bc2 a371 f9bf 2b67 e88a 67ef c5bf
000003d0: 283e 60d4 d050 f1bf 3bb8 40b7 a5d0 f0bf
000003e0: 456d 50d4 7462 fabf 69cc f654 c895 04c0
000003f0: 6e3a 8709 22ab 00c0 4406 8620 8ad2 f6bf
00000400: 78ca f0ba efff fabf 557e 827f daca f8bf
00000410: 9d6f c560 3ec8 ffbf 8d78 a92a a29a 00c0
00000420: 2d2a 19da d272 e7bf 68bf 55e0 7954 fabf
00000430: 0cba d1e4 7288 fdbf b49c cd25 d1d1 f8bf
00000440: 3384 42a8 9597 f2bf 27b0 f539 8ded fdbf
00000450: 581e f574 d02b e7bf ea9d 507b 4d07 01c0
00000460: 6ea0 e3c1 f390 eabf 992f d1b4 0ce7 e6bf
00000470: 109a 203b 3d2d f6bf 19bb cf01 c95a febf
00000480: 1665 8a38 d456 f3bf 6a40 8975 5432 f7bf
00000490: a3c7 6a6a 8555 f7bf dd4a e186 12b7 ffbf
000004a0: c1e1 eb33 32dd fdbf 2b6a fb79 f26a f8bf
000004b0: 7db2 d4b6 a369 f2bf ce7d abf5 439c f3bf
000004c0: beb1 091b 6b4d f0bf 1094 45e8 717a febf
000004d0: 648b 7b21 0602 eabf 9740 b63e aea8 f3bf
000004e0: f67f ba33 c5e3 fcbf 1a0c c89a ea77 fdbf
000004f0: 11cd 3047 8ce4 02c0 c618 1b52 b324 f7bf
00000500: 1908 8b5a 700f fcbf 1921 853e cbb6 e2bf
00000510: 8065 cf50 9c35 e8bf 0f77 ee7a ae1e 00c0
00000520: 60cf 1b81 dda2 fdbf cde5 7330 4597 f9bf
00000530: 4897 6d0e a707 00c0 ed2f bc34 ff50 f2bf
00000540: 8692 b93b f8fa 00c0 70ac 720b b704 edbf
00000550: 300b 6c39 1706 03c0 58ca ac60 11e1 f6bf
00000560: 465b 196e c3d2 f4bf f82f 1095 10d1 d4bf
00000570: 38e9 7888 bb71 05c0 13e9 6aba 4333 e8bf
00000580: 7e7a 6ea1 e613 eabf e54a 22fc d1ac 03c0
00000590: e6c7 f90d 770a f7bf 10a8 1f2a dc73 fcbf
000005a0: ffef 83a2 524d e13f 3a0b 3af1 b634 f7bf
000005b0: 8b02 7175 ac4c d7bf 9da0 9e19 819a f3bf
000005c0: c96a d2f2 f56f f2bf 62ca c588 e34b 02c0
000005d0: 15cb fa49 f0db f9bf e4ae bf86 9a62 f3bf
000005e0: d1be 1b12 a315 f8bf ac91 0419 5073 f8bf
000005f0: eb4a 8e1b 9d69 f4bf e5e2 a0f2 e043 e33f
00000600: 4afe 1c0b 92c9 edbf 6f8b 1357 4cb6 cb3f
00000610: 262d ca77 63ec febf 299c b944 19f2 a5bf
00000620: c170 ef0f 193a eabf cb8e 1cae 33af f2bf
00000630: 5600 4eb8 bb3c f1bf f6b7 a4c0 8c6a fbbf
00000640: a273 7b5e 8dc1 f4bf b423 65c6 5e09 fabf
00000650: 99b2 ba50 02f8 f9bf a219 d1db 1e58 f9bf
00000660: 6735 3e21 796c ffbf 6252 3cd0 436d f9bf
00000670: 21a0 8c93 fb11 b7bf d171 d134 89a9 02c0
00000680: 5d07 95f8 fccc 01c0 d279 67c8 832d eebf
00000690: 3497 2d12 2044 e23f 07d0 2380 e36d f7bf
000006a0: fc08 77eb e70c edbf 6e14 c078 c1d0 f1bf
000006b0: 9e6e d413 c12e 00c0 c482 bcc6 35c5 00c0
000006c0: dd7a 2e6c 8cc6 01c0 f3b3 495a 26e9 e0bf
000006d0: 6767 188c e37b edbf fe81 9fc9 edfb efbf
000006e0: bfd3 d3e8 7591 f7bf a043 339f 0235 f7bf
000006f0: ad0a 8155 5290 f0bf 192b a584 78ae 01c0
00000700: 7d1a 1bb3 6597 f2bf 8943 d1af 9835 f4bf
00000710: 6e85 74a6 5135 f1bf 160a 50fc d5e6 f4bf
00000720: 4c2f 2255 fe8a f0bf 41cf 2ec8 5731 00c0
00000730: b4bd 84a9 5b22 edbf 0f04 2229 f54d d3bf
00000740: 641d 539f cf90 f5bf 7327 c30c 27e9 eebf
00000750: ecd5 ec9a 8aa9 ebbf 24e1 4633 0e71 fcbf
00000760: a428 53d1 d05d e7bf 6992 69a5 3457 d0bf
00000770: 6ded d196 9bd2 c93f 75dc 23f8 30c2 f5bf
00000780: e551 71b6 79c6 dabf b805 c2be 10d8 fdbf
00000790: c7c4 9cb0 791c f2bf 8cf0 4aaf 5363 e3bf
000007a0: 3f66 9a0c 9ce2 fabf 7982 9410 0f72 e7bf
000007b0: 8476 f5b4 5263 f3bf ff54 c658 05d7 f9bf
000007c0: 520b 825e cf64 f5bf b2e6 13f5 a18e f7bf
000007d0: 79ca 138d 0c07 92bf 187a f459 fc38 f7bf
000007e0: 89f5 acb2 6aa3 f9bf c475 d513 6545 f1bf
000007f0: 20a0 36f3 e2d9 f6bf f71b dd7c ce1e f8bf
