saved_model/text_generation/best_valid.pt (torch, 867299 bytes, 6 tensors)

rnn.weight_ih_l0 f8 [512, 65]
-0.6967832781408314 2.495957376299229 2.0904458826706116 0.005383690819144249 -0.022376783192157745 3.804618410494913 1.3935132313652803 2.8270928540357936
0.1506256526799108 -0.7937730154467584 -2.207769809781368 -4.560693940870209 1.2794982214500226 -0.18282848745907995 4.684771981084449 6.461867778544265
0.5071038375228775 1.3713134043906612 0.9144358469542547 -1.1717998363741144 0.7944356551744086 1.9560297185153621 1.704347638460493 -5.615285119063352
0.5628829228301918 -0.48135748840937176 -2.9950442255950884 4.782219746255535 4.181787585415195 0.04869269195046438 1.274585791965841 0.43128845589807613
0.3126257385968048 2.1413845731289416 3.289181762190359 -3.3655240360409313 -0.4244313189816648 2.5029614059346854 -1.0698035006995212 0.0073692010780775676
4.171830844290412 1.3357703691938312 1.4527251879843017 -0.6924413427027802 -2.403737040534978 -1.7395290790385556 2.6336368332396627 2.8465338702702994
-0.9845334672870694 0.526621056668422 0.1254022106515685 -0.659126725788308 4.14413762437809 1.2103173489623353 3.0688729311360614 3.5683917967938936
0.5326760181034467 1.197766522482029 0.35065802353079867 -2.0219607784581903 1.034983182057588 1.9564250393996874 4.37260517809882 3.375369013010054
2.6191177268744483 0.0943610831475464 -0.49405031725169163 4.373359086772081 -0.07402793318033218 -0.028482291847467422 -3.523094247815939 0.06271172340431225
5.313551703752443 2.8959856763042464 0.23678754261547252 -1.7617404274286657 1.4301090730979336 -2.5631876952391988 0.5241935254012103 0.6003045650297755
0.8732623072589482 -3.1711081053014833 3.720569622524506 -0.8262953292341632 -0.617320348050499 -0.8409119586853256 1.326048780177898 1.9823566825812673
-1.692771545658532 4.493768337460073 -2.3191201710050393 1.8569240786307386 2.8623767554620563 -0.46478018350247974 0.9492103941127987 1.7256921257626678
1.1325412603848777 0.05720710661855804 -1.5668806231024346 0.7470664840407412 1.2706261164988368 -1.7013923062408114 -2.267309954767863 2.200699419761987
2.41384469729728 1.9622984630192704 0.7297883132455458 -1.2330938773614368 2.627203364900406 0.5357266424933794 -1.961784407904273 1.2389446454564632
0.583755030245463 -3.9841413210597216 3.0195775515953605 5.116036093470408 1.6582004635994274 0.7274634144488618 -0.2564815766683056 4.134555256703793
1.8161063085570188 2.529193928212199 -0.32601638980493586 2.956583108883677 -0.4659691955793769 -0.4129900764810019 0.924434778287287 -4.71375111059215
1.6510578581619866 1.0550956976430832 -0.5284864537636862 2.3498976743453066 0.29157149194721466 -0.054713424295186996 -0.08351528644561768 4.6951745321621425
2.401144541423871 1.8052985647131323 -1.1525396519470221 2.8045234460693993 -2.2934159803177434 1.7197530426891214 -0.6004235449988148 3.2238528185589224
3.1586914334718283 -0.3827039731669867 0.5444257203993077 -3.685403750865614 1.7639156635989524 -5.560570983652781 3.134748126522204 4.850652161891833
2.1350173513370234 5.6286568087040365 1.5635784325693154 2.658259662246333 0.34076587221885146 2.386364614761386 3.292967292190986 0.1476822637545272
1.1371091424199675 4.843688673004438 2.297824754983739 -0.008552356575626033 1.0253278864093995 2.7291920797796805 3.1394603437005695 -0.6231203347431398
4.713589912436454 1.4716904875745704 3.1925434299922824 2.4927893768081373 0.44056876122083183 0.6323219603561632 1.6314189888600303 -1.6016218302521363
0.15774843175389935 2.270791984785672 -0.7520069812974491 -1.9562173559693459 -0.8853824198329975 1.1500534178328958 1.417426652442627 1.558175785976021
2.522931074282071 2.8669775026721407 2.137498171991276 0.6837762344090388 -6.295249103732367 1.542656598599293 2.1230203261733354 1.3270380623396207
2.6346459887497957 -7.747727245754526 4.28658313714616 1.4751276841156982 -0.2993328780529925 2.394699028780525 0.08833850920200348 -0.06743521988391876
1.7171791536998908 -2.495838828952152 2.894875666791732 2.3184887076150806 1.4574476875945763 0.7615109615680002 -1.3108469008465018 0.8529203849655204
3.375617681089328 4.929302900545862 1.9646994987107969 3.643426874941756 3.3224781658973974 4.850152452902059 1.7501587025956873 1.876988932064385
1.3616647997623987 0.5673676288754435 -0.306583379535819 1.0859083312340037 4.388054214969811 4.517130545246795 3.142172514385308 -2.7471286074178978
3.4865724719217113 0.38970903355797876 1.9003992455529621 2.9221427932833035 2.998834543431393 2.025214615681319 2.1759730098144177 0.9692621827724469
-6.797957868774032 1.90353113893645 -0.41409807619820754 1.08615051157292 3.1719923967075916 0.9220736438133463 -0.9782675379824654 0.4548796326418819
3.609224909866673 3.4368093210673414 -0.8391058202113933 2.275045178344252 -1.5770765354895369 1.351635954945 2.977263173321419 2.858123840367851
0.9353774041233639 1.1733545253385718 2.613508611165724 0.8869798477538652 1.6321512397391356 1.7562910649880765 -0.04937893092162808 2.260140310587758
00000000: 2277 0072 0c4c e6bf 3c52 3b80 b8f7 0340
00000010: 6906 e1b0 3bb9 0040 0000 0080 350d 763f
00000020: 0000 0080 f0e9 96bf 65ae f6c6 db6f 0e40
00000030: 541d b487 d44b f63f 58b6 b6db e29d 0640
00000040: a074 198e b347 c33f f050 b9aa 9666 e9bf
00000050: 60db d037 83a9 01c0 6069 6c8d 263e 12c0
00000060: 2eb0 8620 d378 f43f 7ffa 3483 ec66 c7bf
00000070: 3ce6 bfdd 34bd 1240 f6b1 efdd f3d8 1940
00000080: 87c7 bad3 313a e03f fcc9 0653 e6f0 f53f
00000090: bbac 1ef7 0e43 ed3f a6f5 6a2f b1bf f2bf
000000a0: 6d03 b852 046c e93f e970 70d1 e54b ff3f
000000b0: 0d3e 8307 0245 fb3f c95e 604d 0d76 16c0
000000c0: c70a 210c 2303 e23f f2c9 99a3 8fce debf
000000d0: 5209 38bf d9f5 07c0 d0cf 9136 fe20 1340
000000e0: 52b5 5886 26ba 1040 3780 f69e 3fee a83f
000000f0: 6208 4712 b464 f43f 715f 4ee5 3a9a db3f
00000100: d14f ca62 0f02 d43f 57fb 2d3c 8e21 0140
00000110: 6ea8 1987 3e50 0a40 f194 a5dd 97ec 0ac0
00000120: 4729 9bfa e129 dbbf 031e 2da1 1006 0440
00000130: 8069 8a46 ea1d f1bf 6440 0cda 2a2f 7e3f
00000140: 80af c26c f4af 1040 2074 2ac0 505f f53f
00000150: 0b7d 47c4 5c3e f73f 0ed1 29bf 7a28 e6bf
00000160: a140 4a7c da3a 03c0 e595 8e71 1cd5 fbbf
00000170: 5f71 2230 b011 0540 5023 be8c b3c5 0640
00000180: 2818 7a54 4c81 efbf a4d3 f866 14da e03f
00000190: 831b ccfc 2d0d c03f 5ec5 65ee 9017 e5bf
000001a0: e14e 3bd0 9893 1040 c431 79b9 755d f33f
000001b0: ec78 5640 0d8d 0840 095b 94ff 108c 0c40
000001c0: 14c5 a393 ae0b e13f 09dd a43a 0d2a f33f
000001d0: 0e44 c959 2e71 d63f 582e cac5 f92c 00c0
000001e0: c48e 6d86 4a8f f03f 34c1 9457 844d ff3f
000001f0: cd04 3936 8c7d 1140 d77a 1678 c100 0b40
00000200: 9d65 aafe f3f3 0440 e643 2246 0c28 b83f
00000210: 072a cb38 859e dfbf ed66 2dd8 517e 1140
00000220: 0000 00a0 7ef3 b2bf 0000 0040 762a 9dbf
00000230: ecc2 7809 4c2f 0cc0 e4e9 1821 e00d b03f
00000240: 26e3 a4b2 1341 1540 194a cb89 fa2a 0740
00000250: cc1b d1df 0d4f ce3f 0d8e fdba 1630 fcbf
00000260: 2bb2 2a0d bae1 f63f ec7e e48c 6881 04c0
00000270: cbf0 0b80 31c6 e03f 1128 4eeb b135 e33f
00000280: c536 50cb c3f1 eb3f 9ccd 22ed 6d5e 09c0
00000290: dcde 9901 bac3 0d40 bdbe fce6 0271 eabf
000002a0: 0808 419a 16c1 e3bf 05cd 2b32 c0e8 eabf
000002b0: 7a3c fcec 7e37 f53f f818 0ba4 bbb7 ff3f
000002c0: 873e c39d 9715 fbbf e6c3 3468 9ef9 1140
000002d0: 40af 4fe0 8e8d 02c0 b8fb cd05 f6b5 fd3f
000002e0: 2b52 ccc8 25e6 0640 ba35 fe61 f5be ddbf
000002f0: 949b f779 ee5f ee3f 96d8 b158 6f9c fb3f
00000300: 2794 ab95 e31e f23f 470d 0df8 3f4a ad3f
00000310: 7f60 8f6a f111 f9bf e990 9cf8 f7e7 e73f
00000320: 56e5 fc0c 7c54 f43f 5b86 8f23 e738 fbbf
00000330: 56fc cc66 7323 02c0 9ca1 214c 089b 0140
00000340: 631e 04cf 8d4f 0340 938a ba12 9365 ff3f
00000350: 5e90 4c05 6d5a e73f afa4 42a5 c0ba f3bf
00000360: d781 a132 8304 0540 bd5b 2333 ac24 e13f
00000370: 7506 1c0c 7863 ffbf 1fa3 dc9e b7d2 f33f
00000380: c0f3 7807 1fae e23f fbbf 247c 85df 0fc0
00000390: deb3 7e46 1828 0840 aa71 6a2a d276 1440
000003a0: fdf1 9535 fd87 fa3f f504 c35a 6147 e73f
000003b0: ea47 f4b3 316a d0bf d230 6cda c889 1040
000003c0: a5fc 147d c50e fd3f 2a4e b706 ca3b 0440
000003d0: 1e05 0bd9 73dd d4bf bf7d 840b 15a7 0740
000003e0: 0e3d fd75 70d2 ddbf 83bd 03ee 6d6e dabf
000003f0: d2ec 803e f894 ed3f 69e8 3592 e1da 12c0
00000400: acc0 09a5 bb6a fa3f 0370 b806 ace1 f03f
00000410: d868 696c 5ce9 e0bf 8f13 e226 97cc 0240
00000420: 5efd 9679 1ba9 d23f 0000 00e0 6503 acbf
00000430: 0000 0000 4261 b5bf 1198 22d5 dbc7 1240
00000440: 5713 f344 8b35 0340 9a56 6fbf 80e2 fc3f
00000450: 7a4a 076b cd70 f2bf c7dd 0dfd a96f 0640
00000460: 39b5 3c7a ea58 02c0 84bd 38c4 1b84 fb3f
00000470: dd95 3070 ab36 e3bf bb9f b658 73ca 0940
00000480: bc55 a703 0045 0940 464b 33ce 387e d8bf
00000490: a8eb 067d ef6b e13f 3830 34f6 b47b 0dc0
000004a0: 47f4 80a1 ff38 fc3f 4080 e751 063e 16c0
000004b0: 8fe1 64d3 f613 0940 7363 3e5c 1167 1340
000004c0: 9914 23fa 8314 0140 902a 479c be83 1640
000004d0: c1db 89d1 6a04 f93f f7fd 4ca4 1d44 0540
000004e0: e676 31a9 1bcf d53f b6da c554 4617 0340
000004f0: 4e10 563c ff57 0a40 4031 839e 40e7 c23f
00000500: 66d2 2a5b 9931 f23f 223d 6aec ef5f 1340
00000510: 46c1 f4f1 f161 0240 824c 5ede e583 81bf
00000520: fee1 bc36 be67 f03f 633f 39a8 62d5 0540
00000530: 4f43 7a62 9d1d 0940 2e38 660e 9af0 e3bf
00000540: 28ae 6250 b7da 1240 2379 1f53 0b8c f73f
00000550: 1c03 b735 548a 0940 49a8 898e 3bf1 0340
00000560: 0d4b 4551 4732 dc3f ecb6 8843 fb3b e43f
00000570: b0a2 33cc 4a1a fa3f a5e1 5736 3ea0 f9bf
00000580: aa6b b0c1 1931 c43f 1b63 f5fc 942a 0240
00000590: c728 e1f1 7010 e8bf 4b18 fc91 aa4c ffbf
000005a0: a75a 3483 0d55 ecbf cbec a369 9e66 f23f
000005b0: 7984 cb91 c7ad f63f 4afa a2bb 49ee f83f
000005c0: 42d4 b07c f62e 0440 bcc1 a2e6 91ef 0640
000005d0: d1b2 3fa4 9819 0140 0834 92b2 7ee1 e53f
000005e0: b8d0 f2c7 552e 19c0 bd14 7faf b8ae f83f
000005f0: 0743 ad14 f2fb 0040 edbb 6443 8c3b f53f
00000600: 60be b146 c113 0540 1960 0b36 acfd 1ec0
00000610: e882 c60c 7625 1140 e137 8b7c 1f9a f73f
00000620: edba 7616 4528 d3bf a700 e3f6 5728 0340
00000630: 0000 0040 5a9d b63f 0000 0040 6f43 b1bf
00000640: 4c39 28d9 9079 fb3f cf7d 1359 7af7 03c0
00000650: 7cda d692 b428 0740 0ed1 bace 438c 0240
00000660: ad97 9daa b451 f73f c45c 6f3c 4c5e e83f
00000670: cb2d 9399 3af9 f4bf b398 f0b0 1f4b eb3f
00000680: ca9f c0d7 4301 0b40 8eb0 f72d 9bb7 1340
00000690: 31e3 d6bd 686f ff3f 48f0 49fd bc25 0d40
000006a0: 88a0 c16e 6f94 0a40 6950 575d 8e66 1340
000006b0: 1055 6769 a600 fc3f 5eba e28b 2508 fe3f
000006c0: 9480 7107 61c9 f53f f287 5a28 e027 e23f
000006d0: b79f 26e5 0f9f d3bf e8a9 116a e15f f13f
000006e0: 2e7b 8915 5e8d 1140 fa63 6eab 8a11 1240
000006f0: 6066 dd57 2b23 0940 8d20 3690 1efa 05c0
00000700: 104d b01b 80e4 0b40 1596 8528 fef0 d83f
00000710: 84e3 0f0a 0968 fe3f a926 9b66 8c60 0740
00000720: 3139 11f7 9cfd 0740 1bdc 6db8 a333 0040
00000730: 8a0d 9189 6468 0140 433b 0820 3204 ef3f
00000740: 9de1 17de 1b31 1bc0 1c65 4a11 dd74 fe3f
00000750: 7be6 a637 9580 dabf 6cd4 db5b df60 f13f
00000760: 7a28 b88c 3d60 0940 ecd1 1596 a081 ed3f
00000770: a7f0 4bb9 f74d efbf 5e0e 7476 bf1c dd3f
00000780: 8a49 3e4f b1df 0c40 db93 a4e2 957e 0b40
00000790: 3b1e f672 f4d9 eabf d449 efe2 4a33 0240
000007a0: f776 f39a b43b f9bf 5362 e905 4da0 f53f
000007b0: 6201 c85a 6fd1 0740 fc61 3208 70dd 0640
000007c0: 3712 0498 9cee ed3f 9515 0f65 0fc6 f23f
000007d0: 592b e633 77e8 0440 8d0b ca8f 2362 ec3f
000007e0: 18e3 4c9e 4a1d fa3f c117 e6a8 c419 fc3f
000007f0: b6f4 d6fa 3148 a9bf 00c4 7271 c414 0240

rnn.weight_hh_l0 f8 [512, 128]
0.5390133653384664 -4.924959483475582 3.518183119300128 -1.2616699901013648 -1.507804667146089 -0.7106939684880879 0.9531480114344222 1.0176265868915755
-0.7361798041119991 4.130827002444216 1.4808217911940418 2.2326247619113277 7.054559481282479 -0.5997964534966547 0.6616288907078626 0.26087726327709887
0.297669215541677 -1.5087201513483492 0.8357503857215298 2.9027886166269252 -0.47150576292807267 1.1707797893321101 2.9241743790299743 1.7705869908133798
-1.941022023802409 5.038355376672559 0.9566009941741469 -4.06925597425201 -1.8070148849408147 -2.633502869118627 -0.4834345708058845 5.583350654796172
-0.5396779671319186 -1.092042655134169 -1.7922333994759945 1.6325622973509553 1.7065975602650678 2.8833503602075665 1.8186607261246175 -4.175807975394359
1.103991438885146 2.8403491369196603 1.7265984425343854 4.377150814685228 2.906017147766701 1.857642886462679 1.6236496586579277 0.37526493173836534
6.1738707103416655 -0.4383630732606213 0.6042096951274288 -0.22140366720504578 -1.4784915860175953 0.5947770222882091 -1.9015795590690456 -0.025653765506748694
-2.7760213449617868 -1.2590375522713202 8.644869825583841 0.19289261960931692 -0.37376303059144494 -0.187104861765857 -5.989189332227531 0.4445891455511047
-0.6294622719925297 1.0687629583482978 1.7838667652691114 3.558209538625139 -0.7293791988602444 -1.198092022677076 -2.499164327495577 0.4523455176340076
0.15990404917352488 0.14916534150733646 -1.7170618764060535 -2.211899191077604 -1.1546659796222367 0.5733959107864767 -2.6544480097459506 0.44177102329232226
-0.48736397312470536 -2.5619760864752816 5.610519372120227 -0.5448847561392123 3.802788264040778 1.7140340435696546 -0.47815663875611647 1.6191457539430276
1.1535382596542774 -1.326829773860628 -0.38434300648575415 1.925851705533505 -5.967453758133687 3.467087884687156 -0.7504219158818775 -1.2305652117632762
-5.173757283490425 -1.759182636286952 -3.4751313374577832 -2.2430540671558803 -5.704361898323991 0.6225177201721505 3.5333503843335405 0.07997351460340348
-0.002320401335456205 -3.356789726670719 -1.9837588169133415 -1.9295660284766611 1.7692277723087686 -1.0299353619195866 -1.1834315950206773 1.6501958590036974
1.1440899902154844 4.4032881368824865 -1.7505651090100194 2.088488941449741 3.1393778260731553 0.6671044748712449 -3.681308638269195 -1.8163453322125658
-2.5840764991100746 0.020355727423009916 -2.012303478579506 3.7713310810638827 1.7466022675719242 1.0075666728451882 0.4103731999438432 4.4329081614130805
0.4010549352445304 1.5326018112151676 2.4040304277072133 -2.0566440264691788 3.8764102376315592 0.6991283153607878 -1.3959161027557392 0.4624012868111961
-1.9209972601007108 -0.9870078156565012 -3.330936512257662 -1.4774795539081873 -3.4352135308995724 0.39901005269245254 0.6416472109371198 0.09714773083540425
1.949412908367031 -1.157000480934419 -1.551158400243351 -3.2418908739734285 1.7291549145704672 -1.39937587965838 -1.611319988846846 3.5305977048377097
-0.7175922951360376 -0.3204412808787954 -1.253942013697928 -1.5347269595701272 1.0446636835437737 0.6376741545614889 1.1759784024379314 -0.10628320178077806
1.0042700275559886 -1.3923606955048928 -1.474343142591222 2.2740980393743433 2.1279126048468586 -1.3214367497867394 -1.0527959471791095 1.1540309878130812
-1.1137807976956047 0.9811747491920927 -1.260597633985791 3.167150648195342 1.3706318520331868 0.5969230763074368 -2.1761372383527147 -1.7553907994934512
0.1806879640401652 0.9661408308928012 0.4272421303880783 -3.943785272456112 -0.42824366073534675 -0.3552053332719423 0.2405001277556759 0.9619695520359712
-2.98261495737227 -2.7481526468923216 2.019877931186234 1.2545113691314118 -0.6918231317331308 10.803449573409177 1.401949793569021 0.6416739601777346
1.949751342065428 -4.3122871392360445 -0.9826912217301914 1.3587831999876419 -1.2065077193622418 -1.118312597295983 -0.8881663914948318 -0.6017773852995211
1.2495896714422434 -1.6682049703998625 -6.0723676304110406 -0.2403433313773163 3.7629240097764542 -1.7707633355892394 -0.4767162536440053 2.3703406198356802
0.49078359799841764 -0.5951949833644523 -3.3235996789502122 1.5276212416176869 3.2766492012273365 -1.7321685261291173 -1.6978790727628879 -0.44176929306988133
0.3241537536417651 1.5425256310428976 -4.531388777106823 0.9005419456619809 0.3037684633422428 -1.657991268133255 4.592606088155181 1.4237030345400195
0.2878866500382815 -0.4726362989641856 1.0808056286281855 -1.1387817113376344 -0.6308164743786292 -2.7461419534221765 2.4178228340015964 -0.2676853606410787
4.125654746907327 -2.213934861683283 -3.703777784382001 0.22673878742796605 1.5782151334972236 -1.988980782954427 0.554639538886672 -5.589174722639117
2.856787339404363 -3.068550960685465 2.350425991007026 0.43775291565221147 5.414673538587547 1.5650743339585838 0.6749129834837608 2.3556155733083592
-3.104120743442799 -1.1915919729824402 2.2875669678429245 -0.5563325497554672 -1.89587641473534 -3.26642813032807 0.5160004643077697 -0.21252499180931456
00000000: 258a 07f5 983f e13f 579c 2e94 28b3 13c0
00000010: d5dd f530 3d25 0c40 b447 1ddf cc2f f4bf
00000020: bd60 62c9 f71f f8bf 87dd 0347 01be e6bf
00000030: 0277 2b42 3080 ee3f a9d4 e3d0 3248 f03f
00000040: 0860 d4f2 c88e e7bf fbb9 8383 f785 1040
00000050: ed1e c630 72b1 f73f 0731 055f 6adc 0140
00000060: 0d2e cf70 de37 1c40 1ecc 0055 8831 e3bf
00000070: 99ba f559 102c e53f 45e3 828c 36b2 d03f
00000080: 32c2 712e 030d d33f a0b7 cdbd b723 f8bf
00000090: 2c63 c997 77be ea3f e9e8 fc3c e938 0740
000000a0: d6b3 e981 262d debf a7fc 9f96 83bb f23f
000000b0: f8e0 6d89 b564 0740 a943 4406 5354 fc3f
000000c0: d7c0 101c 6d0e ffbf d4bc c1a1 4627 1440
000000d0: cc91 29b0 799c ee3f 29dc c109 eb46 10c0
000000e0: c94b a370 88e9 fcbf 1a4b c6f3 6911 05c0
000000f0: 147e d78d 97f0 debf 8acc c1df 5955 1640
00000100: df81 66ba 0a45 e1bf 5336 1ab8 0179 f1bf
00000110: d6c5 d8ed fcac fcbf 33e1 bca4 f91e fa3f
00000120: 8559 4c3e 394e fb3f b302 60fe 1911 0740
00000130: f798 53fd 3b19 fd3f 6bc7 8201 07b4 10c0
00000140: 0136 51ed f2a9 f13f 8a55 e2f7 08b9 0640
00000150: d127 40b0 25a0 fb3f 66ee bad2 3382 1140
00000160: 792f 1aeb 853f 0740 6611 50bf e7b8 fd3f
00000170: cc8e 8110 78fa f93f 93b9 4934 5704 d83f
00000180: 5699 da29 0bb2 1840 3e6b dbfd 230e dcbf
00000190: 33f3 0f92 af55 e33f 0c19 ee92 f456 ccbf
000001a0: 38b5 15cb e6a7 f7bf df7b 64d2 6908 e33f
000001b0: 3219 0fb0 de6c febf e0a2 7b0f fb44 9abf
000001c0: d7de ccad 4a35 06c0 330f 778f 0425 f4bf
000001d0: a11e b660 2c4a 2140 f44e 6e92 b4b0 c83f
000001e0: cb05 36c6 bbeb d7bf 8e7d 1a57 0df3 c7bf
000001f0: 97e0 5d0c eef4 17c0 e91b 1308 2674 dc3f
00000200: bdc2 0810 8e24 e4bf af83 1430 a719 f13f
00000210: c608 94e0 b78a fc3f 88ae 0590 3677 0c40
00000220: 0799 af0b 1357 e7bf cbf1 6f8a 622b f3bf
00000230: fe62 efdd 49fe 03c0 7bbc 2e9d 3af3 dc3f
00000240: c160 d962 bc77 c43f 4a3f bc93 d917 c33f
00000250: 53f5 c5df 1579 fbbf 3bd1 fd33 f8b1 01c0
00000260: 3e80 c408 8379 f2bf 1d9e 8f61 4259 e23f
00000270: 4554 f63c 4f3c 05c0 451a 57f8 f945 dc3f
00000280: 4e6e 74a9 f830 dfbf fc5c 8451 ed7e 04c0
00000290: c552 83fd 2b71 1640 889e f627 b26f e1bf
000002a0: 9057 dd40 1c6c 0e40 01cc 15f6 ae6c fb3f
000002b0: dca8 744d 1e9a debf f447 ca60 05e8 f93f
000002c0: e665 be88 e474 f23f 9472 61db b13a f5bf
000002d0: 4a5e d368 1399 d8bf 4765 c3e0 49d0 fe3f
000002e0: 514e ae32 acde 17c0 96b6 a892 98bc 0b40
000002f0: 2a42 5dd2 7403 e8bf bae5 c125 65b0 f3bf
00000300: f921 e86d edb1 14c0 44b2 28b1 9c25 fcbf
00000310: c37c 9da8 11cd 0bc0 1dc1 ac54 c6f1 01c0
00000320: 6b66 d73e 44d1 16c0 573c 2a48 aaeb e33f
00000330: 362c d034 4d44 0c40 4d8e c4ed 2479 b43f
00000340: 221d 2efb 3b02 63bf d0cb 7c92 b4da 0ac0
00000350: 15b6 9ce2 79bd ffbf 537a bca0 80df febf
00000360: 87db d3c7 c14e fc3f 4b04 8780 9d7a f0bf
00000370: baab daf7 55ef f2bf eba5 e6c5 3367 fa3f
00000380: e280 3a4e 314e f23f a719 bb90 f79c 1140
00000390: a377 4b8f 5002 fcbf a4ac acb0 39b5 0040
000003a0: 9a2c 261f 721d 0940 c2ca d27b eb58 e53f
000003b0: b3c9 7ef1 5173 0dc0 0b86 811f c00f fdbf
000003c0: ce51 b04c 30ac 04c0 b6c0 45be 21d8 943f
000003d0: 1402 f190 3219 00c0 2c76 3ca1 af2b 0e40
000003e0: 2574 2538 15f2 fb3f c88d 463b fe1e f03f
000003f0: a979 3af4 8d43 da3f 3fc3 ed46 4cbb 1140
00000400: f693 b151 e2aa d93f 285a 0f7a 8985 f83f
00000410: 22bb 0c4e 743b 0340 4f97 89c8 0174 00c0
00000420: 9d0e e45e e302 0f40 3dd4 4558 425f e63f
00000430: 16bb 941f ac55 f6bf b2df 1e91 fb97 dd3f
00000440: 1969 7d9f 67bc febf a483 246a 9195 efbf
00000450: 7997 c90a c2a5 0ac0 97b5 c899 c1a3 f7bf
00000460: 3cec 4f3b 517b 0bc0 6db7 c575 6189 d93f
00000470: e66c 51bb 5f88 e43f 7d94 d176 acde b83f
00000480: e462 fd96 cb30 ff3f 161d b1ef 1283 f2bf
00000490: ba5f 7f78 8bd1 f8bf 7855 877b 64ef 09c0
000004a0: eac3 fc57 9eaa fb3f 841a 5ff6 d763 f6bf
000004b0: 07d0 f777 f7c7 f9bf 8fe2 6c02 aa3e 0c40
000004c0: 4c11 ef1d 84f6 e6bf ee6a 6a25 1c82 d4bf
000004d0: 969b 3e80 2510 f4bf 974a 3adb 3d8e f8bf
000004e0: fd3a 4244 f1b6 f03f cb12 eba0 d367 e43f
000004f0: 335f b4ba ced0 f23f 753a c33b 6035 bbbf
00000500: bc4b cb72 7d11 f03f 88de 3602 1c47 f6bf
00000510: b92d c8d5 e896 f7bf 8e15 1850 5a31 0240
00000520: e781 340b f705 0140 b710 81dc 9a24 f5bf
00000530: 0eee 2790 40d8 f0bf e6a4 7332 e976 f23f
00000540: 233f 50d0 0bd2 f1bf 011d 6e96 c865 ef3f
00000550: a924 b66c 682b f4bf 9808 3c14 5356 0940
00000560: 496a 35aa 1bee f53f 1dfb 5e6c fe19 e33f
00000570: 4da9 f2a3 ba68 01c0 f060 b8a9 1416 fcbf
00000580: adaa 2a80 c820 c73f a279 002d a0ea ee3f
00000590: d95e 5f60 ef57 db3f e229 fd4a df8c 0fc0
000005a0: f3f7 6419 5868 dbbf 3123 7126 afbb d6bf
000005b0: 557d b24b b5c8 ce3f a6c0 b75e 74c8 ee3f
000005c0: 6fcb 133b 65dc 07c0 ff8b 7674 37fc 05c0
000005d0: 2adb c2c2 b528 0040 d512 6e83 7a12 f43f
000005e0: 831f ad43 6a23 e6bf 1d8e 13be 5d9b 2540
000005f0: d334 20e8 626e f63f c80f 35d4 9788 e43f
00000600: ca0c 9876 2e32 ff3f bceb 2733 c83f 11c0
00000610: f7b7 6cdc 3472 efbf 82d1 e473 93bd f53f
00000620: 9b84 d009 db4d f3bf 0175 01c0 9be4 f1bf
00000630: 650d 9cec db6b ecbf c5ae aaa5 c241 e3bf
00000640: 9c38 44bd 51fe f33f de45 eeb1 f7b0 fabf
00000650: 249e 77bd 1a4a 18c0 cbe3 09fe 91c3 cebf
00000660: 9e95 3ae7 771a 0e40 8bfc 74ef 0b55 fcbf
00000670: 64d9 b7e3 8482 debf d098 9424 75f6 0240
00000680: 2440 b49b ff68 df3f 1065 8959 d60b e3bf
00000690: b6b2 b06d bb96 0ac0 1dc4 96f8 2271 f83f
000006a0: 31e3 3ddb 9336 0a40 4a29 2e58 f6b6 fbbf
000006b0: 4145 213f 832a fbbf f42d 87b6 f245 dcbf
000006c0: e316 b162 efbe d43f d922 295b 2fae f83f
000006d0: 7c8a 2c61 2420 12c0 dd6b a957 3dd1 ec3f
000006e0: 631c e747 f170 d33f 6ff9 1ada 2187 fabf
000006f0: e225 6021 d45e 1240 a40b 49d5 7cc7 f63f
00000700: 84a4 b720 bc6c d23f b208 bd51 ac3f debf
00000710: 07a7 c4d7 fa4a f13f 1aa6 f72b 7338 f2bf
00000720: d97e e707 a62f e4bf 74f9 c045 19f8 05c0
00000730: 9d78 7c7f b357 0340 cb91 64c7 c121 d1bf
00000740: 6d37 52a3 ab80 1040 5c3b 137b 23b6 01c0
00000750: 8693 3c3f 56a1 0dc0 9070 5ece c605 cd3f
00000760: fec3 0683 5e40 f93f 7b96 7283 ddd2 ffbf
00000770: dfc6 126b 9bbf e13f a375 559e 505b 16c0
00000780: e0f2 1252 b3da 0640 1307 3272 648c 08c0
00000790: 3a59 5824 accd 0240 ff1c 1dce 2404 dc3f
000007a0: 1c00 1b2e a0a8 1540 dd93 8262 8b0a f93f
000007b0: 5eac f61c e398 e53f 2876 4afa 4cd8 0240
000007c0: 5060 9f41 3dd5 08c0 d02b a2be c210 f3bf
000007d0: a95c 12e9 ef4c 0240 00cd 5ceb 79cd e1bf
000007e0: 7dbc e881 8255 febf a9f2 5312 a521 0ac0
000007f0: a586 dd67 1383 e03f 96ab b3d8 0434 cbbf

rnn.bias_ih_l0 f8 [512]
-1.1192414488456621 -1.698202063591117 -2.031399787600988 -1.8876554295543013 -2.0766749488458163 -2.0671029026921284 -1.438909711514463 -1.9756455059431848
-2.4625508117232817 -1.6349679559548467 -1.4682203595833343 -1.6015733906863325 -2.4768148859176917 -1.7536588087290934 -0.7953529946521296 -2.3006233585915576
-1.970118260720451 -1.8958642443992435 -1.5878253122429948 -1.8016505589368168 -2.425067570650517 -2.6866920280739683 -0.41732267111132926 -1.7122702317871863
-1.35697462759543 -1.499766408601465 -1.9901298998502643 -0.4852978304347297 -0.9695014426766861 -2.952128073413537 -2.0272727102376518 -0.27495077877666835
-1.5926349492272143 -1.8893160398220998 -1.2928230094362545 -1.2112002095249705 -2.2719593018089608 -1.3719818471976297 -1.0307666897997425 -1.021831638997797
-2.0893133536010566 -1.206031726308135 -1.3819832954841307 -2.817221565886554 -1.8579858218085115 -1.2895987116587488 -0.8820996363199204 -1.2778983164312727
-2.4258723358934433 -1.529620699406435 -2.313209254318229 -1.9052659290858076 -1.928813660831121 -0.13051459677555935 -1.3548651456389686 -2.0570988925549134
-2.155728105782962 -1.0999033153975135 -1.9391732670262825 -1.7730097768457964 -2.115221188358609 -1.1020541522425666 -1.2740299061890252 -1.5798298412318907
-2.2733234222942724 -1.147377151767239 -1.0007822529919685 -1.4193721116027842 -0.743476385269345 -2.4668684952505164 -1.288920052180695 -1.4863063509286114
-1.0319726188633187 -1.4479328828955766 -2.2334145025423746 -1.4881126010877102 -0.5992040131576826 -1.6720435575094001 -2.2322332946606718 -1.4995166148295376
0.5471752953766222 -0.7490632008265709 -1.5459438116382422 -2.448919094890827 -1.5334517837423274 -0.7817366427328944 -2.4898598847661555 -1.5027635117172127
-1.1286348010681326 -2.7617484740683453 -1.1457198347159192 -2.1311260201857327 -2.5698623557296814 -2.1757493855546395 -2.089878631167706 -1.959314842236701
-2.234824299670803 -1.3389893515444051 -0.7580487962511845 -3.042873082511815 -2.193297973301364 -2.326450002573591 -1.3053032611887296 0.33036471631822845
-0.39382938007076773 -1.2159225049514242 -1.7702158820600398 -1.9185273429643395 -1.368404373934008 -2.6907714328374004 -0.34202247626144616 -1.1655914622092483
-2.8212340123617743 -0.12166098047995924 -1.9356668277462732 -2.216500475644867 -2.0251749718462353 -2.6386411289194736 -1.3725227045996857 -2.611841844131135
-2.0284312398390028 -1.648421657257677 -1.5821947589704424 -1.313409452570035 -1.594045618232513 -1.108336680412409 -0.8272432930282474 -1.6504329517076493
-0.4110394338596857 -1.199695700843528 -0.2606479818278305 -1.1139285594058872 -2.0253257408203886 -0.7749993792926032 -0.7126951469718174 -0.5648321254198414
-1.2644027651417298 -0.7806544071103855 -1.4996675930613794 -2.212244061757981 -0.9306489724179262 -1.8011253304298322 -1.094257169657473 -1.8298788759200453
-0.4088926556692568 -0.6549774384454193 -1.4122250372807719 -0.8310818762888622 -1.8369679377544184 -0.8256700704586591 -1.2791951546572224 -1.5617968782579115
-0.07611526924665016 -1.227814907247401 -1.0112955060330429 -0.5694082362231839 -1.519317370275658 -1.3023529473080686 -1.0895658322697686 -1.328403878547317
-0.46695968747273836 -1.287262282996549 -2.3430625166878 -0.5686137582555802 -1.5836627754267893 -0.7180404189709355 0.08018109540251815 -1.756752828546145
-1.7415412939480088 -0.9373952178462053 -1.7769326854674186 -1.121941401649601 -2.3756781997501752 -0.8284828011623842 0.34517138199698005 -2.3896643412188228
-1.1813311533504274 -1.0157771031789375 -1.1598522293417854 -2.1351977923769936 -1.0448429886630326 -1.767888493566084 -1.302940862194279 -0.6449694533013285
-2.409116724095169 -1.2581678064898705 -0.4302489450256817 -2.0579627473041557 -1.2541436436275633 -0.6141437062941472 -0.9098067336666364 0.440842991575782
-0.7822291370832535 -0.1654235285789823 -1.2457194491634216 -0.9003802470323379 -1.139818138458526 -1.9173491033269285 0.5857434391471837 -0.6711230274967416
-0.5912506705678019 -0.6189082971070385 -1.484513534569029 -0.9877093818895487 -1.0643607209248642 -1.2863419731654655 -0.9574996809806109 -1.1769627722303053
-2.303742848315351 -2.0913863628291494 -0.8556452540238513 -1.8421631889424 -0.35357330857221414 -2.1138364589482594 -1.5386439778872945 -0.7834055184724233
-1.3641563000586108 -0.7313949835202186 -0.7901417082932697 -0.7285281208166667 -0.8627686730744683 -1.6778813888174882 -1.2549402877780496 -1.7076047499002829
-1.100694636740823 -0.9820321566432759 -0.17500439123598505 -1.020344692196084 -2.2384429212249985 -2.79069128474706 -2.2989396843889973 -0.20708749373169957
-0.24245631851249985 -1.4210967623053863 -1.2289407278320719 -0.9636277392062746 -1.761131608872063 -1.6341960017847739 -0.9534651242439723 -1.067705771795096
-3.202641063120398 0.4633473281130191 -1.2748917577279237 -2.9356383511404633 -1.8856738320640518 -1.212998622943331 -1.4951030262212113 -0.8056460605646398
-1.2858951684384416 -1.344799959043373 -1.5754985513540896 -1.544030100270325 -0.5690265738712317 -0.29985447020694406 -0.563465761999915 -1.3684441841338972
00000000: 9aea b1b8 69e8 f1bf 1afa 51ed d52b fbbf
00000010: ddc7 2688 4e40 00c0 45d7 002e d633 febf
00000020: d7b8 6dc1 079d 00c0 223c 243f 6d89 00c0
00000030: 639f 8d30 c605 f7bf e23e 4876 3e9c ffbf
00000040: ceb7 08d7 4db3 03c0 3558 cd28 d428 fabf
00000050: 60b5 bba1 d47d f7bf 1d44 726b 0ba0 f9bf
00000060: 8319 aa52 84d0 03c0 2557 fd89 fc0e fcbf
00000070: 56cf 991f 8873 e9bf ef83 2c38 ad67 02c0
00000080: 71bf b0b9 9a85 ffbf a89b f5be 7555 febf
00000090: b183 bd83 bb67 f9bf 8e42 5789 8fd3 fcbf
000000a0: eb45 94d3 8966 03c0 4b03 d863 587e 05c0
000000b0: 8a5c 1326 6ab5 dabf 7d0b 7778 7565 fbbf
000000c0: ec62 f006 2bb6 f5bf 9952 c90f 0bff f7bf
000000d0: d560 2a73 92d7 ffbf db5c a2a1 1e0f dfbf
000000e0: f413 b7e3 2706 efbf 2951 c752 f59d 07c0
000000f0: 1c5a 34c1 da37 00c0 ddc0 b626 cb98 d1bf
00000100: 2f5c d6c8 6e7b f9bf a681 ad74 a33a febf
00000110: 5fb8 102e 67af f4bf ec16 8d78 1361 f3bf
00000120: 5ce6 98ff f82c 02c0 3ab6 c63c a3f3 f5bf
00000130: e8ef 6736 057e f0bf c637 f821 6c59 f0bf
00000140: 4080 66eb e9b6 00c0 e9e8 66ec e74b f3bf
00000150: f58f 1b84 9a1c f6bf 9d8c d875 ab89 06c0
00000160: 7d96 5157 4fba fdbf e59b 3842 32a2 f4bf
00000170: 77d7 3904 293a ecbf f0f8 4a81 4572 f4bf
00000180: bd77 57c1 2f68 03c0 bac3 f38d 5379 f8bf
00000190: 8ccf 80da 7381 02c0 a1b4 7920 f87b febf
000001a0: 2f90 95b6 6bdc febf 9d9c 66ca b3b4 c0bf
000001b0: 8427 3013 87ad f5bf 144a a143 f074 00c0
000001c0: 2e3f 8b60 ee3e 01c0 074f 0638 3499 f1bf
000001d0: 597c 328c da06 ffbf bfa7 f07f 3f5e fcbf
000001e0: ad73 1e16 f9eb 00c0 63d8 e488 03a2 f1bf
000001f0: 3253 d32e 6d62 f4bf 9d5f d5a7 fb46 f9bf
00000200: a9e0 bf30 c42f 02c0 6749 f024 a85b f2bf
00000210: 8348 7040 3403 f0bf c503 0388 bfb5 f6bf
00000220: 7390 02fd 8eca e7bf d111 b58c 25bc 03c0
00000230: 2a65 f4a1 6a9f f4bf 3035 112b e9c7 f7bf
00000240: b52a 86b8 f582 f0bf 976e adab bb2a f7bf
00000250: 22a7 366c 08de 01c0 cffe a628 4fcf f7bf
00000260: 4a9d 04e5 ad2c e3bf 8dd8 cfbe b0c0 fabf
00000270: 1ce1 2c21 9ddb 01c0 1d06 4822 05fe f7bf
00000280: a24b dac3 7582 e13f 8ffd c563 53f8 e7bf
00000290: 9009 0794 2fbc f8bf 22d9 f8e4 6297 03c0
000002a0: 98a8 d2bc 0489 f8bf 7cec 5390 fc03 e9bf
000002b0: 328b c5a8 3beb 03c0 2129 87c0 510b f8bf
000002c0: 0871 7b5d e30e f2bf 2a36 7f95 0f18 06c0
000002d0: 00bc 4752 de54 f2bf a1d1 82cc 8b0c 01c0
000002e0: dda4 a8fe 138f 04c0 82fe 394b ef67 01c0
000002f0: ddcb ab49 12b8 00c0 a195 1f85 5a59 ffbf
00000300: 3b23 fb8f ebe0 01c0 1d35 2919 806c f5bf
00000310: df78 958c ef41 e8bf b922 bad7 cd57 08c0
00000320: 13b3 cdce df8b 01c0 59a9 a6d1 919c 02c0
00000330: 10af 22ac 85e2 f4bf f5b3 150d b224 d53f
00000340: dce7 e624 8034 d9bf cac9 1328 6b74 f3bf
00000350: 31ec 84e3 cd52 fcbf c337 28ba 49b2 febf
00000360: abff 1bfc fbe4 f5bf ae61 482c b386 05c0
00000370: dd8c 823d b2e3 d5bf faf7 aa3b 43a6 f2bf
00000380: 48a7 4b23 e391 06c0 1a58 5c8c 2c25 bfbf
00000390: faf4 91c7 7df8 febf 87b4 f399 64bb 01c0
000003a0: f40e 86ef 8e33 00c0 9fb7 54e1 ef1b 05c0
000003b0: b25e 145e daf5 f5bf c0f0 3656 0de5 04c0
000003c0: 9358 6a28 3a3a 00c0 9a09 3f63 ef5f fabf
000003d0: f4e3 9a73 ab50 f9bf a1ba 50a1 b903 f5bf
000003e0: 7d40 6afa 3581 f9bf 8a41 353e bfbb f1bf
000003f0: 8a88 2ced c678 eabf 9d33 fd61 2c68 fabf
00000400: 11cc 7257 784e dabf 6365 841e f431 f3bf
00000410: 0503 6edf 74ae d0bf aba8 cbc0 a6d2 f1bf
00000420: 7890 64fb dd33 00c0 cb6c 8f7f cbcc e8bf
00000430: 3b61 880d 66ce e6bf 8611 4dd2 1a13 e2bf
00000440: 5717 d464 fe3a f4bf 578e 80f3 1efb e8bf
00000450: 551d 3172 a3fe f7bf 762a c003 adb2 01c0
00000460: 77e9 925a e0c7 edbf da17 63cb 68d1 fcbf
00000470: 597a 51ce 1382 f1bf 427c 7b12 2f47 fdbf
00000480: 9623 eb19 4c2b dabf b1b5 b73e 93f5 e4bf
00000490: a969 db47 7998 f6bf f9af de04 3998 eabf
000004a0: eb4a 077e 3864 fdbf 99fd bca3 e36b eabf
000004b0: 5b45 a756 9577 f4bf 4ecd 31b9 1efd f8bf
000004c0: 2afe 2350 4a7c b3bf a7b3 823e 21a5 f3bf
000004d0: 1d0f 5032 442e f0bf 0dda 149f 9738 e2bf
000004e0: 3f42 19bb 1f4f f8bf 0d99 480b 70d6 f4bf
000004f0: ba00 0795 dc6e f1bf 32d8 e36c 2441 f5bf
00000500: 0fbb 8fe2 aae2 ddbf f882 ed55 a098 f4bf
00000510: ac42 8d8f 97be 02c0 816d f87a 1532 e2bf
00000520: 469c 45c7 ae56 f9bf 38f6 95e6 2ffa e6bf
00000530: afe2 828e bf86 b43f d32d 9cda a81b fcbf
00000540: 583e 6267 5add fbbf 9e70 8241 24ff edbf
00000550: 916a b4f7 506e fcbf a3d0 c1d3 78f3 f1bf
00000560: 2efa 6d92 6301 03c0 244f 095d ee82 eabf
00000570: 3a4c 4cb5 4917 d63f 2a9e 8f56 081e 03c0
00000580: 3f2d d67e bbe6 f2bf d1dd e27d 9f40 f0bf
00000590: 5873 1336 c18e f2bf 3301 8694 e214 01c0
000005a0: b533 1c48 adb7 f0bf e374 ed71 4549 fcbf
000005b0: 8cf1 7b84 d8d8 f4bf 7f24 9bfa 96a3 e4bf
000005c0: 1de2 31fd de45 03c0 9710 dc90 7421 f4bf
000005d0: 0486 01df 3289 dbbf 1776 402c b576 00c0
000005e0: dadd ddec f810 f4bf a17b b2b3 10a7 e3bf
000005f0: d0eb d802 231d edbf 4a48 df85 c536 dc3f
00000600: 2a07 3866 0508 e9bf ca29 9e22 992c c5bf
00000610: 555e 6284 77ee f3bf 40fc 5e3c eacf ecbf
00000620: 4e12 c1f1 b13c f2bf 86dd dc40 76ad febf
00000630: a37a 5f06 69be e23f c91c d6ff d679 e5bf
00000640: f974 ba86 86eb e2bf 6e87 e9c5 18ce e3bf
00000650: f117 9743 91c0 f7bf 2560 a5b4 509b efbf
00000660: f34e 781b 9f07 f1bf 0b7c 2352 db94 f4bf
00000670: c0bf f75e d6a3 eebf 256b 75ea d6d4 f2bf
00000680: 3e44 ffba 106e 02c0 7336 fdc5 28bb 00c0
00000690: 5c52 e027 7261 ebbf 5d71 a61b 8079 fdbf
000006a0: 6498 43f1 f1a0 d6bf a733 e216 23e9 00c0
000006b0: 9569 d325 499e f8bf 180a 2b73 a811 e9bf
000006c0: 4225 768e 95d3 f5bf 85b0 d573 9667 e7bf
000006d0: c167 8a43 d748 e9bf 28f7 a334 1a50 e7bf
000006e0: f1c7 5b0c cd9b ebbf 5a9c b827 9ad8 fabf
000006f0: 6708 6744 3c14 f4bf 3b0e b55b 5952 fbbf
00000700: 72f3 bafa 719c f1bf 2ce7 8cb3 ce6c efbf
00000710: b6e9 813c 8b66 c6bf e311 baf4 5453 f0bf
00000720: 1afe 24c3 54e8 01c0 4bc4 c9f3 5553 06c0
00000730: 1f6b 3f7d 3a64 02c0 217f 7ece d781 cabf
00000740: a520 5c03 cf08 cfbf 94d9 68f5 cfbc f6bf
00000750: d12d acc0 bda9 f3bf 8819 2dd7 09d6 eebf
00000760: 01eb 8056 982d fcbf 86b6 eeb4 aa25 fabf
00000770: 5b24 d04a c982 eebf 1ac4 b9a5 5215 f1bf
00000780: 256e 1747 029f 09c0 2fcd 3b8d 7ba7 dd3f
00000790: 2a1a 56e6 f465 f4bf d440 b8f5 2f7c 07c0
000007a0: a735 fa52 b82b febf 7e27 7a3e 7168 f3bf
000007b0: ec54 9c26 f1eb f7bf f8d7 483f dac7 e9bf
000007c0: b770 e8cf 0693 f4bf 090e 3cf6 4c84 f5bf
000007d0: 0a61 0ff8 3d35 f9bf d935 0be8 58b4 f8bf
000007e0: aa9e aa37 7735 e2bf 6b49 c6cd d030 d3bf
000007f0: 4492 8659 e907 e2bf 961a 94ba 25e5 f5bf

rnn.bias_hh_l0 f8 [512]
-1.260800550486824 -1.7671252077267428 -1.924273184697971 -1.9006606510933644 -2.0460624428734224 -2.133041043889084 -1.5092133397356142 -1.9834241058014683
-2.376075625673323 -1.7052150659342413 -1.4017830099286006 -1.701785085522948 -2.5045819862891063 -1.7754756584376592 -0.6539559803918322 -2.1965247498742415
-1.870600933918442 -2.0594145914890136 -1.6000397679965572 -1.8215608772481215 -2.531179233112872 -2.5746504466518942 -0.4018078366766028 -1.599766617510538
-1.4149677136503456 -1.598849560269772 -2.0228781911192155 -0.3409494474849078 -0.9797318609713568 -2.9205596940393304 -2.0524111025836267 -0.3204177457037164
-1.556793279339913 -1.9388834179481895 -1.3935934121359672 -1.3255629560020863 -2.286110768819338 -1.4064823715992985 -0.966011460520347 -0.9192278868317693
-2.093463245037154 -1.2527764640822674 -1.3190518044220927 -2.849032497747957 -1.8494455211561323 -1.171053823907418 -0.8726619979849912 -1.261121102768409
-2.360193880492242 -1.6781215144403536 -2.2742243781921707 -1.8151852706462523 -1.8980271707632819 -0.2677670169625586 -1.2235981866274124 -2.0428670281919468
-2.1441282074446413 -1.0959928781712187 -1.8432267706737206 -1.8837745038422207 -2.1817543925266913 -1.0017977688235198 -1.440465498065532 -1.720484494542661
-2.205736607309584 -1.0481757184066642 -1.0258370691485978 -1.4623948336086332 -0.7943345224671314 -2.3858187884636433 -1.3050137523735652 -1.4225801176101778
-0.9971303661319967 -1.475286576044629 -2.258689366940319 -1.4686027864080924 -0.6228765179738834 -1.6792647564994112 -2.2022252328717005 -1.425049413345173
0.6170809820781574 -0.6873817663144353 -1.461412754012223 -2.542741348758849 -1.498158759709019 -0.8803438699391262 -2.5070361999545625 -1.4307672745658893
-1.24816430539712 -2.7978308324588967 -1.077606356815298 -2.182584473945267 -2.531467707147945 -2.1372810945029395 -2.0540009582123084 -2.0156411011642876
-2.264589868344418 -1.2535476169026194 -0.7116626884487922 -3.0149338420636393 -2.1538724717014635 -2.3005821641610638 -1.146150954572409 0.24122744340895233
-0.35029640691538716 -1.2680435525804699 -1.760721271929254 -1.8507457930859177 -1.3640095856389771 -2.7217696907575477 -0.3107635299767904 -1.319571553423433
-2.7973713845612154 -0.07738051106239459 -1.935294429101587 -2.131620661463387 -1.9966768735920324 -2.7179556096880093 -1.3549360598607705 -2.634829345826886
-2.108893449988568 -1.6636006357008242 -1.7005259566196824 -1.3496212971037094 -1.6318987879531324 -0.985808105051631 -0.8035540574676534 -1.7298996708880092
-0.4332238989401876 -1.3007304706319112 -0.264004609947777 -1.0825011089278198 -1.8889790579142285 -0.7081997572635405 -0.87475139933216 -0.5125843329374673
-1.2036478419917873 -0.8485174048732446 -1.4287529693263699 -2.240140041341257 -0.9326848361154548 -1.8680676217640926 -1.0411957527027387 -1.859829856017105
-0.48158718079189905 -0.5980274616137436 -1.5381920853893498 -0.7869649247636518 -1.8309926838743928 -0.7769473041188842 -1.4301525304220701 -1.613306595737246
-0.12971981990630924 -1.066663386339511 -0.9217995193329873 -0.5879856610325215 -1.6312043745021014 -1.2612658516823698 -1.1375643574720384 -1.2974930252507986
-0.40667044423654697 -1.2500106242588818 -2.299014942146032 -0.527352955137233 -1.6673257222516973 -0.8027052275571709 0.10676623147709262 -1.7149283424395114
-1.7039381171161097 -0.8723139718818126 -1.683900969865731 -1.152397207010867 -2.3834139699459005 -0.865567716371942 0.28707978250275656 -2.3474206481949116
-1.2699849729859332 -0.9675671472631345 -1.147878013834277 -2.0636231938261833 -1.1058439653745327 -1.6926433473920994 -1.2048316951250828 -0.6827581582703175
-2.5432142108295763 -1.220776859147952 -0.45309526380705717 -2.108891553811887 -1.2875018487373975 -0.6109686264716075 -0.9803907533126838 0.5187683420928296
-0.8115331422888876 0.001212215694676204 -1.1441381066450926 -0.970394402036509 -1.0691335434250022 -1.920029516751895 0.574886379294033 -0.5737807300619273
-0.5666008027798459 -0.588841371074737 -1.4324256161212279 -0.8972570088617406 -1.0801066773755674 -1.34537013019849 -0.8883399143214701 -1.1502063328723129
-2.2473074923987326 -2.17953197649948 -0.9898583216150239 -1.8236690255353927 -0.3103589343503488 -2.12945556414202 -1.5455645316311357 -0.6251943468453748
-1.2389730381276611 -0.7720562915033232 -0.8098600474943339 -0.7174336791792697 -0.8092096920283872 -1.6427117836517746 -1.1506235763522794 -1.7238153018560172
-1.005499533304115 -1.0837083469152415 -0.1731333008536472 -1.0048151266829508 -2.242318407777714 -2.8822272851180215 -2.2587337400595073 -0.14978063222678356
-0.26383860565716155 -1.4912077986060428 -1.3362108605823477 -0.8546389642658975 -1.6496366020425755 -1.641009356574988 -0.8733875654881038 -0.9707507015230077
-3.1666976946705905 0.5173214340895458 -1.1515379970384292 -2.797728685436692 -1.87671411029019 -1.2134963254524949 -1.4255419688172852 -0.7850495181689883
-1.2852742296009148 -1.2611802159234515 -1.5617403986307752 -1.4086503909669479 -0.6265510241109566 -0.47260488362475456 -0.4433780527220529 -1.4105272817556986
00000000: 51ea b132 3d2c f4bf 21fa f114 2546 fcbf
00000010: 948f cdad d2c9 febf 50d7 9324 1b69 febf
00000020: c4b8 6dfc 555e 00c0 0a3c a4d2 7710 01c0
00000030: 569f 0de3 bc25 f8bf e03e 48ea 1abc ffbf
00000040: a0b7 08f0 3302 03c0 4558 cd97 8f48 fbbf
00000050: 62b5 7b05 b46d f6bf 1844 72ff 823a fbbf
00000060: 7619 ca47 6209 04c0 4c57 fd29 5968 fcbf
00000070: 26cf 9917 35ed e4bf fd83 6c91 7b92 01c0
00000080: 8dbf b03e fbed fdbf dacd 7a5b ae79 00c0
00000090: a683 bd4c c399 f9bf 9242 b704 1d25 fdbf
000000a0: ee45 d4e5 da3f 04c0 7003 5855 e298 04c0
000000b0: 765c 7337 38b7 d9bf 7a0b 77e1 a498 f9bf
000000c0: d362 702f b5a3 f6bf 8b52 c946 e394 f9bf
000000d0: 7930 d5c2 da2e 00c0 5d5d a2a1 1dd2 d5bf
000000e0: 0a14 b7a1 f659 efbf 4951 9f66 4e5d 07c0
000000f0: 115a 1c83 566b 00c0 9ec0 b66e b981 d4bf
00000100: 3d5c d611 a0e8 f8bf bc81 6d9e aa05 ffbf
00000110: 70b8 109b 284c f6bf b916 8d80 8135 f5bf
00000120: 58e6 5871 f449 02c0 4cb6 c6a8 f380 f6bf
00000130: efdf cfdd 90e9 eebf b96f f099 506a edbf
00000140: 3a80 66a8 69bf 00c0 e3e8 6655 5f0b f4bf
00000150: 1590 9b10 d61a f5bf a28c d88c d1ca 06c0
00000160: 9696 d12f 5497 fdbf 129c 38ef a2bc f2bf
00000170: 7ed7 b9da d8ec ebbf ecf8 4a52 8d2d f4bf
00000180: d577 4754 ade1 02c0 d5c3 f3f1 95d9 fabf
00000190: 7bcf 008d 9c31 02c0 7bb4 d9b5 ff0a fdbf
000001a0: 3190 15bd 515e febf 814e 3345 1823 d1bf
000001b0: 7d27 30b1 db93 f3bf fa49 21ab ca57 00c0
000001c0: 283f 8bb0 2c27 01c0 0a4f 06d4 2f89 f1bf
000001d0: 337c b25a db7d fdbf caa7 f0bb f023 febf
000001e0: af73 9ea5 3b74 01c0 36d8 e418 5d07 f0bf
000001f0: 3253 d38c 250c f7bf 845f d5bf 1a87 fbbf
00000200: 94e0 ff3b 59a5 01c0 6f49 f0e6 53c5 f0bf
00000210: 9348 7021 d469 f0bf db03 0320 f865 f7bf
00000220: 3c90 823b 306b e9bf cc11 3529 2816 03c0
00000230: 3165 b419 56e1 f4bf 7135 915e e3c2 f6bf
00000240: 7555 0cf1 7de8 efbf 966e c518 c69a f7bf
00000250: 25a7 16bb cb11 02c0 e5fe a6a2 657f f7bf
00000260: 2b9d 44bc 9aee e3bf 93d8 a7b8 44de fabf
00000270: 27e1 4c43 289e 01c0 2906 189d 00cd f6bf
00000280: c34b a09d 20bf e33f a8fd c50b 08ff e5bf
00000290: 6209 0757 f261 f7bf 78d9 b8c6 8857 04c0
000002a0: 96a8 d251 75f8 f7bf 8aec 53e8 c62b ecbf
000002b0: 308b c5fe 680e 04c0 2729 c739 6ce4 f6bf
000002c0: 6871 7b22 7bf8 f3bf 1a36 a921 f561 06c0
000002d0: 0ebc c729 e03d f1bf 7bd1 42d9 ee75 01c0
000002e0: eca4 2824 7240 04c0 62fe 99d4 2619 01c0
000002f0: d5cb eb0d 986e 00c0 d7ca 0f71 0820 00c0
00000300: 4523 fb4a e11d 02c0 3235 29f2 870e f4bf
00000310: d478 95d4 f0c5 e6bf bc22 5aa2 951e 08c0
00000320: 24b3 8d7d 213b 01c0 50a9 269f 9767 02c0
00000330: cfae 2262 a256 f2bf f968 2b76 8ae0 ce3f
00000340: c5e7 e69e 416b d6bf d4c9 4309 e849 f4bf
00000350: 36ec 8411 ea2b fcbf b437 e89e a79c fdbf
00000360: aaff 1bb7 fbd2 f5bf b161 0830 2fc6 05c0
00000370: 958c 82b7 8ce3 d3bf 0ff8 aa0f f71c f5bf
00000380: 3da7 9b3f 0461 06c0 2d5a 5c8c 35cf b3bf
00000390: f8f4 914a f7f6 febf 80b4 2322 8f0d 01c0
000003a0: ec1d 0c73 63f2 ffbf cab7 bc82 5fbe 05c0
000003b0: a65e 146f d1ad f5bf bef0 7668 2114 05c0
000003c0: 9998 7387 03df 00c0 a009 3fb3 1b9e fabf
000003d0: f2e3 9ab4 5a35 fbbf 7fba 5080 0c98 f5bf
000003e0: 7b40 4ae7 411c fabf f882 6a70 bd8b efbf
000003f0: 9c88 acff b6b6 e9bf de33 fd46 abad fbbf
00000400: 39cc 72bb f0b9 dbbf 5d65 04c1 cacf f4bf
00000410: 1703 6e97 73e5 d0bf d6a8 cbae ec51 f1bf
00000420: c620 c91a 4239 febf e96c 8f89 92a9 e6bf
00000430: 2f61 88a5 f6fd ebbf 9811 4d42 1767 e0bf
00000440: 5b17 543d 2442 f3bf 598e 00f9 0d27 ebbf
00000450: 491d d512 2cdc f6bf 922a c08a ceeb 01c0
00000460: 75e9 92de 8dd8 edbf a817 e3df 9ae3 fdbf
00000470: 557a a9e0 bca8 f0bf 557c 7bf3 dcc1 fdbf
00000480: 9123 eb09 53d2 debf a7b5 b77c 0a23 e3bf
00000490: aa69 db4d 6f9c f8bf 01b0 de10 d12e e9bf
000004a0: e44a 07fc be4b fdbf bdfd bc97 c0dc e8bf
000004b0: 5f45 a79e e7e1 f6bf 11cd b193 1ad0 f9bf
000004c0: 71ff 11b8 a89a c0bf 75b3 82a0 0d11 f1bf
000004d0: 501e a0b4 617f edbf 15da 144e c7d0 e2bf
000004e0: 3342 19c2 6919 fabf 0c99 081a 252e f4bf
000004f0: a600 07af 7633 f2bf 32d8 e30b 88c2 f4bf
00000500: 8cba 8f78 e306 dabf d582 ed23 0b00 f4bf
00000510: a442 2cf2 6164 02c0 896d f84d 13e0 e0bf
00000520: 239c 8dbc 5dad fabf 10f6 95df c2af e9bf
00000530: 27e3 8220 0855 bb3f d62d 9cb3 5870 fbbf
00000540: 80be 769d 5443 fbbf a170 a2fd fee9 ebbf
00000550: 7b6a b424 42f1 fabf 8dd0 c10d 3870 f2bf
00000560: 34fa ed57 3b11 03c0 024f 4911 bbb2 ebbf
00000570: e64b 4ce1 835f d23f 3e9e 0f7a 84c7 02c0
00000580: 2a2d 56c3 db51 f4bf d5bb c560 4ff6 eebf
00000590: 5373 1356 b55d f2bf 1401 86e0 4c82 00c0
000005a0: 8133 1c71 89b1 f1bf e074 cd30 1115 fbbf
000005b0: 8ef1 7b99 fd46 f3bf 8024 1ba3 27d9 e5bf
000005c0: 43e2 31b1 8058 04c0 9910 dc50 4d88 f3bf
000005d0: fd85 0147 83ff dcbf 2076 f388 02df 00c0
000005e0: d8dd dd89 9b99 f4bf a77b b213 0e8d e3bf
000005f0: c5eb d86d 5c5f efbf 9ba4 ef10 c099 e03f
00000600: 4407 385a 14f8 e9bf add1 eab0 66dc 533f
00000610: 585e 62c2 634e f2bf 2afc 9e8f 780d efbf
00000620: 5a12 41c6 2b1b f1bf 7cdd dcde 70b8 febf
00000630: a97a bf1e 7865 e23f 861c d667 695c e2bf
00000640: 0475 ba01 9821 e2bf 8b87 e9db c9d7 e2bf
00000650: db17 731f 37eb f6bf ea5f a554 54b6 ecbf
00000660: fe4e 78f0 1d48 f1bf 037c 63d4 a286 f5bf
00000670: bebf f7d3 476d ecbf 356b 75c1 3e67 f2bf
00000680: 4044 bf59 7cfa 01c0 4936 fd75 ae6f 01c0
00000690: bc51 e05b ebac efbf 7671 7692 bf2d fdbf
000006a0: 1c98 43b8 ebdc d3bf 9f33 b2ff 1f09 01c0
000006b0: 9e69 d3df a1ba f8bf f509 2b93 9701 e4bf
000006c0: 2225 7664 d5d2 f3bf abb0 5565 afb4 e8bf
000006d0: cd67 4a9e 5fea e9bf 26f7 a379 37f5 e6bf
000006e0: edc7 5bb9 0be5 e9bf 779c b826 8c48 fabf
000006f0: 9908 6744 f468 f2bf 2e0e 9d5a bf94 fbbf
00000700: 74f3 baad 8616 f0bf 7273 4690 de56 f1bf
00000710: ace9 8164 3b29 c6bf e711 ba06 b913 f0bf
00000720: 1afe 24a2 44f0 01c0 23c4 c92d cd0e 07c0
00000730: 366b bffe e211 02c0 9e7e 7e02 032c c3bf
00000740: 6010 ae51 bbe2 d0bf 88d9 68b5 fcdb f7bf
00000750: df2d aca3 1e61 f5bf 5519 2dd0 3359 ebbf
00000760: 3aeb 8059 e964 fabf 95b6 ee06 9341 fabf
00000770: 9224 d07a caf2 ebbf 3288 73c6 6310 efbf
00000780: 246e d799 6555 09c0 c2e6 1dae e58d e03f
00000790: 351a 561b b36c f2bf d940 b893 bf61 06c0
000007a0: ac35 fa5f 0507 febf 7a27 7a1f 7b6a f3bf
000007b0: c154 7218 05cf f6bf f6d7 c82a 201f e9bf
000007c0: bd70 e8b5 7b90 f4bf 1a0e 5c4e cb2d f4bf
000007d0: 0161 0f80 e3fc f8bf e235 0bfe d489 f6bf
000007e0: a69e babb b40c e4bf 0549 c68d 283f debf
000007f0: f624 0d57 4e60 dcbf a31a 140e 8591 f6bf
