saved_model/Lorentz_cnn/best_valid.pt (torch, 36865 bytes, 12 tensors)

conv_layers.0.weight f8 [16, 16, 2]
00000000: b22f abb9 ca57 c3bf 2eeb a371 e2d3 c33f
00000010: 7e57 fae0 0c9d b83f ed3e d17d bfed 713f
00000020: 95a8 1c8a 45f8 91bf 8a6a 8a65 6885 b53f
00000030: 6e96 27ad 11b0 9d3f b9ad 93d1 7247 be3f
00000040: 20ea 9751 8e0d aabf 2237 e6d1 d640 c0bf
00000050: aa77 6b68 67d1 a13f c7fd bd6e 154d c3bf
00000060: 2995 4d70 149f 16bf 5523 11e2 736e c2bf
00000070: 61ba f4c5 a0c4 b4bf d27d c8fc ee16 c03f
00000080: 25e5 4100 d982 8b3f ceb0 aa4a a758 b43f
00000090: 2320 aa7c 6ef1 a8bf 3844 13ea 03b8 a9bf
000000a0: b187 2551 fdc2 b3bf e0c3 cac4 d06b b7bf
000000b0: 073b 9e89 61b1 b4bf 94ce f52c ee33 b63f
000000c0: 6b82 3548 0ad6 b5bf c761 9735 d951 c2bf
000000d0: dee0 b7f3 35e6 b3bf c734 ccd3 4b6c b03f
000000e0: 71a7 965e a62e 933f e469 c704 2bde 9b3f
000000f0: f01f ea59 444b c33f ccce bbe8 a438 c2bf
00000100: 7bba 131c ea3d c13f 3db4 7e33 d0c7 c3bf
00000110: d5aa 5bbc 13b8 b63f 8c98 7858 6add be3f
00000120: e286 96ff 8789 b3bf 18ab 0f3b 8d87 b43f
00000130: d8de 6977 d975 c33f 60f8 e2c4 6e2b 6c3f
00000140: fa75 483b 70f7 8ebf 1ae1 94fb dc67 c2bf
00000150: bb28 b6f1 e888 a2bf 36a0 22ad 2c03 af3f
00000160: 3db9 e126 ae9e b0bf d65a 9e1c da15 c2bf
00000170: d0d1 3284 8837 bebf 155a 95b0 2a65 bc3f
00000180: 44d9 d2ea edab b43f 58b4 e71b 3f2e c2bf
00000190: e77a 1419 5b63 c9bf b956 de66 c7cf b1bf
000001a0: f795 719b a4bb b9bf 89f7 2e14 be99 c33f
000001b0: 6d9a 2080 472d aabf d93e 4f28 7dc7 b03f
000001c0: faa0 d8ee 69da b83f f636 c230 b124 c43f
000001d0: eefb c734 cc0f a6bf 2789 bd56 817a a53f
000001e0: 945f 38be d3f1 a93f 0f1a 20e4 6ce1 953f
000001f0: e87c a4c3 d7c6 b03f a318 2ffe 38e2 c53f
00000200: 85af 42bb beca a13f 8d1d d5a4 fde6 b3bf
00000210: 6ef6 f180 e30d c4bf a22e 9a88 4c59 ac3f
00000220: 628c 9fd1 3226 bb3f 7bcc 0647 3f9c b73f
00000230: d4bd 8b06 dec2 a13f 360c 2183 6751 823f
00000240: 5a87 897c f7d5 abbf ceaa 650d 12cd c33f
00000250: 38c9 ef4e f5b5 b3bf a9d2 55cc 6159 b53f
00000260: 297c 0b04 6328 bb3f b121 3a05 7340 963f
00000270: e8ef 8632 f6a0 b4bf 3d05 258b 9493 59bf
00000280: 5d96 ca49 4d94 abbf 8e7b ce30 121e 94bf
00000290: ee42 38fd 4d81 a23f 31b0 13f1 e593 afbf
000002a0: 927c fe77 56d5 c43f 02de d893 bbd7 acbf
000002b0: d7a2 fb5f 798b b5bf c44f d733 ced3 c03f
000002c0: 60f8 d5ed d432 b5bf f280 a7e1 045f c0bf
000002d0: 9a28 cb5a d258 cbbf 86d6 e9db d522 7b3f
000002e0: a84d d56d b38f bc3f 311e 0175 179b abbf
000002f0: 1a9b 78c8 a409 c0bf 247b 31ca ca76 bd3f
00000300: 44d4 4aec c54a b73f 0216 2b96 876d babf
00000310: a5a8 8c8b a2b1 8c3f aa7a d41f 2dff b7bf
00000320: 52a0 4440 3895 b73f fab2 5fdf ade4 c0bf
00000330: ad2b f5c2 fb32 b3bf 9a1e e273 f201 c33f
00000340: 0687 6b7f 28b3 c3bf 273a c057 01f7 c13f
00000350: 37a2 0b91 d09c a13f 837d 7430 86d0 be3f
00000360: 6d43 97ad a44e abbf d816 0a12 166a 883f
00000370: 8170 6675 60e7 9ebf 11f4 2f97 0735 c5bf
00000380: ca3a f2d6 eeb3 c1bf b783 a99b 014e b1bf
00000390: 4b3b 7b35 ec54 c33f b4d8 8af5 972f c53f
000003a0: 5452 483b d8f2 b0bf 6519 124b 2820 83bf
000003b0: 433e 59b1 4be1 bd3f ea3d 59c7 2fd4 9bbf
000003c0: 033e 2efb 806a b4bf 9b54 2781 d484 c2bf
000003d0: 1468 c9f5 583e c0bf 3c9e e61d 1bdb a73f
000003e0: 023c a4c6 dee3 98bf 9b55 e6b5 356e c43f
000003f0: f47b 95f5 c874 b0bf 4bf2 9ae2 3cf4 b33f
00000400: 47ce 5be6 3f8e c53f e5fb 4953 fe48 c53f
00000410: 5cef b686 6c84 8dbf 4342 4b0c 6239 bcbf
00000420: bd8c cb5e 65c1 b73f be58 126d 98dc c03f
00000430: a6ad d6ca 6410 c03f e69d f526 21ae a13f
00000440: c69b 0609 b1f3 b3bf 67d9 7553 331a c9bf
00000450: de20 7fda ceb3 b2bf 246b 7584 c6ac b0bf
00000460: c2da 8b9e c5a0 87bf 68ba 0a49 b0e3 a3bf
00000470: 8ea8 c477 35ac b9bf d26b dc3b b673 bdbf
00000480: 6491 8650 7027 b7bf 9f68 cf84 743e b5bf
00000490: b670 d098 65e6 be3f 7621 8bb8 9fff b13f
000004a0: cfbf c95f d8ac bebf cec3 29cb 2cd0 c1bf
000004b0: 503a d61c cad2 bc3f c710 260a dcf6 c33f
000004c0: f2f2 2337 a317 a13f 8715 ad66 b0d1 c63f
000004d0: 9ef0 ef8a 5652 b5bf 5ef1 798e 1cf8 b43f
000004e0: 6d10 090c 132e b13f 58b1 4521 709c ad3f
000004f0: 6a8f f756 e2b6 933f 51b7 bd4a dff3 aabf
00000500: de02 6610 e7c1 be3f 1afd f7cd 3c6a a03f
00000510: 7abf b788 f517 bcbf 3995 6e1d 398a b4bf
00000520: cc56 9696 2cab b13f 792b 8147 e687 c4bf
00000530: d630 607e 710d bfbf e0c9 b531 85c2 a3bf
00000540: 5c97 02a8 380b b3bf dc6f cfe2 5053 c13f
00000550: e704 ced9 4565 bf3f b675 721c 5955 c0bf
00000560: 0db1 3cc6 fafd a0bf 1aa2 33fb d074 c0bf
00000570: 6c63 a17d 1229 c33f 1ca3 fa46 8792 b33f
00000580: ecc5 d7ee ee3f c6bf ad18 d79f 81eb 993f
00000590: 602e 5052 0f7c bcbf 99ff d826 ee1b b6bf
000005a0: d562 ae92 ff20 c23f 44fd ee24 2b10 c2bf
000005b0: 860f 4245 2b4e bdbf 1b22 5106 2447 b73f
000005c0: 0949 91c0 59a4 a9bf ae64 a98e 19f6 c53f
000005d0: 49d4 5e67 d03f bf3f 704b 437b 9382 9e3f
000005e0: f0fe bd62 2156 ad3f 4153 9de9 0fc3 c5bf
000005f0: d45c e300 def5 a73f 7998 239d 5979 9d3f
00000600: eafb 125d c8ff 7abf b2a3 fc4a dd8b c0bf
00000610: 7b1e 4deb fbd9 a23f 44d9 b9d0 77fe bbbf
00000620: d88c 50f5 1ef6 c53f 35cd 046c 6394 bfbf
00000630: 23e0 352f 525a a73f 680c 1951 5365 62bf
00000640: 0a9f 702d 94a1 c13f d3e4 47e3 9b02 bd3f
00000650: c4b0 d51d 24a0 c7bf 9b32 529e fa37 c6bf
00000660: 58f6 b029 fb37 bb3f d58c d087 72ad 853f
00000670: e0ac f67b 6e4a c4bf 81a7 34ff fb50 b13f
00000680: a431 453e 2c94 b83f 163e 62e0 c17e c23f
00000690: b468 6c2c 9031 a5bf 72bb ad9c bfa8 bcbf
000006a0: 6c2a c330 68bb 94bf 32a4 98ed f0c8 b23f
000006b0: 9f54 8c4f 77b7 b0bf 3dc4 8f88 766f b3bf
000006c0: 5cc9 6428 9212 c6bf f71c d710 c97d c43f
000006d0: 2b46 0e9a 1278 ad3f db35 e0e8 2a5b 91bf
000006e0: f92c c623 640e c2bf d859 61c2 cfda b93f
000006f0: 8e93 2425 ba6d c3bf d04d 1bae 320c 903f
00000700: 1860 b97c 3ed4 a63f 23d4 6160 6e4f a43f
00000710: c8ed 3477 d236 b53f bde9 218e 2c99 c53f
00000720: 9bf6 20a6 0b15 c23f 126f 02c2 0911 6b3f
00000730: c746 9a2a 2fcb b03f 3373 9fbb 8f3a 87bf
00000740: a022 0292 da9d 923f 84c8 f181 d908 c1bf
00000750: 611f 5e85 5149 c43f 9479 6dca 44da af3f
00000760: 39d5 1f01 3758 c0bf 7c8d 5fd1 71af b23f
00000770: 7542 17ca 95c7 b5bf 2f0b 2e9a 5f33 be3f
00000780: cdbd 108e f712 c8bf 9d26 821c 604d bf3f
00000790: 947f e4e8 ea80 b33f 8850 4d10 38c4 b0bf
000007a0: acb0 0a3c 3167 ad3f 25ac 79d6 6686 b6bf
000007b0: 36a9 dc15 1304 bcbf 5488 b522 c144 a6bf
000007c0: 06fd 6042 2b8e c3bf 15fa 8b78 3846 a8bf
000007d0: 7935 773b 288a bc3f 84f7 13f5 a0a0 bb3f
000007e0: ac9e 3818 1ca9 b93f ab4c 7194 575c b4bf
000007f0: bcf8 7448 bc73 893f d56c 0de1 4583 bb3f
-0.1511166960320885 0.15490370320170527 0.0961463975202985 0.004377124799318938 -0.017548643641170775 0.08406689147015292 0.028991962617416815 0.11827771774885933
-0.05088467355740911 -0.12697873352993222 0.034800750252301185 -0.15078990847903936 -8.629381416154894e-05 -0.14399574793267314 -0.08112530548962972 0.12569987624099938
0.013433165855746563 0.07947774479788736 -0.04871697685035794 -0.05023205025066385 -0.07719405394666869 -0.09148888401502075 -0.08083161935631376 0.08672989461575248
-0.08529724371829565 -0.1431228171993679 -0.07773148727563092 0.06415246888009839 0.018732642672751824 0.02721469132107214 0.15073446646078947 -0.14235364307352538
0.13470198031378175 -0.15453531755830055 0.08874629353128267 0.12056603107393665 -0.07631731023732471 0.08019335452960907 0.152033980662728 0.0034386790713077237
-0.015120388802695384 -0.14379465374236916 -0.036200789933972875 0.060571094641375486 -0.06492126893292478 -0.14129187009230887 -0.11803487040999205 0.1109186822044211
0.08074843390463565 -0.14203633177331443 -0.19834459995850937 -0.06957670461118938 -0.10051945490848611 0.15312934861679775 -0.0511267036347832 0.06554395898933353
0.09708273011404236 0.15736975556176674 -0.043089276736274815 0.04195026573030907 0.05067311951660183 0.02136774198882035 0.06553410078457811 0.17096626674009938
0.034749946936556454 -0.07774338983755609 -0.15667384906912524 0.05536879699238041 0.10605161302332669 0.09222789272352998 0.034689844416671584 0.008944328965418174
-0.05436681170682674 0.15469575552136522 -0.07699521233715678 0.08339511145261248 0.10608500336410089 0.021730229562793194 -0.08058108075687154 -0.0015610647793241194
-0.05386582875989341 -0.01964596197978668 0.03614276615201627 -0.06167524879296627 0.162760552016128 -0.05633341007017735 -0.08415945618947816 0.1314637902383976
-0.0828068810132847 -0.1278997518375103 -0.21364812310486486 0.00662501848875297 0.11156770163989072 -0.0539176302268597 -0.12529430187824958 0.11509387432441237
0.09098469752173438 -0.10323378959864019 0.014010686763487998 -0.09373743083095101 0.09212066239399633 -0.13197873503613505 -0.07499669561108986 0.14849692018855337
-0.15390497419053178 0.1403505018683557 0.03439952631544368 0.12036932642921809 -0.05333437556294638 0.011921093392867219 -0.03017950741342235 -0.16568083650773294
-0.13830361838741673 -0.06759653139444209 0.1510291348590392 0.16551494111417286 -0.06620551535918057 -0.009338679114318802 0.11671898917961081 -0.02717661527850438
-0.07975011951770487 -0.14467865282373257 -0.12690269471460225 0.04659352054596552 -0.02430675589954135 0.15961333638976502 -0.06428199763966785 0.07794552357058497
0.1684036135480815 0.1662900835690088 -0.0144127348529463 -0.11025059509416572 0.09279473842939275 0.1317320377899644 0.1255002966330327 0.03453162766055211
-0.07793718786579892 -0.19611207556927043 -0.07305615267171414 -0.06513634427885201 -0.011537116909932425 -0.038846501270531075 -0.10028394865062948 -0.11504687272501649
-0.09044553724249266 -0.082984239982951 0.12070307713333048 0.07030676131683386 -0.11982490862442251 -0.1391654960639514 0.11259139255546669 0.15597105498830485
0.03338346527195836 0.17827420247537537 -0.08328762905142859 0.08191088179041148 0.06710928958733726 0.057834152280380635 0.019252335126921073 -0.052641847489992906
0.12014621878007456 0.03206052793756893 -0.1097405871184928 -0.08023411720804043 0.06901816059538673 -0.1603973244803816 -0.12129887900681821 -0.038593447034958706
-0.07438997365769978 0.1353551013443156 0.122639051127425 -0.12760461701411224 -0.03318771047483624 -0.12856495156962994 0.14969092497156156 0.07645459635626789
-0.1738260904526635 0.025312447911141223 -0.11126800307845874 -0.08636368225506742 0.1416320291725898 -0.14111842444797607 -0.11447401467199655 0.09092927126142351
-0.0500820205276274 0.17157287088301615 0.12206747554485377 0.029794983290070076 0.05729774790142794 -0.1700153246589711 0.04679769287911886 0.028783226219183142
-0.00659158961315052 -0.12926832353084944 0.03681933638887088 -0.10935162397240555 0.17157351473097182 -0.1233579767911593 0.04561096979426817 -0.0022455813675903886
0.1377434942125933 0.11332105921600837 -0.1845746179273019 -0.1735833428432628 0.10632295387127877 0.010584730882391128 -0.15852147152813867 0.06764197331054157
0.09601093788405152 0.14449332672346377 -0.04139376203802794 -0.11194989752924103 -0.020246150947779304 0.07337861824693517 -0.06529946987241651 -0.07591954072974345
-0.1724417397723056 0.16008866617469383 0.057556706720003646 -0.016949339355098885 -0.14106418368132959 0.10099504943477855 -0.15178610623948113 0.015671531559588392
0.0445880439044119 0.039668511643789615 0.08286776933976292 0.1687370008474555 0.14126725780254365 0.003304022844600748 0.06560034551719261 -0.011342165864272146
0.018180289422647378 -0.13308256955093978 0.1584875012597378 0.0622121331314133 -0.1276921039094903 0.07298957215930629 -0.08507667716845353 0.11797139658123677
-0.1880788272551243 0.12227440544134045 0.07618587671140481 -0.06549406431196492 0.05742791994029636 -0.08798830734456027 -0.10943717273463424 -0.043493304717018205
-0.15277615300326647 -0.04741074058073395 0.11148311092184383 0.10791975005483151 0.10023665992104708 -0.079534028759826 0.012427779160699585 0.1074718164867819

conv_layers.1.weight f8 [16, 16, 2]
00000000: a950 50a3 b81c a0bf 5562 8554 9dd0 a13f
00000010: e133 38d1 cf37 babf 8acc 0134 d239 c0bf
00000020: 5094 43a0 506a 763f 6f55 090e dcc4 bc3f
00000030: 18f8 5e80 c22b b6bf f362 dc2e 316f a3bf
00000040: c88a e7b3 6869 c23f 91d0 b7d0 fed0 a9bf
00000050: 9969 e6f7 6a15 9cbf 559b 1f26 5fd9 b13f
00000060: fc71 6e49 7185 bc3f 5a88 0cd4 6970 b0bf
00000070: d30c 77c4 681b b03f 5925 85f0 d552 c3bf
00000080: fcc8 8261 b4be ba3f 7dbc 4b3a 954a a73f
00000090: eb7f da23 c7c3 c5bf 5288 5aa8 110f c03f
000000a0: f8dd 0597 1158 a7bf e7a8 30c8 ce94 b2bf
000000b0: fe2d eaba 761e b3bf 773d 81db 417d bbbf
000000c0: a9f5 e7cb f6f1 8cbf 96f7 72b5 6e36 70bf
000000d0: 0986 d138 2aac b0bf 98ca 358b 0e0d 953f
000000e0: dc9e 27ef 8abc c3bf b966 6924 1589 ae3f
000000f0: cc36 8b18 eaff b03f c0c7 ba09 beaa 8f3f
00000100: 42a0 f428 5feb b73f 1db4 6ac6 2e36 c53f
00000110: 1e4f d38c 1a27 bbbf dbdb a0c4 eefd c3bf
00000120: ea02 c304 6972 b73f 4b66 5924 0f9e bebf
00000130: 29f0 5ee1 e97f b93f f090 4094 a944 b63f
00000140: de02 03d3 6fa3 a83f 1d2b 19ff fef4 7a3f
00000150: 6102 0683 8768 b73f c5fc 7336 14f6 c5bf
00000160: 4d4e 59a0 0a30 c23f f15e 9d7d a848 bd3f
00000170: 2b4f 54c6 1944 c6bf 3d54 0002 b324 b4bf
00000180: 2075 f397 c6bc a63f 5aab 06de 820a c73f
00000190: a29c 3fc3 66ed b83f c143 cdc1 be82 be3f
000001a0: a866 2229 d98d a23f a41c 9a3c 639e b23f
000001b0: bca0 666e 2f7e b43f 992d 0f4c 6ff7 b63f
000001c0: 915a f65d fe9c b73f 8530 350d 3f82 ae3f
000001d0: 3e3d d887 17cd bc3f 996f 3bc6 2bda b63f
000001e0: 2f3f 0f19 d96e b6bf 1b81 c185 ceed b13f
000001f0: d241 3981 d85c aebf 560c 6446 f956 a0bf
00000200: 921c cf76 494f c0bf 25db 8ab8 e179 bfbf
00000210: 699b c5d7 cc22 c5bf 5d66 0f77 1940 babf
00000220: 459a cb69 c67a 95bf 5b20 a1f0 b37d a0bf
00000230: c2f2 b28f 0527 a0bf cec4 f644 933a a6bf
00000240: 0bc2 5fc0 67b1 adbf 1355 737c d270 883f
00000250: c133 cf70 291f b63f 56c0 099c 9bb1 c13f
00000260: 0ac3 5b9d 2547 a23f 20da 3a08 663f c5bf
00000270: 4e80 192c 3955 96bf 5049 3735 fdde c33f
00000280: f0e6 fe77 bdb1 aebf 5f9a eeda 0d0a 7bbf
00000290: 1d92 a07c 97a4 af3f 31d5 2fd7 0d28 c5bf
000002a0: 7b47 cb7f b219 be3f 5749 6a8c cda9 b43f
000002b0: 804d 5c48 eee2 b6bf 3c01 6e3f 6e70 c53f
000002c0: 4552 6d6e b4e2 b03f ff09 f50b 382a b13f
000002d0: d522 ab6b ecd1 bc3f e261 9e2f 5b95 c1bf
000002e0: a96e 4954 ef03 b0bf 58e1 a383 4c45 c4bf
000002f0: cc1d af0f d06f bfbf 9095 7cae 8bd0 933f
00000300: 4956 d2f1 1adc b23f 350c 8cdc a119 c3bf
00000310: 8dd5 1966 1d7e 6f3f 192f 763f fa63 b0bf
00000320: 33ee e3b5 f609 503f a6a4 491b 0014 be3f
00000330: 2173 8d30 cc26 babf f2b5 1de6 9c93 b83f
00000340: efbc 6f8c 959a c03f e935 c065 6769 b0bf
00000350: 3795 ba41 e600 b03f 0a7a f984 231f a93f
00000360: e44c 072d 1d00 b73f 075e 8e3f ef70 bdbf
00000370: 1dda a963 afc4 bf3f 0dbc 6b60 d94d 7cbf
00000380: f631 6c65 a6f9 c1bf 1ce5 238c ee66 a3bf
00000390: df2f 44f0 c7bc b8bf 688e c547 7785 c03f
000003a0: bd33 23ba 2719 c23f cebc 0ee7 37da c63f
000003b0: 3c1a 5d0c f4f3 c13f f1ee d938 e0ce 983f
000003c0: 8df3 56a2 10cc bd3f bd80 b4ac 451c c5bf
000003d0: e0c6 3413 5ff8 c2bf a84d f4a9 3c6d a5bf
000003e0: 636f 3476 6f48 bbbf c7ba 6052 85c8 a93f
000003f0: 3c0b 3e11 a8da b1bf 3191 eb93 b843 c0bf
00000400: f7c3 8152 2654 c6bf a1fc 5923 e01d c1bf
00000410: 5c94 7ce8 dbd3 b53f 110d b783 a9ed b13f
00000420: 05c1 937e 0ad0 b03f a931 c8bf d428 a9bf
00000430: fead 08f1 0d38 bd3f 2da1 47d2 ad1c b4bf
00000440: ff78 3b80 962c 84bf ec18 d6d8 e5bf 26bf
00000450: 63a9 c7b5 e85c a93f 2eaf b09c 53ed a43f
00000460: 578e d7e1 6bff b03f 31f7 6cc5 f805 ae3f
00000470: 7929 2890 0589 c33f 117f 91c8 37ee bd3f
00000480: ac17 9593 ae78 a63f 254f 5d09 f62f c23f
00000490: a034 4356 c051 bd3f d7b4 01e2 67f9 a23f
000004a0: 7f32 256d 7aa0 a73f ae14 7b3d ffa0 91bf
000004b0: 69c9 c159 916c c03f e0e1 4b6c 6233 c13f
000004c0: 7b22 8f6a eeaa c33f 004a 1ba0 36a1 c63f
000004d0: a92d 7cb0 a9f7 c03f 8ec1 5a73 0d97 a23f
000004e0: 8f20 f0b7 ccc4 64bf 519b 09cf 38e0 9dbf
000004f0: a5d8 0290 1590 923f c4ff f7ac 01a9 933f
00000500: 094a fe71 959b 913f 0c12 a01c 2242 c83f
00000510: e066 1af0 0083 c13f 7d9f 0174 4eb0 543f
00000520: 5c7c 09c7 429d a73f 1c59 edf8 9efa c0bf
00000530: 1560 d5a3 7bb9 a4bf de6b c7d9 aa01 b5bf
00000540: 9c24 6c9f e07c a03f 791e bed5 942b bcbf
00000550: 1984 9291 f0c0 be3f f305 d6a2 7165 9cbf
00000560: 488e e621 eaa7 babf 7036 b757 7324 b43f
00000570: b83d c097 3423 a1bf 6925 2826 76eb b6bf
00000580: 7542 e225 9601 a2bf 09a9 d869 b3c1 bbbf
00000590: 5d56 ab9e 93b2 c43f 32eb db37 7f68 c43f
000005a0: 0e72 63ff 68af c2bf c93c 9016 ba5b ad3f
000005b0: dbae 1775 d4c4 c5bf c9d1 b995 5b65 acbf
000005c0: 5328 d1e6 b4fc c63f 5aac e2cb c3bd c03f
000005d0: 58d4 461e 239f 75bf 2a01 abae 171b babf
000005e0: 5bba 9f13 bf5a a8bf df84 f9a1 76dd bebf
000005f0: 30cf 08ef f21f b93f 17a3 72d8 51ba b83f
00000600: 5641 4960 8121 b0bf f20d 9b24 33eb b3bf
00000610: 2d0c 7908 8b52 b6bf 85bb e46d 5026 b2bf
00000620: 0530 15ef 103d a6bf 696d bd72 2a30 863f
00000630: d8a5 6b79 1ac7 633f 34cf adc9 cb5a c33f
00000640: c6eb 35b5 af3a c1bf 9e50 05c6 d000 b0bf
00000650: 4bef e86e 4dd6 5d3f 5720 a552 9f9b 9d3f
00000660: 28e9 cc0e 1f66 a63f a11e 799c 1bf6 95bf
00000670: cde4 6052 cd3f c33f 333d c15e 6e52 c6bf
00000680: 4d28 2607 d6fd 973f e87d 1aa1 f781 b93f
00000690: 9f37 ff92 7290 bebf 438c 1407 e7b6 bebf
000006a0: f7f6 8884 54f8 c53f 4a91 e3bb faff c1bf
000006b0: 800d cc74 7cc9 b8bf 0e2a ea32 27a6 adbf
000006c0: 3e7a fa6d 5e1f c53f 9013 3d89 e87b c8bf
000006d0: 7c01 4ec3 93cd abbf 0461 669e d50a c7bf
000006e0: 1e99 c594 c37f 9abf 0e98 e71d 99f0 a53f
000006f0: 819b 7203 12ac 843f fdb7 a619 5c1e bb3f
00000700: 2c2a dbd5 7303 983f 5446 b48f 23bf b23f
00000710: 0677 91e4 9255 9dbf c21a 566e ae6f b0bf
00000720: 2298 e238 c67b 95bf 6a91 4043 ea21 af3f
00000730: 9d36 1bd9 3b72 a13f f6cf 48ee 4de3 bf3f
00000740: 9f20 cdc2 dc6f c1bf 814d 887b 74f9 c3bf
00000750: ebee f023 a9b5 b2bf 71e0 705d c47f 333f
00000760: c68c 4c51 e78c ad3f daf8 36ce 56a6 b5bf
00000770: ddd1 b1cd 5110 a13f bcc8 66c9 c1a9 a5bf
00000780: 862c 50f6 f500 64bf 3161 8759 3f59 b33f
00000790: 8fd2 af35 79cc c6bf 2f93 d75b ad42 babf
000007a0: 18bf bf07 f4ba 623f 15e9 74bb 86ea b6bf
000007b0: de82 0062 7bf7 b23f 950b 03ef f369 a1bf
000007c0: f8f8 15a0 327b a63f 71e7 9cbc 65dd bbbf
000007d0: 6f27 f5a0 8434 bdbf 2737 500b 4af9 c3bf
000007e0: 3d09 efc6 782b babf f871 9b2f 230a c43f
000007f0: ff94 cc69 7166 b73f 35e3 aa44 b463 c4bf
-0.03146912568641486 0.03479472786665797 -0.10241412027262654 -0.12676456012158993 0.005472483582910817 0.11237883894621857 -0.08660522111947022 -0.03795770356209074
0.14384182724378136 -0.05042263315036267 -0.027425452595346653 0.06972307854412681 0.11141117136725848 -0.06421529223419623 0.06291823193082573 -0.15096544498582423
0.10447242146145536 0.045490897527877806 -0.17003716707858926 0.1254598686255713 -0.04559378593961222 -0.07258312594845827 -0.07468359053944337 -0.10738002404217704
-0.014133384797782993 -0.0039581608354505495 -0.06512702834290719 0.02055762028380545 -0.15419136693457502 0.05963960713843392 0.06640494441236483 0.015462383911060473
0.09343523740665297 0.16571602524109688 -0.10606542528267623 -0.15618691063875087 0.09158951154951081 -0.11959929120475825 0.09960805656641071 0.08698520535887488
0.048121923931381025 0.006581302719107976 0.09143874119582442 -0.17157223376123035 0.1420911105111479 0.11438992563978069 -0.1739532678990313 -0.07868498610362536
0.04440899472113302 0.18000827637782885 0.09737245814140974 0.11918251258363367 0.03623846652153634 0.07272930364171032 0.08005043454488975 0.0897130547229409
0.09223928255083026 0.059587450372959906 0.11250445429344766 0.08926652516987445 -0.08762890683942424 0.07003489270710299 -0.05930210664212478 -0.03191355690253121
-0.12741964627477792 -0.12295351748876422 -0.1651245168279403 -0.10254058033697207 -0.020976162154420903 -0.032209036945062684 -0.03154771212709796 -0.04341564385266282
-0.05799411986652466 0.011933941290787098 0.08641299251685465 0.13823266142890372 0.03569905801658109 -0.16599727060175073 -0.021809476200701554 0.1552425870746199
-0.059949799440301876 -0.006601385232818473 0.061802610362324574 -0.16528485304994825 0.11757960910770564 0.08071598699669856 -0.08940018908133673 0.1674936113086093
0.06595924087498257 0.06705045978473122 0.1125781786787557 -0.13737048936015045 -0.06256004150184914 -0.15836483409635593 -0.12279987700377787 0.019350225949116118
0.07367103961799971 -0.14921973484897114 0.0038443159290248497 -0.0640255360541996 0.0009789380342785203 0.11749268213465544 -0.10215450463642785 0.09600239389484225
0.12971753461122357 -0.06410833582068388 0.06251372437198631 0.049065694792023676 0.08984548901871708 -0.11500449468291417 0.12409492667379891 -0.006910180213465911
-0.1404312129237863 -0.037894682509383965 -0.09663056960943049 0.1290730572173857 0.14139267529244917 0.17853449613674005 0.14025736430831326 0.024226668806007493
0.11639503444071249 -0.16492529805055325 -0.14820469320107232 -0.0418490369285352 -0.10657402644977547 0.05035797720517148 -0.06974268361049679 -0.12706668112435573
-0.17444304493577054 -0.13372422910831452 0.08526396203940706 0.07003268686007781 0.06567445364249032 -0.049139641199960345 0.1141365731679613 -0.07856260665687805
-0.009850669658984844 -0.00017356568097798926 0.04953696459763781 0.04087315833780135 0.06639742149087034 0.05863931093197861 0.15261907137785238 0.11691616675079454
0.04388948012869717 0.14208865601778445 0.11452867609041784 0.0370590651881259 0.04614622671451673 -0.017215717437257076 0.1283132255808355 0.13438062942419915
0.15365390971262002 0.17679484193520523 0.13255807034907477 0.036308689433442884 -0.002535247650943324 -0.029175651203696976 0.01812776271318541 0.01919939630715796
0.01719506748447411 0.1895182266017773 0.13681041454110865 0.0012627378601113009 0.046121680065646514 -0.13264834551473192 -0.040477622746664256 -0.08205669228429666
0.03220273920130376 -0.11003999918295361 0.12013152650844496 -0.02773072773334735 -0.10412467315341545 0.0786811913632961 -0.03347172119549263 -0.08953035766184815
-0.035168354153147265 -0.10842439016474627 0.1616997265579582 0.1594389937161736 -0.1459780928625069 0.057340445761036536 -0.17006927220733456 -0.055460798289377396
0.17958699484217053 0.13079116301864496 -0.005278718167052686 -0.10197589887957706 -0.04756734003591553 -0.12056676344356586 0.09814375243950901 0.09659301313753264
-0.06301125145660555 -0.07780761378949544 -0.08719700772148604 -0.07089712794252818 -0.043434647736461364 0.010834056498132143 0.0024142758442067085 0.151208375431105
-0.1346034655396961 -0.06251244387141461 0.0018211132225038503 0.02891396467137527 0.04374787383717865 -0.021446639466630505 0.15038458368670718 -0.1743905985517614
0.02342924517282823 0.09963939364614982 -0.11939159477989712 -0.11997836993082082 0.17164093467174954 -0.14062437223686636 -0.0968244347714542 -0.057908272710012296
0.16501980180778902 -0.1912813825712445 -0.05430280455675793 -0.18001814112063397 -0.0258780059388296 0.04285124292418639 0.010093823175635343 0.1059320032715902
0.023450670173398233 0.07322904833224558 -0.028646750641534012 -0.06420412248381083 -0.02097997400473884 0.06080562659215867 0.0340746595880834 0.12456214015475084
-0.13622626792699052 -0.1560502627549845 -0.0730844223734796 0.0002975325018641567 0.05771563403529849 -0.08456938299693509 0.03332763324661745 -0.04231076797022257
-0.0024418643902258145 0.07558055816423771 -0.17811503526140313 -0.10257991306532398 0.002286411878223659 -0.08951608730868472 0.07408877508761288 -0.03401148121476819
0.04390867427990658 -0.10884700636679924 -0.11408261232022963 -0.15604520370873695 -0.10222582680493005 0.15655937027521794 0.09140690644251846 -0.15929272988230428

conv_layers.2.weight f8 [16, 16, 2]
00000000: 4d60 8417 3ceb a03f fde8 8d9f 48ae a93f
00000010: 600d 251d 597d c5bf aa17 1af7 6a1a b3bf
00000020: cbf1 31c5 8608 b53f b893 dcca a7f5 c23f
00000030: b06e 4b2b ea2a b6bf 6186 2727 67c0 99bf
00000040: e4d7 036e 6b3b b83f 8659 c4c3 b9fc bb3f
00000050: 9550 9505 562a bdbf 55fc f422 a6ab bebf
00000060: 7645 19e8 ce40 6cbf e380 a078 31a8 c1bf
00000070: 38a7 90df 0141 c13f d344 73c7 2734 c33f
00000080: 4963 39a2 721b 9abf bca9 4ce6 48c9 c03f
00000090: f6ab f48d 3d50 c2bf b8bf 1dd2 f4b1 bc3f
000000a0: 21dc 4ff9 3aa0 80bf 2dcc cef4 9975 b63f
000000b0: 23c9 0e3b 35db b8bf 3462 bd91 484f 84bf
000000c0: 2f6b 59fd 1b16 adbf ecb2 674a 0efb a03f
000000d0: c887 85fb 9410 9abf 3e6a 8bf7 b9dd be3f
000000e0: 5534 222a b34b c3bf 1766 27f6 5dab b83f
000000f0: a569 3470 3b51 b63f ceac 214b 382f a83f
00000100: be09 2f42 456b 6a3f 168e ca7e 1f14 c0bf
00000110: 6c2e 3d00 fef9 b03f 6f1c a5b5 8c99 b13f
00000120: 4911 a2cf 0ea7 c63f cff6 0dae a0d2 b7bf
00000130: 8035 d53c be77 abbf e77f 3cb1 6261 a9bf
00000140: dd3d 9785 4e58 c63f 5405 a298 f622 92bf
00000150: f297 f4e2 6c70 a4bf e349 5735 8240 c2bf
00000160: 8e75 5ee2 b5a0 5a3f 88c7 8332 7a7f a6bf
00000170: 0621 ffaf 37a5 b3bf cb9a 9363 0d1f c5bf
00000180: f504 beb3 37ea 7d3f d92a 1225 06b7 a13f
00000190: 3d8b 0332 126e b4bf 2661 015f b541 bb3f
000001a0: f332 1be0 9c3b c73f e259 b497 8c93 c0bf
000001b0: 31c7 0c56 a451 c33f 18f2 9a3b 63db 613f
000001c0: e319 20e0 6b40 95bf 488c 57ac ac9e c6bf
000001d0: d7c2 4873 f4f6 c43f 1000 0855 a901 8f3f
000001e0: 9c78 bf0a 35c9 a63f 8ede 17d8 180b bd3f
000001f0: df98 7825 af9d ba3f 8523 7a30 f3a0 b5bf
00000200: 1298 cc0e 0fa7 b4bf a1fd cfb6 e397 95bf
00000210: d850 42a0 0068 9bbf b881 3f3e 922b a3bf
00000220: 4881 10ad 7d75 bf3f 6f6b 680b ef2e bbbf
00000230: b91a 52bd d4ce 953f e5c1 0c79 f213 adbf
00000240: 4743 02a6 6894 bbbf 1f18 b7c9 dcf0 6d3f
00000250: e99e e775 9c62 c33f e11b db03 cf05 c83f
00000260: 553f 31e9 c33d ca3f 146a 4c24 d5c3 bfbf
00000270: f1da d44b 8cee bf3f 1c1b 86d1 1017 c2bf
00000280: 8ff9 e68e 3fcc bf3f 0f18 1ed0 6441 b3bf
00000290: 1319 c1e7 121b b1bf a251 8523 7d79 c0bf
000002a0: e68c 51fa d57c b53f 9b3c 1a96 a9f3 b33f
000002b0: 02f6 c807 ce1b aa3f 4558 cb7b 8ac9 b4bf
000002c0: 08ff 201b 49b8 c03f ef0a 01ab 0155 9fbf
000002d0: 311c 2efe 10b4 503f 917e 0cbe 57d1 c33f
000002e0: 3ec6 ee77 3fdc b6bf cc1e 35ab 5232 bb3f
000002f0: 9b9a 7347 b9c7 c03f 481b 862a ffce b3bf
00000300: 8d11 51ab f4f8 943f 212b 413e ccd8 c7bf
00000310: 30a6 1e88 f967 c6bf 53db ed90 af1a c7bf
00000320: c2d0 1815 1e61 8e3f 36ab fe8e f831 c53f
00000330: 170b 5373 5f86 893f f911 effa 2a48 c33f
00000340: 45cd 1234 5d1e bc3f 88c2 e0fc cbed babf
00000350: 8aab b8ce 1d25 9b3f dadd 640c 08f6 a43f
00000360: 1cef b3cc 9ad8 b23f 8cf5 4cb6 c6e0 b93f
00000370: 9b6e d108 208c b4bf bae9 a36e 17cf a0bf
00000380: da24 384b 84c5 b63f 3f55 ac92 3de3 b8bf
00000390: ad7e b482 bb67 c0bf 64a8 8d40 cf2d 923f
000003a0: 16ee e3ff 5255 b93f 11dc ded9 b5c5 be3f
000003b0: 898f b250 fd3f b3bf 718c c99b 4434 c3bf
000003c0: 2f76 0aab dd76 bc3f afb3 100a 1b5a b0bf
000003d0: 0c31 ed3c a544 b73f 9576 715d 973c af3f
000003e0: 253e 74b1 a462 b93f f108 4f0d dc0e bbbf
000003f0: dceb 69d5 ea4a a7bf 6e40 9a01 2bb5 be3f
00000400: fd2a 5af3 1936 a6bf 0644 95d6 0563 c93f
00000410: 03b5 c069 f137 a13f be58 4754 9df6 a43f
00000420: a9a8 14f6 6fce c1bf b036 3613 77c6 973f
00000430: 4a9f c584 c7a1 82bf 51ec 220d 7839 b13f
00000440: 6c3f 78d3 fa5e b7bf c7ca 343b 8f63 c03f
00000450: 013b a188 d197 b6bf 2835 450d 5091 afbf
00000460: 7354 30af e32c 98bf a220 8814 297a be3f
00000470: bfb4 c860 a254 bbbf 1805 8407 d9e2 c33f
00000480: 9daa 21f8 12ca c3bf 1d66 7c4b a0b5 8d3f
00000490: 94f6 f7af a212 a9bf fdb2 a231 c99c 643f
000004a0: 54d5 3edd 7f36 99bf 61ae 95fb 80c1 b6bf
000004b0: 9c7a 369d 3c23 9abf d9b9 b483 17a9 a5bf
000004c0: a1d5 7a7f 5fcc 8d3f 9ce3 f754 8fdc a73f
000004d0: 73c3 cb07 215b c43f e930 2a4f 1902 babf
000004e0: f270 4010 1fe4 bd3f 159e df2b 4966 9b3f
000004f0: 3442 c833 0031 9d3f c4b9 b63c 21ce c53f
00000500: 42d6 55e8 a25e c23f 45b7 3dbb deee c53f
00000510: f447 18f3 f219 c3bf 3fd0 faec d7a6 ba3f
00000520: b029 2580 2560 c03f 5521 0572 b1e5 b43f
00000530: dd6e 6841 040b 413f 2fb9 9060 4f61 b6bf
00000540: 9fb3 4db3 3915 96bf a288 3d37 3d77 bcbf
00000550: 6ecc aa5d 56f3 be3f 0027 f70e 1cd3 bd3f
00000560: a011 ad80 d025 be3f f9d7 d64a 5912 cb3f
00000570: 2620 281b 08fb 9abf 499d 454b 4d01 993f
00000580: 9b9b d3ef 3622 c23f d8a0 e63f d45c be3f
00000590: 79ca 21d7 5a78 c53f 148d 15d1 17bf a93f
000005a0: a4c8 a2b1 92c3 b93f 6cf2 3ff0 f7bc aebf
000005b0: 75a0 3397 32ed a13f aa87 893e d3e8 c1bf
000005c0: 499a 4756 93a7 74bf 51a9 1737 8492 9cbf
000005d0: ee0e b770 293a c53f 27cf 39a1 1a26 a7bf
000005e0: 327b 8601 1b81 9c3f 4161 c551 d934 bebf
000005f0: fbfe 0822 f10f c6bf d4e4 6544 5f73 a43f
00000600: 454f 6025 a890 c23f 6970 fa31 61d6 c13f
00000610: 22e1 5863 12f6 96bf e422 de3d 7963 c0bf
00000620: cc77 f32d 8459 a3bf 07e8 f87c 7a40 c33f
00000630: 5112 cf7b 6530 c03f d99d 64e5 f4b8 b73f
00000640: 60a0 b708 f976 c33f a377 f631 c1fa 95bf
00000650: d3a9 cd31 9fc1 b8bf a435 9556 2e14 c43f
00000660: 5200 4a16 22e5 8bbf f706 0472 df19 aa3f
00000670: 5a95 ce6c d81b c43f 35d5 eabc 2002 c6bf
00000680: a277 000f b058 9dbf f218 0f19 30e1 b83f
00000690: 275b 2842 3773 c4bf 32a2 94bd 88f8 bcbf
000006a0: 3acf 5268 8e11 bd3f 3a35 489e 25b6 c03f
000006b0: aef2 cadd 0996 78bf 37ca 2de4 a75f c2bf
000006c0: a083 1432 405e bebf 4fd7 3229 b330 9c3f
000006d0: 8ab1 ca12 1754 babf bc52 ced7 7e68 c43f
000006e0: 6a35 54aa fac8 c6bf 3c25 69f1 ad27 b2bf
000006f0: 8d6d 1876 9b2e 9cbf f0cf b5a2 f397 843f
00000700: 8ce8 d424 1faf b3bf 9866 4533 fc65 9dbf
00000710: 4d02 8143 31d1 c0bf f156 daea c0a2 c13f
00000720: 0430 c6c5 1394 c13f db18 0b50 39a2 76bf
00000730: 82f7 f359 0f7b bc3f 65cd 8f39 e831 a33f
00000740: 8492 8552 4195 c03f 47ce 0d38 8bce b6bf
00000750: 764d fee7 b0dd bdbf 54ac e9bf 1274 b93f
00000760: b99b e52c 50c4 adbf f109 3023 f6c4 bfbf
00000770: a415 a248 2ee7 c33f 7693 98e2 bf45 ad3f
00000780: 35b5 831a 83fa a5bf 8f86 ea79 03aa c8bf
00000790: 7ae0 5d25 4e70 b4bf 3e17 0898 5e35 bdbf
000007a0: ac33 2f02 cfea 9bbf 1d57 4731 fc5a babf
000007b0: b946 b992 dcfa abbf d8d1 51e3 0314 76bf
000007c0: f34d 45d3 02c7 bc3f 396c 998f 773c a83f
000007d0: 2503 96ef 2344 adbf 3997 7689 44e0 85bf
000007e0: a8b8 ae1e 0a54 b7bf ed9a f57c e889 b03f
000007f0: b505 131c cae6 87bf d3f8 1670 0d4d 9ebf
0.03304469859193713 0.05015780399021883 -0.16788782046397 -0.07462185414087111 0.08216135324796096 0.1481218090567873 -0.08659232670782546 -0.025148021473688668
0.09465667186654475 0.10932503728358797 -0.1139272464400299 -0.11980665543977527 -0.0034488717217661625 -0.13794535055149656 0.13479636589300426 0.15002915610106146
-0.025495330001237524 0.13114272351351797 -0.14307374411995938 0.11209039811887933 -0.008118115170857422 0.08773195482972147 -0.09709484760131608 -0.009916846225381006
-0.0568093058361313 0.0331654039217478 -0.025453880168590876 0.12057077687806214 -0.15074767644219614 0.09636485347382294 0.08717700471280539 0.04723525921948522
0.003224978704993136 -0.12561410609224372 0.06631457811197955 0.0687492316693452 0.17697320116361429 -0.09305767297152133 -0.05364794247234794 -0.04957111753014925
0.17456990740764314 -0.017711499277088663 -0.03992023725940887 -0.1425936470464669 0.0016252304280678117 -0.04394132486949248 -0.07673976942817626 -0.16501014101159792
0.007303445421599654 0.03459948732878155 -0.0798045513252363 0.10647138184993263 0.181506738116148 -0.12950284392782324 0.15092901422172525 0.0021798074857015785
-0.020753560595062736 -0.176717361594543 0.1637864649688001 0.015139887721488804 0.044503839075092005 0.11345057750429019 0.10396856942006448 -0.08448715146563586
-0.08067411528881532 -0.021087224991786283 -0.026763925343929212 -0.03744179735054182 0.12288651919562199 -0.10618490246308253 0.021296810202808134 -0.05679280975016691
-0.1077332883162515 0.003654891230072912 0.1514468742091062 0.18767726600910264 0.20500992666574783 -0.12408191810792629 0.12473370410303254 -0.14132890921265406
0.12421033133339264 -0.07521658020968423 -0.0668193641477937 -0.12870754465496953 0.08393609391491771 0.07793674387561327 0.050993383837049336 -0.0812002708656517
0.13062394928601173 -0.03059771162248642 0.0010194936701013564 0.1548261335346877 -0.08929821661038148 0.10623661689634928 0.1310950850376756 -0.07737726963214897
0.02048094077714917 -0.18630364455960893 -0.17504805704565873 -0.18050188614480564 0.014833674448802351 0.16558749181907623 0.012463327128335018 0.15063988926534913
0.10983831902813275 -0.10519099162844203 0.02650877546527001 0.040939570916119286 0.07361762521389575 0.10108606291483663 -0.0802631398705053 -0.03282998300160807
0.08895136677178375 -0.09721741515052872 -0.12816566354830652 0.0177528746748198 0.09895819423029936 0.12020432061295618 -0.07519515247491716 -0.15003259283830375
0.11118874955942525 -0.06387490268453065 0.09089119660820105 0.06100914970077757 0.09916142780661426 -0.1056954891674058 -0.04549344878338221 0.11995190419315957
-0.04338151069267402 0.198334436203851 0.03362993637015601 0.0409440198306341 -0.139112467915145 0.023218021915048126 -0.009097632159594266 0.0672831565924963
-0.09129302656969934 0.12803831473282498 -0.08825406633080136 -0.06165552293769344 -0.023608739440608106 0.11905152083648088 -0.10676016676798648 0.15536034457185433
-0.1546043120937001 0.01450658064236437 -0.04897030256323123 0.0025161675995007946 -0.024621961477995072 -0.08889013426021954 -0.025525042624958347 -0.04230569346178798
0.01454996688640159 0.046604613420590385 0.15903103714620279 -0.10159452612623777 0.11676210543413726 0.026757376959635055 0.028507235680139867 0.17035308327235843
0.14351307243821237 0.17135223524695156 -0.1492294013010561 0.10410832915914713 0.12793415791595697 0.08162983926479701 0.0005201121119315606 -0.08742233378936669
-0.021565343445604786 -0.1111944446434188 0.12090053355022842 0.11650252690665397 0.11776450292115337 0.2114974608827536 -0.02634823480369177 0.0244190289680806
0.14166914663584582 0.11860395965652815 0.16773543838970165 0.05028604914948623 0.1006404575043996 -0.06003546531426171 0.035012799222216374 -0.13991776040626053
-0.005042624984048568 -0.027902665960860166 0.1658374595991669 -0.04521258562172497 0.02783624836740301 -0.11799391027796437 -0.17236150895950417 0.03994271955429843
0.1450395758152984 0.13935484829278558 -0.02242306453101251 -0.12803569336781273 -0.037792330369242316 0.15040522672808285 0.12647694154124392 0.09266596413055285
0.15206826139115304 -0.02146436564873223 -0.09670443502333308 0.1568658755081006 -0.013620630555351596 0.050978644054351756 0.15709977448311002 -0.1719399378249961
-0.028658629336966286 0.09718609439650885 -0.1597661088023525 -0.11316733005936255 0.11354913756332233 0.1305586836682922 -0.0060024629025831455 -0.14354418412729483
-0.11862565252933033 0.027529525174677712 -0.1028456135633801 0.15943894898795985 -0.17800839726298118 -0.07091796058479799 -0.027521542628262053 0.010055449870129934
-0.07689089440546776 -0.028709355000819586 -0.13138404651728522 0.13777934520174243 0.13733145863477614 -0.00552580249558884 0.11125274606817295 0.037490136171892265
0.129554906171638 -0.0890891086435711 -0.1166639868154585 0.09942738709803339 -0.05813837574060394 -0.12409914359162834 0.15549257799663707 0.05717277184547857
-0.04292688082373745 -0.19268840268073403 -0.0798386422374068 -0.11409560405453775 -0.027262911327671155 -0.10295082285969355 -0.05464829722462867 -0.005390181720134689
0.11241166742302493 0.047336326865398744 -0.057160494800888174 -0.010681662983937567 -0.09112609147152517 0.06460431147352681 -0.01167066476989729 -0.02959080692902989

conv_layers.3.weight f8 [16, 16, 2]
00000000: d4cf fca1 0ca2 bbbf 325b 74d4 4ddd a6bf
00000010: c8ee fd2c d613 c4bf 67c6 307a a7bf a73f
00000020: 38a0 6c5a beda b53f e7a2 04c5 ab26 c33f
00000030: c478 0aa9 0a33 a03f 9b34 7964 2771 b9bf
00000040: dc7b 6e5f 6033 c7bf 7c95 9746 690e c53f
00000050: e8f4 a3b1 33d3 aabf 0be9 133e fc67 bbbf
00000060: 4a0a 0e9e 44d4 babf 001d 82cf 3d25 c3bf
00000070: 7c1a 5b58 d41a 803f de5a 693a 23b9 95bf
00000080: dd48 02ca ea96 b93f de05 20fc a286 c43f
00000090: c609 2a06 40bb bdbf b85b 81c0 9c17 9dbf
000000a0: 8a82 f872 ba23 c13f 4ae4 2545 1366 c33f
000000b0: 7956 1fca 0370 bcbf 32fa 38fc 51e7 c23f
000000c0: 82ba b29e 0f9d c0bf c68b e749 86e9 bbbf
000000d0: 6efc 974c ac75 bd3f 88ca d80e aee5 c53f
000000e0: 835a f770 544e ab3f faca e735 e04b b8bf
000000f0: 357b ae2a c4ae c0bf 8320 1a29 60f1 8abf
00000100: bcda a93d 73a7 c43f 7c94 09cc db95 643f
00000110: a127 6a72 6fca c23f 2907 0948 0346 c13f
00000120: e270 c179 6268 a33f f47f 9ae1 6374 a8bf
00000130: 3416 3021 2f0b a03f cdd6 ec68 5dc7 b23f
00000140: 5669 d3e3 d4bd c9bf 88a6 c4ef e982 97bf
00000150: e129 6259 0d5e 71bf 2565 ee70 1587 b2bf
00000160: d4fc 624a 29b6 a3bf 7ff4 6f4e 80e8 b43f
00000170: 98c7 3f8c fff0 c2bf d66b eb5e 37eb bfbf
00000180: 69be 0ce5 2c80 a73f f85e ca43 ab22 b7bf
00000190: b746 d464 08a8 b4bf c092 babc e68c a63f
000001a0: 8089 e5bf 4547 c23f be44 8895 d4b1 b9bf
000001b0: 03d8 d4b6 1b08 bf3f d3c3 2bf3 8080 bf3f
000001c0: ac01 f3a0 9afb 9dbf 6a58 6c5c eb64 853f
000001d0: aed3 f714 9be5 be3f 8b20 ba2a ac23 a53f
000001e0: 2d4b 95fd f33b c43f 0061 385d d138 b53f
000001f0: 5932 2887 4627 bbbf 68a1 6199 9e3a 733f
00000200: d35c 9b82 1573 b6bf 73d5 e35c 5004 873f
00000210: 40d6 04ac c2c1 c0bf 0b1d e969 0de3 c03f
00000220: b13b bfaa 2069 b53f 58d6 037c bc87 8c3f
00000230: e550 a8c5 93b1 b23f 5703 90af 24a1 b2bf
00000240: 1372 682d 2001 c2bf 0481 2f37 c949 b9bf
00000250: 1887 7b2b 2d96 c03f d60b b3ec 5f0c ba3f
00000260: 9171 e807 2fce c2bf 4993 2b2d 8fdb afbf
00000270: 4cf1 0613 0379 b6bf 1cb2 c5fa 3ea4 c03f
00000280: 3170 1312 649d b63f cf3a 7413 db8e c4bf
00000290: 8f09 9f44 cd35 98bf 46a1 8f9f f75f 9abf
000002a0: 840c 6b36 9d95 babf e86c ca6f d1f4 aabf
000002b0: a177 22fa 21cf 85bf bd08 e4f9 e660 c2bf
000002c0: 446a 0097 c839 ba3f b98f 249b e6e0 c1bf
000002d0: ac5b 77b9 11dc a03f e81e 67f6 2300 c2bf
000002e0: 6cc9 ae6a 2e70 bc3f f1c7 6012 d3be b1bf
000002f0: edec 44df f625 acbf 1858 bde0 ef09 943f
00000300: 6c96 8fa6 b04a b9bf 381b 0fc9 eb3b 94bf
00000310: 23be 2fd0 9de5 ab3f 8833 3aa5 ea76 943f
00000320: 616c 27b8 1a66 abbf 7f85 992c e750 c23f
00000330: b6c1 a350 99e3 b6bf 92d8 04f5 24ed a5bf
00000340: d930 4886 a913 a93f ae71 8ca2 53ed c3bf
00000350: 870b 3c01 0254 8dbf 0c0b 8994 7a32 a5bf
00000360: 0b5e d766 a331 c63f bbff 14a4 de71 99bf
00000370: bd9a 68b1 3c27 b1bf e078 060e 9a56 c23f
00000380: d7f7 49b2 6622 c63f 24bd e1dd 7d57 aa3f
00000390: 630c a1c4 1de5 bbbf efd1 0969 aea6 c4bf
000003a0: bacc e6a9 8e78 c0bf 4e1b bbe7 37ef b8bf
000003b0: 581d 8d00 e4da b2bf ca46 cf49 ff61 a33f
000003c0: 449d 7634 49c8 bd3f e987 b406 75cf c2bf
000003d0: 9261 f4c2 998a b33f 7abc 6c1f c6f7 b83f
000003e0: 86f3 f158 505f b63f d2cb 9ec3 451f bdbf
000003f0: 9430 23d1 2d7f c23f 5d50 ead8 4554 ac3f
00000400: 05da cb7a c523 b4bf 8181 e871 12e8 c43f
00000410: ece2 0153 3699 9b3f cc24 6068 db3d 79bf
00000420: 5ee5 26ea a5c1 b83f 8c1b 9c0b bef7 ba3f
00000430: 6256 b12d a650 ad3f 7122 3c8b 1363 bb3f
00000440: 1049 ae08 2a22 93bf 0036 0103 edf3 c13f
00000450: 958d 658b ab1c bfbf 4077 1039 9ccf b4bf
00000460: 30d2 759b dadb babf 695c 7708 1c69 9dbf
00000470: 7d10 464a c358 a1bf fbb9 aaaa 89fc c53f
00000480: 9322 70ed b566 c5bf d746 9f1a f421 b2bf
00000490: 6be9 dc07 c098 98bf 2f8e 048a 61e1 b7bf
000004a0: 52a3 4c01 cd6d c0bf 1d4d 6dae b108 9a3f
000004b0: f486 a1d4 921e c13f 7e40 966d bda1 c4bf
000004c0: 5d29 c735 45fe b1bf dc9e d404 59c6 943f
000004d0: 78d0 9de0 c971 af3f 8f1e 9522 e3a1 b9bf
000004e0: c11a 6078 6f63 b73f 1f24 fa75 1b45 c0bf
000004f0: cbac 3044 cb45 a1bf ec56 99a0 734c bfbf
00000500: 57af 4f0b b862 af3f 4a82 c781 0639 95bf
00000510: ddc3 4105 9225 ac3f 9ff4 d9db 417c 823f
00000520: 5d68 6898 147f a53f 47ce 4421 8abe 973f
00000530: 4c5e d9cc 6998 c5bf ec59 28c6 d954 ac3f
00000540: 36f0 e34d 67be b7bf d407 7a9f a69c c1bf
00000550: b395 c8c5 c137 c33f aa47 8b88 cfa1 be3f
00000560: cd0f 4c00 469f a9bf 7502 d087 5500 a3bf
00000570: 3826 19d4 2fc1 babf 8f12 8ff7 a0e8 c43f
00000580: 8ade 839e 73d7 c1bf 0d9e c28b 6494 af3f
00000590: 430b 58ef 4221 b6bf 0fbb 8881 e241 90bf
000005a0: 24d3 f1ed 6a33 633f 747b 0472 f717 a3bf
000005b0: 304b 3b98 d361 babf 5b8e ce5e a722 c43f
000005c0: 9e32 422e bc4e b03f 1787 a754 43c7 aabf
000005d0: 956c 18cf 3176 c13f 9525 2211 740c aabf
000005e0: bd34 e8ab 6c76 c63f 9d4c 59e7 8ca5 ad3f
000005f0: c1cf a9f2 d009 53bf 6f4c 5965 ce08 c0bf
00000600: 9783 86fa 36a0 ac3f 6fc8 6228 84fa 943f
00000610: c71f a88c d250 8fbf 72c2 301f 253a aa3f
00000620: d7b5 0141 f582 cb3f 71f9 af92 090b 9d3f
00000630: 7a63 efa8 0727 7fbf be32 6480 27f8 c83f
00000640: 4c4e a602 d942 a83f 4396 b1f4 fcbd c33f
00000650: a37a a0a9 c464 be3f 31da 8b82 5493 2cbf
00000660: d5c4 043c aa65 bcbf 67c7 af65 7ed0 a13f
00000670: ff22 0e84 633e c13f 2a5e d292 a037 a03f
00000680: 173f da4e 7257 af3f 315f 2eea da62 b23f
00000690: 0abc 1edc a750 bb3f 68c2 a18d bafd b03f
000006a0: b199 e762 43f9 a53f be01 e9ba 8559 c4bf
000006b0: cf29 ed73 05e8 98bf e5d3 6bb6 267a c63f
000006c0: 39a0 413e ffe0 c13f dd02 a6a3 e01f a6bf
000006d0: fe1d a840 1921 b83f cf00 a3fc d6b3 bb3f
000006e0: f592 8f4d ecac c43f 21a7 fca5 ea92 b13f
000006f0: bb19 2b71 475b b5bf 7cfb ac20 58b3 bd3f
00000700: 0e7a f724 273d bd3f 06d5 68a9 9f2b c13f
00000710: c481 c00b c806 c33f f20a 2167 1080 b83f
00000720: dadb 0226 baa2 c03f 8f5a 4e0a b452 b43f
00000730: 8173 b963 28a4 ad3f d7d3 8476 37a9 c6bf
00000740: e096 25a5 a7d6 c43f 9d0e eece b91e 9fbf
00000750: 2108 e7c7 aead ac3f 9efd 533c b100 c5bf
00000760: a6fe e0f9 0d70 993f 5ad3 6580 f4f6 c9bf
00000770: 140b 65a0 aa9b a73f 422b 7e4d 27db c2bf
00000780: da9c fd42 43bf be3f 4428 28b1 c878 a8bf
00000790: 49a4 dc7f c71e b93f 6ab8 2f4b ce75 b1bf
000007a0: 8b80 98e8 4bee c23f 6e71 af08 7b49 b53f
000007b0: 294b 472e 48ad bcbf 1a12 8e7d e6c0 bd3f
000007c0: 71a3 5699 0620 a4bf 2765 0b76 d17d 81bf
000007d0: 9a41 d627 338a bdbf 2a53 a4b5 f8fb b5bf
000007e0: 5a54 f685 1c6e b6bf 60a8 be2f 6733 933f
000007f0: 3e21 40a0 29d3 a5bf cdfc e851 b599 54bf
-0.10794142679952695 -0.04465716570319102 -0.15685536572333647 0.046384080568157064 0.08536901195168489 0.14961764450097023 0.03163941682326901 -0.09938284113850886
-0.18125538501496308 0.1645022959411725 -0.052392592844606345 -0.10705544009752914 -0.1048014531971059 -0.14957401878584875 0.007863673159034017 -0.021214056434781685
0.09995906288012031 0.16035878477855098 -0.11613845968717049 -0.028410386323539177 0.1339028416996551 0.151552590144805 -0.11108421024922589 0.14768433394961417
-0.129793121804557 -0.10903205208118924 0.1150767981525733 0.17107177472060564 0.05333198431951749 -0.0949077731709557 -0.13033344348965561 -0.013155699972472462
0.16136017332947528 0.002512864390427581 0.14680283629087135 0.13494912164065312 0.037905766833064694 -0.047762986459247175 0.031335327912568905 0.07335456668519243
-0.2011057007246772 -0.022960334071433525 -0.004240085740216477 -0.07237371451482895 -0.038499155359653564 0.08167268671964399 -0.1479796824274302 -0.12468286578534502
0.04589977546708896 -0.09037275700609004 -0.08068897687578667 0.04404374173944836 0.14280006284668545 -0.10036972666445629 0.12121747220666639 0.12305456101218164
-0.029280105660974762 0.010446394689591371 0.12069100629726279 0.041287784782128766 0.1580796230506051 0.08289822126278423 -0.10606804656726733 0.0046945758132114004
-0.08769354284901291 0.011238696894433109 -0.13091309928283756 0.13192908927360522 0.08363536995533029 0.013930771383893134 0.07302211356756379 -0.07277135168261616
-0.140659353420134 -0.09878213498405236 0.12958302138491073 0.10175132302087717 -0.14691722761280038 -0.06222197939295044 -0.08778399672059328 0.13001239056338043
0.08833909455592061 -0.1606096119871467 -0.02364273768740471 -0.025756711114725016 -0.10384543016975739 -0.05264906396515717 -0.010648980566027979 -0.1435822220010489
0.1024442070633223 -0.13967592788060104 0.032928995027467906 -0.14062928706538647 0.11108675102767557 -0.06931800078089602 -0.054977144960924075 0.019569156734483867
-0.09879592958858446 -0.019759830614727053 0.054486209548368934 0.019984880766560603 -0.05351336954091646 0.1430939643642368 -0.08941038340322546 -0.04282489291146975
0.048978135721058975 -0.15568013607925252 -0.014320388472247604 -0.04140074790168144 0.17338984033152402 -0.024848440899631657 -0.06700496035828514 0.14326787648037165
0.17292484002604055 0.05144875844495747 -0.1089647870112898 -0.16133670929742958 -0.128679116210696 -0.09740018279545135 -0.07365250600297679 0.037857034454317054
0.11633737116664117 -0.14695608928110396 0.07633362779268385 0.09753072993474801 0.08739187404166956 -0.11375843072782679 0.14450619422712363 0.0553304507531329
-0.07867082832294876 0.1633322769348631 0.02695164567600987 -0.006162507115740467 0.09670483557319673 0.10534274848406094 0.05725592906734957 0.10698053502358974
-0.01868501356109059 0.14025652548518508 -0.12153122094382802 -0.08129288094684473 -0.10491720481315592 -0.028721273438204884 -0.03388033181821102 0.17176934083313697
-0.16719698041585626 -0.07083058977084576 -0.02402019546500737 -0.09328279132437765 -0.12835085452504785 0.02542379023664153 0.13374553091403352 -0.16118591166423707
-0.07028610766352501 0.02028788654311496 0.061415012997628915 -0.10012645334529167 0.09136101425984135 -0.1271089864788175 -0.03373561103247765 -0.12226030989526365
0.06130004060818688 -0.020725347205259127 0.054974139348707964 0.009026064416725097 0.04198517189452453 0.023187788277210932 -0.16871378424069616 0.05533485931316648
-0.09274907733555512 -0.13759310519168244 0.15013906628989346 0.11965653499217291 -0.050043284927624755 -0.037111924008063214 -0.10451029709033655 0.16334926688991344
-0.13938756217952558 0.061679021893095244 -0.08644502967221705 -0.015876330524572654 0.0023438538042292057 -0.037292225521233485 -0.10305521456329525 0.1573075497554893
0.06370140199050886 -0.052301506122388534 0.13641951191025173 -0.05087626179836061 0.17548902887248188 0.057903674355338476 -0.0011620083338614725 -0.12526874493287063
0.05590984161540929 0.020486893620450915 -0.015290875356200119 0.0512248611997891 0.21493402170328466 0.028362416818703055 -0.007605581208701357 0.19507306832419674
0.04738500745147842 0.1542354769509747 0.1187251009109596 -0.0002180138265186079 -0.1109262844591002 0.03479380599300335 0.13471645305641997 0.03167440216310198
0.06121403896861304 0.0718209096652316 0.10669945835137198 0.0663715930729808 0.04291735250790241 -0.1589820063254716 -0.02432259101923667 0.1756027594307447
0.13967886485920802 -0.0432119560018742 0.09425504520924474 0.10821288745774214 0.16152719294691278 0.06864801933684507 -0.08342405808352897 0.11601782605883487
0.11421436932094073 0.13414378902385965 0.14864445279910232 0.09570410268592491 0.12996603828443548 0.07938695193875332 0.057893049405470805 -0.177039082403694
0.16280074657259203 -0.030390647177695674 0.05601259412971183 -0.1640836281367059 0.024841516853710964 -0.20284897107526484 0.04610951621955031 -0.14731303485708663
0.12010593781961934 -0.04779650843200092 0.09812590476634954 -0.06820382438283593 0.1478972326012847 0.08315247499507958 -0.11201907281728708 0.11622467580134135
-0.03930683728987717 -0.00854076043599379 -0.11539001200276858 -0.08587603029839089 -0.08761766691743969 0.01875077465926045 -0.04262666779692602 -0.0012573500349757794
