saved_model/Lorentz_cnn/saved_model.pt (torch, 36865 bytes, 12 tensors)

conv_layers.0.weight f8 [16, 16, 2]
-0.1511211777317146 0.15489383136865467 0.09614740073584815 0.0043808387241385015 -0.017548405950397 0.08406930013013844 0.028999436161432763 0.11829269112261492
-0.050867183346849164 -0.1269498470441996 0.034842290084381555 -0.15072092601511058 -7.954668445431015e-05 -0.1439823656459058 -0.08112791035999647 0.12569336077367138
0.01343576470945858 0.07948019589999428 -0.04873206698622897 -0.050259611634041884 -0.07719730938123885 -0.09149643069587211 -0.08083073987701118 0.08672954608502083
-0.08529956767957055 -0.14312506788231202 -0.0777447231913987 0.06413147505130382 0.018734199641454324 0.02721940166941699 0.15073123524885593 -0.14236120673922084
0.1346751208796038 -0.15452819117109218 0.08878432491067077 0.12057284840328664 -0.07627699638327182 0.08020305933693597 0.15205161760632818 0.0034204314981378632
-0.015213547815070064 -0.1438777136487731 -0.03628763292956065 0.06044565798939918 -0.06490046677511525 -0.1413061746440088 -0.11806789066126312 0.11091816899677101
0.08069969421903635 -0.1420568832152062 -0.19833915467233093 -0.06953198097508645 -0.10055073754580722 0.15313096602691104 -0.05117075619636533 0.0655294201686191
0.09713140062335737 0.1573903212903251 -0.043009341867144904 0.04201360714068691 0.05070932842671325 0.021372253520369425 0.06550291543144657 0.17096802509994738
0.03473873844627608 -0.07773348041305202 -0.15665725035196032 0.0553626983434109 0.10606935579868865 0.09222263126020842 0.0346965213573857 0.008931208871720652
-0.05441122295567716 0.15468104431243893 -0.07704031551804912 0.08335010872036898 0.10609297680418782 0.021717894810314078 -0.08059522754387281 -0.0015532037764826247
-0.05388780470298821 -0.019643826112527542 0.03614752222152698 -0.06165419685380395 0.1627473259604347 -0.05632485147720517 -0.08417896707018836 0.131467811686632
-0.08278513438871288 -0.1279021711404396 -0.2136102861999646 0.006634856579294387 0.11158342689793128 -0.05392434476302282 -0.12530752229080297 0.11510241439900055
0.09094804037367615 -0.10323123693079318 0.014052147591007171 -0.0937336019238244 0.09216315185350894 -0.13197355297378727 -0.07496410543133705 0.14848912026048788
-0.15397131455989035 0.14031260082746405 0.034384495855471424 0.12030898957850383 -0.053300687928842 0.01191490267330696 -0.03021877913957037 -0.16568175785636977
-0.13834989844787782 -0.06760676210791083 0.15100687404211852 0.16553554309037471 -0.06624394879079 -0.009338538716200344 0.11667493632208141 -0.027183938354697918
-0.07970407956453124 -0.14466862625095414 -0.12684219922457565 0.04662313226811296 -0.02426607277371079 0.1596161250234816 -0.06432043658477947 0.07794568501237448
0.16838689557248732 0.16632462172528734 -0.014331452119955509 -0.11041624553132175 0.09288788267260753 0.13153731450731238 0.12546413744378482 0.034581885038253865
-0.07825854631838923 -0.19517560280054552 -0.07370087496700327 -0.06471868911239657 -0.011551130693655523 -0.03882776750686665 -0.10033733353125476 -0.11494285454116052
-0.09058099753684427 -0.08267352526300208 0.12087388763040045 0.0701079810321859 -0.11986966400151798 -0.1390798763750518 0.1124773651110048 0.15621892108526797
0.0335209445186484 0.17795926278612353 -0.08301507538832532 0.08111461616528878 0.06718007258212959 0.05769216733710468 0.01920861903641305 -0.0525581202830659
0.12014361153906543 0.0320298858693161 -0.10974263130087257 -0.0802202227909487 0.0690151208859552 -0.16038688811205803 -0.12129233515170167 -0.038549495664317514
-0.07436395103865273 0.13543101051634374 0.12268957896353445 -0.12743764591549836 -0.03318225805585079 -0.12852590041004727 0.1496908461746637 0.07643313899257512
-0.17381936001860787 0.02531499577295657 -0.11128448967925475 -0.08643901118682791 0.14163113573802244 -0.1411424153185937 -0.11446945814641186 0.09092467473157986
-0.05008850399895064 0.17157021590580795 0.12204701944243528 0.02974185007001774 0.057296452184291156 -0.16999866761148882 0.04679680284299919 0.02875904987983653
-0.006545186625163713 -0.12927648338626196 0.03681947567017947 -0.10933219866227267 0.1715827361623588 -0.12333634380597147 0.04552680254229487 -0.0022460113019972315
0.13752378929512984 0.11324410135780716 -0.18510922077411918 -0.17365490015338864 0.10625480997119183 0.010588362705985779 -0.15850109521760092 0.06762753021870035
0.095968273563942 0.14446341981890928 -0.04121521378992024 -0.11193004691529582 -0.020219334482151248 0.07336562067786644 -0.06532465527084717 -0.07594527272928749
-0.17239737184449386 0.16011933044720272 0.05772217484501799 -0.01688747999696345 -0.1410716382975259 0.10101260056820786 -0.15175848380292137 0.015658784352828064
0.044588405148656446 0.039680126101384564 0.08283581205721065 0.16871879421737862 0.1412289355926638 0.0032844283307798343 0.06562552963265726 -0.01134831184597903
0.018372809167032877 -0.13303038528306949 0.15880497014570444 0.06226385098987946 -0.1276767709423026 0.07298171302779088 -0.08505881988007863 0.11798661342810336
-0.18801685756371625 0.12229914429409686 0.07609773138091232 -0.06550145600942921 0.05744114266862968 -0.08797418372085543 -0.10938798550033432 -0.043471514608945036
-0.15283866085331366 -0.04743528792832188 0.11133118008501229 0.10787564893306206 0.10020988063385461 -0.07955116720257668 0.012440587682797374 0.10748591760788336
00000000: a39c 0b52 f057 c3bf 2d4e 0aa2 8fd3 c33f
00000010: f880 c1b5 1d9d b83f 65a0 c970 a4f1 713f
00000020: 8894 9d96 35f8 91bf de13 a8ce 9085 b53f
00000030: c5c5 a937 07b2 9d3f dc3a ba07 6e48 be3f
00000040: 1326 d471 430b aabf b6bd a480 e43f c0bf
00000050: 703e dc40 d9d6 a13f e163 07c4 d24a c3bf
00000060: 56bf 08a2 49da 14bf 3f2f d39f 036e c2bf
00000070: 32fc c979 ccc4 b4bf 9e72 ec54 b816 c03f
00000080: a9e5 30d0 3584 8b3f 44f5 116a d058 b43f
00000090: dbd5 f1d3 68f3 a8bf 1c45 8eb8 a0bb a9bf
000000a0: 83b1 21ef 33c3 b3bf c11c 8a61 4f6c b7bf
000000b0: d182 48c8 52b1 b4bf 0137 0854 e833 b63f
000000c0: 25f4 8b45 31d6 b5bf 6b6a e516 ec51 c2bf
000000d0: 592b 8b03 14e7 b3bf c255 fd9b eb6a b03f
000000e0: 8b6c 1bdb 0e2f 933f 8e84 f21f 67df 9b3f
000000f0: 1194 f03e 294b c33f 89ff 945b e438 c2bf
00000100: a1a1 e1cb 083d c13f 7ce7 b16b 94c7 c3bf
00000110: 5f86 e3cb 91ba b63f 907c adb8 dcdd be3f
00000120: 3a3c e7a4 e386 b3bf 6a2b e40c 3088 b43f
00000130: 6627 766a 6d76 c33f fad7 862d 2a05 6c3f
00000140: 622a 93d2 4728 8fbf 6c53 5fbd 956a c2bf
00000150: d609 5de9 4a94 a2bf d3d4 7fb8 bbf2 ae3f
00000160: 4554 4b26 519d b0bf 22d1 681b 5216 c2bf
00000170: 510b 1981 b239 bebf ba92 5f14 2265 bc3f
00000180: 51cc 7733 bca8 b43f 465e ca81 eb2e c2bf
00000190: c6be 6a6b 2d63 c9bf 3c68 5010 d9cc b1bf
000001a0: 5f11 5971 b1bd b9bf 8594 8ba5 cb99 c33f
000001b0: 2dfd bfa8 0d33 aabf dad0 8c3c 89c6 b03f
000001c0: ea8c 177d 9add b83f 760e 53b5 5d25 c43f
000001d0: 82d6 7b09 5205 a6bf fffe 4fb9 ce82 a53f
000001e0: 3dc4 63b6 92f6 a93f e1b0 a5a7 9be2 953f
000001f0: 7e1a 928f ccc4 b03f 45a5 3bbe 47e2 c53f
00000200: 42e6 0fa3 46c9 a13f 0da6 2d64 57e6 b3bf
00000210: b8b2 7843 580d c4bf 5045 9be5 7f58 ac3f
00000220: 2c5e 437e 5c27 bb3f 95b2 3601 e79b b73f
00000230: d6a5 0711 bec3 a13f 996c 2490 864a 823f
00000240: 148f 42ae c9db abbf d907 51a5 96cc c33f
00000250: 77a0 9f03 eab8 b3bf 8170 12c7 6e56 b53f
00000260: ef92 b5c9 e828 bb3f 8706 cb3f 373d 963f
00000270: 9fbd 838a e3a1 b4bf 6216 23db 9b72 59bf
00000280: f883 b4ad 2e97 abbf 77ef e2da 821d 94bf
00000290: 74b8 8b93 ed81 a23f 56e5 4b8e 2391 afbf
000002a0: 7379 4185 e7d4 c43f f8e2 1766 9cd6 acbf
000002b0: 59d8 93b6 c08c b5bf d3db d5ef efd3 c03f
000002c0: 7c63 cb14 6831 b5bf ca5a 112d 195f c0bf
000002d0: cdb5 a8f4 9457 cbbf e3f6 58c0 262d 7b3f
000002e0: 655e 4d41 bb90 bc3f 774a 6ec2 f89b abbf
000002f0: e344 17af 130a c0bf f5ca 8811 5a77 bd3f
00000300: 4c4c 0aeb 5e48 b73f 391b 8bc2 5c6d babf
00000310: 8e4b bc52 5fc7 8c3f 6092 cce2 ecfe b7bf
00000320: 156b 1b1b 0198 b73f a6cb fa66 82e4 c0bf
00000330: c294 33fd d830 b3bf 5051 aa05 b101 c33f
00000340: 1d47 4700 55b5 c3bf 02a5 e267 c3f5 c13f
00000350: ef9c 603a d89a a13f ec8b a7e7 91cc be3f
00000360: 7e71 044f 3a4a abbf 7af6 882a d766 883f
00000370: 1c9c 84f0 abf1 9ebf 1db9 c451 0f35 c5bf
00000380: 0489 9e10 73b5 c1bf 10ef 3d40 ad4e b1bf
00000390: 23b5 bd78 3154 c33f 820a f3c7 4430 c53f
000003a0: 8145 9d09 5df5 b0bf 6930 0773 1520 83bf
000003b0: 2327 c49b 68de bd3f 05f2 d638 1bd6 9bbf
000003c0: b462 168f 7c67 b4bf f5a6 4065 8084 c2bf
000003d0: e90c b67c 5d3c c0bf dc41 a8b8 fcde a73f
000003e0: 509d dc93 34d9 98bf d2ee 711a 4d6e c43f
000003f0: 0798 98db 4d77 b0bf 3c12 fe97 3ff4 b33f
00000400: c486 c7a8 b38d c53f f632 6a0d 204a c53f
00000410: de72 46f1 ce59 8dbf dd0e 8133 3d44 bcbf
00000420: 5a06 4612 80c7 b73f fe9b 01f8 36d6 c03f
00000430: f029 9277 350f c03f 2ef2 8b82 b7b4 a13f
00000440: 67ea 1189 c008 b4bf e6b1 809f 83fb c8bf
00000450: 377c ab7f 0fde b2bf 0380 2d6d 6791 b0bf
00000460: 7513 7d84 1ea8 87bf 1dc4 3caf 3be1 a3bf
00000470: 42a7 151e b5af b9bf 7ac5 2919 e56c bdbf
00000480: 3b4f 0ff6 5030 b7bf 57e7 3f97 172a b5bf
00000490: 6b1d 5052 97f1 be3f a4c9 b8bd 98f2 b13f
000004a0: 6f45 ab3e c7af bebf 4f02 4890 5ecd c1bf
000004b0: 0728 b10c 51cb bc3f ceef 894a fbfe c33f
000004c0: 8093 e040 a829 a13f d1e4 d77e 5ec7 c63f
000004d0: 392a ded9 7940 b5bf 7652 a86f edc3 b43f
000004e0: 1be3 ae96 b632 b13f 9e7d e5e7 d389 ad3f
000004f0: e838 409a 6cab 933f a98f 82df e5e8 aabf
00000500: 8b34 6252 bbc1 be3f 704d 9ba0 3866 a03f
00000510: 370b 6ad4 1718 bcbf ec6d 5d01 5089 b4bf
00000520: 5979 2297 f9aa b13f 1002 93bb 8e87 c4bf
00000530: 4f66 bbb4 030d bfbf 9da2 4f6e c2bc a3bf
00000540: 245d b611 8409 b3bf 3b16 84a8 cd55 c13f
00000550: 0d59 3591 9568 bf3f dd3e be74 e04f c0bf
00000560: 288b 50d2 43fd a0bf 139d 7965 8973 c0bf
00000570: ed55 6ad4 1129 c33f 6ac1 4d48 1f91 b33f
00000580: 6485 5879 b63f c6bf 39dd c59b 2cec 993f
00000590: 7875 b9eb 237d bcbf 8560 25f6 dd20 b6bf
000005a0: d089 0b14 f820 c23f 7397 ef64 f410 c2bf
000005b0: b132 21d3 de4d bdbf 6a1f 5fe8 d646 b73f
000005c0: 7680 294d 33a5 a9bf c23c 2449 03f6 c53f
000005d0: 735c 1435 793e bf3f 4338 7ec5 a574 9e3f
000005e0: 23e1 9de8 f555 ad3f 2fa1 e02e 84c2 c5bf
000005f0: b73c 8923 c0f5 a73f 53ae ca2a 0373 9d3f
00000600: a74d 0528 20cf 7abf cc97 24be 218c c0bf
00000610: aaf4 b797 00da a23f 047c a7e9 31fd bbbf
00000620: 4a11 3050 6cf6 c53f 480b 0e7b f892 bfbf
00000630: 2a6e 0500 4a4f a73f 4f31 d522 3a66 62bf
00000640: ebe7 b828 619a c13f f0f3 cbbf 90fd bc3f
00000650: 70d9 b4b0 a8b1 c7bf 2e77 79e2 523a c6bf
00000660: 6674 dee5 8333 bb3f 9bba 52fc 59af 853f
00000670: d87d 2b8e c349 c4bf de3b 99ae 0950 b13f
00000680: 7024 6974 6091 b83f 9b96 cbff c67d c23f
00000690: 0495 a616 291a a5bf 86e1 f092 72a7 bcbf
000006a0: f211 6491 60b4 94bf 4751 76dd 16c8 b23f
000006b0: 57c1 02da 1db9 b0bf 9d78 a83e 2671 b3bf
000006c0: 9b85 fef8 1d11 c6bf 1c34 dd4b ca7e c43f
000006d0: b43b 6dca c28d ad3f d3fb 3199 f34a 91bf
000006e0: 18c5 70ac a20e c2bf 1ba3 ec37 f6db b93f
000006f0: e17b 696e d26c c3bf db15 c33a db08 903f
00000700: bcde c99b 4ad4 a63f 3a2e d017 f450 a43f
00000710: a52b b94f ba34 b53f 4e2d b1d3 9398 c53f
00000720: e447 cf2d ca13 c23f 5342 8908 f2e7 6a3f
00000730: ab10 8eaf d5cc b03f ac41 f2a1 c83d 87bf
00000740: a03f 085a 52d0 923f ca20 15c1 2307 c1bf
00000750: 4ae9 9ba4 b853 c43f 27f8 7227 0ce1 af3f
00000760: 31fa d361 b657 c0bf 3811 a9f6 edae b23f
00000770: 040d 9f31 6ac6 b5bf 911c 0ae6 5e34 be3f
00000780: e19a 2ab7 ef10 c8bf 126a 1229 ff4e bf3f
00000790: 0db0 9413 247b b33f 25a0 6613 b4c4 b0bf
000007a0: 04cc 69ea ec68 ad3f c12e f9e1 7985 b6bf
000007b0: 2e9c 4cdc d900 bcbf 7e23 1bfb e541 a6bf
000007c0: 28f7 f69c 3790 c3bf 532f a824 7049 a8bf
000007d0: af7e 7d41 3380 bc3f 8cc8 3310 bd9d bb3f
000007e0: d8f7 0ed0 5aa7 b93f c662 7e1d 775d b4bf
000007f0: 1ed2 ec69 737a 893f 750a e874 3284 bb3f

conv_layers.1.weight f8 [16, 16, 2]
-0.03130500282710379 0.03472251317708346 -0.10243167236530738 -0.12678113121909734 0.005433524563410013 0.11237056100035066 -0.086681766606578 -0.03796948992075806
0.14378298577696502 -0.050439319694903 -0.02746775201959977 0.06975845632754142 0.11140873753997688 -0.06425324846143178 0.0629552335674868 -0.1509834532762442
0.10450408248982068 0.04550605489140128 -0.1699927208515081 0.12547701022444144 -0.04552824895636736 -0.07257873183930773 -0.0746471337064983 -0.10737025848955184
-0.014117039291291801 -0.003997358925868533 -0.06516067748831485 0.020551382189330704 -0.15424076257705327 0.0596331141084994 0.06643977029171699 0.015472985962789608
0.09355812284175269 0.1658188774511622 -0.10602837909557429 -0.15616345750169738 0.09160886554433008 -0.1195894519588055 0.09965035813392045 0.08698662797370847
0.04818772601450664 0.006594461009968321 0.09137587811573816 -0.17162969465746256 0.14218464925455876 0.11442773740690158 -0.173864101615088 -0.07865137640323293
0.04435968230770558 0.17998436572516108 0.0973273993003124 0.1191760478444793 0.03620178258047066 0.07271968472736007 0.0800183577708799 0.08969772082482488
0.09231653925507054 0.059629433464199834 0.11252601611308045 0.089285194828351 -0.087601986303656 0.07004561328246015 -0.05932315747705696 -0.03192123401511334
-0.12750647406230192 -0.12292969079667326 -0.16512031548443512 -0.10253837049514407 -0.02096062215474974 -0.0322118879700075 -0.03152366585484716 -0.04341212965516553
-0.05798397380486658 0.011941337532608742 0.0864337243620876 0.13822072981136319 0.03568353541201299 -0.1659807141021206 -0.02184500974515645 0.15527521067836544
-0.059955828127351195 -0.006605830968028388 0.06179371840823454 -0.16528726374929745 0.11755895464392105 0.08071577618094103 -0.08941118520406258 0.16749412368300867
0.06594281775762012 0.06706503308563816 0.11259254322828939 -0.13737268081725784 -0.06254244152674296 -0.15836624642576302 -0.122812299298847 0.0193531713006793
0.07363876832836752 -0.14918773530445656 0.003865723258448907 -0.06401379428492134 0.0010048277257011518 0.11749959882385297 -0.10209531320741926 0.09601385591916434
0.1297748154010218 -0.06409353766368144 0.06251460229074968 0.04904400499526676 0.08988856189631345 -0.11498079580878558 0.12410785306105562 -0.006890504787784537
-0.1404630053082226 -0.03790812731383397 -0.09667665141366255 0.12906262813791208 0.14134978134665951 0.178525296502522 0.1402293706134493 0.02421772812689177
0.1164216733618982 -0.164902537930685 -0.1481860953164116 -0.041840909163886136 -0.10654183255252793 0.05036611932225869 -0.06976988772244068 -0.12707320435208982
-0.17427022815479434 -0.13374295154713983 0.08525733746698412 0.07000075685939434 0.06563020414761644 -0.04916786530550489 0.11385957286853213 -0.078618749233019
-0.010091191523376264 -0.00023818082612274793 0.04938227909589883 0.04089971997924276 0.06618685925387731 0.05857735561937477 0.1525994079974116 0.11687143640463139
0.043920776844528386 0.1421347584985004 0.11478946622044937 0.03710473560869301 0.04622060106882882 -0.01716494548566603 0.1283433553908875 0.13441682397666657
0.15353885064261008 0.1767504407848728 0.13263906482381163 0.036279989904374144 -0.002576151141429004 -0.02921326244083255 0.0182261958319926 0.019226680802086477
0.017141793277384385 0.18955637650936882 0.1368306166097307 0.00126486116976208 0.04616175895149388 -0.1326480378192072 -0.04041757264722738 -0.08205400212938216
0.03223580702083342 -0.11003445860105693 0.12015657245766882 -0.027734851248408122 -0.1041085868805752 0.07869656127725211 -0.033605024901856746 -0.08953686590006352
-0.035177559910668024 -0.10842418242271526 0.1616365838356126 0.15942703320073362 -0.14599953848077082 0.057345468946171936 -0.17009394077531012 -0.05546087453746183
0.17960299969816815 0.13080492038538574 -0.00526846711014657 -0.10198255998931068 -0.04753914402828048 -0.12056970808333138 0.09809154600663096 0.09658768442130154
-0.06212645996190889 -0.07798262090455085 -0.08732037149567574 -0.0707993565583736 -0.04375810859536477 0.010997470113110577 0.0021154084479435534 0.15145808633196042
-0.1346007828385457 -0.06235288061464873 0.001596159198984705 0.028922634297488134 0.044071926881341435 -0.021449603003089995 0.1516429300651904 -0.17472416001231675
0.023449894090366397 0.09953283954644021 -0.11917075174306703 -0.12013530676960635 0.17181664091784932 -0.14081706112452586 -0.09664422568832379 -0.05804679454871619
0.1652171008841909 -0.19128761335533914 -0.054501937161093854 -0.17987952618412703 -0.0261209762224521 0.04302687866068315 0.010438459453563793 0.10577313625473976
0.02333891652701323 0.07321725025270821 -0.02867797675616686 -0.06421692473136145 -0.020995875762185322 0.06079666560606516 0.03405060069288904 0.12456193454101304
-0.13626788536750162 -0.1560539759229864 -0.07302481156423873 0.00032234415653144586 0.057647495948509674 -0.08457276355946587 0.033268946321035095 -0.04232303769457724
-0.0024044492018733352 0.07559589027423634 -0.17808650269858367 -0.10258550244589743 0.0023103421702316035 -0.08950186859906058 0.07411350445337692 -0.033999530697494
0.04384693296931954 -0.10885377093175327 -0.11410285975196938 -0.15606578659443632 -0.10224589974629637 0.15654656854402943 0.0914231613414586 -0.15928983617793918
00000000: 1eec af96 3507 a0bf 079e 0f35 26c7 a13f
00000010: 7132 e24a f638 babf 06ff 2a36 5d3a c0bf
00000020: c669 d4a4 7641 763f 0d99 872c 51c4 bc3f
00000030: 1019 bcb8 c630 b6bf ba31 e9aa bc70 a3bf
00000040: e80f d11a 7b67 c23f 4f50 0bb9 2ed3 a9bf
00000050: aeab 79a2 8120 9cbf 09d6 8bb0 b0db b13f
00000060: 940c 3974 4885 bc3f 81b9 cda0 e672 b0bf
00000070: 42ce 488d d51d b03f a180 0701 6d53 c3bf
00000080: c09e 9790 c7c0 ba3f 059e 0ed3 914c a73f
00000090: a5c1 4e4c 52c2 c5bf b32b a873 a10f c03f
000000a0: e79c 9f88 7a4f a7bf 178e a20f 8594 b2bf
000000b0: d571 0216 131c b3bf b893 c604 9e7c bbbf
000000c0: 345e 94f0 64e9 8cbf a72f b6dd 885f 70bf
000000d0: fd29 ccc2 5eae b0bf 9a26 90e9 6b0b 953f
000000e0: f240 7d4b 29be c3bf 8593 b545 3b88 ae3f
000000f0: 6082 8e60 3202 b13f 1904 7405 4db0 8f3f
00000100: 0867 e1d5 6cf3 b73f 8028 db8f 8d39 c53f
00000110: 61d3 a904 ad24 bbbf e568 6607 2afd c3bf
00000120: ed5b 89b9 ad73 b73f e510 1c11 6a9d bebf
00000130: ca49 3895 af82 b93f 171e 5672 c144 b63f
00000140: 7511 9ac6 0fac a83f 9802 f625 cb02 7b3f
00000150: 247f 26d8 6864 b73f 23c3 c93a f6f7 c5bf
00000160: dc51 4549 1b33 c23f affc eadd 224b bd3f
00000170: 034f 31cb 2d41 c6bf 07f1 6f21 7f22 b4bf
00000180: 0e8b 8bf1 4fb6 a63f f459 4a4a ba09 c73f
00000190: 26e4 ffcc 72ea b83f d664 f54b 5282 be3f
000001a0: 6ce4 7a40 0a89 a23f ecef addb c19d b23f
000001b0: 5c9f b445 157c b43f 82e6 7709 6ef6 b63f
000001c0: 57fd fa84 0ea2 b73f 852a 37c5 bf87 ae3f
000001d0: 39a4 2747 81ce bc3f 7b04 ceff 64db b63f
000001e0: c724 3d72 156d b6bf 16c4 4662 82ee b13f
000001f0: 5fd2 84da 9a5f aebf db26 49e0 fa57 a0bf
00000200: 261c 10d4 2152 c0bf c0d9 adf9 5178 bfbf
00000210: c696 7499 a922 c5bf 4b9d dc63 f43f babf
00000220: 2c44 a28a b376 95bf 3e48 bf9a 137e a0bf
00000230: 360f cbb3 de23 a0bf 64bf 3c5a 1d3a a6bf
00000240: 3738 5e4e 13b0 adbf 0669 6231 b374 883f
00000250: de19 6843 8520 b63f aaa3 1585 37b1 c13f
00000260: 7354 33c3 1c45 a23f 39ec 6a25 db3e c5bf
00000270: dcb7 bec9 895e 96bf 8f1d dfdf 0ee0 c33f
00000280: 8bec 05c2 87b2 aebf 2285 873f b70e 7bbf
00000290: 4ebd 521f 6da3 af3f c7d0 1f10 2228 c5bf
000002a0: be2e 8cf9 5718 be3f e6e8 f702 caa9 b43f
000002b0: aa19 59c4 a6e3 b6bf 4dcf be8b 7270 c53f
000002c0: 28d1 ace5 a0e1 b03f 60d7 ce8b 2c2b b13f
000002d0: 4960 f06a ddd2 bc3f 04ab bc91 6d95 c1bf
000002e0: 8a27 f80c c802 b0bf d42e 985c 5845 c4bf
000002f0: 13fd 0879 a070 bfbf 2bc0 3d57 51d1 933f
00000300: a424 b085 fdd9 b23f b668 0c6e 9518 c3bf
00000310: eab7 0d5f 02ab 6f3f f554 f240 3563 b0bf
00000320: 007d 148e 8d76 503f 70d7 3d26 7414 be3f
00000330: 77fd 4c1f eb22 babf 10bb 2233 5d94 b83f
00000340: 25f4 fe0d 769c c03f 4984 2620 6f68 b0bf
00000350: b078 5cfc f400 b03f 0400 0abb 4b1c a93f
00000360: 300f a1d1 ef02 b73f 9db2 aaa5 616f bdbf
00000370: 26f2 1242 88c5 bf3f 0fa5 76cb 3739 7cbf
00000380: 5a60 0c17 b1fa c1bf 008c 21ae b168 a3bf
00000390: e0c4 1b10 cdbf b8bf 6e7b 7ecb 1f85 c03f
000003a0: a71f 17e8 bf17 c23f 2b57 feba ead9 c63f
000003b0: 4c99 5c38 09f3 c13f 7057 2739 88cc 983f
000003c0: e58b a28f cfcd bd3f d047 b8bf 861b c5bf
000003d0: 018f 8d10 c3f7 c2bf 0cd3 fcf0 2b6c a5bf
000003e0: 6911 7856 5346 bbbf c68d a186 96c9 a93f
000003f0: 1373 037a 70dc b1bf 75f0 714c ef43 c0bf
00000400: b9af 4ba1 7c4e c6bf ca94 7b31 7d1e c1bf
00000410: e52b 2ac4 6cd3 b53f 5106 68d1 91eb b13f
00000420: f09d 711c 24cd b03f 52a7 00cb 872c a9bf
00000430: 528f cea5 e625 bd3f ede8 cebc 5b20 b4bf
00000440: d388 90cc b0aa 84bf 8ba6 abb7 0538 2fbf
00000450: 7a0a 7053 a248 a93f 6aeb 73df cef0 a43f
00000460: 959c eb3b 9ff1 b03f a8be 57e5 d9fd ad3f
00000470: a971 5e9d 6088 c33f 89c6 3155 49eb bd3f
00000480: 1807 53b8 c87c a63f 0f1e b0c5 7831 c23f
00000490: 9f95 57ab d762 bd3f d49f ee53 64ff a23f
000004a0: 3af2 fb03 3aaa a73f 1a86 fefd af93 91bf
000004b0: c108 0819 8e6d c03f 4988 810b 9234 c13f
000004c0: c874 163b 29a7 c33f 20c0 5c29 c29f c63f
000004d0: c98e cb1e 51fa c03f 18e9 4674 4a93 a23f
000004e0: 7b1b dd9c 941a 65bf 7fde 2bdb 14ea 9dbf
000004f0: e497 1d4c e3a9 923f 08ba 05b5 28b0 933f
00000500: 99aa 1546 9e8d 913f 7791 ed22 6243 c83f
00000510: 5314 b767 aa83 c13f a73f eb56 36b9 543f
00000520: 5085 0b9a 83a2 a73f c8f1 2764 9cfa c0bf
00000530: 2637 68b1 9cb1 a4bf f6cf a6b7 7d01 b5bf
00000540: 934c d431 3681 a03f 24e6 1fe1 372b bcbf
00000550: 95ea 1ac5 94c2 be3f bd0c 495c 8666 9cbf
00000560: 3685 e23f dca6 babf 4053 fe34 7525 b43f
00000570: 4996 de85 ad34 a1bf 82bd d356 e3eb b6bf
00000580: fa21 bd0a cb02 a2bf b2e1 99ed afc1 bbbf
00000590: 879f b4f0 81b0 c43f bd04 d9e2 1a68 c43f
000005a0: bfc4 80e5 1cb0 c2bf c92a 65a3 625c ad3f
000005b0: 0f59 7064 a3c5 c5bf 5e21 b124 5e65 acbf
000005c0: ebca fb28 3bfd c63f d505 9b33 37be c03f
000005d0: ce95 025f 6394 75bf 4d9c ea6f 871b babf
000005e0: 8a39 c3f9 0c57 a8bf 4b2e 1b09 a8dd bebf
000005f0: b1d0 1c0e 871c b93f 0b2e c971 f8b9 b83f
00000600: 9d5b 8113 0acf afbf 5e00 7146 abf6 b3bf
00000610: 2937 d9bb a05a b6bf a4fd fe18 e81f b2bf
00000620: 4f2d b47a 7667 a6bf 7bdf cb73 d785 863f
00000630: f94d 4043 5554 613f 8b58 c183 fa62 c33f
00000640: dc5d 2734 993a c1bf 2145 1a7e b7ec afbf
00000650: 072e c4e3 c626 5a3f 2c01 b021 e59d 9d3f
00000660: a10e 4179 9890 a63f 4b4e a47d e2f6 95bf
00000670: 8d59 a618 0969 c33f e577 897c 5c5d c6bf
00000680: ede4 d9c0 3f03 983f b8df baf2 fb7a b93f
00000690: 294f 6071 f981 bebf 769e abfd 2fc1 bebf
000006a0: 644b d372 16fe c53f 78d4 1f20 4b06 c2bf
000006b0: 52b8 ad0c adbd b8bf 3fe0 7238 4fb8 adbf
000006c0: decd 847e d525 c53f 87db becd 1c7c c8bf
000006d0: 0fe1 598b ade7 abbf 7f24 17d5 4a06 c7bf
000006e0: 37c9 750a 75bf 9abf 06a8 6479 9e07 a63f
000006f0: f717 ca4f c260 853f eb6b 02c1 f213 bb3f
00000700: f993 d42c 28e6 973f 51a3 569f 5dbe b23f
00000710: 34fb 2171 c25d 9dbf ea25 9237 8570 b0bf
00000720: c373 ff5e f17f 95bf 77c1 f794 bd20 af3f
00000730: 942d c590 146f a13f e71d 2e7b 4ae3 bf3f
00000740: ee01 93df 3971 c1bf efff 7fa1 93f9 c3bf
00000750: 2408 7709 c1b1 b2bf 3981 409c 0920 353f
00000760: cb1c 97fb f883 ad3f 79c8 9e85 8fa6 b5bf
00000770: d6aa d798 a008 a13f b0fa 877d 5dab a5bf
00000780: 1468 fbd5 7eb2 63bf fb99 7094 405a b33f
00000790: 0287 79dc 89cb c6bf ec81 0c22 0b43 babf
000007a0: c9f2 0982 23ed 623f c558 902e 98e9 b6bf
000007b0: 5eb7 d145 1af9 b23f b7a4 d9f0 6268 a1bf
000007c0: d329 44ee 1a73 a63f 56ba 323a d7dd bbbf
000007d0: d4c8 0353 d835 bdbf 964b b9b4 f6f9 c3bf
000007e0: d778 8f8b c92c babf e64b 19cc b709 c43f
000007f0: 9bf9 0e20 8267 b73f d216 7cfe 9b63 c4bf

conv_layers.2.weight f8 [16, 16, 2]
0.033156588294619 0.05024905121048868 -0.16793917104524964 -0.07469041107529224 0.082126944246902 0.14815513466658214 -0.08648797298828545 -0.024916490752149252
0.09465057508868287 0.10962532671354956 -0.11404587480289272 -0.11977102466562502 -0.0034162286059411643 -0.13773015555097204 0.13503676064735676 0.15011015549287396
-0.025422480025216538 0.1311815051923056 -0.1429074784513845 0.11210776490960234 -0.008106659625496568 0.08773537458419926 -0.09700676549294916 -0.009870947544655262
-0.05692037722850187 0.033073242761322716 -0.02547098937504828 0.12052279604580775 -0.15077278699845698 0.09634018402903874 0.0872952693212822 0.04725824157730973
0.0033493251737899783 -0.1255992974088689 0.0662939578048637 0.06876214722301958 0.1769763683166626 -0.09308570281526399 -0.0538022701061364 -0.049629177649220424
0.17463396311757867 -0.01762679357288027 -0.03988924504852872 -0.14261168099293733 0.0015407925271334435 -0.043906265944091916 -0.07676241678857973 -0.16499790196798708
0.007278106468177961 0.034581783890629034 -0.07984269790817822 0.10645849629700299 0.18148633936565794 -0.12951817079983863 0.15091987514486313 0.002171071886221806
-0.020751949211629848 -0.1766821723297245 0.16377449000279956 0.015146020171587952 0.044524432592195524 0.11346085514913988 0.10394559252056047 -0.08449794340228783
-0.08087155695685018 -0.02132292857894781 -0.026765560210701943 -0.037428013830905126 0.12289544446993722 -0.10619284462896753 0.021186901397304787 -0.05689744496072091
-0.10746749538897747 0.0036716728253209114 0.15141351412796725 0.18766289916203746 0.20519655873340836 -0.12409808551981578 0.12477539738770925 -0.1413296270340755
0.12419481006826774 -0.07521628924498791 -0.06684610843507405 -0.12869927447291127 0.0839137619161082 0.07793744756815411 0.050998837415193954 -0.08119763453913491
0.130679591386442 -0.03055839201454485 0.0010181527231987561 0.15483662308427495 -0.08929577859236168 0.10623191518349538 0.13108536901338033 -0.07737071836022617
0.02040156918176493 -0.18632034915933626 -0.17503940657680367 -0.1804896204117463 0.014773263063991257 0.16556205205493002 0.012539823683290872 0.15059173642146076
0.1100825341177306 -0.10515640989838561 0.026482287874355463 0.04093066184288187 0.07383428436761323 0.10108835804678744 -0.08022404095151398 -0.03282711352856064
0.0889380907047437 -0.09723047112643891 -0.12817688624276002 0.017745486762264118 0.09892385601974328 0.12019334046696499 -0.07519818897981148 -0.15004071347375728
0.11120969251398044 -0.06384774900983173 0.09090008396732023 0.06101614031562184 0.09917595593850717 -0.10568698877836545 -0.045507128126954295 0.11994449465570382
-0.04304953990462364 0.1964084723544198 0.033670894163819666 0.04098751345651353 -0.13839735309898268 0.023243612854910015 -0.010372251108439581 0.0666765077644133
-0.09202998112030225 0.12780425099937892 -0.08860500361605272 -0.06172414185921559 -0.023909802926114092 0.1185926346657982 -0.10670711056280839 0.15531332914089496
-0.15465760520353716 0.014577319741527721 -0.049065747861886326 0.002655558246100755 -0.02449163738341294 -0.08880838117941149 -0.025514468022530542 -0.04224576497375232
0.014861514147796684 0.04674960484125681 0.15901985503770757 -0.10154062534100251 0.11671033838032033 0.02667756254862149 0.028536331668998157 0.1704619394680528
0.14378543603216468 0.1713408146410599 -0.1492114330134198 0.10411743639994872 0.1280232616513219 0.08165327294218844 0.000512471660129037 -0.08747650836757503
-0.02188550506423839 -0.1112888677730914 0.12087534661057829 0.11650159558571933 0.1176293312952499 0.21144647171596923 -0.026380455047574875 0.02438870035367468
0.14166142042350574 0.11860630920170781 0.1677223968724644 0.05028482222336725 0.10066266006583931 -0.06001683032824725 0.03499366396341912 -0.13992116670593976
-0.005043491503807394 -0.0278869298914233 0.16584544720605834 -0.045209833713022736 0.027839756037701283 -0.1180033888777041 -0.17236729976718138 0.03994354424729104
0.14575135007997092 0.13981657027000202 -0.022453132354761405 -0.12804232523351292 -0.037745737776675066 0.1503816627451714 0.12670160399958405 0.09285799758759812
0.1515457310271879 -0.021540537203628654 -0.09661877806988292 0.1568868692228642 -0.014013212684594097 0.05096559325492118 0.15703876086291063 -0.17191223328596278
-0.028646694105531667 0.09718934596500757 -0.15975308217305426 -0.11315734932745983 0.11357139810639377 0.1305669510484514 -0.006019464801968353 -0.14354924160901952
-0.11877780191331937 0.027477439984215094 -0.102863577795075 0.15942400397741766 -0.17799048152828426 -0.07091750660661285 -0.027520371159166647 0.010059158412212802
-0.07680514194737004 -0.028762822773636582 -0.13139257554582118 0.13776067233848674 0.13746575075506304 -0.005479836362206332 0.11102800157316002 0.0374598015082289
0.1292492662230872 -0.08905010504729348 -0.11663887208719716 0.09944300748832864 -0.0584237621531954 -0.1240901466200769 0.15543502357157882 0.057165298430831055
-0.04291751623557997 -0.1926739571033607 -0.07984537598534495 -0.1140959225972464 -0.027206029441801994 -0.1029315615324651 -0.054645123795729986 -0.005375388691167996
0.11242677938054617 0.0473295875657084 -0.057178740857835864 -0.010697527707072526 -0.09115388785835576 0.06458503742857642 -0.01165756181561228 -0.02958284893277818
00000000: 62a1 be7c e6f9 a03f b949 355f 3eba a93f
00000010: 42a8 addf 077f c5bf 35a7 e428 e91e b3bf
00000020: 162e a97b 4506 b53f 2850 1059 bff6 c23f
00000030: 7e65 7b67 1324 b6bf f271 a563 b583 99bf
00000040: 35b1 8d24 053b b83f 6b4a 0cc9 6710 bc3f
00000050: 9eaa 8546 1c32 bdbf 3580 f259 50a9 bebf
00000060: 1df2 6bc4 59fc 6bbf 71d8 e148 24a1 c1bf
00000070: 967c 5e73 e248 c13f d3d6 5140 cf36 c33f
00000080: c583 2ac1 5908 9abf 820c 5239 8eca c03f
00000090: 03b9 26d1 ca4a c2bf 0416 ea2f 18b3 bc3f
000000a0: e53e c56f 399a 80bf 2b9c 8a54 d375 b63f
000000b0: ef6f 4875 6fd5 b8bf 931f 1427 3837 84bf
000000c0: a344 58ed aa24 adbf 5eaa 10e0 f9ee a03f
000000d0: 534c 7329 1115 9abf e170 70fb 94da be3f
000000e0: b07f a4ce 854c c3bf fe01 b213 c0a9 b83f
000000f0: 5a96 d496 fb58 b63f 9fff 1474 3b32 a83f
00000100: 561e b942 0b70 6b3f 11c6 6245 a313 c0bf
00000110: 39bd b10c a4f8 b03f 238e 8665 659a b13f
00000120: 8bde 0a61 29a7 c63f 7a15 51f1 76d4 b7bf
00000130: 55e2 1c9d f88b abbf a88e dcdd fe68 a9bf
00000140: 0231 2edc 675a c63f 0f28 b717 c20c 92bf
00000150: 8b20 e4f5 5c6c a4bf 4535 f27c 1941 c2bf
00000160: afb5 e460 8d3e 593f 4882 a3d0 e17a a6bf
00000170: 263b aba5 b3a6 b3bf 2239 6eb8 a61e c5bf
00000180: 1041 1fd4 a5cf 7d3f 7ef7 b11d b4b4 a13f
00000190: 680c 5730 9270 b4bf 601a fa2f dd40 bb3f
000001a0: 6485 1fc2 f13a c73f ac59 e929 0d94 c0bf
000001b0: bb23 08ac 5751 c33f 2c6e f457 11c9 613f
000001c0: e9d0 c4bc ff3f 95bf a8a0 f87b 859d c6bf
000001d0: c994 3dff 8ff6 c43f c286 696a e004 8f3f
000001e0: d17e b60b e8cb a63f 43e3 3d46 c50b bd3f
000001f0: 196c 70a8 2d9c ba3f 4cf9 7d3f a8a1 b5bf
00000200: e567 4e94 ffb3 b4bf 4429 9b83 add5 95bf
00000210: f66b 0e57 6e68 9bbf 4348 b7be c329 a3bf
00000220: 4c65 d36a 1376 bf3f f228 c04a 742f bbbf
00000230: 5285 6be2 04b2 953f 801d aa72 a921 adbf
00000240: f724 1462 fd82 bbbf 448b 9a56 0e14 6e3f
00000250: 1510 ad9d 8461 c33f 5768 497f 5605 c83f
00000260: 7080 817e e143 ca3f 25c7 cd62 e4c4 bfbf
00000270: 4f28 20cb 47f1 bf3f 0d9b 08d7 1617 c2bf
00000280: 027e 9327 3bcb bf3f f006 6fee 5f41 b3bf
00000290: 74f0 9799 d31c b1bf 83a6 70c3 3779 c0bf
000002a0: 1730 1d4f 5f7b b53f 275e 7064 b5f3 b33f
000002b0: 8020 aa05 851c aa3f 5baf db40 5ec9 b4bf
000002c0: 6734 a1dd 1bba c03f 6f84 48f9 b24a 9fbf
000002d0: b290 8029 71ae 503f 755d 2fbc afd1 c33f
000002e0: e69c b990 16dc b6bf bf2a 81c9 0332 bb3f
000002f0: 7dc2 72c6 67c7 c03f 6373 0641 91ce b3bf
00000300: 7ce8 b021 26e4 943f bcfc 1b5f 58d9 c7bf
00000310: 6e1a 61f7 b067 c6bf b7cb 77ac 481a c7bf
00000320: ab6a b8cd 7141 8e3f ec6c 8427 2331 c53f
00000330: 3f50 f0a4 7aae 893f f52f 7d0b 9746 c33f
00000340: 377e e573 5e2e bc3f 4974 7acd 87eb babf
00000350: 5edc 5f41 2c1e 9b3f d2a1 091c ddf4 a43f
00000360: e3b5 aebc cde6 b23f f339 d137 ede0 b93f
00000370: 1c5e 3d10 9089 b4bf 55f3 0d26 b7ce a0bf
00000380: f20f f28e a5c4 b63f 81a8 a99d 18e4 b8bf
00000390: a404 42a7 1968 c0bf 309e 2e75 df2b 923f
000003a0: 8725 66e6 1253 b93f ebaa 80a2 fdc4 be3f
000003b0: f2ff 6242 3040 b3bf 051a b8ba 8834 c3bf
000003c0: dc83 5808 3d78 bc3f 32a2 eb79 5358 b0bf
000003d0: 23e2 d757 3a45 b73f 8d13 5eee 813d af3f
000003e0: 5a30 4e6f 9863 b93f c771 6a70 4d0e bbbf
000003f0: 998e 14d6 b54c a7bf a3a9 e1b1 aeb4 be3f
00000400: ca14 ffdb 960a a6bf ebb3 b5ae e923 c93f
00000410: 3578 85ba 4f3d a13f b11f aebb 50fc a43f
00000420: 4be0 b424 01b7 c1bf 34fd 3574 2ccd 973f
00000430: db88 5ffa 0b3e 85bf 1c78 422c b611 b13f
00000440: 30c7 29df 468f b7bf 8282 2ac3 e35b c03f
00000450: 08fc ca48 d1ae b6bf df67 5185 4e9a afbf
00000460: 5b61 7cb6 cf7b 98bf e2a2 6f3f 165c be3f
00000470: e32f 1e3e 2851 bbbf ee81 a5a2 4ee1 c33f
00000480: baa3 3606 d2cb c3bf 69f2 6cbc b6da 8d3f
00000490: bf56 d74c 251f a9bf 0460 3afa 1bc1 653f
000004a0: f557 59f6 5514 99bf e9b9 c664 25bc b6bf
000004b0: 3f2a edf6 7620 9abf 90dd e9a5 3ca1 a5bf
000004c0: 40e1 dea9 b66f 8e3f 43ca c96f 90ef a73f
000004d0: 519b 663a c35a c43f 2114 0e01 91fe b9bf
000004e0: 72d5 728e bae0 bd3f 36b9 bbea 5c51 9b3f
000004f0: 3f8b 10cd a038 9d3f b52f 9d63 b2d1 c53f
00000500: 891a b3a8 8f67 c23f 953a aded 7eee c53f
00000510: f9af 7d38 5c19 c3bf c6f8 47b8 70a7 ba3f
00000520: 07b8 f5f4 1063 c03f 54e7 e598 3ae7 b43f
00000530: 90d8 9b82 ecca 403f b064 9b46 dc64 b6bf
00000540: c785 0762 2769 96bf 2d8a 7e5f 6d7d bcbf
00000550: ffc8 95cc aff1 be3f 9df4 f86e 0cd3 bd3f
00000560: 81a4 f6b2 f41c be3f 69f5 6f90 ad10 cb3f
00000570: 9552 bb5e 7a03 9bbf fed6 a4f9 59f9 983f
00000580: 5d74 e91f f621 c23f 92df 1eab fb5c be3f
00000590: 29de af70 ed77 c53f 8c7b dea5 eebe a93f
000005a0: cd40 e930 07c5 b93f 9355 f0a6 86ba aebf
000005b0: d687 9484 b0ea a13f 1b95 82d1 efe8 c1bf
000005c0: 3e69 10f1 7ba8 74bf 4860 7a2f 648e 9cbf
000005d0: cd62 f871 6c3a c53f 6993 824a be25 a7bf
000005e0: 4199 d766 0682 9c3f 3f02 0c58 7835 bebf
000005f0: 052f b3b5 2110 c6bf 9bf6 74f0 7a73 a43f
00000600: 3e7d f8f0 faa7 c23f 4fd0 5f66 82e5 c13f
00000610: f936 a034 f4fd 96bf a5dc b0df b063 c0bf
00000620: 49e0 a0ca 6853 a3bf 6c4d b4d1 b43f c33f
00000630: d7b4 c316 c237 c03f 558f cfae 8ac5 b73f
00000640: 871a 4ebb d965 c33f 94b9 4ffb b80e 96bf
00000650: 5658 fd1b 02bc b8bf b8f4 3d72 de14 c43f
00000660: beac 8991 f5b2 8cbf 6993 8088 2918 aa3f
00000670: 0627 0e9b d819 c43f 9e6d df55 3801 c6bf
00000680: 407f 4919 8f55 9dbf 6578 70a6 66e1 b83f
00000690: fb29 affb c972 c4bf 52da a94a e1f7 bcbf
000006a0: d4c1 a0e0 0313 bd3f 1c84 58f8 6ab6 c03f
000006b0: 7e0a 6cc7 dda7 78bf 8dc5 0951 d25f c2bf
000006c0: 7b5e b5d6 3868 bebf 91a5 70c8 0b23 9c3f
000006d0: 7d53 9476 4455 babf 95e3 a379 0168 c43f
000006e0: 21e6 9460 64c8 c6bf 25da 9653 a627 b2bf
000006f0: 2adc 68d8 4c2e 9cbf 2ff3 3e63 e599 843f
00000700: 9c1e d474 80a9 b3bf 5518 9d5c 0074 9dbf
00000710: 9008 74cf 78d1 c0bf ef33 2f47 24a2 c13f
00000720: 1b13 e84b 7a98 c13f bbe3 685f 0672 76bf
00000730: e56b b2c3 546c bc3f 0df5 c85c ee2d a33f
00000740: 6ce6 ba6d 3d8b c03f 672c e2d8 fccb b6bf
00000750: 018d 0e8d 0bdc bdbf e56e fad0 1875 b93f
00000760: 29b7 8327 b8e9 adbf 0934 7d31 5fc4 bfbf
00000770: 354b 727b 4be5 c33f bef7 731e c544 ad3f
00000780: 2592 50e1 48f9 a5bf 3161 464c 8aa9 c8bf
00000790: 8b08 981e bf70 b4bf bd80 29f0 6335 bdbf
000007a0: 8d82 d3ba e5db 9bbf 1216 820a b959 babf
000007b0: 0654 2d17 72fa abbf c413 1cea 8004 76bf
000007c0: 4b51 a25c 00c8 bc3f 74ad 746d 953b a83f
000007d0: f88f 052c 8846 adbf b10e 33dd 95e8 85bf
000007e0: 7040 4177 dc55 b7bf 6511 911f a588 b03f
000007f0: fe43 fe75 ebdf 87bf 5f52 c162 f74a 9ebf

conv_layers.3.weight f8 [16, 16, 2]
-0.10855166987745142 -0.04453603767592642 -0.156731567143198 0.04631382632196864 0.08519579787411571 0.14945805492597805 0.031786985346425094 -0.0996712279960609
-0.18132737920155914 0.1646769435832272 -0.052259037019130074 -0.10689447638608848 -0.10537086850317894 -0.14911963869550546 0.0074129961351663415 -0.02113640520292417
0.10038805335593173 0.1603325605903683 -0.11597515542478146 -0.02852177152564031 0.13417292821624904 0.1514978730692623 -0.11097011924951006 0.14768218207951098
-0.12936018155230136 -0.10910243968644105 0.11518829793622766 0.1710902069068494 0.05307257651730742 -0.09494505269909316 -0.13011727597277248 -0.013198063439393386
0.16136146318930844 0.002501865215714751 0.1467857289563264 0.1349545682782478 0.037841613039335885 -0.04781599383392996 0.031291663949569226 0.07331375269825509
-0.20105569863939335 -0.022934494076523204 -0.004172160000713051 -0.07240230652046913 -0.038478913893521746 0.08163873887111621 -0.14793353315577856 -0.12464823795673934
0.04581904105869758 -0.09038111802356827 -0.08076254564612374 0.04404126467924991 0.14277435395658003 -0.10038158006468584 0.12117427993447563 0.12305127657812956
-0.02934002734610559 0.010436576963457888 0.12070915879354434 0.041297036354383795 0.15808569867106467 0.08291377705301876 -0.10609474465807324 0.0046903985076626135
-0.08771870957507098 0.01122491193870566 -0.13091793355916764 0.1319334779738912 0.08366072369020257 0.013926892428033607 0.07301414710474484 -0.07281052907379947
-0.1406529269819306 -0.09876129020180976 0.12961572989759376 0.10174120619304877 -0.14704403491036036 -0.0623211532000883 -0.08776215619726127 0.13003607300697215
0.08831294933696299 -0.16061174826526486 -0.023679053541477667 -0.02576585424514214 -0.10387335838577617 -0.05265646624639772 -0.010669740605259506 -0.14358561790400823
0.1023998275110734 -0.13968400838771852 0.0329494182528387 -0.1406153117672782 0.11109438880033926 -0.06931257633467751 -0.05498786687713724 0.01956855386204344
-0.09882233733937346 -0.0197708653390168 0.05448865285073917 0.019995144755892 -0.053570344548679656 0.14305056678110362 -0.0894240956980138 -0.04288550423918643
0.04900902141547376 -0.15565241636374505 -0.014253935930783163 -0.04142003956265557 0.17338491698475939 -0.02488600396988971 -0.06696918942340778 0.14329872456241197
0.17286244982885043 0.05143668830776151 -0.10902129589632863 -0.16134586203645368 -0.12870306650679453 -0.09741089617375615 -0.07369331703675344 0.03784937208579041
0.11629604491292829 -0.14695503222289205 0.07635928467446655 0.09754300487646317 0.08739389970494964 -0.11374784965494984 0.14448684739527282 0.05532231737506349
-0.07871296368317868 0.16330659157618374 0.026961013070308546 -0.006151508259215047 0.09671630882142536 0.10533500911284631 0.05723639108781246 0.106877993843944
-0.018651373936428493 0.1402838808458283 -0.12150670167602622 -0.08129981406114423 -0.10526458584234362 -0.028923251975407287 -0.03387968629842837 0.17179414305348356
-0.1672182737232523 -0.07083440803109056 -0.024046601951739587 -0.09329468864109881 -0.1283929851589046 0.02541617033682167 0.13372391205106787 -0.16119048054160917
-0.0703371578374949 0.020276603166053363 0.061436240846017044 -0.10010321362912583 0.09137823257213361 -0.12710451323288513 -0.033750179208010364 -0.12225937080401787
0.06120300327850697 -0.02074341398433203 0.055005274443551515 0.009047455576406441 0.0420370332165874 0.023230260109489816 -0.16877778779742098 0.05531346607357965
-0.09258361493740973 -0.1376288783802141 0.15008914581129001 0.11968217731460541 -0.050266550235708425 -0.036989727398343636 -0.1046057206917151 0.16333159711075476
-0.13935854032915496 0.06167504308935309 -0.08642810291854902 -0.015890999307776463 0.002342302951230304 -0.0372861482365996 -0.10304950837225275 0.15729591572264953
0.06382043707033427 -0.05229327350768902 0.13639155774307996 -0.05085595422824417 0.1754887019635087 0.057894460119238454 -0.0011980618285690808 -0.12527909416105756
0.05643667039761979 0.021337735941653457 -0.015972102235234972 0.05048432838149939 0.21488622768775456 0.027667127592545672 -0.009604705214838891 0.1956166856882697
0.04606301926199667 0.15458595611259973 0.11887863055962114 -0.00010413960598291245 -0.10909025143797825 0.03550970720763351 0.1345224696223403 0.031869219696100806
0.06198472470736323 0.07207489565646372 0.10694492104356901 0.06658736115839707 0.0439414106687134 -0.15913910562800934 -0.023743956722532475 0.1759653781674835
0.13986436978724276 -0.04385082298746633 0.09428977354266369 0.10772155571005625 0.16088270228469867 0.06867404748709602 -0.0825794681190324 0.11625038110618553
0.11426838347693477 0.13415456872436893 0.14865248405858866 0.09569621904885639 0.12994694971167364 0.07945145847754513 0.05799181267276661 -0.176975634346393
0.16273630784084964 -0.030431694870528787 0.05601230494574451 -0.16407199700240555 0.02477516942860479 -0.2027364672905177 0.04603929953980428 -0.14734003984230346
0.12012147081701507 -0.04778323246315958 0.09817691378639386 -0.06818434999112066 0.14791933116784786 0.08316988354905404 -0.11200071750952408 0.11623820332093912
-0.039301828119921604 -0.008524223907591602 -0.11542563944424096 -0.0858964068246559 -0.08761572270378674 0.01874008634305172 -0.042620456840841245 -0.0012504092242136414
00000000: 75c2 0cd0 0aca bbbf 9380 9f72 6dcd a6bf
00000010: 23c0 90ad c70f c4bf fb9a cf22 72b6 a73f
00000020: 7a3e a04d 64cf b53f cff2 0309 7121 c33f
00000030: efad 003d 6246 a03f ba61 98b8 0d84 b9bf
00000040: 9321 c54d bc35 c7bf 722f 8c53 2214 c53f
00000050: e5d1 d54d b2c1 aabf 0688 33b8 6f5d bbbf
00000060: e319 2cd2 95f9 babf 6bbb b131 5a16 c3bf
00000070: 1062 74ff 165d 7e3f 4700 6824 c8a4 95bf
00000080: faa4 120e 08b3 b93f e11a 1c00 c785 c43f
00000090: 12ad b23b 8cb0 bdbf 08d9 b4af cf34 9dbf
000000a0: 9c42 5919 942c c13f 437e 1f45 4864 c33f
000000b0: 9086 02a9 8968 bcbf 9be0 1def 3fe7 c23f
000000c0: 21fc 95da df8e c0bf bff8 5d32 23ee bbbf
000000d0: c99b 84f4 fa7c bd3f 6057 aaad 48e6 c53f
000000e0: 3b9f e928 542c ab3f 4175 42a8 514e b8bf
000000f0: 114d 79d2 aea7 c0bf 1ce8 bd16 9607 8bbf
00000100: fccb 9d0f 7ea7 c43f 51d0 f9a8 ca7e 643f
00000110: 5287 b1f0 dfc9 c23f 38b6 99f8 3046 c13f
00000120: 7319 ddd4 f95f a33f 9d24 7c83 567b a8bf
00000130: 5805 9a02 7605 a03f 25a0 2faa b0c4 b23f
00000140: f551 2a71 31bc c9bf 3030 09d8 237c 97bf
00000150: 639d 1bac d316 71bf d30e a922 f588 b2bf
00000160: be3c 8419 82b3 a3bf c3c2 89c1 46e6 b43f
00000170: ea61 716b 7cef c2bf 8339 8769 f2e8 bfbf
00000180: fc2a c3e5 9775 a73f ee4e 168a 3723 b7bf
00000190: f9b3 4aac daac b4bf 6997 f19e 938c a63f
000001a0: a9bb 7916 6e46 c23f 4ca6 7f73 9bb2 b9bf
000001b0: 0a57 6f11 4705 bf3f 8255 a2d8 4980 bf3f
000001c0: 533c a9e7 4f0b 9ebf 3902 eca5 c55f 853f
000001d0: c58f 58a1 cbe6 be3f 96aa 2099 e224 a53f
000001e0: dbf6 e0f4 263c c43f fb9e d458 d639 b53f
000001f0: 297a 9572 0629 bbbf 7a40 2143 3d36 733f
00000200: e74b dfbc bb74 b6bf b9f2 6a2d 16fd 863f
00000210: f65a 8c39 ebc1 c0bf 709c 923a 32e3 c03f
00000220: 6588 3508 ca6a b53f 9144 1bdc b385 8c3f
00000230: 77d0 f51d 0eb1 b23f 3f2a 2df9 b5a3 b2bf
00000240: 42ae bc44 ea00 c2bf be0c 877f 6b48 b9bf
00000250: f189 7a8c 3f97 c03f 7436 4131 b60b ba3f
00000260: 4985 81c4 56d2 c2bf 28d0 afe5 8ee8 afbf
00000270: 1295 b1a6 9477 b6bf 53bf 6ea4 05a5 c03f
00000280: 002f 376d ad9b b63f 968b 13ff ec8e c4bf
00000290: 3657 3e62 523f 98bf 2a76 5835 5d62 9abf
000002a0: f94d 31c5 7197 babf 7c04 e7d0 c9f5 aabf
000002b0: 48b1 a657 04da 85bf ef6d 8976 0361 c2bf
000002c0: 94ae 4606 e036 ba3f 1354 e663 2ae1 c1bf
000002d0: e0e6 a203 bfde a03f 22bc adba aeff c1bf
000002e0: 0ea4 aa8e ae70 bc3f eb16 8f10 78be b1bf
000002f0: b705 d4a3 5e27 acbf 944f 786b c709 943f
00000300: bca4 fcb2 6b4c b9bf 14c5 2d50 d03e 94bf
00000310: a879 fecb efe5 ab3f 96ab 3873 9b79 943f
00000320: d97a be7b 926d abbf a4e2 ff20 7b4f c23f
00000330: e851 7f5e 7fe4 b6bf 7b0b 5cbc 16f5 a5bf
00000340: 0979 60e0 b517 a93f 3caf e91a 6bec c3bf
00000350: fdc2 4be5 2a31 8dbf da29 a4e6 0135 a5bf
00000360: 16dc 081a 7a31 c63f ff17 b774 b77b 99bf
00000370: 37c5 698e e424 b1bf cfeb c6d3 9c57 c23f
00000380: 4f55 5c54 5b20 c63f e358 31dc e855 aa3f
00000390: a338 71d4 d1e8 bbbf c24f 6530 fba6 c4bf
000003a0: 0053 c592 5779 c0bf 2420 57a5 ebef b8bf
000003b0: 2a4b 9bb2 90dd b2bf 9eb1 902e fe60 a33f
000003c0: e51f 8edd 93c5 bd3f 1fa2 b028 6ccf c2bf
000003d0: d33b 6c36 488c b33f e0e1 e50f 94f8 b83f
000003e0: 1b48 1a55 725f b63f 3522 423e 941e bdbf
000003f0: 43e6 2186 8b7e c23f 08cb baef 3453 ac3f
00000400: 6e5d ca64 8826 b4bf 773d 05fb 3ae7 c43f
00000410: 29b3 9df5 aa9b 9b3f 6adf b5ec 5232 79bf
00000420: 51bb 6067 66c2 b83f 2777 4333 3cf7 ba3f
00000430: 06f8 b997 164e ad3f c6c9 3830 5b5c bb3f
00000440: c967 5484 5819 93bf fbc3 317c d2f4 c13f
00000450: 1b80 f12d 101b bfbf 3c41 908a 10d0 b4bf
00000460: 85ae 9eb1 9ef2 babf ce38 5095 0e9e 9dbf
00000470: ea0c 4da1 ad58 a1bf 328f 07b9 59fd c53f
00000480: 45ac 778c 6867 c5bf 52d0 ec29 3422 b2bf
00000490: 43c1 d923 ac9f 98bf 31a1 9a24 29e2 b7bf
000004a0: 238b 256c 2e6f c0bf c87b 8b51 b206 9a3f
000004b0: 12ec 797a dd1d c13f 7226 2dc1 e3a1 c4bf
000004c0: 9d0a 9bb0 9d01 b2bf 5680 e3cd 63c3 943f
000004d0: cd15 722a 9274 af3f 04f8 c23c 5da0 b9bf
000004e0: 37ae 7658 9064 b73f ce2e c1ef f544 c0bf
000004f0: 5e76 dd17 b447 a1bf 6398 3bdf 634c bfbf
00000500: e80f ff02 0056 af3f 6b2d aef2 c23d 95bf
00000510: cf63 afbd a629 ac3f 955d 80ee 7887 823f
00000520: 06b0 c5c5 e085 a53f 8294 ca5d acc9 973f
00000530: 8ec9 70b3 829a c5bf fcfc a0ef 0b52 ac3f
00000540: bf37 4d4e 8fb3 b7bf 3c68 d0b5 d29d c1bf
00000550: 8e3d 5f02 1f36 c33f 29f5 7abd 7da3 be3f
00000560: 19b2 b08a 89bc a9bf 947c ed4a 51f0 a2bf
00000570: e56d 58c5 70c7 babf f93f ffbd 0ce8 c43f
00000580: f4e5 902a 80d6 c1bf bca8 180a df93 af3f
00000590: c490 7df3 2620 b6bf b985 4fe9 ba45 90bf
000005a0: 38db 5452 2a30 633f e13d 8a86 2b17 a3bf
000005b0: 65e4 53dc 7361 babf 0b5d e9c6 4522 c43f
000005c0: 3a94 0842 8956 b03f 7659 0817 2fc6 aabf
000005d0: c37f fa4f 4775 c13f 6e32 6fa8 ca09 aabf
000005e0: ee18 e0ed 6976 c63f 4bd5 a9b9 57a4 ad3f
000005f0: 1c9a d317 09a1 53bf e1a9 2536 2509 c0bf
00000600: 004a 4e6b 44e5 ac3f 230c 2938 8fd9 953f
00000610: ecab fea2 fd5a 90bf 4dd7 b7f6 14d9 a93f
00000620: b8cd 2354 6481 cb3f 2aaa bc80 c554 9c3f
00000630: f29b 48b6 a1ab 83bf b7a0 cab1 f709 c93f
00000640: 0612 9272 9295 a73f 4056 f6fc 78c9 c33f
00000650: 0a64 7276 d46e be3f e8c9 c2ce b04c 1bbf
00000660: 8910 3db6 56ed bbbf b66d 4b0e 542e a23f
00000670: 1574 cd43 0838 c13f 8205 b090 2951 a03f
00000680: fa7a f03a 76bc af3f 1606 b517 8073 b23f
00000690: 88fd 5a0a be60 bb3f db93 808a de0b b13f
000006a0: f342 8613 7d7f a63f 47ef 1793 ab5e c4bf
000006b0: 9c56 67f6 5550 98bf 1993 3a94 0886 c63f
000006c0: 5e51 0e5f 13e7 c13f 5e88 4475 9d73 a6bf
000006d0: 4a86 b6e5 5f23 b83f b753 d9ce a393 bb3f
000006e0: 7b06 67ec cd97 c43f d680 0a54 9f94 b13f
000006f0: 016f e492 ed23 b5bf 75a4 ffc0 95c2 bd3f
00000700: 860e 005a b140 bd3f ecdb a316 fa2b c13f
00000710: 341a c06a 0b07 c33f b06a 2a23 8c7f b83f
00000720: 1001 9d05 1aa2 c03f abd2 c747 ee56 b43f
00000730: 6a07 bb55 1ab1 ad3f 4572 da38 23a7 c6bf
00000740: a62c 0618 8bd4 c43f 854f ec78 7c29 9fbf
00000750: 32c3 d413 a5ad ac3f 7649 a8aa 4f00 c5bf
00000760: 5c7c cb79 a95e 993f 9213 5cc0 44f3 c9bf
00000770: a75a b58b 7692 a73f bfcb 41d6 09dc c2bf
00000780: 10dd b4dc 47c0 be3f 69ef 7339 0b77 a8bf
00000790: 4b4d ef49 1f22 b93f e895 4f91 8774 b1bf
000007a0: e5f2 e748 05ef c23f f5f5 da19 9f4a b53f
000007b0: 0dfa d43a 14ac bcbf d629 cf71 c9c1 bd3f
000007c0: 476a e584 5e1f a4bf 1b4e 41f7 2575 81bf
000007d0: 4d6c 88e2 888c bdbf 0de3 2792 4efd b5bf
000007e0: abcf a0e7 fb6d b6bf a9d8 dee7 9930 933f
000007f0: 9e42 8b38 59d2 a5bf bf14 60ae 987c 54bf
