saved_model/Shift_transformer/best_valid.pt (torch, 39926 bytes, 37 tensors)

pos_embedding f8 [1, 16, 16]
-1.0462565748698796 0.027802761355233532 0.4751222165295217 0.15529941075600948 0.5161681639764664 0.41269818728713986 -0.6095906219509194 -0.90040654149802
0.05085009676160796 0.8912273725837987 0.4386172547810348 0.8792750611726547 -0.19033253885706722 0.723041323610809 0.30125266269584816 -1.0496082748259885
-0.3201283698807343 0.26773634546962743 0.7771083086660255 0.576556283920279 0.17884009535593434 0.3005677412038328 -0.10904692025872405 -0.3953792627122831
0.692843044824222 -0.14129706182050347 1.0503740600521119 0.9121846837752693 -0.6231064407498241 0.710573830760073 -0.015953541188152988 -0.33178990213623344
-0.5388694517276227 -0.7579720234913203 0.29871928898365596 0.08627123424700406 0.3672940961879432 0.009111933349897532 -1.047422246357688 -0.5925613180885827
-0.9857196545073712 0.9150970359369771 -0.12047770329187513 0.12142491343574907 -0.455957975612095 0.3815450585741188 -0.18590653383596492 -0.7991128279198378
-0.07972727892656707 -0.5260951275028785 0.8469799117413632 0.043170810343933094 0.8275571642791333 0.6276726684695288 -0.45626360013286205 -0.6054710514840955
-0.12389981185579657 0.3396339692807975 0.1154254053458485 0.1520573636646124 -0.7818078487493699 -0.09596453706442327 0.24036690178416592 0.1620338311533351
0.06073390476454612 -0.9098867988274315 0.7416793957736445 0.6268492716018402 -0.09753540852133011 -0.11123270654638369 -0.7559869652509057 -0.11089856033150983
-0.6959579833914399 -0.0804621137234099 0.2705065167281858 0.34886641501644927 -0.9570740879282364 -0.009808501434553581 -0.4236466441143108 0.23377324677284367
0.2803265568464714 -0.638660845986934 -0.6815149198436549 -0.5117956864376696 -0.06327518222563279 -0.5147861072071898 -0.5745839293949279 0.4360988861850005
-0.9049340431688786 0.41762289706215594 -0.8143837369339655 -0.796825151332907 0.3458197069254558 -0.37603116799026776 -0.27210646660110555 -0.09943205023778433
-0.3100216898842491 -0.04256644680967775 -0.4971958968365439 -0.8377988131730498 0.6279098129158974 0.33637498910579744 -0.06808696341346401 -0.29223804745352844
-0.3272804532356538 0.7002126746858992 -0.8856181851264522 -0.4923313214447673 0.9892966901723621 -0.3876482862161355 0.34067463064992987 -0.18214064063135824
0.9811749105452838 -0.2533576126916843 -0.820011817704545 -0.08526437353859802 -0.24366008893347796 -0.7801212593308284 0.40351911313111505 0.7555565507063234
-0.6831741916161718 -0.5495576714436433 -0.2739685108791904 -0.6062413454924125 0.046371657426527005 0.014230952706907558 -0.767999514322785 0.47851302639987714
0.3483145110138521 0.32768964418150875 -1.0921027347800667 -0.7481475135634637 0.058570976936087454 -0.42313410706405663 0.4050268921291344 0.6013417822338365
0.17081953030753205 -0.07535260137279656 -0.9259187981060911 -0.7891603808036618 0.8425393769571796 -0.7497283530213119 0.13021608299997342 0.4142783287271993
0.6885637091692226 0.04888856228431162 -0.178053166417734 -0.3553437242859961 0.9197877084145367 0.38662793865115147 0.9305026573095201 -0.30375232840533917
-0.045849623035997794 -0.21104760821994703 -0.5500011506889904 -0.3379270089821745 0.1054003392081253 -0.42094998619341273 0.09600582563203994 0.8782974333800805
0.8245688147471966 0.39337542424382216 -0.20423696456312215 0.24290950105317966 -0.2512437414633602 -0.5044086703251884 0.7180569019853067 0.7801566012721393
0.5958639952093846 -0.8613143224317329 0.32083187214138403 -0.25942220406139427 -0.1699658584720345 0.051722657348009106 -0.3655695927641719 0.6109438956856598
0.27794785132451455 0.0634600608144682 -0.20652065006692086 -0.26227682367291816 -1.2130661176748279 -1.1202152648172565 -0.23880093221959886 1.120512182479148
0.3249762898676797 -0.10019888215405466 -0.11683297072776118 -0.6287031809017598 0.042078612270173135 -0.574416927244259 0.08317965490277802 -0.10845594920169395
-0.030002082542256617 0.8323509764111603 -0.3049848389082159 -0.03846562385158966 -0.05356666094346174 -0.006190748671832023 1.2584330058561233 -0.12111260479176893
0.39107212224357285 -0.5730872372492035 0.01793896201280418 0.10595959351406997 0.2850419984985234 0.5550648489064072 0.1266407826151251 0.47303176479656744
-0.3497885870063095 0.49626687178811985 -0.0061912135579372625 -0.055870106439783525 -1.1052604631674636 -0.5234930798607756 0.157774869397561 0.7305443466648093
1.1498701986654898 -0.42494306776777635 0.08086450881166907 0.0734062965871482 0.0977464141894144 -0.18971687746819388 0.8519869003834668 -0.0731430890379383
-0.1414901764583956 0.884329801195355 -0.7230041463814321 -0.5140551723538441 -0.8032803607090178 -0.559953338965279 0.5821107612924968 0.2309000335809895
0.6365469271821753 -0.19352974335327386 -0.5957154077262444 -0.2721679877979998 0.5833760116458971 -0.7337173867148473 0.8586419951169655 -0.07882824354150278
-0.6208990372501451 0.8100281373786022 -0.3468733761309999 -0.510663941568261 0.13358573170788776 0.4815722416170423 0.9307625034660215 -0.3072441477951425
0.46686220299941567 0.07009450590851063 -0.6649740983866861 0.16986767108184447 0.7364606684903787 0.13369636094662932 0.9327955827703297 -0.016349687389309527
00000000: 61a8 c488 77bd f0bf 2471 09bb 5378 9c3f
00000010: 983a 6603 6768 de3f 2f7f 24e1 d9e0 c33f
00000020: 3e7d f018 7384 e03f 6912 61a8 a569 da3f
00000030: ab47 2731 c481 e3bf b0d4 1a61 21d0 ecbf
00000040: 69d8 2d1d 0609 aa3f 7c84 5144 ef84 ec3f
00000050: e9bb 2f1b 4e12 dc3f 3499 fd73 0523 ec3f
00000060: 83bc e00e d15c c8bf 4b14 d28e 2723 e73f
00000070: 3e24 873f b947 d33f 4fd1 df0b 32cb f0bf
00000080: fd35 cab3 fb7c d4bf e286 ef9f 9722 d13f
00000090: 5a74 653e 12de e83f 5db5 f729 2673 e23f
000000a0: 8f35 6274 3be4 c63f d4fe ac7a 803c d33f
000000b0: 1da1 3dbc 7fea bbbf 0e6a b7d2 e44d d9bf
000000c0: bcfe 582d c52b e63f 2b1d c5a9 0516 c2bf
000000d0: 56d9 c707 55ce f03f a142 17ef 9d30 ed3f
000000e0: 9051 1eeb 7cf0 e3bf 2541 9054 05bd e63f
000000f0: 6a4f a206 2056 90bf c95c b4b6 0b3c d5bf
00000100: 9279 ff25 6b3e e1bf 86b3 858b 4e41 e8bf
00000110: 92a0 3782 371e d33f 042b ad21 df15 b63f
00000120: b007 c918 bf81 d73f a9db edfd 46a9 823f
00000130: 9458 53d4 3dc2 f0bf 6e15 4227 43f6 e2bf
00000140: 4646 e4f1 038b efbf df81 4094 7948 ed3f
00000150: e029 8973 a0d7 bebf e44c 2000 b415 bf3f
00000160: 13ad 665c 6a2e ddbf fead 21f7 3b6b d83f
00000170: 8116 7809 c9cb c7bf 5a5a b710 5592 e9bf
00000180: 71b3 96c7 0169 b4bf cab6 e672 c5d5 e0bf
00000190: 368a a99d 751a eb3f 6e55 2305 7c1a a63f
000001a0: b2c7 8429 597b ea3f fe6d f5fd e415 e43f
000001b0: 5a41 3b3e 6c33 ddbf c690 99d3 0460 e3bf
000001c0: 00b5 e6e7 e5b7 bfbf 08fd aa1d 90bc d53f
000001d0: bc84 16f5 848c bd3f 431a 079e 9d76 c33f
000001e0: 1f4f c4e4 9104 e9bf 6d79 44c4 2191 b8bf
000001f0: 5217 1ab7 57c4 ce3f af17 d34a 86bd c43f
00000200: a3b7 71ad 8318 af3f 94d4 80eb ca1d edbf
00000210: 00e0 9e6d d6bb e73f 75a4 2134 260f e43f
00000220: b615 cd9d 14f8 b8bf 95be dc24 bf79 bcbf
00000230: c68e 7e93 0b31 e8bf 021d cc19 d963 bcbf
00000240: 95cd 41ad 4945 e6bf f552 0243 2a99 b4bf
00000250: b2f4 ac90 fa4f d13f 47c7 cacc d353 d63f
00000260: 9606 70d6 59a0 eebf 3ecb 12c7 7a16 84bf
00000270: cdfd 61d0 061d dbbf 4ed8 c820 48ec cd3f
00000280: bbc6 76cc def0 d13f 83fc d7de e86f e4bf
00000290: abdd 8e60 f8ce e5bf 287a ef58 a160 e0bf
000002a0: 81ba 4e66 cd32 b0bf 207b dcb6 2079 e0bf
000002b0: 51de 31d6 fd62 e2bf 8224 7f4d 0be9 db3f
000002c0: fc50 0e3d 38f5 ecbf c255 3c63 55ba da3f
000002d0: 1ed2 907b 6e0f eabf de5c b375 977f e9bf
000002e0: 24a8 e3fa e821 d63f 59df 3208 e510 d8bf
000002f0: 453d c53d 316a d1bf 1f0d f2fb 6074 b9bf
00000300: cf9f c636 65d7 d3bf d8b2 e8f1 44cb a5bf
00000310: fb92 27bd 0ed2 dfbf 6e96 e674 3fcf eabf
00000320: d3f5 e951 d617 e43f 60b6 59f6 2a87 d53f
00000330: 1210 25b1 256e b1bf 606d 1d36 07b4 d2bf
00000340: a619 d1b6 29f2 d4bf f4a8 4069 2468 e63f
00000350: 328d bbf2 fb56 ecbf 18b6 193b 5b82 dfbf
00000360: 569a 4a88 51a8 ef3f 1d85 e9c1 3acf d8bf
00000370: 16f9 4df7 9ccd d53f c35f 646f 6250 c7bf
00000380: b853 0eed c865 ef3f cf04 2dd9 0237 d0bf
00000390: 30fc 6b6c 893d eabf 8db9 dccf e2d3 b5bf
000003a0: 8aa5 a7f8 4030 cfbf 12b0 f7db c0f6 e8bf
000003b0: 4b61 8dd4 41d3 d93f bffd 71ee 842d e83f
000003c0: 66ce 4e1f 90dc e5bf 3bb9 43f8 f995 e1bf
000003d0: 4e09 9738 b388 d1bf 32ef 0b40 5466 e3bf
000003e0: 6a6c 37a0 06be a73f 049a bc23 1e25 8d3f
000003f0: 2187 abb7 7393 e8bf bc3c c619 f59f de3f
00000400: e3b5 61f2 c84a d63f 55d6 3ffc ddf8 d43f
00000410: 700a 9cb7 4079 f1bf 64d7 ea0d d3f0 e7bf
00000420: 2cdb dedc 03fd ad3f e462 ea13 a114 dbbf
00000430: 5f7d ece9 f5eb d93f b034 0d1f 313e e33f
00000440: e42e 1814 6add c53f 428f 90de 4e4a b3bf
00000450: d3c0 9375 20a1 edbf 6438 5b45 cd40 e9bf
00000460: 18f2 b323 15f6 ea3f 0889 a350 c6fd e7bf
00000470: 2ff5 f2ac ebaa c03f 7aca 5440 8983 da3f
00000480: 3b04 83c2 b608 e63f 23b4 51f0 eb07 a93f
00000490: 1e51 5b37 72ca c6bf a16b a99a f3bd d6bf
000004a0: 2ce7 dca1 e66e ed3f 7380 0e1c 83be d83f
000004b0: 1689 3f82 adc6 ed3f 186d 259b ad70 d3bf
000004c0: ac73 f20e 9a79 a7bf 9f12 9aa7 9b03 cbbf
000004d0: 3217 5f03 9c99 e1bf cddd 009b 98a0 d5bf
000004e0: 50de e241 84fb ba3f 74f3 fc35 d8f0 dabf
000004f0: bea9 5079 d693 b83f e3e6 1038 031b ec3f
00000500: 8c80 9423 de62 ea3f 9159 8b1d 102d d93f
00000510: f169 b7d5 6f24 cabf 689e 7495 a817 cf3f
00000520: 593a 3aa1 6014 d0bf 6cb2 dba6 1d24 e0bf
00000530: 0035 d677 52fa e63f 7e1d 07fa 0af7 e83f
00000540: ff38 895e 5111 e33f 4f76 cd0d e38f ebbf
00000550: 0f26 9767 8288 d43f 0032 9396 5f9a d0bf
00000560: 4877 c9f5 70c1 c5bf 3538 8b63 647b aa3f
00000570: d262 5501 7e65 d7bf d124 7536 da8c e33f
00000580: 27aa dbc8 e5c9 d13f 40e1 cc25 eb3e b03f
00000590: 0b38 fec6 446f cabf de21 0bbb 24c9 d0bf
000005a0: 01c9 7404 b868 f3bf eaeb 6dd7 66ec f1bf
000005b0: 4499 1169 0791 cebf c847 a82e 9eed f13f
000005c0: 2241 3d5a 69cc d43f 4d8a f249 a2a6 b9bf
000005d0: 55c9 5efc c3e8 bdbf c6a7 1b22 561e e4bf
000005e0: 6a77 1fef 538b a53f 8c0d 999b 9f61 e2bf
000005f0: d9ff 7f09 434b b53f e5be e0e2 c4c3 bbbf
00000600: 71d3 52ad ddb8 9ebf e458 cf83 9ea2 ea3f
00000610: 50be 3821 df84 d3bf 1bf6 ec28 c4b1 a3bf
00000620: 00f1 d0e1 166d abbf 1817 5571 785b 79bf
00000630: 92be c5a5 8a22 f43f 0bca b654 3c01 bfbf
00000640: 1f76 da5d 5307 d93f b8b0 b70b bb56 e2bf
00000650: 993d ad5c 975e 923f 6c23 d7fc 2a20 bb3f
00000660: ae68 62cb 203e d23f 58ca a65b 17c3 e13f
00000670: cbfd d5e1 c335 c03f 954e f105 2746 de3f
00000680: 8f31 6dab ef62 d6bf c9c3 1a20 d6c2 df3f
00000690: 6bf1 0f3c f55b 79bf e13f f7af 019b acbf
000006a0: 6bdb 6d98 25af f1bf 2de6 358f 74c0 e0bf
000006b0: a3ba 1888 f731 c43f 537f a689 9e60 e73f
000006c0: e29c 1e4b de65 f23f 645e ae68 4432 dbbf
000006d0: 30d3 c054 89b3 b43f 0c8b 294b c1ca b23f
000006e0: 8eab 3eb4 e805 b93f 20d1 1c84 a448 c8bf
000006f0: 8a8e 3808 7a43 eb3f 1fab 5867 81b9 b2bf
00000700: c10a 4ca0 591c c2bf 3364 e002 6e4c ec3f
00000710: aa94 7297 d922 e7bf 512e 33d5 2373 e0bf
00000720: 4475 d803 79b4 e9bf 3f8a c443 23eb e1bf
00000730: 79d4 4cbf a6a0 e23f 5b15 70de 218e cd3f
00000740: 4ebc 53a9 975e e43f ffb6 4027 95c5 c8bf
00000750: 730a 3dc2 1910 e3bf 0613 a747 336b d1bf
00000760: 0948 692b 04ab e23f a14c 8ee2 9c7a e7bf
00000770: 62fc ffc6 fe79 eb3f 6a0a 0378 162e b4bf
00000780: aa6e 63a8 67de e3bf 4430 dc20 c0eb e93f
00000790: f47c 9563 2c33 d6bf 4207 09e8 5b57 e0bf
000007a0: d3e4 7256 5619 c13f d905 1a61 14d2 de3f
000007b0: 4959 1772 cec8 ed3f c5b8 aa5b e3a9 d3bf
000007c0: 85be 6701 12e1 dd3f f89e 81aa b6f1 b13f
000007d0: be40 a8c2 7747 e5bf c6db f84d 39be c53f
000007e0: 709b bef6 1591 e73f f913 ee5c f61c c13f
000007f0: 2b42 3b1f 76d9 ed3f 9f31 8cf2 f8bd 90bf

input_embedding.weight f8 [16, 8]
-0.0612661048480467 -0.05622131031575545 -0.14816408318607668 -0.15289091647252295 -0.15171079138638086 0.06224649256993627 0.05734241627643463 0.17046903572558433
0.08272936086605721 -0.07282745584960622 -0.09825118920295552 -0.09687576398897778 0.05933185625395391 -0.20276949484054765 0.07025228276232023 0.1536261640535366
-0.11234042156653316 -0.13527681507996664 0.032755431145657085 0.003529692566889685 -0.04413778919259321 -0.17618260695677093 -0.13758671489861998 0.0019371174632568128
0.05705235987202085 0.07436492639476652 0.09501552023421624 0.07156084562415158 0.06959914858610343 0.04957703201349449 0.20206559633013857 0.19329804146252655
0.04461902531670859 0.22956542355837245 0.27955871662890375 -0.06312286644324819 0.05718435065496451 -0.170767244861717 -0.04409409858178811 0.061546237444288714
0.12809276031214947 -0.049403970428952435 -0.11034238147702634 0.049426427227757606 0.09324893608771662 0.08328821308378657 0.1361836108101239 -0.06023354088778402
-0.062319797927403116 -0.16600929113186386 0.07272668389015978 0.251563150888296 0.06185464441427129 0.035056338912917796 -0.07464475425852629 -0.07812824119854067
-0.020798984116785237 0.0339736395669635 0.06912418264656653 0.08707838911581019 0.18959965427218173 -0.2996589806182523 0.16186580061934425 -0.22590638591296658
0.0044455895909891975 0.1576740064347362 -0.07405078769695804 0.054729794160653183 0.007735003827391595 0.12281940134286547 -0.1219573606432276 0.012822223981177336
-0.32792348041268515 0.11672996446379645 -0.29741058471477855 0.22127890278050702 0.04549707784008028 -0.09688395769276356 0.20327816024137907 0.030543757297273617
-0.14397530719240736 0.07530689213177807 0.1179542221250284 0.09577108611425941 -0.058339209040643936 0.13663734549173365 0.11903863858899598 -0.05750813864498091
-0.09270954285148027 0.009366433893844874 -0.057895992270137336 -0.04156139663740594 -0.03525194230098087 -0.09812497360528115 -0.015801175508280724 0.009607859546202711
-0.10848680996196293 0.13654051743381093 0.0869801591935106 -0.033608889712602834 -0.0709963168615844 0.012877663786142876 0.0706535869223338 0.046019042754608115
0.12174845719569179 0.1695851758675462 -0.10971477680922584 -0.22136094731000663 -0.007427265424658739 0.019175838653983264 -0.02560617871597949 -0.3180020907541526
-0.09614480254824813 -0.17161495106224184 0.20773481941983898 -0.15900661605878955 -0.18268762428459726 0.07249890408903645 0.2517513776017923 -0.09663095045831382
-0.07996072219461559 0.09927051815413743 -0.07751809424543962 -0.056376622679511414 -0.01926282894865028 -0.04468973076526971 0.08760828505219782 -0.11836529436032218
00000000: 1bf1 5959 455e afbf a9f3 4922 0ac9 acbf
00000010: 51ee dc69 0af7 c2bf 206f 0df7 ed91 c3bf
00000020: 5f36 ba5b 426b c3bf abd5 c1b3 c5de af3f
00000030: 5c6c 2935 fc5b ad3f 6b05 b6ea edd1 c53f
00000040: e9b4 565b c02d b53f 3dfc 1ff5 d1a4 b2bf
00000050: 2978 6b6c fd26 b9bf 8790 1b9e d9cc b8bf
00000060: 5583 71bc be60 ae3f 51b9 7bce 59f4 c9bf
00000070: 82fa eeb8 0dfc b13f 51be 35ab 05aa c33f
00000080: 33a9 a584 57c2 bcbf aa76 562c c050 c1bf
00000090: a6ee 12e3 51c5 a03f 97a1 7844 4dea 6c3f
000000a0: 092a 3372 3a99 a6bf e16d 80d3 268d c6bf
000000b0: 5d44 6d04 719c c1bf 0d01 ce09 dcbc 5f3f
000000c0: 11b2 9e87 f735 ad3f 8ec0 d56e 9409 b33f
000000d0: e1b4 04e8 ef52 b83f ea3c a1c3 cf51 b23f
000000e0: f3ba 01f3 3fd1 b13f 9eeb 4226 2962 a93f
000000f0: 493d f113 49dd c93f 0a30 3b7f fdbd c83f
00000100: 7181 070d 4ed8 a63f 62e0 3c59 6662 cd3f
00000110: 64e7 4e3e 4ae4 d13f 22e7 00f7 d128 b0bf
00000120: 3ee8 cf67 4447 ad3f 575d f479 b3db c5bf
00000130: 5bf4 b56e 8093 a6bf 57b7 070a fd82 af3f
00000140: f590 32f4 5765 c03f a6de 912a 7a4b a9bf
00000150: 4f7c cef7 653f bcbf 03b0 00b1 6b4e a93f
00000160: 7c2f e28a 29df b73f fb4e 5657 6052 b53f
00000170: 5520 57ed 766e c13f b57a 7840 eed6 aebf
00000180: 29a9 fb6b 61e8 afbf f22a 1fde ca3f c5bf
00000190: f7d1 da48 379e b23f 9769 7c54 9c19 d03f
000001a0: d7e1 ba75 69ab af3f cd04 4c8a e7f2 a13f
000001b0: 54bb 5b2a eb1b b3bf c07b d760 3600 b4bf
000001c0: b755 4932 544c 95bf 8b7e bb2d fe64 a13f
000001d0: 7269 d457 1fb2 b13f 1dd6 70f1 c44a b63f
000001e0: 6449 372d cd44 c83f 5f51 6ddc 9c2d d3bf
000001f0: ce1e 00c0 04b8 c43f 5e14 ba1d 80ea ccbf
00000200: 1bcd 79de 8935 723f 9982 886e a92e c43f
00000210: ffc6 660f fef4 b2bf b4d9 1228 8b05 ac3f
00000220: 26be 9147 bdae 7f3f c5f7 14a0 1771 bf3f
00000230: 9019 78fb 9838 bfbf a505 4ac5 8942 8a3f
00000240: 74a1 fdc3 b2fc d4bf cfd2 d5d3 03e2 bd3f
00000250: b863 b567 c608 d3bf 5d57 5ef9 dd52 cc3f
00000260: 00ff c59a 644b a73f ce26 cc15 63cd b8bf
00000270: 9627 1dcd 0405 ca3f 1548 c1da dc46 9f3f
00000280: 3456 e969 c86d c2bf 1e90 defe 4f47 b33f
00000290: eabd 7376 3f32 be3f 665d c332 7484 b83f
000002a0: b0e2 ce05 a3de adbf cb4d 2621 557d c13f
000002b0: d739 b3f3 5079 be3f 5bd2 77ed b471 adbf
000002c0: f9ff 9206 d0bb b7bf 149f 087a b52e 833f
000002d0: 744a bd22 8ba4 adbf 59e0 aa0e 8947 a5bf
000002e0: f53b 9be6 8a0c a2bf 3f38 8ee0 b71e b9bf
000002f0: 3889 2ff0 2e2e 90bf 4cb5 4814 49ad 833f
00000300: e180 d5a4 cac5 bbbf 6d83 7ae0 287a c13f
00000310: 8c12 23eb 5444 b63f c74b 5734 2f35 a1bf
00000320: d394 0e8b d02c b2bf cba1 7bc6 9a5f 8a3f
00000330: 3730 2d7d 5a16 b23f 01a0 3fd7 ce8f a73f
00000340: a573 fe29 e82a bf3f 0967 1e90 f7b4 c53f
00000350: aa97 4882 4416 bcbf 6f6e a736 8e55 ccbf
00000360: deda 8f61 0d6c 7ebf f2a4 91bf d4a2 933f
00000370: e484 a490 8138 9abf 4151 f670 255a d4bf
00000380: c306 a01e f29c b8bf 7292 288d 7af7 c5bf
00000390: c107 d3f7 0d97 ca3f 01fa e82b 545a c4bf
000003a0: 0bd8 d7dd 4e62 c7bf 9ee9 0ec6 498f b23f
000003b0: 0373 61cf b11c d03f 70f6 ff53 cebc b8bf
000003c0: a858 ca4e 4e78 b4bf 96d2 edec ca69 b93f
000003d0: 8ee5 a1cf 39d8 b3bf d5b9 558d 65dd acbf
000003e0: c09a 7391 a2b9 93bf 8f2f 3588 92e1 a6bf
000003f0: e567 281f 7f6d b63f a14d 421c 304d bebf

input_embedding.bias f8 [16]
0.10550136859203522 0.07068871790295705 0.27944854579168904 -0.34892016094292505 -0.23212333326562473 -0.10991447484810181 -0.03156590671554067 -0.008080559962873688
-0.055094067801393774 0.035779431184847596 -0.06100901393909532 0.2340883403243626 -0.09157251233427306 0.21192545481187863 0.08347455881972807 0.0497662689402334
00000000: 7339 c93f 2302 bb3f f8e0 96e3 a718 b23f
00000010: 97c3 4527 7ce2 d13f 0b8e 0a3a b554 d6bf
00000020: c8d6 81a6 37b6 cdbf 7161 d4e2 5a23 bcbf
00000030: 1a0f 0612 6829 a0bf 72f7 3066 8a8c 80bf
00000040: 3b39 d226 4a35 acbf fee6 9d7d ae51 a23f
00000050: e35d 42cf 923c afbf 0ab6 0853 9bf6 cd3f
00000060: c531 b0d1 4b71 b7bf 5cb0 cd90 5f20 cb3f
00000070: 3ec3 2db4 965e b53f e1a0 15e3 f67a a93f

out_fc.weight f8 [8, 16]
0.1522123427278053 -0.1299515246496217 -0.017422834528682887 -0.015232241815480538 0.023961170803448797 0.05670284104088426 -0.01670574667854772 0.11955150154746463
-0.006562168813763247 -0.050828069185579694 -0.058492388308137064 -0.13343822534214994 -0.07742654320815484 -0.1183609662749145 0.009493083986383651 0.11386899942479498
-0.08071451951031007 -0.07367973367392652 -0.06553470743377787 -0.12650041301353643 -0.07251182853213597 -0.00777503540068272 -0.013440468309565853 -0.04722890676693216
0.07859195373709499 -0.06648538101658925 -0.13581173914083935 0.06507239027688662 0.01952016022281166 -0.17151399561616384 0.044128881916099656 0.0695879713451051
0.07699141508998325 0.09084462784575065 0.021314181776277693 -0.05344846221956132 -0.15575500973393688 0.2502840781019207 0.03115024438228723 0.09268669207760681
-0.06967068100843418 -0.11372060048430818 0.08263273330441633 0.027027420190976977 0.06823594651464406 -0.052453862069062475 0.02890616661477659 0.10856200726021907
0.09292774083148166 0.17181027130861554 0.020135692464456525 -0.005006567308182911 -0.031115695278651583 -0.17788840929624394 0.06510288388779262 0.021340742987612054
0.04423962548286343 -0.03381862596731437 0.15869755387608897 0.019016252261189234 0.03176086093964276 -0.02997686255296204 0.0006499530611665935 0.22677288242387278
0.12625761005317102 -0.007296277268616967 -0.015433585293008409 -0.08712598407621873 0.07026787700020005 -0.06557621174578004 0.028043077176087703 0.059623373451005594
0.034106997684415094 -0.03895059863604831 0.0798170935364287 -0.018004893868302965 -0.022253501049428127 -0.09631561644436251 -0.0018255011273567115 0.140190006229743
0.10962948715243152 0.04078452710307025 0.0681864439482841 0.21540257834862456 -0.14722060252577154 -0.01978517346019742 0.07490551427776376 0.10662611233602357
0.07005497442750278 -0.002981376293742731 -0.07221566951587587 0.0487134658065536 0.05260895861408371 0.03529038051523645 0.06713672963380198 0.24750485302596742
0.11897055003898857 -0.17969482155910885 -0.05669955868889504 -0.07222484394728819 -0.11662545183717349 -0.12290628691485435 -0.020085206258546706 0.02715193619693287
-0.08903246638752384 -0.1142303063543505 -0.06792689704242097 0.09524599126270382 0.13606401564807538 -0.06661275427142059 -0.1194924338904718 0.027696721732623338
0.10050423827976208 0.06355941230051693 0.0677476385756615 -0.05803247896284747 -0.05395514063315318 0.011794098832170533 0.06937936720477805 0.048684565036659036
0.06614284584365195 0.044707503775538796 -0.011059565814569353 -0.20211702230965245 0.21425928404749744 0.07517934977931322 0.0539661738721679 0.14900293771499376
00000000: b11f 08ad b17b c33f 41bd 3766 40a2 c0bf
00000010: 846a 04a2 4ad7 91bf b8bb 89e3 1432 8fbf
00000020: 3413 e6f3 4689 983f dac5 b89f 2708 ad3f
00000030: 5af9 8eae 4f1b 91bf 9084 555d ed9a be3f
00000040: 7396 22c7 eee0 7abf 50e5 bdfd 2206 aabf
00000050: 0e5f b2dd b6f2 adbf 76be f0f6 8014 c1bf
00000060: fcdd ebd6 39d2 b3bf 4d12 467f e74c bebf
00000070: 1edd 132a 1c71 833f dec7 8ecc 8426 bd3f
00000080: 51f0 9bed b4a9 b4bf ceeb 81ce acdc b2bf
00000090: 4856 2ef1 e1c6 b0bf c46c 6960 2a31 c0bf
000000a0: 0e62 1e9c 2290 b2bf 1dbb 562c b7d8 7fbf
000000b0: defa a81e ad86 8bbf f2c7 fa23 632e a8bf
000000c0: c491 072f 9a1e b43f 8ddb 2099 2f05 b1bf
000000d0: b9ea 0271 4762 c1bf 619d 1c8c 95a8 b03f
000000e0: be20 14c7 17fd 933f a325 fdac 2bf4 c5bf
000000f0: e102 4791 0f98 a63f 4149 1f6d 84d0 b13f
00000100: 7c5d e299 b5b5 b33f e062 9df1 9741 b73f
00000110: cf31 ae86 62d3 953f cd4e 82ca 985d abbf
00000120: f169 7fb8 c7ef c3bf 8910 8a82 a704 d03f
00000130: 2a8e 8983 d9e5 9f3f 1f6c 3fa7 50ba b73f
00000140: 8ed8 6b10 f0d5 b1bf 762a f613 cb1c bdbf
00000150: 6f1e 1f37 6b27 b53f 6f11 4377 13ad 9b3f
00000160: 0127 b136 e977 b13f a562 458c 3bdb aabf
00000170: 5582 0d01 9499 9d3f 3b50 c53e b8ca bb3f
00000180: 2d2b c3c7 1cca b73f 0696 3104 e1fd c53f
00000190: 54f7 7772 739e 943f dd71 a92d c481 74bf
000001a0: 4bd9 74f6 cadc 9fbf f4e5 2122 0cc5 c6bf
000001b0: f860 2c25 95aa b03f cb08 d104 59da 953f
000001c0: 41ba 4581 93a6 a63f 66f0 0cc9 ac50 a1bf
000001d0: 1c2f ed91 3350 c43f cc98 3716 ff78 933f
000001e0: a9a0 0ea6 f542 a03f 1be6 3431 41b2 9ebf
000001f0: 7871 2192 334c 453f f6a9 d0d0 e406 cd3f
00000200: b355 0699 3529 c03f 3127 0584 b3e2 7dbf
00000210: b87b bfc0 a49b 8fbf a73a 3d74 e34d b6bf
00000220: 8dda ac59 13fd b13f 7cfc d744 9ac9 b0bf
00000230: a9e9 660d 53b7 9c3f 1739 196e f486 ae3f
00000240: 4616 3def 7876 a13f 9d57 9a36 55f1 a3bf
00000250: 8596 669e e46e b43f a449 54f9 df6f 92bf
00000260: 5d49 ea2c 9fc9 96bf 6afd b8e6 23a8 b8bf
00000270: 6d00 03e9 b4e8 5dbf d1cb fd01 bff1 c13f
00000280: d337 ff95 ad10 bc3f a257 2ea4 b5e1 a43f
00000290: b8d5 c9b2 aa74 b13f 2d9f bdca 4f92 cb3f
000002a0: 25a3 92ec 1fd8 c2bf 6f35 d483 9042 94bf
000002b0: 44f1 1cfe 012d b33f 0602 6251 d94b bb3f
000002c0: f296 1670 1fef b13f fddd b735 666c 68bf
000002d0: 9755 d4e2 b97c b2bf 0626 07ad f8f0 a83f
000002e0: 28be 72b9 8fef aa3f bc48 5aac 9411 a23f
000002f0: 0538 236a df2f b13f 4285 ac30 3dae cf3f
00000300: 3ec6 9a9d da74 be3f d3af ed6a 3d00 c7bf
00000310: 696a 887c b907 adbf b559 b6ce 537d b2bf
00000320: 249a 8565 2adb bdbf d5a7 c552 c976 bfbf
00000330: a034 0e60 3791 94bf 97a3 f497 b7cd 9b3f
00000340: 89a8 6aeb d4ca b6bf e805 0186 323e bdbf
00000350: 92e2 5039 a863 b1bf e764 8c91 0a62 b83f
00000360: 2d7a afb0 8b6a c13f c39c 1791 880d b1bf
00000370: 27d4 ad5f 0e97 bebf b22e 3188 875c 9c3f
00000380: 415e 8550 a5ba b93f fc06 2ffd 6d45 b03f
00000390: 434e 10c4 e857 b13f 40a2 80de 6eb6 adbf
000003a0: ece1 f018 02a0 abbf 02e3 2826 8127 883f
000003b0: f464 29a1 d8c2 b13f 0a0c 4eed 2eed a83f
000003c0: 714a c3cf bcee b03f b216 34e5 e6e3 a63f
000003d0: 022f dacb 65a6 86bf 4876 6478 f8de c9bf
000003e0: 9697 ec24 d96c cb3f 73fe a230 f43e b33f
000003f0: 580f be4f 74a1 ab3f 9935 3f3c 8712 c33f

out_fc.bias f8 [8]
-0.03247162547564541 0.1491049594118352 -0.07673159977160142 0.050270964821944195 0.0688729459606936 -0.06186564707928153 -0.12086932945481438 0.020139155789634457
00000000: df84 eef2 1ea0 a0bf cf30 2c0e df15 c33f
00000010: e3ba 969f aea4 b3bf e67d b2ab 1dbd a93f
00000020: 80f8 7a4a a8a1 b13f dd1c e7a5 daac afbf
00000030: 7c0e 19d9 4af1 bebf 872e f1dd 5b9f 943f

layers.0.self_attn_layer_norm.weight f8 [16]
0.8333835526518366 1.0034882481891954 1.3813933292636493 1.0145818256908257 0.6487746285086264 0.8962401925619154 1.2088235437804828 1.016166607996219
0.942995427160782 0.9306670088759538 1.024365233077284 1.0811214660003285 1.0961132629579042 0.8775944442405302 0.8293610447482411 1.0106329050245288
00000000: ef3e f5fb 13ab ea3f 6c49 7eb1 490e f03f
00000010: 5499 41e4 2f1a f63f 4054 0727 ba3b f03f
00000020: 4469 7d02 c3c2 e43f e040 8de9 ffad ec3f
00000030: 81c0 325b 5757 f33f a118 caea 3742 f03f
00000040: 07dc fdbe 042d ee3f dfd3 d22d 06c8 ed3f
00000050: 249f 73cc cc63 f03f 8c99 b705 464c f13f
00000060: 54db 910f ae89 f13f 8b42 a5f1 4015 ec3f
00000070: 90a4 782c 208a ea3f 1e78 b568 8d2b f03f

layers.0.self_attn_layer_norm.bias f8 [16]
0.37788746140614043 -0.1274271722073592 -0.05530298835986664 -0.08814362303649255 -0.12969674283339255 0.009565978981214703 -0.04865395381459398 0.15675983267106933
-0.05376248443027124 -0.11873137799076763 -0.055113674474691045 -0.10751504808166008 0.10728890550042362 -0.20742757098476122 -0.00267992181830157 0.32012758629590576
00000000: 93b3 13e4 4e2f d83f 974d a098 884f c0bf
00000010: 49de c05c ac50 acbf 95ed 4a9a 9490 b6bf
00000020: 8efe 6e22 e799 c0bf 4440 07f7 5397 833f
00000030: 59d8 e8c8 2be9 a8bf c907 53c9 b410 c43f
00000040: 356b c2a0 c186 abbf 6ab7 7af9 2d65 bebf
00000050: adc4 dc0a dc37 acbf 55ae 562f 1b86 bbbf
00000060: 8313 5924 4977 bb3f ce89 d594 fc8c cabf
00000070: 071a 1812 34f4 65bf a60d 6c6a f87c d43f

layers.0.ff_layer_norm.weight f8 [16]
1.1749733245070055 0.9052275315010051 1.1957843634734429 0.9077598674270794 0.8487026288633124 0.8946043406394291 1.0061956680101314 1.0400844698148748
0.9726759411173622 0.9069770032132469 0.9467604218507066 0.9622313673067295 0.9440918478246035 0.8714710201660695 0.9580741718455943 0.9137220040266504
00000000: 37e1 26d4 b0cc f23f 418a 67ba 9ff7 ec3f
00000010: 5ffc e2c8 ee21 f33f 2b0f e76b 5e0c ed3f
00000020: ace8 5f6a 9228 eb3f e2fd 3c48 99a0 ec3f
00000030: abaf f7a0 6019 f03f 0eeb ee9c 2fa4 f03f
00000040: 1e90 964b 2920 ef3f a8cc e0a2 f405 ed3f
00000050: d0de 1f83 dc4b ee3f 8c91 b86f 99ca ee3f
00000060: cf75 5a1b 0036 ee3f 01cd 6031 17e3 eb3f
00000070: f602 672a 8ba8 ee3f ebc2 9ded 353d ed3f

layers.0.ff_layer_norm.bias f8 [16]
0.4931761455528744 -0.04026547802834862 -0.10740610747507406 -0.2027769499871984 -0.33212745921769243 -0.1022032841848797 0.1272384307343788 0.3072012442978865
-0.03260800820256675 -0.3385851695280986 -0.19197575837290595 -0.11851228312312519 0.17418584335854526 -0.30029790738773937 0.0778637201047606 0.41029845841945584
00000000: 9b48 14ae 3290 df3f b841 943e ad9d a4bf
00000010: b000 ff76 f77e bbbf 43f0 4958 98f4 c9bf
00000020: 5563 dc87 9341 d5bf 922b 1e93 fe29 babf
00000030: d835 6651 5949 c03f 0932 6368 2fa9 d33f
00000040: b6ac a231 ffb1 a0bf c429 8221 61ab d5bf
00000050: 1d10 eb61 a992 c8bf 5528 302c d256 bebf
00000060: 4058 53c2 b84b c63f ab67 d2b6 1438 d3bf
00000070: 8714 6573 e0ee b33f 99b0 2077 5442 da3f

layers.0.self_attention.fc_q.weight f8 [16, 16]
0.2605139337949519 -0.11247399684769542 0.3857080746448933 0.6291530472032026 -0.6415234336182322 -0.9139569990383353 -0.6299420706443324 0.7656057080215487
0.3293684596221996 -0.42764367274881104 0.7727526922308593 -0.16048444258981853 -0.8881293705712735 0.06681887999803561 -0.09102211950927477 0.11972216749904337
-0.11932414383248073 0.8307397973571587 -0.1201254663004175 -0.020420265061007168 0.4406279595745092 0.7965094157239453 0.7398067668697882 -0.33269342100176597
0.18498369206616985 -0.18467983266200486 -0.0294735171751552 0.8905935745186043 0.5891455961339822 0.22281854555584832 0.46805635034274573 0.34408120992676366
-1.1868623711738535 0.31109006458398 0.09842271719366048 -0.4578926831705292 -0.12120036937972976 0.2226597955973173 -0.7166296002025287 -0.20373120109286438
0.9110327793238724 0.4219808896715187 -0.34044039315027397 0.7565373901620569 0.6331167641666876 -0.02184443389379812 0.7935531736003394 -0.7385373716853049
-0.9132770986505374 -0.02035719985939449 0.06420486947640423 -0.6866573071259109 -0.33199682735544334 0.5170385805876717 -0.31156795411098276 -0.1347642506337851
0.07022411938894177 0.23758573653155157 -0.8684554737715598 -0.3391613463856627 0.8106345690150236 -0.42658847097484315 0.5540069432853166 -0.7961862916046452
0.1356280978358334 -0.4783271885272337 -0.38665152556076987 -0.22849335123753084 -0.3321628490929939 -0.7594544353425784 -0.8383097424230465 0.38796053083628435
-0.7115514238402244 0.3213621839563459 -0.12957391980173158 -1.2081962269897932 0.22615536316705867 -0.016206106943774758 -0.03805838392015236 -0.718007279746939
-0.35290198578036064 0.07521646348328967 0.3644394430732828 0.8324884774899541 -0.14840265031033487 0.18720881468658246 0.3787937989838781 -0.45342200891219614
-0.15097853259022204 0.020544320934359955 0.9117817848584959 1.1128685810990968 -0.7008984353519879 0.6490122787334525 -0.13512420280643406 -0.37799590718929127
0.32649302319502893 -0.659111440133033 0.12225048664585018 -0.394004318844901 0.6460269820480573 0.7656821200090513 0.07943448006571958 -0.31384861587963175
-0.9975207363440586 0.18287701601904413 -0.19010762263887 -0.28740085353000844 0.3288837257317952 0.19049784040359014 -0.35101450070538415 0.25680796033166775
0.44440708846290794 0.15218290790536576 -0.9232560866159278 -0.34607423975069623 -0.17686137155679876 -0.7373831317984264 0.7625441350793348 0.47286373393763614
0.4368327673756572 -0.13730374279717408 -0.514368608211692 -0.616258226378358 0.5242884248635079 -0.4941050061447938 0.00022096210639249128 0.05895294370992359
-0.526633971999501 -0.37282205086911846 0.1260412780000082 -0.830264554894579 0.4653246888253543 0.853385690646763 -0.0731386075763985 -0.3108654171931707
-0.4321727740019551 0.3258685945601199 -0.7650879553528592 -0.19293598581515425 0.5829588486289866 -0.22390453456839804 0.23151360168789398 -0.7032597011825451
-0.8737331788112934 0.10637412908815044 0.24052550585588545 0.03183965850903839 -0.10218765219018032 0.4521326658851728 -0.4807988548680293 -0.049873016608427925
0.5516207046964439 0.38824547694745504 -0.20667577207248047 0.44043402777930335 0.3907597421802587 0.04160102315910407 0.34608950604405014 -1.1110835545212177
-0.24480183706268724 0.8806374449736878 -0.8858524964061848 -1.0536950826028244 0.29074038899817034 0.39250373728953897 0.5693565617380446 -0.5041355971572187
0.21967898379244455 0.19604652796143837 -0.7919220012451079 -0.5938327602956758 1.1958732750481713 -0.36310633401383663 0.4640464084779449 0.5385941848733452
0.0865756645240708 0.648787606270751 0.05426656388665582 0.16546418295087206 0.24163229125053465 -0.2323881364727631 0.801544722522275 -0.12364854934470934
0.11698457699187319 -0.1861742387893642 0.4009335206797918 -0.21423745799673624 -0.10186584863795842 0.2707655126685005 -0.32078769994462275 0.7283427871788924
-0.29739481618929864 -0.4099727331686216 0.521037596752985 0.3255248207661218 0.7149055478293782 1.4537161154891687 0.1960780624267389 -0.5369653847148713
-0.6864047922031274 0.24828331522687147 0.289273661309715 0.8256282886426393 -0.34874371663751674 0.597611627811409 -0.10210573193130174 -0.15236724648236272
-0.8797210262723706 0.3631274659131506 0.5322269893988755 -0.010052333167460547 -0.2847920688065808 -0.15224372999786823 -0.21654628374486978 -0.12785185165962673
0.9577464730356025 0.08485511282085106 0.47665833103558 0.5834102365377124 -0.2722837700807676 0.1504156789218072 0.48183376243761056 -0.4771692682122108
0.2804849863873337 -0.5899661679975388 -0.43171232317880176 -0.5703429487889571 0.08925137284344324 -0.33596330817801195 -0.21657728791552275 0.4763002912380831
-0.5898651118448779 0.207399890266812 -0.1343752818278517 -1.2872067117526615 -0.13542749117174724 -0.1648207967713806 -0.25792173677378216 0.01664908878989448
0.06676259251475412 0.6642511262214543 -0.1091935959439893 -0.004283904556215546 0.203259755061381 0.6546123307877745 0.8653361271001975 -0.152212209632934
0.4760765804497307 -0.39167046520176346 0.12455493996550165 0.8002902091586628 -0.1967858203315047 -0.04974219280414155 0.32530788080270595 0.8160594682483182
00000000: de4d 73a2 42ac d03f 777b 1c8a 18cb bcbf
00000010: d4c9 99eb 70af d83f f753 3d92 0522 e43f
00000020: ff40 e026 5c87 e4bf 0f3d 9abf 223f edbf
00000030: 7c57 f945 7c28 e4bf d7ab b28a d77f e83f
00000040: d251 9a72 5f14 d53f bf09 3391 835e dbbf
00000050: 3be1 a0da 63ba e83f e453 3814 c18a c4bf
00000060: d90f 2749 8e6b ecbf 31cf 58c8 0a1b b13f
00000070: aa43 81c2 394d b7bf 7dbe 03aa 1ca6 be3f
00000080: 7b3a 62ef 068c bebf 2b4f a4a0 6b95 ea3f
00000090: b552 2de5 8ac0 bebf a961 73ca 0ce9 94bf
000000a0: b6d8 049d 3f33 dc3f 77b1 6f50 017d e93f
000000b0: 6b16 a23d 7fac e73f 2301 b358 d94a d5bf
000000c0: 29d8 dbad 8bad c73f d5cc c1b8 96a3 c7bf
000000d0: b827 7641 4e2e 9ebf 81b9 9218 be7f ec3f
000000e0: c64a 7fdd 47da e23f 5365 0d6f 5185 cc3f
000000f0: c00f 5a9f a2f4 dd3f 896d f331 6d05 d63f
00000100: 26b7 d065 63fd f2bf 0feb 5f4d e6e8 d33f
00000110: 11bd 872f 3b32 b93f 20e3 d21c 1d4e ddbf
00000120: 57c2 bfc6 fc06 bfbf 28bd 1cbe 1d80 cc3f
00000130: b0e4 0633 a1ee e6bf fd2f ef2e dd13 cabf
00000140: e6f5 1837 2e27 ed3f 2846 2b22 bc01 db3f
00000150: fc56 b480 c6c9 d5bf ae4f 9ee6 8d35 e83f
00000160: 09a6 9416 7e42 e43f 29a9 b124 635e 96bf
00000170: d603 08a0 c964 e93f c963 4820 19a2 e7bf
00000180: 7079 dce4 9039 edbf ef74 898e 84d8 94bf
00000190: 9725 a5f6 ba6f b03f 7149 b5be 18f9 e5bf
000001a0: 4683 f79e 6f3f d5bf 319e 4c7e 948b e03f
000001b0: e7d9 58b7 baf0 d3bf d62e 9278 f43f c1bf
000001c0: b678 2a38 35fa b13f 4415 339c 3569 ce3f
000001d0: 7131 3c22 63ca ebbf c9cc b2ca d1b4 d5bf
000001e0: 8ea6 5de8 b7f0 e93f 9501 ecba 394d dbbf
000001f0: 075b e5c4 6cba e13f 22e5 7eac 5b7a e9bf
00000200: e4d1 4ff2 425c c13f 2bc6 e0a3 e99c debf
00000210: 54d9 4e0a e6be d8bf de95 7527 453f cdbf
00000220: e63c 73f7 2742 d5bf 1527 5363 734d e8bf
00000230: 6101 f4f3 6ed3 eabf 3829 0568 58d4 d83f
00000240: a91c da7d 07c5 e6bf 81df 90b1 3291 d43f
00000250: 6742 fbd1 e095 c0bf e825 2191 c554 f3bf
00000260: e50a 4fb0 a8f2 cc3f 9aa5 466d 5598 90bf
00000270: 2e24 8d74 637c a3bf 64b2 1967 eaf9 e6bf
00000280: d1af e735 f295 d6bf de10 c8da 6241 b33f
00000290: 2ed2 57d0 f952 d73f cab7 23e0 bea3 ea3f
000002a0: 917e dca8 dbfe c2bf a807 4d5c 75f6 c73f
000002b0: 000e a458 283e d83f d120 e4be dd04 ddbf
000002c0: e2c0 efb9 4353 c3bf d85c 200a 9209 953f
000002d0: b0c8 61fe 502d ed3f 9110 0949 4fce f13f
000002e0: 81f0 348e c26d e6bf 8a9a fb65 b5c4 e43f
000002f0: 7ed1 f9f7 bf4b c1bf 4397 d9be 1531 d8bf
00000300: 1cab 3ffe 42e5 d43f 8d4e f9df 7017 e5bf
00000310: 0b63 10d2 ce4b bf3f 99fb fae3 5d37 d9bf
00000320: 0a5c 07c7 40ac e43f 2e44 12ca 7780 e83f
00000330: 7d99 0e6e d155 b43f be43 4681 1816 d4bf
00000340: 0abf 759b b0eb efbf 5bf5 7e99 8368 c73f
00000350: 0e25 fa52 7255 c8bf 723f b08c c664 d2bf
00000360: b519 8d53 6e0c d53f 66fb 3eb5 3b62 c83f
00000370: a3e3 3c86 0577 d6bf d086 bea7 8a6f d03f
00000380: ddc2 c36d 2a71 dc3f 5e5b 3bc2 ba7a c33f
00000390: b625 3b59 508b edbf 4de8 6d91 1426 d6bf
000003a0: 4e8e 61b7 64a3 c6bf 1548 7682 a498 e7bf
000003b0: e383 3df5 c266 e83f 7e80 2e40 6643 de3f
000003c0: a1c6 6c6c 11f5 db3f 3d54 7746 2b93 c1bf
000003d0: d176 cb27 b575 e0bf d0f3 052c 63b8 e3bf
000003e0: 4db9 ce84 f8c6 e03f 18a2 8b9a 6a9f dfbf
000003f0: 2887 8d0a 42f6 2c3f b75e 798a 142f ae3f
00000400: fa69 d67c 2fda e0bf 0879 ed04 51dc d7bf
00000410: d060 7adf 1e22 c03f 599b c9f8 8691 eabf
00000420: 77ae 2134 e1c7 dd3f 9678 0682 ef4e eb3f
00000430: 9498 9d37 36b9 b2bf 0555 1310 38e5 d3bf
00000440: fad6 a3fe b7a8 dbbf fd77 1bf3 07db d43f
00000450: afba 59bc 997b e8bf 0018 a65a 20b2 c8bf
00000460: 5bcf b850 99a7 e23f 0edd b25e e7a8 ccbf
00000470: 0612 ead9 3ca2 cd3f 798f 257d 1a81 e6bf
00000480: 8896 8d48 9ff5 ebbf 76f7 92bd 553b bb3f
00000490: 0ea0 c02e 8ac9 ce3f a435 06a8 494d a03f
000004a0: 9f3b 3650 f828 babf f586 5bd9 bdef dc3f
000004b0: 2832 678f 68c5 debf d276 92be f488 a9bf
000004c0: 66f7 ce76 e0a6 e13f 9cca 938e 03d9 d83f
000004d0: 25a3 f608 5a74 cabf f5e3 5634 1230 dc3f
000004e0: 917c 5026 3502 d93f 8fa0 e5b3 ba4c a53f
000004f0: ddab 7c99 5426 d63f 4aac 9c8c ffc6 f1bf
00000500: d9ac 17a6 aa55 cfbf 8c70 3994 2e2e ec3f
00000510: eb9f a455 e758 ecbf 2cc3 fb5f efdb f0bf
00000520: c4e6 9793 7d9b d23f 9bd8 cdfe c71e d93f
00000530: 69b1 8d40 2b38 e23f 1945 d1f9 e021 e0bf
00000540: 74e7 80e1 701e cc3f 6b5b 0b79 0d18 c93f
00000550: 5b94 0acf 6c57 e9bf 3d6d 988f ad00 e3bf
00000560: 7fe0 e703 4c22 f33f 16d5 6359 223d d7bf
00000570: 474c 0fb5 efb2 dd3f f318 3bdf 293c e13f
00000580: 65a6 c29f d229 b63f bd74 df39 dec2 e43f
00000590: 8ca7 51ba d3c8 ab3f 3878 372b ee2d c53f
000005a0: 580f 4a92 ceed ce3f df7f 10fb e4be cdbf
000005b0: 5377 301e 41a6 e93f 7624 a26b 6ea7 bfbf
000005c0: 7305 5184 b3f2 bd3f 33a0 7ab5 8ed4 c7bf
000005d0: 6e26 cc11 e5a8 d93f bd4a d60d 226c cbbf
000005e0: 8eb4 7a58 e113 babf c1ef 72df 3854 d13f
000005f0: 6628 0e22 c987 d4bf 21bf 6688 954e e73f
00000600: 2a1c 6244 8408 d3bf 7080 4d46 fe3c dabf
00000610: d44b c109 57ac e03f 2783 ce0e 66d5 d43f
00000620: 20ff 7499 81e0 e63f 311b 5bd4 6b42 f73f
00000630: 71fe ca00 1619 c93f dbe6 cd07 d22e e1bf
00000640: 3f90 ca2e 07f7 e5bf 0e5c 8567 bfc7 cf3f
00000650: 8ed7 baac 7583 d23f 35ec 4b04 8c6b ea3f
00000660: 2931 692a d151 d6bf 3219 a56b a21f e33f
00000670: a40b 61eb 9923 babf eac8 4f1a c580 c3bf
00000680: 3d30 aeb5 ac26 ecbf e615 98fb 7a3d d73f
00000690: e188 30e5 0008 e13f b335 9f51 5196 84bf
000006a0: f8cd 6b83 083a d2bf ae52 aef8 b87c c3bf
000006b0: 2a95 60e3 c9b7 cbbf d739 ce10 735d c0bf
000006c0: 2483 71ee dba5 ee3f 24c5 768e 10b9 b53f
000006d0: 027b caf1 9181 de3f 5d98 c2f1 4bab e23f
000006e0: 6b9f eee7 186d d1bf 992c e32a d240 c33f
000006f0: 8ccd f146 5dd6 de3f 332c 68f8 f089 debf
00000700: db5d e34c 77f3 d13f c677 a9ba 00e1 e2bf
00000710: 1b52 55b9 2ca1 dbbf 52b0 11db 3f40 e2bf
00000720: 4356 7c8f 2dd9 b63f 37f4 513f 6c80 d5bf
00000730: 67a7 53f8 cdb8 cbbf 8757 7c37 b47b de3f
00000740: b09a 8dcc 2ce0 e2bf c2e9 f160 148c ca3f
00000750: 32b3 6b90 3533 c1bf c8b5 a210 6698 f4bf
00000760: 10ef c722 b055 c1bf 0fb8 ea0d d918 c5bf
00000770: 12bd 172c ca81 d0bf c574 716f 750c 913f
00000780: 6f71 726f 5a17 b13f 5c79 ee93 8b41 e53f
00000790: 2b17 838b 1cf4 bbbf 1a77 7ddf ff8b 71bf
000007a0: ee71 4a68 6a04 ca3f a256 098f 95f2 e43f
000007b0: 2b2a be63 d5b0 eb3f cb71 368f b07b c3bf
000007c0: 2d14 dbe7 0978 de3f 8b71 b6ff 2011 d9bf
000007d0: bc02 b521 d5e2 bf3f 94a7 7436 fa9b e93f
000007e0: d0f6 511b 4730 c9bf 6875 a606 cf77 a9bf
000007f0: a16f 4b25 d8d1 d43f 36f7 f6be 281d ea3f

layers.0.self_attention.fc_q.bias f8 [16]
-0.19596961103063312 0.49781055206575003 -0.3740891703048442 -0.7093065460508453 -0.14403093572314826 -0.329326239948852 -0.4680238531931684 0.4178349440089346
-0.07559763252486255 0.05515858798997989 -0.06070203549239246 -0.12252207984448828 -0.20842665672572555 -0.34363618093218945 -0.07802397700572775 0.23421036701419534
00000000: e375 313f 8815 c9bf 7378 2eca 20dc df3f
00000010: 29d0 0fb4 13f1 d7bf 3111 44a4 a3b2 e6bf
00000020: 9387 450f 9b6f c2bf c2e0 925d ae13 d5bf
00000030: a49a cd51 1af4 ddbf 483d e9c6 cebd da3f
00000040: 6b6c 59cf 5d5a b3bf 8560 0517 bf3d ac3f
00000050: 2a1d 7b52 5614 afbf 7950 f865 9b5d bfbf
00000060: bf34 2085 b9ad cabf b3de b49b 22fe d5bf
00000070: fa1f 8b1d 61f9 b3bf 6ae5 5af5 9afa cd3f
