saved_model/Shift_transformer/best_train.pt (torch, 39926 bytes, 37 tensors)

pos_embedding f8 [1, 16, 16]
000000 ea 19 b1 4d 76 bd f0 bf 71 2d d5 b0 cb 7f 9e 3f
       -1.046255401118851 0.029784376781476
000010 be 4c ea c6 a5 71 de 3f 5a ea fd 3f f5 9b c3 3f
       0.47568649697604914 0.15319696068384553
000020 ef d9 ca fb dd 87 e0 3f 18 da 80 4e 61 6d da 3f
       0.5165853421993328 0.41292603174534426
000030 bd 02 f3 84 44 79 e3 bf 24 d3 b2 02 14 cc ec bf
       -0.608553180376553 -0.8999118855195758
000040 a0 47 23 15 ae 3b ab 3f 1a d0 d2 d7 b5 81 ec 3f
       0.053189697342204356 0.8908337798407076
000050 df ef 72 40 86 12 dc 3f 7c 85 6b fb a8 30 ec 3f
       0.43863064092488274 0.8809399519488319
000060 d2 4a 50 09 6e 24 c8 bf 9c 4f 20 fe 5f 1a e7 3f
       -0.18861175017135295 0.7219696010019905
000070 17 e0 5f 17 ad 5b d3 3f ad 78 51 2b 8a cc f0 bf
       0.3024704674021463 -1.0499364559287117
000080 d0 a3 f2 b6 15 56 d4 bf 81 99 43 e9 6e 0f d1 3f
       -0.3177542006110885 0.26656697063153706
000090 d5 94 29 8e 90 e4 e8 3f 22 bd ef 25 82 6b e2 3f
       0.7779009605989368 0.5756235829302663
0000a0 ca 51 01 48 8a f3 c6 3f 61 e5 fb dc c4 38 d3 3f
       0.17930725589634583 0.3003399045988627
0000b0 d5 22 6e 0c 87 02 bc bf 37 03 73 a6 9d 3a d9 bf
       -0.10941356709930557 -0.3942026257973796
0000c0 3e 2d 8c 8d 58 21 e6 3f 25 a5 d3 e0 2e 49 c2 bf
       0.6915705456353078 -0.14285837152355288
0000d0 38 e7 77 6a 77 d2 f0 3f 77 cf 18 17 13 37 ed 3f
       1.0513834151192452 0.9129729701148638
0000e0 e7 64 76 70 c0 fe e3 bf 41 9c 8d 9a 21 ad e6 3f
       -0.6248476215870625 0.7086341875664247
0000f0 79 16 b2 f9 59 49 90 bf dc 57 09 4a a6 24 d5 bf
       -0.01590481363793692 -0.33036191206099175
000100 1a 58 72 21 31 4d e1 bf 29 fa 9a eb 20 40 e8 bf
       -0.540672841382505 -0.75782819763828
000110 40 29 7b f8 9f 2a d3 3f f1 6d 48 98 36 e3 b5 3f
       0.29947661653263324 0.08549824922413742
000120 5c 42 38 31 1e 72 d7 3f e9 97 a5 7a 18 42 81 3f
       0.36634020620934904 0.008426848643193057
000130 f4 b8 84 33 11 c7 f0 bf dd cf 46 1f 0d fc e2 bf
       -1.0486003887595503 -0.5932679758902811
000140 4e f8 41 f8 09 86 ef bf b8 57 ed 8a be 54 ed 3f
       -0.9851121758254153 0.9165947640819843
000150 3c e7 5a 3f f3 14 bf bf f6 14 8c c5 81 1d bf 3f
       -0.121413424460937 0.12154398987702905
000160 4a 0f 7b e7 b5 32 dd bf 76 8b 75 d5 57 5f d8 3f
       -0.4562201271585208 0.3808192810594656
000170 d7 db 9f 77 e8 b7 c7 bf 0f 9c e9 05 82 9a e9 bf
       -0.18529992905652534 -0.8001108279685257
000180 93 15 41 ba 7f f0 b3 bf 33 cd 32 fd fb e1 e0 bf
       -0.07788847253058 -0.5275859780580617
000190 21 95 d7 97 14 20 eb 3f 34 d4 2a 40 61 8c a5 3f
       0.847666069571151 0.04208663852970354
0001a0 af de ca 83 10 80 ea 3f 9f 41 b2 03 ec 0e e4 3f
       0.8281328748771183 0.6268215248292569
0001b0 00 54 d7 85 96 39 dd bf e1 19 c8 30 ae 65 e3 bf
       -0.4566398913423768 -0.6061621620909216
0001c0 a8 04 8d b5 66 06 c0 bf 2d ef 21 5e c0 c7 d5 3f
       -0.12519534935748777 0.3403168601287117
0001d0 1c 91 7f a1 af 3c bd 3f ce 5b 9e 20 ed 40 c3 3f
       0.11420724575834068 0.15041889279083737
0001e0 d7 81 88 0e b5 0f e9 bf a7 51 f1 e5 70 0b b9 bf
       -0.7831673892833874 -0.09783082593759805
0001f0 59 44 5d df f9 98 ce 3f 1a c3 f4 bf 0f 01 c5 3f
       0.23904345900021687 0.16409489510399383
000200 36 17 f2 b0 4d 3d af 3f 32 d3 9d ea e4 10 ed bf
       0.061014583444416834 -0.9083122808793631
000210 5d 5c 68 a2 c6 c1 e7 3f 71 87 9e 08 c5 19 e4 3f
       0.7424042865776631 0.628145710787278
000220 fa 98 c2 0b 90 3c b9 bf c5 4d b5 6d 27 d8 bc bf
       -0.09858036315072019 -0.11267324856208123
000230 c7 65 66 88 a2 3a e8 bf 2d f2 2a ca 3a 54 bc bf
       -0.7571575798094096 -0.11066024242149615
000240 51 e8 a3 e6 99 42 e6 bf 65 c1 b0 e8 43 7a b4 bf
       -0.6956300263111733 -0.07999061995429242
000250 74 3d 8b 15 f6 75 d1 3f 7c e2 9c 09 04 7b d6 3f
       0.2728247843160354 0.3512582868457128
000260 72 ae 7d 9c bd 9e ee bf 4a 93 28 dd 91 75 80 bf
       -0.9568775230849964 -0.00803674656078503
000270 f5 cf 2e e7 db 21 db bf cc 30 6c 54 cc c9 cd 3f
       -0.42394158913089025 0.23272089121053907
000280 91 e5 1f 66 38 e2 d1 3f 8b de 0f 1b 51 71 e4 bf
       0.279432391863872 -0.6388326195291979
000290 97 70 e9 c2 4f d0 e5 bf fd bb 59 1c b9 65 e0 bf
       -0.6816786581871551 -0.5124173692437349
0002a0 b8 4a 38 ed fb 26 b0 bf 02 1a 87 bf b6 7b e0 bf
       -0.06309484998227333 -0.5151017895485099
0002b0 83 1c ae 99 2d 73 e2 bf 13 4f 97 75 32 e5 db 3f
       -0.576559829861154 0.4358640812254048
0002c0 c8 ee 9f 3a d4 eb ec bf 02 58 e6 32 33 bc da 3f
       -0.9037877221121215 0.4177368161266487
0002d0 26 42 47 ec 91 17 ea bf 2e 6c 1f 7b 6b 90 e9 bf
       -0.8153771986781677 -0.7988793759099104
0002e0 08 3f 91 14 be 30 d6 3f 9f 1d 76 85 03 1e d8 bf
       0.34672500618488344 -0.37683189423884217
0002f0 b5 6b 65 da 4b 69 d1 bf b7 0a 7f 1e b8 79 b9 bf
       -0.27205177619697035 -0.09951353783166438
000300 22 1d 3f f4 fb ba d3 bf 36 37 78 27 a2 a9 a5 bf
       -0.30828760959816937 -0.042309825246873364
000310 a6 f8 c7 ad f3 d0 df bf 32 24 d7 49 b2 cc ea bf
       -0.4971284100610184 -0.8374873583026157
000320 e4 35 2e 8f c8 22 e4 3f fc f4 ea 3b 29 8b d5 3f
       0.6292460247511227 0.33661871768329354
000330 05 d4 13 42 14 e8 b0 bf e6 41 cc e0 11 cc d2 bf
       -0.06604124654025163 -0.2937054343501856
000340 98 17 25 38 42 f5 d4 bf 60 b8 58 b9 7b 69 e6 3f
       -0.3274694011964754 0.7003763790178361
000350 b3 4b bb b3 35 55 ec bf a7 17 68 1c 42 7f df bf
       -0.885401583708122 -0.4921422269256887
000360 7e 14 4b de fc ad ef 3f 2d 75 91 cf 17 b3 d8 bf
       0.9899887410798696 -0.3859309699090144
000370 75 0e 45 29 ca ac d5 3f 67 08 a3 6e 5a 52 c7 bf
       0.33867124586343006 -0.18220072176160615
000380 f8 c8 09 01 3f 6a ef 3f 08 47 ff 4a 5e 58 d0 bf
       0.9817194957998074 -0.2553935749430001
000390 70 c1 93 4a a6 39 ea bf 53 c6 71 b7 9a ca b5 bf
       -0.8195373016915664 -0.08512274721740569
0003a0 1e 54 ae b6 b8 d5 ce bf 94 bb b5 f6 00 ea e8 bf
       -0.24089726371735848 -0.7785649126579863
0003b0 25 4e 39 bf e1 d4 d9 3f 46 83 83 64 f0 1e e8 3f
       0.4036182753963849 0.7537767375143651
0003c0 97 be bf c1 ab e7 e5 bf ac 15 cc 7f 62 92 e1 bf
       -0.6845301422271913 -0.5491192337073492
0003d0 2c 72 41 9c 27 93 d1 bf 71 e6 d1 a6 b7 6b e3 bf
       -0.2746066118177477 -0.6068990953637706
0003e0 86 6d e0 55 70 a0 a7 3f de ad 85 04 d6 3c 8c 3f
       0.046145925982467736 0.013787910473829375
0003f0 0d 1d d9 90 41 94 e8 bf 45 45 cb 8e ca b2 de 3f
       -0.7680976704658932 0.4796625513527782
000400 04 8f d6 52 56 54 d6 3f dc f6 35 8d af fe d4 3f
       0.3488975342718137 0.32804478445164675
000410 19 52 ae 2c 6e 7d f1 bf b0 1e 66 4d 8e eb e7 bf
       -1.0931226487492778 -0.7475043784806612
000420 1e c6 9a 5f e0 2e ae 3f 93 61 59 42 0f 0a db bf
       0.058951388998490936 -0.4224889896336432
000430 90 7d 8f 03 c2 f8 d9 3f 5f 36 ec 59 37 46 e3 3f
       0.40580797527032875 0.6023213154127908
000440 61 1a b2 ee bb fa c5 3f f8 16 7e d1 9b af b3 bf
       0.17171429781974992 -0.07689832558216014
000450 c7 18 eb b3 9e 9b ed bf f7 20 98 fa b8 43 e9 bf
       -0.9252465738325321 -0.7895169157427792
000460 32 17 69 1e 38 f7 ea 3f 08 83 bb c5 8a f9 e7 bf
       0.8426781267123487 -0.7492116796457546
000470 ad b1 30 1a ec 86 c0 3f 32 4b 53 f1 f6 8f da 3f
       0.1291175010568514 0.4150369030659703
000480 32 0e 6b f0 01 0b e6 3f e7 be af f4 80 a5 a9 3f
       0.6888436980884249 0.0500908182801803
000490 66 7e c5 5a 2c a3 c6 bf 8e 2a e6 a5 bd bd d6 bf
       -0.17685465271187012 -0.35533086014826487
0004a0 7a 2b 11 a8 a5 7d ed 3f b8 a7 b5 2f 75 eb d8 3f
       0.9215877802429155 0.3893712011255235
0004b0 01 0c d8 ab 0c e3 ed 3f cd fb cf ed ad 98 d3 bf
       0.933966003067667 -0.30619381164427467
0004c0 c1 be 1e 19 55 8b a7 bf 69 06 79 99 cf e4 ca bf
       -0.04598489696161102 -0.21010775560175723
0004d0 9d 49 34 a1 79 9a e1 bf f4 ed 77 7d 85 a6 d5 bf
       -0.5501068256874536 -0.33828866246014333
0004e0 a8 91 19 52 ca db ba 3f a9 6b cd 02 c9 d9 da bf
       0.10491623405829975 -0.41954255365061016
0004f0 f4 55 b8 c3 fc 8d b8 3f 21 c5 a4 a2 f9 1c ec 3f
       0.0959165551979238 0.8785370041497665
000500 a5 ac 77 8a 06 62 ea 3f 1f 32 cb ac ea 23 d9 3f
       0.8244660095637256 0.39281718134296456
000510 ff f0 15 fa 33 01 ca bf ec 80 89 5c ac 24 cf 3f
       -0.20316171370712507 0.24330667990125876
000520 53 6b 22 01 04 08 d0 bf ab 0b a4 25 d1 21 e0 bf
       -0.25048923598085543 -0.5041280493900236
000530 5c d3 8f 15 d1 ee e6 3f bb bb 56 24 20 f8 e8 3f
       0.7166524335030817 0.7802887639753558
000540 df 97 b8 ca d4 1c e3 3f b8 3e ff 80 75 8b eb bf
       0.5972694358249518 -0.8607738036607406
000550 cf ac 15 bc 8d a8 d4 3f c8 06 57 9b 36 a2 d0 bf
       0.32278769843715066 -0.2599007145873711
000560 a1 6e 41 56 5c d9 c5 bf 51 54 dc 2e 85 17 aa 3f
       -0.17069582187365476 0.05096069523839531
000570 2b cc e8 9e bf 64 d7 bf e4 3f c0 e0 bd 8a e3 3f
       -0.3655242015694877 0.6106862439792136
000580 6d 83 4d 63 33 cb d1 3f f5 ec fd 8d e2 6f b0 3f
       0.2780273885492111 0.0642072292957215
000590 2e 42 b9 96 a6 95 ca bf 7e b2 58 0e 29 d7 d0 bf
       -0.2076919780688668 -0.26313234711668787
0005a0 c6 c6 c3 41 6d 6f f3 bf fd 3d 31 a8 1f f2 f1 bf
       -1.2147038048682801 -1.1216122217191462
0005b0 bf 28 af b1 96 78 ce bf d4 c7 fd 16 73 f4 f1 3f
       -0.23805507350909313 1.1221800706957668
0005c0 d3 44 93 98 c3 b5 d4 3f cf 7e 66 33 94 7b b9 bf
       0.3235939970009671 -0.09954191450969606
0005d0 f0 8a 19 b1 cf e2 bd bf 59 59 73 eb 55 26 e4 bf
       -0.1167421157238484 -0.6296796415943319
0005e0 ed 4a e7 90 97 f1 a4 3f 1b fe b4 4f 80 63 e2 bf
       0.04090570110169787 -0.5746461445596113
0005f0 c1 11 82 7b be 69 b5 3f b5 d6 03 60 9a d1 bb bf
       0.08364477649053638 -0.10866703838459098
000600 ef 44 80 f0 6c 0f 9e bf b4 6e ea 3d 83 b2 ea 3f
       -0.029355718783396986 0.8342910966197992
000610 64 2f f4 60 0f ab d3 bf 49 25 e5 76 47 c2 a3 bf
       -0.307315678292744 -0.03859160734516338
000620 e4 67 62 8f d6 03 ab bf b6 0b 31 2d 67 09 7c bf
       -0.052763657572725525 -0.006844904931372511
000630 9c 06 67 48 cc 25 f4 3f bc 01 46 c4 b5 4b bf bf
       1.2592280224056713 -0.12224899331886879
000640 0c bd 88 07 5e de d8 3f d6 e0 06 25 20 5d e2 bf
       0.3885722230506452 -0.573867866819479
000650 59 c0 d2 a6 40 89 91 3f b1 e5 32 fe 66 3a bb 3f
       0.017125139410098054 0.10635989862466634
000660 44 dd 58 2c 2c 46 d2 3f 41 e9 c8 19 c2 db e1 3f
       0.28553299265646026 0.5580759528741411
000670 0e 36 49 4c 46 32 c0 3f 55 a5 38 2d c3 4f de 3f
       0.1265342590799467 0.473618311082267
000680 87 6a 20 c3 6f 85 d6 bf c7 16 ab bc 33 d1 df 3f
       -0.3518943219693615 0.49714368271484627
000690 f7 89 1e 4e c5 b8 7c bf fa e9 40 eb bf 67 ac bf
       -0.007012148593192872 -0.055479047267414885
0006a0 26 7e 58 28 ce bc f1 bf 2c ab ae 00 4e c6 e0 bf
       -1.1085950447085309 -0.5242071164442215
0006b0 f3 13 ea 4a 43 4a c4 3f 48 4d 5c 33 b3 73 e7 3f
       0.15851632268837043 0.7328735354553055
0006c0 54 e2 f6 2f ca 71 f2 3f d1 89 b4 65 1a 43 db bf
       1.1527807115181945 -0.42597064907218135
0006d0 8a 52 cb 2d 98 9c b4 3f 18 ad 38 0e d5 0d b3 3f
       0.08051444166205549 0.07442981335832533
0006e0 b8 65 23 ce ab 1c b9 3f b8 85 87 f2 30 53 c8 bf
       0.09809373648331288 -0.19003879396681866
0006f0 22 74 a9 27 ca 5a eb 3f d7 dd a7 e9 1c e8 b2 bf
       0.8548327231070554 -0.07385426239476743
000700 3a 61 62 8b 35 62 c2 bf 9b 60 50 44 1e 59 ec 3f
       -0.14362210565446693 0.8858786901719385
000710 21 2e 57 89 3a 19 e7 bf 85 40 7e 02 d0 79 e0 bf
       -0.7218296701843806 -0.514869694585301
000720 7f c1 a3 43 54 c6 e9 bf 87 f5 a2 98 1f fa e1 bf
       -0.8054601021849946 -0.5617826443846504
000730 aa 32 d5 29 af 98 e2 3f 37 fb a0 36 f0 a9 cd 3f
       0.5811382119223556 0.23174860637115
000740 dd 00 bd f8 58 5e e4 3f 61 4c 02 75 1d 8c c8 bf
       0.6365170343560994 -0.19177597249344827
000750 a0 b0 34 31 1a 1b e3 bf a7 db 3e b9 1f 66 d1 bf
       -0.5970583878565954 -0.2718581494368046
000760 b1 e3 4a 85 87 b1 e2 3f 56 bf b6 ef 7c 8f e7 bf
       0.5841710666055545 -0.7362656289969702
000770 bc 1d 45 73 09 90 eb 3f 66 43 84 02 fe 9f b4 bf
       0.8613326312415022 -0.08056628762666448
000780 c8 09 1e f7 bf dd e3 bf 71 e5 15 27 4e da e9 3f
       -0.6208190752516254 0.8078985942258169
000790 9c 5b 2b e0 22 41 d6 bf 7a f5 ef de e5 51 e0 bf
       -0.3477256001619311 -0.5099973062748824
0007a0 88 b9 30 fb a0 08 c1 3f e9 31 5e 3f e1 da de 3f
       0.133075831080941 0.4821093672587993
0007b0 01 c4 df aa ac c9 ed 3f 2b 95 44 bd 22 a9 d3 bf
       0.9308684670814956 -0.3071982239074084
0007c0 8d 2e 5c 72 74 ab dd 3f 15 13 26 fe fc c5 b1 3f
       0.46358977478005486 0.06942731098940798
0007d0 81 7b 51 3f 2f 4a e5 bf 2b cc 0e c2 36 d0 c5 3f
       -0.6653057324109427 0.17041668391684203
0007e0 b0 e6 ec b9 0f 95 e7 3f 66 86 50 fc 19 7c c1 3f
       0.7369459754329082 0.13659977741285728
0007f0 ce 49 35 f6 4b ce ed 3f d4 8e 91 9b 64 bf 91 bf
       0.9314327057602954 -0.01733166884913724

input_embedding.weight f8 [16, 8]
000000 1c 5b 13 85 ec 95 af bf 5d 27 31 5e 9d a0 ac bf
       -0.06169070362527959 -0.05591289305500766
000010 d9 16 d8 75 67 f6 c2 bf 95 39 0f b3 95 9c c3 bf
       -0.1481446576510084 -0.15321608775270748
000020 cc 13 16 19 ac 6b c3 bf c7 16 5a a6 d6 fa af 3f
       -0.15172339653886835 0.06246062069571461
000030 dd b8 41 4d 5c 68 ad 3f a1 19 98 f9 2f da c5 3f
       0.05743683283877641 0.17072105109418792
000040 8a 6f cf 30 3f 5c b5 3f 3d ff 59 59 27 ae b2 bf
       0.08343882505090341 -0.07296987468180034
000050 d7 0d db a5 dc 1f b9 bf 88 21 c0 3d 72 c8 b8 bf
       -0.0981424240990728 -0.09680856711941577
000060 fc 28 bf 49 2b 95 ae 3f bd 8b de 08 e9 00 ca bf
       0.05973181987026696 -0.20315277989456418
000070 9c c8 6e f2 c9 11 b2 3f 4d 8a 96 23 15 b3 c3 3f
       0.07058393639343524 0.15390266645143172
000080 65 b3 39 ea 7e d3 bc bf b3 08 b9 ff 78 5a c1 bf
       -0.11260216921227835 -0.1355735062261992
000090 cd 31 a7 64 f1 bd a0 3f c1 15 f7 be 00 c9 6a 3f
       0.03269914964366514 0.0032696737832533522
0000a0 95 f0 17 42 f4 b1 a6 bf 86 51 fe a4 66 91 c6 bf
       -0.04432643229299164 -0.17631228500671287
0000b0 69 e3 47 e3 c0 a6 c1 bf a1 63 e0 3b 6c 03 5e 3f
       -0.13790141198822006 0.0018318707439048747
0000c0 6b 7d 18 0b 86 45 ad 3f f0 57 ba df f7 03 b3 3f
       0.057171048025561465 0.07427930080515899
0000d0 a5 6a a6 75 aa 57 b8 3f 38 7f 76 d4 fb 4b b2 3f
       0.09508767483058962 0.07147191941339492
0000e0 86 13 16 5e 23 dd b1 3f 65 53 ac c3 24 62 a9 3f
       0.06978055045153839 0.049576901327020896
0000f0 d5 6a e3 97 8f e9 c9 3f 80 d3 cf 7a 67 c3 c8 3f
       0.20244021336005483 0.1934632634799094
000100 a5 e4 ba 94 a8 e4 a6 3f fb 8f 01 98 dd 5c cd 3f
       0.044713276057742925 0.22939653322384843
000110 85 84 8a 2a 5c e3 d1 3f 12 0d 98 c1 0e 1c b0 bf
       0.27950195459749977 -0.06292812563338071
000120 96 e2 11 8c 1b 3a ad 3f 86 d7 fc 1b b4 de c5 bf
       0.057083950851795226 -0.1708588730486406
000130 3d f4 09 c8 d5 8b a6 bf f1 4e 63 0b 16 86 af 3f
       -0.044035607022103275 0.061569870844008785
000140 bd 65 53 48 64 73 c0 3f 58 b3 b9 a8 f8 70 a9 bf
       0.12852147609264178 -0.049690027805673054
000150 7b 31 8e 68 1c 52 bc bf 50 2b 3d 08 cb 5e a9 3f
       -0.11062791397688969 0.049551338916521304
000160 da ef a4 66 ec e8 b7 3f 37 ac fa d6 f1 5e b5 3f
       0.0933978796574019 0.08347999094500912
000170 84 49 20 b1 2a 75 c1 3f cb fc a5 2d 76 dc ae bf
       0.136388145911564 -0.060275738785088594
000180 7e 8f 16 6a 48 fa af bf 67 7c a2 19 98 44 c5 bf
       -0.06245638175030786 -0.16615582706160412
000190 62 01 a3 c4 ec b4 b2 3f 47 5e 2e dd 99 1c d0 3f
       0.0730731945104757 0.2517456684085783
0001a0 b5 15 a4 16 6c a5 af 3f 23 b4 a7 f5 40 ec a1 3f
       0.061808946384228326 0.035005598056024455
0001b0 c1 88 f9 d2 a1 27 b3 bf dc 9b 7d a8 a7 01 b4 bf
       -0.07482348824263153 -0.07815025199452869
0001c0 65 4a 67 a9 ca c7 94 bf 93 91 15 79 56 95 a1 3f
       -0.02029339465100079 0.03434248188094382
0001d0 71 18 5b a6 68 b2 b1 3f e9 27 81 35 06 66 b6 3f
       0.06912855206891934 0.08749426656973437
0001e0 c1 91 48 09 eb 38 c8 3f 45 01 b4 d1 b5 34 d3 bf
       0.1892370028809989 -0.3000921771890897
0001f0 cc 67 e4 07 f3 bd c4 3f 4f 06 b1 06 a4 ef cc bf
       0.16204679379808196 -0.226063254611335
000200 8f 29 1d 38 17 ad 72 3f ca 5b ac de ae 39 c4 3f
       0.004559603404980086 0.158010348059831
000210 9c f6 f0 fe 2e 02 b3 bf 6a 1e 76 33 60 09 ac 3f
       -0.07425206874992302 0.054759031564626096
000220 8a 91 36 1b 57 f6 7f 3f e8 52 73 25 ee 88 bf 3f
       0.007803287753095476 0.12318313993757679
000230 f6 2c bc 48 92 4b bf bf 0a 6a 09 30 9f 0f 8a 3f
       -0.12224687839277579 0.012725108769861233
000240 f3 05 20 1a 3d 06 d5 bf bf 40 47 03 9a f9 bd 3f
       -0.328505778801712 0.11708986835515399
000250 b8 18 73 9f 3b 0c d3 bf 16 13 ae c2 ed 4d cc 3f
       -0.2976216370701752 0.22112819677217804
000260 e7 eb c9 96 d1 2b a7 3f 92 f3 8c f5 e6 d1 b8 bf
       0.04525618520434432 -0.09695285315406313
000270 44 8b 0d cc 2d 03 ca 3f f7 b7 11 a7 32 59 9f 3f
       0.2032220121719438 0.030613700339408436
000280 8f 6c db 9f 6d 74 c2 bf 9b ee 65 c4 d0 3a b3 3f
       -0.14417810731433575 0.0751162032592511
000290 bf 15 37 78 13 39 be 3f 77 b6 ee db d7 8d b8 3f
       0.11805841145458994 0.09591435546345815
0002a0 5c dc 08 cf 6e cf ad bf 6d e6 f4 b4 aa 7e c1 3f
       -0.05822321202543243 0.13667806468747604
0002b0 e3 a9 e9 4d 4f 7c be 3f 8c 92 1c b2 36 90 ad bf
       0.11908431675116264 -0.057740887872829466
0002c0 fd e6 9c ac 18 c3 b7 bf e5 86 ee 16 68 85 83 3f
       -0.09282068456823463 0.009531796645947785
0002d0 09 63 7c c0 97 aa ad bf 83 a8 73 4c 29 54 a5 bf
       -0.057942144629299426 -0.04165772493600264
0002e0 16 73 7b 71 5e 2b a2 bf 84 01 0c c3 09 20 b9 bf
       -0.03548712859421792 -0.09814511310469781
0002f0 58 a2 ca 1d 4e 3e 90 bf 81 81 0f b1 fe ea 83 3f
       -0.01586267525513771 0.009725560930690548
000300 ec 4a f6 7c 5e da bb bf 17 43 79 63 53 89 c1 3f
       -0.10880079794723557 0.13700334889519958
000310 d6 83 6b a7 f0 4f b6 3f 11 d7 9e 2c 92 26 a1 bf
       0.08715728843118539 -0.03349739832576238
000320 b5 f0 31 52 f6 2d b2 bf 87 9d 60 71 50 b2 8a 3f
       -0.07101382738796043 0.013035419902805113
000330 de 0a 8e 7b f8 29 b2 3f e7 95 25 21 3d cb a7 3f
       0.07095292107082282 0.04647246389030695
000340 ff e3 00 56 df 54 bf 3f 85 12 f7 1a d5 c6 c5 3f
       0.12238880014128027 0.17013038460403976
000350 d1 97 02 40 6f 19 bc bf 40 93 12 93 36 54 cc bf
       -0.10976310074565211 -0.22131998235013306
000360 6f e7 8e 2b b4 30 80 bf 88 6f 32 b2 d3 ad 93 3f
       -0.007905395106593464 0.019217784644396413
000370 6c 55 a0 75 db 1d 9a bf 0c ca 3a bc 19 5e d4 bf
       -0.025504521421756562 -0.3182434404544956
000380 7d 02 c7 d6 48 aa b8 bf c9 df 60 03 f3 02 c6 bf
       -0.09634833568180486 -0.17196500458680777
000390 88 3b b4 ad 62 9b ca 3f 72 87 ab f2 6c 64 c4 bf
       0.20786698800699477 -0.1593147454178126
0003a0 dd ba c3 70 94 64 c7 bf 85 7f ff 07 36 98 b2 3f
       -0.18275695329744837 0.07263505645050657
0003b0 a1 c3 11 b8 5e 1c d0 3f 76 15 a7 42 0f dd b8 bf
       0.25173156714941497 -0.09712310197126847
0003c0 81 9c ba 07 4c 74 b4 bf 61 28 19 7b 2f 81 b9 3f
       -0.07989955128378946 0.09962746386841694
0003d0 38 8c fd c0 47 d0 b3 bf ca 6c 03 f4 1d cc ac bf
       -0.07739685498886295 -0.05624478915862026
0003e0 1f f4 57 09 c8 da 93 bf 33 e4 a3 75 f6 f1 a6 bf
       -0.0193892722800123 -0.04481477914846046
0003f0 cb 3e f5 b1 fc 83 b6 3f d4 3e ef 1d 61 58 be bf
       0.08795146317174411 -0.11853606205772432

input_embedding.bias f8 [16]
000000 2f bd fa 21 b8 12 bb 3f cb c6 a0 85 ed 2c b2 3f
       0.1057543833692207 0.07099804413226278
000010 91 f0 62 43 61 e2 d1 3f ca 7b c2 8b 64 63 d6 bf
       0.27944213467322593 -0.34981645248802506
000020 66 e8 50 b8 ef b4 cd bf 11 f4 84 07 b4 46 bc bf
       -0.23208424091154994 -0.11045384582116947
000030 98 00 6b ff 62 f5 9f bf 68 61 43 f5 1f a9 80 bf
       -0.031209513511158166 -0.008135080025042554
000040 96 49 80 55 52 2a ac bf f0 d3 af 86 10 6a a2 3f
       -0.05501038831438902 0.03596545833708109
000050 63 3f f1 ba 18 66 af bf 66 25 05 9c 3a fd cd 3f
       -0.061325810260881373 0.23429043405694044
000060 14 04 59 fe aa 77 b7 bf 01 fb 67 25 0f 25 cb 3f
       -0.09166973790799232 0.2120684559485753
000070 9b cd 13 3b 08 75 b5 3f 3b 3c 5a 3c 29 b6 a9 3f
       0.08381701891248954 0.05021790372585896

out_fc.weight f8 [8, 16]
000000 32 ee 23 17 3b 83 c3 3f d1 be 12 c2 57 9e c0 bf
       0.1524423468580252 -0.1298322389243283
000010 4b ae c7 62 02 e6 91 bf 88 9c 93 76 bb 03 90 bf
       -0.017478978423169072 -0.01563923751100707
000020 1e 08 e5 85 ad 50 98 3f 86 ca ff 76 d5 e5 ac 3f
       0.02374526147583122 0.05644099309565313
000030 cf 78 56 a4 7e 13 91 bf 23 aa b7 3f 14 a4 be 3f
       -0.016675928860075125 0.11969114833451804
000040 7e ee 52 60 73 4d 79 bf 62 2a 5d 9e 07 2f aa bf
       -0.0061773783574455825 -0.0511400585952131
000050 f2 9a 87 c3 31 01 ae bf bc cd c8 26 b7 0e c1 bf
       -0.058602862470982134 -0.13326157945412642
000060 4f f2 1f 39 a3 c9 b3 bf 9f ae 51 dc 7d 50 be bf
       -0.07729549545906277 -0.11841570500262798
000070 1a da a7 11 f6 34 84 3f 66 f1 02 27 98 1a bd 3f
       0.00986664048558077 0.11368704750470257
000080 43 94 f4 39 08 c7 b4 bf 96 aa 8d b6 d3 d5 b2 bf
       -0.08116198935438583 -0.07357524115438205
000090 3e c9 19 65 ba c8 b0 bf 7c 76 81 60 0f 29 c0 bf
       -0.06556286781577556 -0.12625305378144336
0000a0 29 1a e9 a3 c2 8d b2 bf ff e6 6a be 5b 56 80 bf
       -0.07247559072229905 -0.00797721552713737
0000b0 f1 01 8a dc d0 ae 8b bf 5c f3 98 65 15 4a a8 bf
       -0.013517028551405881 -0.04744021287158404
0000c0 e4 ae a3 0c b2 37 b4 3f de cb 7c 48 85 f9 b0 bf
       0.07897484596804422 -0.0663073827716256
0000d0 8e a7 d5 78 63 57 c1 bf 02 bc 70 0e 04 ac b0 3f
       -0.1354793872845303 0.06512475349948946
0000e0 5e e0 59 b2 a9 03 94 3f 8d 8f 06 b9 0b f1 c5 bf
       0.019545222769437813 -0.17141863378958214
0000f0 13 2d 9a b0 a4 b2 a6 3f b7 fe 0f 70 2e d1 b1 3f
       0.044331690366641884 0.0695981048193016
000100 7e 5c 41 4b 81 a9 b3 3f c2 21 e7 e5 f9 36 b7 3f
       0.07680519187248255 0.09068261969435468
000110 2d b3 1c 0e 1a e5 95 3f 9a c3 c9 5a 1d 50 ab bf
       0.02138176642545202 -0.05334560139897988
000120 ae 94 87 c4 ff ed c3 bf 66 69 80 ce 7e fc cf 3f
       -0.15570065590069276 0.24989304621778813
000130 90 98 04 ed 13 e5 9f 3f 73 73 66 fb 29 b8 b7 3f
       0.031147300092151442 0.09265386951160597
000140 5b 86 38 6a fc c0 b1 bf 7f 92 bd 63 13 25 bd bf
       -0.06935098260194066 -0.11384698090621191
000150 a5 cd e8 79 de 2b b5 3f b2 c8 65 31 fa 70 9b 3f
       0.08270063854506889 0.02679816175936684
000160 09 66 b0 c5 b2 86 b1 3f d2 4e 07 ef 73 f8 aa bf
       0.06846158338921539 -0.052676794937409746
000170 56 3c c5 dd 45 e2 9d 3f d7 20 c6 bd 9c d7 bb 3f
       0.02918347517089289 0.10875873215821073
000180 d6 32 a0 81 9d ba b7 3f 4a be 65 d7 e6 f6 c5 3f
       0.09269127287570753 0.17159734265759347
000190 af 03 7a ba 44 a6 94 3f a8 e8 90 98 07 c1 74 bf
       0.02016551387942272 -0.005066899940226723
0001a0 a9 23 e8 fe 84 80 9f bf 92 a3 ee 9c cb b6 c6 bf
       -0.030763700540805825 -0.17745347178177134
0001b0 6e 86 39 c0 c5 ab b0 3f b1 e8 fe c6 6e 8d 95 3f
       0.06512103980051062 0.021047335525260894
0001c0 e3 22 0c 4d c7 d0 a6 3f 9a 7c ce 97 d1 62 a1 bf
       0.04456160369415387 -0.033957052022054415
0001d0 eb e6 7a fb 52 4c c4 3f 2a 94 49 09 d9 7e 93 3f
       0.15857922820378376 0.019038573448046638
0001e0 e0 c8 a6 ac 3d 4c a0 3f 7f eb 7c 05 a0 f8 9e bf
       0.03183167202532089 -0.03024530442710782
0001f0 01 06 bf 3f 10 aa 44 3f 95 98 3d 09 5a 0e cd 3f
       0.0006306247082578654 0.22700047923280367
000200 ca b3 14 67 6f 28 c0 3f ca 9a 01 ef 75 c8 7c bf
       0.12623398335691 -0.007027111700245123
000210 38 32 3b 4d 15 5b 8f bf e3 fc 28 e6 ab 3e b6 bf
       -0.015310446185503243 -0.08689379090445785
000220 a3 31 f1 a2 f2 de b1 3f db 36 60 b2 6c cf b0 bf
       0.06980816343383948 -0.06566504816893419
000230 5f c8 f6 3a 98 d2 9c 3f 2a 13 4a 21 77 74 ae 3f
       0.028147104834438937 0.0594823101173801
000240 e4 66 e1 91 f3 93 a1 3f 3d 07 92 28 93 ff a3 bf
       0.03433190494315655 -0.039059256269878585
000250 52 03 72 f1 d3 5e b4 3f f1 89 4c a9 c9 c7 92 bf
       0.07957195896780192 -0.01834025474375695
000260 1a e2 01 e1 ec 88 96 bf f7 7d de b2 c6 95 b8 bf
       -0.022006703599318646 -0.09603540293618794
000270 e4 f8 ed e3 bc a6 5d bf 13 89 5c cd d2 f5 c1 3f
       -0.001809772933227865 0.14031443622031556
000280 12 98 af cc 8c 08 bc 3f 0c 0e 5e 7f 77 d8 a4 3f
       0.1095054626199217 0.04071401052263121
000290 29 65 e9 95 5a 72 b1 3f 47 4c c6 94 4a 87 cb 3f
       0.06815115127519235 0.21506626381287416
0002a0 8c 50 6a 2f 17 d5 c2 bf 28 98 f4 68 2a 57 94 bf
       -0.14712800803375037 -0.01986376062009057
0002b0 d0 0f 0b 62 8b 34 b3 3f da 20 5b 2d 6b 47 bb 3f
       0.07502051490433748 0.10655851228068816
0002c0 c4 19 20 26 1d f8 b1 3f 31 7a d6 65 ac 90 68 bf
       0.07019216709895831 -0.0029986731667144485
0002d0 ef 5b 41 52 be 76 b2 bf 2a ac e2 40 1b c2 a8 3f
       -0.07212438114343887 0.04835591475542629
0002e0 fe 7e cc e8 93 f5 aa 3f 40 2c 6f 35 1a 19 a2 3f
       0.05265485970289595 0.03534776594423095
0002f0 0e 28 59 5f 85 3d b1 3f 33 3a f2 ef 91 b5 cf 3f
       0.0673449857505661 0.2477285787212665
000300 45 58 02 41 4e 60 be 3f 54 8a 1e d5 b7 f5 c6 bf
       0.1186570080484169 -0.17937372118201955
000310 cb b8 40 eb 7a 06 ad bf a0 85 31 6e c7 87 b2 bf
       -0.05669006463755152 -0.07238432350415858
000320 d9 16 21 5b 34 cd bd bf 94 23 38 71 f2 64 bf bf
       -0.11641242241702389 -0.12263407959120648
000330 87 22 c9 a8 00 79 94 bf 28 db 31 5b 67 86 9b 3f
       -0.019992838193760434 0.02687989706142982
000340 89 7a 8f 39 d9 b2 b6 bf 03 13 46 44 1d 42 bd bf
       -0.08866651206288102 -0.11429007450903943
000350 81 fe 98 85 2f 65 b1 bf 4b 01 80 6a 16 4a b8 3f
       -0.06795022021923992 0.0948804864892782
000360 86 2f 24 2c 26 69 c1 3f d9 67 9a 0c 16 0d b1 bf
       0.13602139621104586 -0.06660592849439641
000370 eb 3c ff 76 a8 98 be bf d5 82 2c 66 8a 77 9c 3f
       -0.11951687722397579 0.027799761282156183
000380 7f 95 ff 9d 65 ac b9 3f d9 5c 94 35 17 3a b0 3f
       0.10028681857473563 0.06338639314741402
000390 26 16 a4 07 e6 58 b1 3f 80 64 bc e8 4b b1 ad bf
       0.06776273428484866 -0.05799329010023602
0003a0 ee d9 8d d7 31 89 ab bf 65 83 d5 20 ca f6 88 3f
       -0.05378108745837894 0.012189463736548676
0003b0 92 89 c6 ed 7c b3 b1 3f 38 47 8f 29 56 c0 a8 3f
       0.0691450195795709 0.04834241158790892
0003c0 d1 9d 2c d8 75 fa b0 3f 72 14 b3 be f0 19 a7 3f
       0.0663217213410612 0.04511978462100154
0003d0 ec f7 69 e0 fb 52 86 bf 61 ab 63 03 95 d4 c9 bf
       -0.010900466714925693 -0.2017999903249246
0003e0 e5 49 15 bb 0f 63 cb 3f 01 bf 93 91 82 44 b3 3f
       0.21396061549110282 0.07526413015488843
0003f0 f6 66 ce 07 b6 a3 ab 3f f5 2f 7f db 6a 11 c3 3f
       0.05398339124003641 0.1489690372239917

out_fc.bias f8 [8]
000000 64 e5 d3 6c 59 7b a0 bf 82 f4 6d b2 ed 03 c3 3f
       -0.03219108060325018 0.14855738842371485
000010 75 41 23 15 1a 91 b3 bf 85 c8 89 f9 39 dd a9 3f
       -0.07643282905633504 0.050515948973854065
000020 29 f7 39 f4 ba 9e b1 3f 6b 14 a8 4a 06 81 af bf
       0.06882828199919956 -0.061531254399633216
000030 b7 82 0a 16 4c b2 be bf 1e cc 8e 0e ba 1f 94 3f
       -0.11990809953796143 0.019652278078592038

layers.0.self_attn_layer_norm.weight f8 [16]
000000 6c 56 9e b3 1d 97 ea 3f a2 56 2e 53 2b 0d f0 3f
       0.8309467800306272 1.0032151459940128
000010 c8 ed 62 36 55 1d f6 3f d1 fb 69 dc 56 3c f0 3f
       1.3821613430471746 1.0147312745973418
000020 2c 30 a7 17 09 c3 e4 3f f5 be 87 27 55 ab ec 3f
       0.6488080465292163 0.8959146282267897
000030 30 94 b1 8c 79 5c f3 3f 49 5c 2b 0b fc 3e f0 3f
       1.2100768562170394 1.0153770862869058
000040 7a e4 6c 77 87 29 ee 3f ec 41 d6 7b 2d c5 ed 3f
       0.9425694782759273 0.930319539898901
000050 da 3f 55 76 53 66 f0 3f a2 ee d0 1e af 4d f1 3f
       1.0249819395430593 1.0814658359294431
000060 ec d6 12 81 d2 8a f1 3f 7f bf d0 ff 92 14 ec 3f
       1.0963921586930452 0.8775115009684525
000070 ee fc 39 aa 22 83 ea 3f a1 ec 9c 27 b8 28 f0 3f
       0.8285077404724726 1.00994124864409

layers.0.self_attn_layer_norm.bias f8 [16]
000000 d6 19 31 cd 8c 36 d8 3f 0b e5 74 c6 1b 3e c0 bf
       0.3783294681383301 -0.12689540090813298
000010 a1 9b b1 40 23 73 ac bf fc 7a ac bc 1e b7 b6 bf
       -0.05556593098372465 -0.08873169046681179
000020 3e a7 23 48 85 bc c0 bf 89 30 3a af b7 09 82 3f
       -0.1307531931154759 0.00880759719373027
000030 39 f9 de 0e 9e d8 a8 bf 3f c1 1e 63 d1 03 c4 3f
       -0.04852765971689838 0.15636651363230133
000040 32 10 e7 60 9a be aa bf b9 9a 26 52 ac 73 be bf
       -0.05223543579953151 -0.11895253186831213
000050 fd 6e c8 e2 01 2b ac bf 7c f2 0b f5 a3 ad bb bf
       -0.055015620168175496 -0.1081182931192845
000060 b6 f5 c3 91 a5 94 bb 3f 41 5f bd 2d 69 88 ca bf
       0.10773691948630568 -0.20728792889962658
000070 9a f7 ea 26 09 0e 63 bf ef 0d de f4 d3 88 d4 3f
       -0.0023260287046857455 0.32085131562072794

layers.0.ff_layer_norm.weight f8 [16]
000000 6c bf 8c f8 66 c2 f2 3f e4 c9 19 13 50 fb ec 3f
       1.1724614819504167 0.9056778309880511
000010 9a b5 5a 3f 09 22 f3 3f 9b fb b2 bc fa 0c ed 3f
       1.1958096003321317 0.9078344045191103
000020 6a cf d8 90 cd 2d eb 3f 54 5e 36 66 7d a2 ec 3f
       0.849341185478335 0.8948351856551633
000030 4e 03 d5 e0 2d 1c f0 3f 72 52 45 ee fe 9b f0 3f
       1.006879690409011 1.0380849177792268
000040 30 62 e7 c3 ab 1c ef 3f e3 1c 3e 93 3b 01 ed 3f
       0.9722498728033937 0.9064004779656013
000050 6e 74 31 b1 b4 50 ee 3f fe 31 74 9b 8d d0 ee 3f
       0.947351785736499 0.9629581485947367
000060 4d 4d 21 da 53 37 ee 3f f8 73 52 c6 2e e0 eb 3f
       0.944253850970577 0.8711160539129414
000070 8f a9 5a a2 a5 a5 ee 3f 31 94 78 a4 88 35 ed 3f
       0.957720582101773 0.9127848827671469

layers.0.ff_layer_norm.bias f8 [16]
000000 27 d7 91 c4 a5 a7 df 3f db dd af 15 5c 08 a4 bf
       0.4946073932290908 -0.03912627949460631
000010 53 ba e1 a5 4c c8 bb bf bc 83 b7 f1 8c 1f ca bf
       -0.1085250763878574 -0.20408784678059344
000020 b3 93 82 c4 30 63 d5 bf d8 8d f4 b6 1a 7f ba bf
       -0.3341791075748077 -0.10350195852929944
000030 f5 20 86 f3 30 5e c0 3f 23 a8 02 98 06 af d3 3f
       0.12787448778932 0.3075577244259213
000040 66 2f 37 42 f3 4c 9f bf c4 a9 36 b5 9f c4 d5 bf
       -0.030566979328610876 -0.3401259679473265
000050 07 1e 27 05 73 99 c8 bf 46 e1 f1 f3 d8 a0 be bf
       -0.19218290092088372 -0.11964183765110645
000060 2d 6d 30 6f 03 74 c6 3f 90 99 23 d0 a0 4a d3 bf
       0.17541544846685878 -0.3014299423797633
000070 a0 63 d0 06 79 28 b4 3f c2 57 2d af f4 5a da 3f
       0.07874256531103052 0.4118015013422075

layers.0.self_attention.fc_q.weight f8 [16, 16]
000000 77 8f 02 5d 47 bd d0 3f f0 d9 d4 6d d4 d0 bc bf
       0.26155265887268037 -0.11256148988181969
000010 1d fb 8f 27 a4 bb d8 3f 87 c3 ed 8e db 27 e4 3f
       0.38645271171110257 0.6298654357507169
000020 ad 3f 40 97 db 8b e4 bf 35 fd 1a 97 1f 44 ed bf
       -0.6420724825020351 -0.9145658446576933
000030 af 81 ec de 2b 31 e4 bf cb da 9a db 4e 92 e8 3f
       -0.6310023645383377 0.7678598679693435
000040 f6 9b a6 b3 f0 1e d5 3f 47 9b a2 4b c4 68 db bf
       0.33001344245934605 -0.4282694567322562
000050 9e 4c 0e 88 cf c7 e8 3f b9 d5 59 fb 30 9f c4 bf
       0.7743909509030293 -0.1611081340121652
000060 6f b9 94 19 28 7b ec bf 04 3b 31 1b f3 ff b0 3f
       -0.8900337695720689 0.0664054814708202
000070 ba ce 30 e3 8a 52 b7 bf 02 22 1c f2 e2 5a be 3f
       -0.0911032490410503 0.11857431803594667
000080 ad 3d 0e 29 4f d9 be bf 6f a0 fc f0 b7 94 ea 3f
       -0.12050337555250819 0.8306541163228881
000090 d8 3c 14 b9 a2 e6 be bf e9 cc 96 29 9c d0 95 bf
       -0.12070672052890374 -0.021303596533198386
0000a0 71 b1 50 02 0c 33 dc 3f 84 52 f5 a1 e6 81 e9 3f
       0.44061565614790427 0.7971070445297106
0000b0 38 18 6a 1a 66 b0 e7 3f da 52 e8 22 89 64 d5 bf
       0.7402830615908504 -0.3342612114804929
0000c0 d1 a0 cd bb 95 a7 c7 3f 90 7c 7f b1 fe 9d c7 bf
       0.1848017851837143 -0.18450912157911548
0000d0 be a9 60 53 75 a1 9e bf 1a e0 b6 27 e0 8f ec 3f
       -0.029912789548839795 0.892562940184692
0000e0 d1 ca 67 9c c6 df e2 3f 1a ea 36 8e db a0 cc 3f
       0.5898163847726555 0.22365898555820324
0000f0 6d 3b 60 df 69 f7 dd 3f 6b 6d 3f 17 7a 1c d6 3f
       0.46822592557958026 0.3454880930928172
000100 8d 42 7f e2 65 04 f3 bf e9 60 f6 63 c1 ea d3 3f
       -1.1885737273734407 0.31120333444552145
000110 a7 bb 1a 35 0a f3 b8 3f 1b 78 34 c0 04 41 dd bf
       0.0974584941529729 -0.45709341783538243
000120 e9 f3 79 64 9d 3c bf bf c8 37 24 9c 38 4a cc 3f
       -0.1220186586669595 0.22101504921050563
000130 b6 f8 af f3 51 f2 e6 bf 3d e0 be fc b3 f6 c9 bf
       -0.7170800933379471 -0.2028412803754253
000140 ff b6 4d 2e 6a 24 ed 3f 13 ba 8f 43 7d fb da 3f
       0.9106951622358962 0.42159968946262544
000150 a5 c5 3f 3e eb d4 d5 bf 54 f5 e5 12 c2 3d e8 3f
       -0.34112053946508986 0.757538830671971
000160 a5 ad b4 78 74 48 e4 3f 18 e5 75 d0 ce 58 96 bf
       0.6338446004423771 -0.0218231501325806
000170 75 f6 11 17 88 6a e9 3f c7 af b3 b7 be ba e7 bf
       0.7942543459500501 -0.7415460193565132
000180 e1 96 8f 47 ea 43 ed bf e8 e6 55 5a ce 3f 94 bf
       -0.9145404241250753 -0.019774650825161638
000190 fc 9a 1c c5 8b 20 b0 3f e8 4e 26 30 85 f6 e5 bf
       0.06299661218927705 -0.6863428059027372
0001a0 96 90 2b bb cf 47 d5 bf 58 56 85 54 38 82 e0 3f
       -0.33250802305543325 0.5158960009382083
0001b0 3e b1 3d 83 d5 e7 d3 bf 62 2f 32 7d c8 40 c1 bf
       -0.3110250264787914 -0.13478952515685722
0001c0 13 1c 84 58 cb df b1 3f f5 7d 20 00 1d 68 ce 3f
       0.06982108031307659 0.2375522852534996
0001d0 28 a9 60 c7 5a d7 eb bf be 02 50 08 9a bb d5 bf
       -0.8700384039014226 -0.3395752984215895
0001e0 46 96 25 7e 1f fe e9 3f 52 b7 bb a7 b5 4c db bf
       0.8122708762936746 -0.4265569818515945
0001f0 cf 65 f0 3b c2 be e1 3f 6d c1 c9 b9 a6 8c e9 bf
       0.5545359774288786 -0.7984193447755793
000200 67 20 cb 33 70 5d c1 3f d7 a8 bb df d8 91 de bf
       0.13566401032426542 -0.47765180443697147
000210 44 35 c6 cc d9 cd d8 bf ff 9d 18 79 d7 38 cd bf
       -0.387564134573797 -0.22829717076204756
000220 56 a7 f5 ff 46 4b d5 bf 95 15 b3 00 4d 51 e8 bf
       -0.33271956440022643 -0.7599244130766915
000230 de d2 dd 0c 5a d2 ea bf e4 19 63 cf 0a dd d8 3f
       -0.8381777049349599 0.3884913468613418
000240 bc 19 14 99 f0 c3 e6 bf 9f b8 25 f5 dd 91 d4 3f
       -0.7114184369864271 0.32140301647349107
000250 b7 e5 ae 25 fa 9f c0 bf 42 c0 11 57 65 5e f3 bf
       -0.1298821147918667 -1.2105458642145241
000260 52 9c 4e 4d 3b ec cc 3f 1a 17 66 ac 16 e3 90 bf
       0.22595921778449451 -0.01649127413977345
000270 9a 30 10 d9 01 a4 a3 bf 31 0b e3 6d fc 03 e7 bf
       -0.038360650774934515 -0.7192365785816489
000280 0f dd 5a 82 8a a5 d6 bf 67 d3 05 3c bd 11 b3 3f
       -0.35385382394766024 0.0744894286670622
000290 42 7b 73 2b 23 53 d7 3f 98 bb 92 37 8b af ea 3f
       0.3644493030860084 0.833928688565595
0002a0 d4 43 03 79 d1 0b c3 bf d5 da 33 d8 fa ed c7 3f
       -0.1487981644518458 0.1869500690151741
0002b0 39 d0 8c 2d 06 31 d8 3f c4 fd 14 1b 63 0f dd bf
       0.3779921955895165 -0.45406415600515637
0002c0 83 f4 1c 84 5d 83 c3 bf 72 07 e8 e5 dc b7 94 3f
       -0.1524464507182622 0.020232631237383676
0002d0 e0 b6 ce 24 b5 36 ed 3f 14 90 09 bb 43 da f1 3f
       0.912928172959905 1.1157872491976422
0002e0 00 68 b7 99 74 6f e6 bf ff be 63 0e 3d d0 e4 3f
       -0.7011054041170155 0.6504197388694307
0002f0 a3 4f 13 cf 9e 5e c1 bf 45 6e bf 60 4b 52 d8 bf
       -0.13570008383851215 -0.38002285430932076
000300 47 6a 32 eb 03 ed d4 3f 05 ea 70 38 60 19 e5 bf
       0.32696626633120157 -0.6593476393093743
000310 e5 2d 42 52 3b 76 bf 3f 13 9b 5b da 74 31 d9 bf
       0.12289782293571923 -0.39364358257300686
000320 c7 ae 4b f1 2a b6 e4 3f 64 3c b2 7c 13 8b e8 3f
       0.6472372734837898 0.7669770656083412
000330 ea 9e 24 6e 93 8d b4 3f 97 21 91 23 e3 33 d4 bf
       0.08028527678527167 -0.31566694711048043
000340 31 88 24 cf 4b f3 ef bf 33 e3 4b 0a 29 76 c7 3f
       -0.9984492345577164 0.183293466594273
000350 a9 7e bb b1 13 6f c8 bf d2 b8 1d 1e aa 6a d2 bf
       -0.1908897989114753 -0.28776028576875234
000360 c2 aa d0 2f cf 1d d5 3f 3a f6 5e f6 76 64 c8 3f
       0.32994441670841124 0.19056593923407822
000370 ec 0b 36 fd 55 7c d6 bf 06 d6 b4 a3 bb 7d d0 3f
       -0.3513388607754553 0.2576741312689993
000380 92 c4 a2 37 61 74 dc 3f 4c 8c e2 20 0e ab c3 3f
       0.44460325654206045 0.15365769010267838
000390 07 07 23 40 16 98 ed bf 88 04 44 f7 b2 51 d6 bf
       -0.9248152973816283 -0.34873651644745296
0003a0 ad cf dd 7c fa c1 c6 bf 53 3f c1 87 49 9a e7 bf
       -0.1777947530459846 -0.7375838901007036
0003b0 3b 17 ba 80 25 6d e8 3f b2 79 56 e6 1d 4b de 3f
       0.763323546809921 0.4733347653763317
0003c0 71 78 77 1a e5 1a dc 3f 70 f2 04 fb ca 91 c1 bf
       0.43914153656613225 -0.13726174599459595
0003d0 44 7f 94 7e 2e 78 e0 bf 08 57 76 7f 98 ce e3 bf
       -0.514670607783025 -0.6189692010400174
0003e0 ae f4 6a 9f ca c0 e0 3f 7d 7c 27 cd ae ae df bf
       0.5235341180447415 -0.4950367930850417
0003f0 56 6d fd 79 d3 4d 3d 3f ea d9 3d 0f 02 cb af 3f
       0.00044714367867522886 0.062095703468845034
000400 8f df dd 9f 56 e1 e0 bf 94 af eb d4 ea e5 d7 bf
       -0.5275071260830247 -0.3734080390265657
000410 24 b4 3b d2 78 18 c0 3f 57 9f 0c c0 da 8f ea bf
       0.12574682488721678 -0.8300603629076971
000420 f3 dd 4e 9f e4 db dd 3f c9 4d 6e 0d 04 4c eb 3f
       0.46654620702199096 0.8530292761155859
000430 ca 2f cd 96 a0 b3 b2 bf e9 83 d2 58 7d 06 d4 bf
       -0.0730533950965643 -0.31289609598212437
000440 d3 69 ad 2e 7a ad db bf d8 4d 79 4d 68 e2 d4 3f
       -0.432463212569613 0.32631881299786647
000450 46 21 8f 8b 1f 7e e8 bf 24 57 58 88 f5 92 c8 bf
       -0.7653959012759877 -0.19198483617281525
000460 8b 58 07 a5 d1 ac e2 3f 6b 1e 01 7a 68 9c cc bf
       0.5835960601059623 -0.22352319676632545
000470 e8 19 c6 ec ee 96 cd 3f fd d6 7f 86 23 84 e6 bf
       0.23116861878607087 -0.7036302210751441
000480 1b ad 0f ab bd 05 ec bf a8 bd eb 21 d1 2f bb 3f
       -0.8757007924117802 0.10619837835451185
000490 b2 46 28 a2 fb a0 ce 3f 16 5f 45 cf 62 f9 a0 3f
       0.2392878095420677 0.033152663995393336
0004a0 fd 27 90 f1 e9 4e ba bf f9 ac 3c 7b 72 da dc 3f
       -0.10276662967240209 0.4508329585539311
0004b0 49 8c 47 87 be db de bf 6d ed 40 aa 68 c0 a9 bf
       -0.48216212473761694 -0.050296088011658614
0004c0 16 26 78 c8 e3 99 e1 3f 7d 66 2c 24 49 db d8 3f
       0.5500353732506393 0.3883841374641646
0004d0 ac ea ba cf b4 6e ca bf f1 a2 e1 ab 89 52 dc 3f
       -0.2065034879977551 0.44253770623485794
0004e0 f5 a3 76 33 83 ed d8 3f 72 a3 83 b6 d5 dd a5 3f
       0.3894966127941751 0.04270809033352564
0004f0 b2 12 40 64 a4 31 d6 3f dc 7c 9e 2b 38 d2 f1 bf
       0.34677991666857644 -1.1138230995055016
000500 9f e9 07 2d a2 8b cf bf 42 ea ce a8 9f 2e ec 3f
       -0.24644877623343306 0.8806913659130446
000510 6d 04 6d 86 5c 57 ec bf 21 4d 50 7e f0 e3 f0 bf
       -0.8856642365937099 -1.0556492742660526
000520 91 60 fb bd fe 9b d2 3f ae 87 7d ce 60 0e d9 3f
       0.29077118447231337 0.3915025726802196
000530 e0 ae df d3 f3 43 e2 3f 2e 7b e9 b4 d4 28 e0 bf
       0.5707949770125786 -0.504984238952465
000540 8e 19 fb 19 42 44 cc 3f 46 1f 0c 9a 28 23 c9 3f
       0.22083307522389045 0.19638545533984536
000550 cf 7a 4f b3 0a 64 e9 bf 84 ff b9 94 b1 ff e2 bf
       -0.7934621336133548 -0.5937126068892984
000560 b6 02 c5 67 1b 2d f3 3f 00 fc 22 27 69 47 d7 bf
       1.198512463903325 -0.3637335664934085
000570 a8 4e 47 b1 6a b9 dd 3f 89 c7 88 93 ad 49 e1 3f
       0.46444194137914474 0.5402439004449074
000580 30 5a 17 e0 f9 6d b6 3f b7 1e 01 6f b0 ca e4 3f
       0.08761560173966454 0.6497423332266042
000590 ea 90 d1 4c ff 51 ac 3f 7d 59 b5 9a b3 07 c5 3f
       0.05531308949210419 0.16429753355141577
0005a0 c1 26 4c 76 d0 e4 ce 3f 9b 03 dc f0 f7 9d cd bf
       0.24135785843127702 -0.23138331661905628
0005b0 33 bc 32 39 d9 b4 e9 3f 40 9d 2f 3f 69 a0 bf bf
       0.8033262364532504 -0.12354142944933688
0005c0 d1 95 ef da cd 32 be 3f b9 a1 5d ec 8a dc c7 bf
       0.11796270938028576 -0.18641792813583694
0005d0 15 61 20 46 d6 a0 d9 3f 0a 46 79 93 00 80 cb bf
       0.4004417118863029 -0.2148438186728046
0005e0 5a f6 48 af 66 a2 b9 bf 2a 99 2f 99 1c 4d d1 3f
       -0.10013429431361356 0.27033152541698036
0005f0 24 cf 8e fd f2 83 d4 bf c0 1b 9e ce ea 64 e7 3f
       -0.3205535389090406 0.7310689960003103
000600 d0 0e 69 66 95 fc d2 bf 65 d3 31 21 cd 4b da bf
       -0.296666479120387 -0.41087654344237584
000610 5a cb f1 5f 51 b3 e0 3f 4e 74 52 d5 91 e9 d4 3f
       0.521889388457889 0.32675596077189517
000620 86 b0 14 45 90 f2 e6 3f 47 36 51 d8 a3 44 f7 3f
       0.7171098088488328 1.4542578172580691
000630 86 e9 f3 23 3e 19 c9 3f 4b a6 03 5a a9 4b e1 bf
       0.1960828471708959 -0.540486026581854
000640 d9 e8 10 be a6 01 e6 bf 9c 19 41 ac 31 e3 cf 3f
       -0.6877015793063733 0.24912091170172068
000650 77 fd 1d 94 42 8d d2 3f e6 da 72 ae 0f 82 ea 3f
       0.2898718306023151 0.8283766181183096
000660 c7 c8 1c b9 bc 4a d6 bf 8b eb 52 89 70 2b e3 3f
       -0.348311596654764 0.5990526849849273
000670 55 17 02 42 4f 5f ba bf eb 03 ac dd ef 8a c3 bf
       -0.10301680909659912 -0.15267752002549115
000680 78 aa 69 b4 12 32 ec bf 86 04 11 c8 83 42 d7 3f
       -0.8811124347387951 0.36343473947278715
000690 a6 f4 e1 35 b7 00 e1 3f 01 53 94 11 dc 34 82 bf
       0.5313373615641879 -0.008889884268265204
0006a0 33 27 63 f7 77 50 d2 bf bc 96 19 ea 1d a5 c3 bf
       -0.286161414708306 -0.15347646647130897
0006b0 7b 78 63 08 d3 e1 cb bf 99 53 18 3a 62 50 c0 bf
       -0.21782911214444653 -0.12745311581298038
0006c0 fc 19 ce 4a d1 9a ee 3f 44 91 84 76 88 ad b5 3f
       0.9563986264263913 0.08467915433408729
0006d0 de e3 42 08 ed 86 de 3f 9d 25 71 0d e3 bd e2 3f
       0.47698522383467246 0.5856795561350513
0006e0 17 64 68 81 3a 7e d1 bf b0 eb c6 ed e4 58 c3 3f
       -0.2733293784854722 0.15115033731657723
0006f0 b8 6f 72 24 3d e4 de 3f 5d 0b e9 fb 37 ae de bf
       0.4826805931022551 -0.47938346481912736
000700 2b 44 e4 50 38 03 d2 3f 88 15 03 18 ea e0 e2 bf
       0.28144653224541355 -0.5899553746209429
000710 d8 50 da 21 1f 99 db bf 9a d0 7b 65 fd 43 e2 bf
       -0.43122080141007535 -0.5707995397665571
000720 d4 08 05 04 27 f7 b6 3f f6 30 29 ec 72 74 d5 bf
       0.08970874641548515 -0.3352324777849981
000730 eb e7 fc 14 a0 be cb bf d7 12 db 0d 9c 90 de 3f
       -0.21675492310333708 0.4775762687025184
000740 17 f7 3e 3f 9e d8 e2 bf a0 bd 50 22 16 8b ca 3f
       -0.5889426455757726 0.2073695819430954
000750 cf cb 25 28 47 42 c1 bf 2f 98 1e 0d e4 a4 f4 bf
       -0.13483514271101035 -1.2902565491181226
000760 89 05 c8 a8 16 61 c1 bf 97 3d 95 f4 3b 3e c5 bf
       -0.1357754062774286 -0.16596173708465464
000770 c6 76 16 a4 06 82 d0 bf 67 cd 22 e4 1c bf 91 3f
       -0.25793615364260025 0.01733060018950763
000780 ff df a6 fa 0e fe b0 3f 84 3b 16 1b ff 42 e5 3f
       0.06637662524633468 0.6644282845535234
000790 03 bd a8 27 97 c4 bb bf 1f 3c 61 aa 0f d1 72 bf
       -0.1084684821914728 -0.004593907540836133
0007a0 4d f3 ef 01 e3 0b ca 3f 56 85 c1 67 49 f9 e4 3f
       0.20348775477023154 0.6554305101855487
0007b0 7d 3c 23 f1 7f b9 eb 3f ce c0 a0 33 27 97 c3 bf
       0.8663940152854505 -0.1530503275003014
0007c0 43 27 10 7f a1 79 de 3f 17 e1 09 f1 c6 0d d9 bf
       0.47617375763421793 -0.3914658883945931
0007d0 22 3f 6b f4 22 eb bf 3f 1d f9 5b 72 dc a8 e9 3f
       0.12468164889582714 0.8018629296855441
0007e0 88 1d 02 6c a2 17 c9 bf da 13 f8 fe 3d 62 a9 bf
       -0.19603376649704907 -0.0495776532880325
0007f0 1d da 3a 08 d5 d9 d4 3f b0 c8 3b a5 38 25 ea 3f
       0.3257954197282816 0.8170436122147944

layers.0.self_attention.fc_q.bias f8 [16]
000000 a4 96 92 c4 75 14 c9 bf c8 da 20 07 b9 df df 3f
       -0.19593689058563257 0.4980299539196662
000010 03 b7 0d 4b 7a 08 d8 bf 12 89 72 1c 27 c3 e6 bf
       -0.37551743821573796 -0.711322360574089
000020 e1 2c c6 54 bc 78 c2 bf d8 c0 8a 52 a4 ef d4 bf
       -0.14430956019746247 -0.3271265798639553
000030 96 d2 23 67 f7 e5 dd bf ec 50 c9 bc 90 98 da 3f
       -0.46716103622683514 0.41556185184641836
000040 32 17 6a 7a 2f 34 b3 bf ac 91 ce f5 d9 45 ac 3f
       -0.07501503695138181 0.05522042394230495
000050 01 eb b5 3d aa ed af bf 99 3b 2b 77 8a 88 bf bf
       -0.06236011508277351 -0.1231771984996456
000060 eb 3a cd 59 0a 59 ca bf 65 76 09 91 4e 06 d6 bf
       -0.20584229836318654 -0.34413494266286754
000070 1b d9 e6 34 c0 3d b4 bf 8d e6 07 f4 ad ff cd 3f
       -0.07906724254175794 0.23436521926469248
