saved_model/Shift_transformer/saved_model.pt (torch, 39926 bytes, 37 tensors)

pos_embedding f8 [1, 16, 16]
00000000: 9fc7 8f4e 76bd f0bf 72bb a3e9 ca83 9e3f
00000010: a00a 466f b871 de3f aae9 0fbf 759b c33f
00000020: 7373 3714 e687 e03f cc1a 6a1a 706d da3f
00000030: 5dae 34a0 3679 e3bf f445 c995 0fcc ecbf
00000040: aef1 014c 423e ab3f 5da4 c019 b281 ec3f
00000050: d1ac cd5d 8712 dc3f 59c5 7a63 c630 ec3f
00000060: 97b0 05d9 0924 c8bf 32d5 e4b4 4c1a e73f
00000070: cf9c 36a7 d45b d33f 5406 399a 8ecc f0bf
00000080: d202 9647 c955 d4bf 8d78 9ca3 450f d13f
00000090: be01 379b 9de4 e83f 5ab1 9b75 746b e23f
000000a0: baec 57cd 9bf3 c63f fb9d 82ac bc38 d33f
000000b0: 62c2 4e5e b502 bcbf e6eb 719e 753a d9bf
000000c0: 9dfa b22b 4421 e63f b2f1 3724 9849 c2bf
000000d0: c18f 5448 80d2 f03f dc74 b664 1f37 ed3f
000000e0: 4e4d a0e9 ddfe e3bf 0595 db58 ffac e63f
000000f0: 04e9 4a2b 4b49 90bf 6301 78fa 7724 d5bf
00000100: ee96 2c9c 4b4d e1bf dfc9 8ad7 1d40 e8bf
00000110: d234 7e66 b82a d33f 188e a277 e5e2 b53f
00000120: a2db 0815 fe71 d73f 6860 1531 333f 813f
00000130: a399 3e1c 1ac7 f0bf 9450 35c1 18fc e2bf
00000140: 5707 06d5 0086 efbf 43f1 a644 d254 ed3f
00000150: dcb9 2853 6915 bfbf be94 30b2 721d bf3f
00000160: dbee 678d be32 ddbf beb7 0312 405f d83f
00000170: dd30 b548 c4b7 c7bf 9aac d0b7 919a e9bf
00000180: 231f 1a8e 94ef b3bf 60eb 96d6 14e2 e0bf
00000190: 2902 68c9 1e20 eb3f 1feb 851d 6b8b a53f
000001a0: d3cd 76b3 1980 ea3f c5b9 baf0 de0e e43f
000001b0: 0547 46f5 9e39 ddbf e183 2eb1 b865 e3bf
000001c0: d430 00fb bc06 c0bf 75f8 c174 d5c7 d53f
000001d0: a901 9935 3a3c bd3f f0ac 746d 8240 c33f
000001e0: 637b 7287 c90f e9bf 1e20 0f32 4a0c b9bf
000001f0: 2229 bcfe a198 ce3f 7c45 d8a9 9701 c53f
00000200: e438 ab08 ab3d af3f b8e5 8ed9 ca10 edbf
00000210: 9485 eaeb cdc1 e73f 6cc0 7260 d819 e43f
00000220: 75d9 a90a 0f3d b9bf d6ea bd0d d7d8 bcbf
00000230: 0539 5a0b b43a e8bf 7030 9938 2354 bcbf
00000240: 37ec 4e59 9742 e6bf bbfd 7600 127a b4bf
00000250: 94e9 9997 4076 d13f cc32 3015 4a7b d63f
00000260: af7d 6d76 b89e eebf 9672 f006 6c6e 80bf
00000270: 605c 6766 e621 dbbf 2959 8478 97c9 cd3f
00000280: 80f5 559a 14e2 d13f 3e1e 891e 5271 e4bf
00000290: d901 66da 52d0 e5bf 1dc7 82cd c165 e0bf
000002a0: 5708 515a f026 b0bf 9578 f6fa b77b e0bf
000002b0: 6fc8 3e53 4e73 e2bf 2f6e eb1f 28e5 db3f
000002c0: adb2 913e c1eb ecbf 0f45 4131 3bbc da3f
000002d0: ecef 5e5e a117 eabf f94a ceaa 8b90 e9bf
000002e0: 1412 fcf2 dd30 d63f 4f27 b361 191e d8bf
000002f0: 1b33 1b8d 4569 d1bf 029c fed0 dc79 b9bf
00000300: 13e2 4919 c2ba d3bf 238a 81fe a7a9 a5bf
00000310: 1fb5 c074 efd0 dfbf cef1 1d60 adcc eabf
00000320: b349 fdd1 db22 e43f 6072 898f 2c8b d53f
00000330: 0adc 2598 0ae7 b0bf e68b 189d 41cc d2bf
00000340: 6747 7ebe 4ff5 d4bf 44fe 8a70 8169 e63f
00000350: 6e16 cbd9 3455 ecbf 7727 9d42 3e7f dfbf
00000360: fe89 f5e7 05ae ef3f 35bc bc3b e4b2 d8bf
00000370: 4972 789b 87ac d53f ecf3 1c15 5e52 c7bf
00000380: 2552 a2c0 456a ef3f f104 d8a3 9e58 d0bf
00000390: 8ec8 6284 9e39 eabf 52ef 418b 93ca b5bf
000003a0: 7615 d235 09d5 cebf 8bcf 7c9f e8e9 e8bf
000003b0: e1e4 72a5 e6d4 d93f 6a01 d594 d21e e83f
000003c0: 68e9 db44 c3e7 e5bf 847a ba12 5a92 e1bf
000003d0: 8598 d245 3b93 d1bf 8ff6 552a c36b e3bf
000003e0: 975c 87a0 3fa0 a73f af56 178d c23a 8c3f
000003f0: c626 eb92 4194 e8bf ab06 6487 eeb2 de3f
00000400: a4a6 c27f 7054 d63f a8de fac1 b3fe d43f
00000410: b52f 5de4 757d f1bf f98f 7c50 89eb e7bf
00000420: fa83 1163 482f ae3f b102 e4e5 fd09 dbbf
00000430: 6e24 c895 def8 d93f 462d 6ba6 4546 e33f
00000440: b327 4152 f3fa c53f 3e67 fd9d 7bb0 b3bf
00000450: e60a 5858 969b edbf acfe 54d9 c043 e9bf
00000460: f351 8deb 39f7 ea3f 41d9 5062 86f9 e7bf
00000470: f401 a614 ab86 c03f aeba f39b 1390 da3f
00000480: b0df 9145 050b e63f 755a 32dc ada6 a93f
00000490: c837 ccb1 d5a2 c6bf 84e2 2902 b8bd d6bf
000004a0: 27cb 1ece c07d ed3f 1284 5723 d0eb d83f
000004b0: 7db9 e7a1 45e3 ed3f 347a 2ae1 ff98 d3bf
000004c0: 2f04 dab0 868b a7bf ebda b2c3 8de4 cabf
000004d0: 122e e930 799a e1bf 63a5 9607 8ba6 d5bf
000004e0: c3f2 9309 8cdb ba3f 6782 756c 92d9 dabf
000004f0: 4273 ffbb ef8d b83f 22ab cdac f91c ec3f
00000500: 402f e12a 0462 ea3f 0638 3f70 d523 d93f
00000510: 523f 661c f100 cabf 5c60 37ec c724 cf3f
00000520: fbb3 fcc7 ec07 d0bf 7d29 c7f2 cc21 e0bf
00000530: 2c4a b857 bbee e63f fce7 a245 21f8 e83f
00000540: fa55 697f ea1c e33f 8835 4cfe 6c8b ebbf
00000550: 9566 d830 cea8 d43f fb4e 9d0f 46a2 d0bf
00000560: 899e 7915 88d9 c5bf 1cee 3496 b416 aa3f
00000570: 620d fb41 bd64 d7bf bc8f 7d57 ba8a e33f
00000580: 6a02 a90a 37cb d13f 83da af3c 3670 b03f
00000590: e6e1 9665 ee95 cabf fbd8 5123 42d7 d0bf
000005a0: d260 5561 796f f3bf 1b8c 1851 2af2 f1bf
000005b0: 812c 6a6c 6f78 cebf bf07 5d1e 7ff4 f13f
000005c0: f23b 3838 9bb5 d43f 88e3 d172 3c7b b9bf
000005d0: 5d40 3d3f b9e2 bdbf d68a 357c 6426 e4bf
000005e0: d8a7 cbda 6df0 a43f 6bfa a8b5 8163 e2bf
000005f0: d504 c8f1 f069 b53f 213d 1307 bcd1 bbbf
00000600: 9598 8ac5 2d0e 9ebf f88c 4ce1 a0b2 ea3f
00000610: 60fa 5c45 56ab d3bf 468d ac43 67c2 a3bf
00000620: 78ec e273 ff02 abbf e017 cdb1 330e 7cbf
00000630: b75c bbd5 d125 f43f 5872 060e 504c bfbf
00000640: ef4a 4386 0cde d83f ecd8 4364 2a5d e2bf
00000650: 55e4 3aa1 7f87 913f 69cc 45a7 9a3a bb3f
00000660: fda6 af9f 3d46 d23f 0ef9 107e f1db e13f
00000670: b351 fff6 4732 c03f 62d0 0d0a d64f de3f
00000680: c0c3 1f14 b885 d6bf e147 d006 4cd1 df3f
00000690: 6704 d655 87bd 7cbf 86c0 654c 0e67 acbf
000006a0: 34d7 c057 e8bc f1bf 002b 5c6e 57c6 e0bf
000006b0: 92cf 2f7a 634a c43f 5073 14c8 d473 e73f
000006c0: a33a ddcf e271 f23f a783 7609 3743 dbbf
000006d0: f9be f830 899c b43f c285 bfd4 6e0e b33f
000006e0: 2986 17bf 9e1c b93f 65cb 1cce 3453 c8bf
000006f0: 9579 18d1 f65a eb3f 6f8c bb93 91e8 b2bf
00000700: a3c2 bb62 be62 c2bf c06f 016a 3959 ec3f
00000710: 357d dff4 2519 e7bf 7ae2 66e5 dc79 e0bf
00000720: 3f7a ad7d 77c6 e9bf 4099 9a79 3bfa e1bf
00000730: 6d20 9291 9f98 e23f c643 593b 28aa cd3f
00000740: 0119 e936 5a5e e43f 305d 703d ae8b c8bf
00000750: 8a53 9952 2f1b e3bf 8888 211c 1266 d1bf
00000760: 65a0 2a49 91b1 e23f 8226 f1ac a68f e7bf
00000770: 0804 2914 3890 eb3f 67a6 5f60 d9a0 b4bf
00000780: a525 ca1a c3dd e3bf fcce a937 27da e93f
00000790: 7864 a5d9 3641 d6bf 68be a717 da51 e0bf
000007a0: 08c9 52b7 9108 c13f 4bad 1597 f9da de3f
000007b0: af71 924e abc9 ed3f 56e6 928f 2ea9 d3bf
000007c0: 9194 2d6e 08ab dd3f 90c2 335a cdc5 b13f
000007d0: add6 4e9e 344a e5bf fdeb 15bf 69d0 c53f
000007e0: 6d3c 861a 1895 e73f 9803 6144 d17c c13f
000007f0: a5e9 ee6d 38ce ed3f a281 ea73 c6c1 91bf
-1.0462554043592502 0.02979962397597142 0.47569094530642 0.15318176106650344 0.5165892023902486 0.4129295595125029 -0.6085465554255723 -0.899909775305956
0.0532093732626636 0.8908319952944442 0.4386309066819197 0.8809539740524698 -0.188599806754955 0.721960404690128 0.30247989968706873 -1.0499406837774545
-0.3177359770852891 0.2665571306005255 0.7779071837940632 0.5756170556101481 0.1793093445447534 0.3003379521055362 -0.10941632797654102 -0.3941930815996656
0.6915608266352425 -0.14287091988070483 1.0513918710139338 0.9129788367314648 -0.624861675549633 0.708617852735785 -0.015904593007442194 -0.3303508707031339
-0.5406854677464403 -0.7578267297561146 0.29948244103509325 0.08549341364646812 0.36633255056534086 0.00842132562199556 -1.048608885126307 -0.5932735227202266
-0.9851078186622811 0.9166041699277588 -0.12142046241999743 0.12154309130035565 -0.4562221890371185 0.3808136154101439 -0.18529561567482392 -0.8001183118953066
-0.07787445515907314 -0.5275978270723094 0.8476709302631821 0.04207930312528262 0.8281372552068497 0.6268152906175649 -0.4566419024714466 -0.6061671696262431
-0.1252056336965156 0.340321887990178 0.11420024689232967 0.15040617317695348 -0.78317715124636 -0.09784377786775209 0.23903298319084693 0.16411109727100015
0.061017365272719976 -0.9082998513396694 0.7424077613579123 0.6281549342875343 -0.09858793268526773 -0.11268371663565388 -0.75716592995903 -0.11065883762165796
-0.6956288093855453 -0.07998764525745276 0.27284254841620137 0.35127498692672243 -0.9568750680008885 -0.008023113214272553 -0.4239440918003705 0.23271458992594177
0.2794238574204755 -0.6388331028364929 -0.6816801324458154 -0.5124215139278224 -0.06309416012757772 -0.5151023770920512 -0.5765754342921933 0.4358616172519047
-0.9037786695531246 0.41773872194342315 -0.8153845637493737 -0.7988947235156437 0.34673260430307207 -0.3768371061420241 -0.2720502737036427 -0.09951572515875287
-0.30827381581869523 -0.04230999929201953 -0.49712740327488975 -0.8374850156101787 0.6292552090983946 0.3366195108153871 -0.06602541174457613 -0.2937168153895854
-0.3274726257596882 0.7003791044334737 -0.8854011777663808 -0.4921413088346677 0.9899930506183521 -0.38591867288318166 0.3386553781763593 -0.18220115691101968
0.9817227136978245 -0.25540891647695135 -0.8195335946713997 -0.08512231969683384 -0.24087634208641945 -0.7785533061018993 0.4036194434844003 0.7537625223995239
-0.6845413536932883 -0.5491152158536612 -0.2746112996923176 -0.6069045855399099 0.04614447435931728 0.013783950739632315 -0.768097674322427 0.4796711275267664
0.34890377499196235 0.3280457872710749 -1.0931300087422475 -0.7475020000460965 0.05895448884326267 -0.4224848504091297 0.4058147871697376 0.602328133617825
0.1717209006913528 -0.07691166503118738 -0.9252425885645976 -0.789520668484291 0.8426789856553668 -0.7492095871191752 0.12910974987245505 0.4150437376946837
0.6888452872071777 0.050099785928229425 -0.17684432202844236 -0.35532951556482595 0.9216007257258284 0.3893928856978742 0.9339931642733031 -0.3062133501897819
-0.0459863749392827 -0.2100999074516133 -0.5501066165247173 -0.33828998318730025 0.10491252168499003 -0.41952953902913354 0.09591577853957481 0.8785370230737934
0.8244648778431625 0.3928121181642158 -0.20315374266328462 0.2433099654579135 -0.25048369913093865 -0.5041260473019943 0.7166420663145963 0.7802893028340345
0.5972797859673726 -0.8607697455169481 0.3228030659680397 -0.2599043991551608 -0.17070103691661512 0.05095447858408539 -0.3655236381857404 0.6106845578001336
0.27802825966867906 0.06421221715559437 -0.20770053825778162 -0.2631383271140206 -1.2147153665628605 -1.1216223876770133 -0.23805039209068826 1.122191542250661
0.3235843705196536 -0.09953668406696015 -0.11674077791144684 -0.6296865869483905 0.04089682861179228 -0.5746468112991584 0.08364778426040982 -0.10866904423459235
-0.02935096281239476 0.8343052292224504 -0.3073325803160625 -0.03859255505656249 -0.05275724687222633 -0.006849481517582107 1.2592333172704409 -0.12225818960582424
0.38855279075248367 -0.5738727529813139 0.017118448463154873 0.10636297782711925 0.2855371531901339 0.5580985510094096 0.1265344577829076 0.4736228082831585
-0.3519115635418153 0.4971494738139182 -0.007016686109069337 -0.05547375376306811 -1.1086200168478628 -0.5242116122693403 0.15852015939855996 0.7328895480928654
1.152804195374906 -0.42597747730365615 0.08051354833218828 0.07443897909208544 0.09809295811967246 -0.19003925384603373 0.8548540195368327 -0.07386121613267148
-0.1436384183976048 0.8858916349813555 -0.7218198568988671 -0.5148758392816284 -0.8054768995896849 -0.5617959380222501 0.5811307757549123 0.2317552842892196
0.6365176269980851 -0.1917627143854843 -0.5970684636364336 -0.27185490367094944 0.5841757229836843 -0.7362855317853276 0.8613548654321912 -0.08057936289665123
-0.6208205722079368 0.8078800284551728 -0.3477303624582144 -0.5099916898743233 0.13307401133858598 0.48211517099726525 0.9308678183183953 -0.307201042374435
0.4635640216786863 0.06942447139932484 -0.6653082935287863 0.17042276220658428 0.7369499700597665 0.13662162627045116 0.9314233920224991 -0.01734075624938359

input_embedding.weight f8 [16, 8]
00000000: a446 dfa8 7f96 afbf 8a79 8d25 67a0 acbf
00000010: 8da2 a067 69f6 c2bf a452 4b98 b09c c3bf
00000020: 3bfa a879 b76b c3bf 2644 7d96 12fb af3f
00000030: 141f 1e85 4f68 ad3f ac0b 205b 3eda c53f
00000040: 318a 0f80 745c b53f 7077 242d 3fae b2bf
00000050: 3106 9c49 e81f b9bf 3b7f a4e1 8ac8 b8bf
00000060: 00fb 3113 4f95 ae3f ac03 b14e 0701 cabf
00000070: 0a6b e0fa d711 b23f 2dc4 185c 24b3 c33f
00000080: b134 2953 96d3 bcbf 4282 e353 855a c1bf
00000090: 2347 3453 15be a03f f373 683b 2fc9 6a3f
000000a0: fdf5 5910 e2b1 a6bf 0f7d b159 7191 c6bf
000000b0: 7f99 fa05 c8a6 c1bf 74c8 4a8a 9f02 5e3f
000000c0: c69b 4d11 b145 ad3f 5d6c 0677 0704 b33f
000000d0: 80f5 c40f be57 b83f edb4 420e fd4b b23f
000000e0: 3679 2473 3fdd b13f 482a bb3a 4762 a93f
000000f0: 64e9 7cc8 aae9 c93f d4b9 1de9 74c3 c83f
00000100: 33eb 2410 9de4 a63f d435 89d9 c85c cd3f
00000110: f20f f514 58e3 d13f cbea 4926 f01b b0bf
00000120: d060 1312 ea39 ad3f 4646 9238 c9de c5bf
00000130: 2777 51b9 c58b a6bf 2a5c cf91 1686 af3f
00000140: db4a 96f4 8673 c03f 74e3 33fd 0871 a9bf
00000150: 5335 8862 3052 bcbf 561a 1a00 2e5f a93f
00000160: 5c7b 4d47 1ae9 b73f 95ae e805 045f b53f
00000170: dcc4 d35c 4575 c13f 19b6 9dbd 65dc aebf
00000180: da93 e465 9efa afbf 729b 7a92 a744 c5bf
00000190: b0a7 4c12 1db5 b23f 6550 acf8 a11c d03f
000001a0: 79d0 ed00 49a5 af3f c9bf 945e 31ec a13f
000001b0: c714 13c7 bb27 b3bf b184 1eec b801 b4bf
000001c0: e053 51d1 4dc7 94bf 4b33 0f00 6795 a13f
000001d0: d8c2 f924 4eb2 b13f bc68 08c2 1966 b63f
000001e0: eaa1 98e6 bf38 c83f 84ce 20f7 c734 d3bf
000001f0: 497d 5cd2 ecbd c43f ad2d 2739 c2ef ccbf
00000200: a32b a17f 81ac 723f 27db e461 c839 c43f
00000210: 4fc8 c129 4c02 b3bf c8c8 ed3c 5b09 ac3f
00000220: d62f 7afc 2df7 7f3f 8960 e5b3 0989 bf3f
00000230: 998a 6149 c34b bfbf 94bd b441 090f 8a3f
00000240: b199 54f7 4906 d5bf 06e3 e0c6 cdf9 bd3f
00000250: b690 2ea8 3e0c d3bf 8216 556b f14d cc3f
00000260: 1e93 be0a bd2b a73f 6c10 6086 f9d1 b8bf
00000270: 47fb 5efa 2f03 ca3f 4f14 f154 9959 9f3f
00000280: a5d5 cf41 7874 c2bf 1b9d 7e74 c93a b33f
00000290: 62cd 8c43 3139 be3f 6902 c9e8 f58d b83f
000002a0: 2414 239c 2bcf adbf 1f0d aa52 b47e c13f
000002b0: 1caa d15e 617c be3f a0b2 ce80 7090 adbf
000002c0: b377 09be 31c3 b7bf 282d 4701 d886 833f
000002d0: ea2e a7fc a1aa adbf 8bc4 764e 4954 a5bf
000002e0: 488e e839 642b a2bf 7a7b db06 0f20 b9bf
000002f0: afec 14d2 523e 90bf ee0f 729d 88eb 833f
00000300: 9589 a02e 92da bbbf 3fcd bd11 6b89 c13f
00000310: 5d24 364b fa4f b63f 53a7 22ea be26 a1bf
00000320: 3a38 652e 0f2e b2bf 269e 6af4 bab2 8a3f
00000330: 7698 5e52 072a b23f 638a 7fc4 9dcb a73f
00000340: 4842 02dd 2d55 bf3f ee81 9849 fcc6 c53f
00000350: 1f16 bed5 7b19 bcbf 4b71 3b45 3f54 ccbf
00000360: 88b7 68ff b032 80bf 2c66 14db c4ad 933f
00000370: d7ab 97a3 ac1d 9abf f105 19cb 215e d4bf
00000380: 0bfd 2bd4 58aa b8bf 7db1 81b7 fe02 c6bf
00000390: 4e14 7596 6d9b ca3f 4570 8d94 7b64 c4bf
000003a0: ed5c 716c 9564 c7bf 753c 9752 3c98 b23f
000003b0: 38fe 3f0c 651c d03f 6792 75bb 3edd b8bf
000003c0: 0a02 43ec 5a74 b4bf b2e6 d032 4081 b93f
000003d0: 4e1e aa4e 50d0 b3bf f294 c709 01cc acbf
000003e0: fc60 2b13 6ddb 93bf d4d1 d176 3cf2 a6bf
000003f0: d8e5 e0b8 2284 b63f 4442 4357 7c58 bebf
-0.061695088733938946 -0.05591127713590811 -0.14814488944945872 -0.153219293939988 -0.15172475281174677 0.06246240698840948 0.05743645191165406 0.1707227654406699
0.08344200254899971 -0.07297129490004095 -0.09814311787706555 -0.09681003578998297 0.05973288640324448 -0.20315638868671948 0.07058477282445721 0.15390448090468692
-0.11260356455132371 -0.13557497593048323 0.03270022049595258 0.003269760370371072 -0.044325890060445496 -0.17631356124454853 -0.1379022626108046 0.001831680108051373
0.0571723302480716 0.07428023010145197 0.09508884320253763 0.07147199247511411 0.0697822242841298 0.049577928466153554 0.20244345464181912 0.19346486456511391
0.04471293279717372 0.22939406034349352 0.27950098082169383 -0.06292630133422532 0.05708247633600794 -0.17086138975405357 -0.044035128471234856 0.06156988649279811
0.1285256094239092 -0.04969051447728293 -0.11062910466735802 0.0495542883991688 0.09340061417377171 0.08348107475529283 0.13639132530764797 -0.06027524890565079
-0.062458944261642294 -0.16615767147342414 0.07307607361567992 0.2517476013611087 0.061807900775335996 0.035005133433855536 -0.0748250351926628 -0.07815128101948933
-0.020291534329164196 0.03434297443127451 0.06912697222447706 0.0874954317772873 0.18923186072903714 -0.3000965035782672 0.16204605361506655 -0.22606685438800636
0.00455904565212509 0.15801338939646678 -0.07425380725342844 0.05475888365516962 0.007804088243243931 0.12318478242866794 -0.12224979917076907 0.01272399169701436
-0.32850884583822465 0.11709295373374226 -0.2976223604585003 0.2211286329349385 0.04525557285459157 -0.09695395975728766 0.20322227215907615 0.030615230378561894
-0.1441793748232786 0.075115767422734 0.11806018733186854 0.0959161465953088 -0.05822120934457356 0.13667921100941613 0.11908539357106246 -0.05774261066776387
-0.0928221787412145 0.00953453782940146 -0.05794244965690416 -0.04165867884456372 -0.03548730093850999 -0.09814542691627351 -0.015862745354053128 0.009726588539940875
-0.10880387914997976 0.13700617185859618 0.08715786300867152 -0.03349873169038511 -0.07101530916881496 0.013036213478087321 0.07095380555128536 0.046475343929860434
0.12239348073695411 0.17013505548040037 -0.10976385086367955 -0.2213210189864959 -0.007909186167207385 0.01921756350666308 -0.025503823742763245 -0.3182453616501269
-0.09634928874946895 -0.17196639976772224 0.20786828848409517 -0.1593164897302605 -0.18275707049426818 0.07263543144584779 0.2517330760601655 -0.09712593151704994
-0.07990043895825508 0.0996284603178548 -0.077397364812094 -0.05624392742519459 -0.01939173154355077 -0.04481686544832866 0.08795372975955418 -0.11853768473088971

input_embedding.bias f8 [16]
00000000: 91f3 703b cf12 bb3f a915 5c6d f62c b23f
00000010: 3027 8449 68e2 d13f 0ecb 3a08 7e63 d6bf
00000020: a669 533c f7b4 cdbf 61c4 32e4 e846 bcbf
00000030: f2bb 6f48 edf4 9fbf 0dd3 c895 b0aa 80bf
00000040: 9221 d125 572a acbf 1bdc 8bc2 616a a23f
00000050: c0d3 5d86 5366 afbf 75ff 8968 4cfd cd3f
00000060: 3147 193e cb77 b7bf caa3 d45c 1525 cb3f
00000070: 7033 a567 4175 b53f 399d b335 6db6 a93f
0.10575576020433021 0.07099857492365537 0.2794438093120446 -0.34982252887418575 -0.23208513684842308 -0.11045699664352206 -0.031207759424372435 -0.008138064929065015
-0.055010531774828966 0.03596787929375741 -0.06132756247726645 0.23429255585142142 -0.0916716600998171 0.21206919701333354 0.08382042675402857 0.050219929509518875

out_fc.weight f8 [8, 16]
00000000: e8b4 e081 4c83 c33f d2eb 0a4d 4b9e c0bf
00000010: 1ef4 172a 4be6 91bf 20df 570b 4304 90bf
00000020: 1684 b5c0 1950 983f c73f b210 7ae5 ac3f
00000030: 516e 3e92 3313 91bf 3329 91b1 21a4 be3f
00000040: 94bf a416 4e49 79bf bcf2 7b96 572f aabf
00000050: 67b3 765c 6a01 aebf 54fc 1e9f b60e c1bf
00000060: e3fa b298 8cc9 b3bf e990 4168 8950 bebf
00000070: 79ed db8a 1a36 843f fe1d 528a 931a bd3f
00000080: caa5 62a8 3bc7 b4bf b4a2 b31c bbd5 b2bf
00000090: ccac 3cab b7c8 b0bf 9ade b12a 0729 c0bf
000000a0: 94cc 1b2a c78d b2bf b870 543c 0057 80bf
000000b0: a9f3 0658 e0ae 8bbf 9b7d 86c3 264a a8bf
000000c0: 3330 70d2 d137 b43f 4d4c 9b84 6ff9 b0bf
000000d0: 2a0a 804c 5857 c1bf c180 c4c4 f6ab b03f
000000e0: cd72 24d9 0c04 943f 459f aa66 09f1 c5bf
000000f0: c99e 8fd0 d2b2 a63f 9562 f3e8 24d1 b13f
00000100: c72b c0ad 67a9 b33f b272 69bf e536 b73f
00000110: efbb 3b93 3ae5 953f 314f 753d fe4f abbf
00000120: 8ab5 92be f9ed c3bf 1583 06dd 6bfc cf3f
00000130: 24f0 3cfb 3ee5 9f3f 1ff1 87bb 15b8 b73f
00000140: c85b 28d0 dbc0 b1bf 7471 4405 2125 bdbf
00000150: efd2 017f e42b b53f 5b81 529a 0271 9b3f
00000160: efde 801b c786 b13f 2645 ec98 a5f8 aabf
00000170: c555 7b12 83e2 9d3f 4d01 b578 b2d7 bb3f
00000180: d6dc 1d60 7cba b73f ae0b 2f61 ddf6 c53f
00000190: 7332 4ccc 3aa6 943f aec2 bbc3 61c1 74bf
000001a0: 417c 3b39 c37f 9fbf 4e76 0856 a8b6 c6bf
000001b0: c172 5bc4 ccab b03f 2ee6 8f2f bb8c 953f
000001c0: df01 9072 f5d0 a63f 7eee f80c ec62 a1bf
000001d0: f0ce 0aed 494c c43f 839b e9de c57e 933f
000001e0: f831 8b51 4f4c a03f 1dcf 0755 16f9 9ebf
000001f0: 8146 4258 22b3 443f 7a92 f063 650e cd3f
00000200: 3135 9abe 6d28 c03f 37ef 09c6 cfc5 7cbf
00000210: 6315 2ffa cd5a 8fbf 7f87 7ed5 8e3e b6bf
00000220: a6e9 de32 b0de b13f 9b9c 2098 6ecf b0bf
00000230: 23fe ecac f6d2 9c3f b818 b4f8 4e74 ae3f
00000240: 2f64 ae22 3a94 a13f 935a c2bc b3ff a3bf
00000250: cc24 fe3a a45e b43f 8af1 7c57 81c8 92bf
00000260: 0025 dc1c 3e88 96bf f203 92b2 b095 b8bf
00000270: 0609 d276 59a3 5dbf a41a b65c dcf5 c13f
00000280: ecf7 3573 6a08 bc3f f1e9 aa1d 6ad8 a43f
00000290: 0152 3346 5f72 b13f af25 93bb 3487 cb3f
000002a0: 960f 9344 0dd5 c2bf 8348 32ed d756 94bf
000002b0: ee95 f82a 9f34 b33f a822 7d6e 4447 bb3f
000002c0: 8058 9ab0 27f8 b13f 79d9 19da 5390 68bf
000002d0: 3b34 4b56 b576 b2bf ce74 752f e7c1 a83f
000002e0: 70ae 48f5 b6f5 aa3f 9e7a df22 4219 a23f
000002f0: fb14 ed67 963d b13f a4dc c129 9cb5 cf3f
00000300: d94c b2b1 2d60 be3f ee52 9cac b4f5 c6bf
00000310: 050b 673f 7606 adbf a897 a329 d087 b2bf
00000320: f784 7694 08cd bdbf 15d5 9ec4 c664 bfbf
00000330: 5460 2f8f 8d78 94bf 56dd ec98 d285 9b3f
00000340: 1c8a d918 b0b2 b6bf ae54 c411 1842 bdbf
00000350: 81af d704 4e65 b1bf 6cb8 da92 c549 b83f
00000360: c740 1de3 1a69 c13f 048a 639a 110d b1bf
00000370: 1c03 d826 b398 bebf cec6 4698 da77 9c3f
00000380: 1468 0858 59ac b93f eb95 0c9b 173a b03f
00000390: f252 7cbe dc58 b13f cd82 74b4 32b1 adbf
000003a0: 6d82 db04 2989 abbf f3f4 74b0 faf7 883f
000003b0: 396b 5074 61b3 b13f 9979 4752 10c0 a83f
000003c0: 4b23 5f3d 8bfa b03f 7f00 50b6 4b1a a73f
000003d0: f2db 0977 a052 86bf 3ada 6a18 78d4 c9bf
000003e0: f0e6 7d5c fb62 cb3f 147c 960a 8444 b33f
000003f0: 6683 9a3f b1a3 ab3f ad90 4fca 6a11 c33f
0.15244442311942596 -0.12983075391625093 -0.01748006290835146 -0.015641257827126442 0.023743059527422693 0.05643826917469102 -0.016674810219781403 0.11969194970257462
-0.006173424752247931 -0.05114244186367986 -0.058604549204892824 -0.1332615162809555 -0.07729414680487028 -0.11841639323535315 0.009868819582598875 0.11368677260372093
-0.08116505490274686 -0.07357377482152111 -0.06556270533171754 -0.12625207504946873 -0.072475860386293 -0.007978441086884266 -0.013517143904090494 -0.047440730445710254
0.07897673976566537 -0.06630608546702028 -0.13547805533751617 0.06512396148582679 0.01954670024234666 -0.17141835701954214 0.044333064993961786 0.06959753691934119
0.07680366508445423 0.09068141863958593 0.021382251011285488 -0.05334467411253597 -0.1556999378712301 0.24989078800447176 0.03114794166980074 0.09265266254800907
-0.06934903938268555 -0.11384779337499201 0.08270099735984691 0.026798287076077325 0.06846279546232002 -0.052678275029516095 0.02918438720992868 0.10876002737950792
0.09268929812047885 0.17159621472646108 0.020165365905131027 -0.0050672358445217735 -0.030760813110529254 -0.17744926644165776 0.06512145799519954 0.02104465940280969
0.044562978968318616 -0.03395784052233085 0.15857814859702257 0.01903828785944085 0.03183219786078334 -0.030247067394113637 0.0006317060183553409 0.2270018327700603
0.12623378569370794 -0.007024585357267735 -0.015309914777285888 -0.08689205848943791 0.06980420343362556 -0.06566516126678083 0.02814851217703852 0.059481113299669486
0.03433400796274843 -0.03906022719563853 0.07956911506893788 -0.01834299179539437 -0.022004099379988595 -0.09603409156444778 -0.001808965079618975 0.14031557585640997
0.10950341522945423 0.04071361171869004 0.06815143073919928 0.21506365927625157 -0.14712682579385888 -0.01986253152114915 0.07502169417474366 0.10655620286446299
0.07019279538721612 -0.002998508237222083 -0.07212384564191236 0.04835436300593586 0.05265590423763633 0.03534895587630625 0.06734600102670989 0.2477297977345404
0.1186550673322019 -0.17937334469083716 -0.056689925422253075 -0.0723848439843936 -0.11640981316169872 -0.12263147640517887 -0.019991123070070962 0.026877680381600065
-0.08866406065639193 -0.11428976472628236 -0.06795203798509243 0.09487566790878227 0.1360200509029765 -0.06660566348322311 -0.11951751421294116 0.027800956291406824
0.10028608702887737 0.06338641677265115 0.0677621808102449 -0.057992538955891605 -0.053780824511481785 0.012191732893024531 0.06914338197422588 0.048340330165717656
0.06632299660044542 0.04512249565596082 -0.010899785645262814 -0.20179654304748046 0.21395818725778026 0.07526421793453181 0.05398324872408615 0.14896902922112557

out_fc.bias f8 [8]
00000000: e7a8 3343 0e7b a0bf 1e91 c9a0 d003 c33f
00000010: d792 9b0c fe90 b3bf c472 d11e 6add a93f
00000020: 4a37 ff4c b89e b13f bb37 c4cd cb80 afbf
00000030: 1992 e7e9 d5b1 bebf e2ea 0deb da1e 943f
-0.032188840583175886 0.14855392313905552 -0.07643115814023403 0.05051738382528506 0.06882812385376016 -0.061529511325815155 -0.11990105591355195 0.0196489530530738

layers.0.self_attn_layer_norm.weight f8 [16]
00000000: 5377 b0ee f396 ea3f 3083 4f91 2a0d f03f
00000010: 7819 5eac 5c1d f63f 1a1b c2c8 573c f03f
00000020: 0a96 489c 0ac3 e43f 43b2 2d99 4bab ec3f
00000030: 0294 12dd 835c f33f 99bd 5a28 f43e f03f
00000040: cb92 9d71 7f29 ee3f 4133 6da0 29c5 ed3f
00000050: 010d a69c 5866 f03f ff82 7d11 b24d f13f
00000060: 3ba1 4ab4 d48a f13f d269 9e58 9114 ec3f
00000070: a4a9 5448 1783 ea3f 8bd4 59d1 b328 f03f
0.8309268628979488 1.0032144237704408 1.3821684582813685 1.0147321550481991 0.6488087704098586 0.8959100715415577 1.210086692394953 1.0153695656152648
0.9425656527569911 0.9303177007037463 1.0249868506514874 1.081468647309691 1.0963942568433385 0.8775107127033215 0.8285023129185913 1.0099371125955112

layers.0.self_attn_layer_norm.bias f8 [16]
00000000: 3c53 4c8f 9736 d83f de46 140c 043e c0bf
00000010: 1465 e4e3 3973 acbf 6eff 4283 63b7 b6bf
00000020: b349 1a29 c3bc c0bf 9672 632e 4207 823f
00000030: 32f4 3413 a9d8 a8bf cfb8 ce27 af03 c43f
00000040: fd31 f3e0 23bd aabf 7a9e 025a b873 bebf
00000050: 4495 43bb c42a acbf 312c eb18 e8ad bbbf
00000060: 6370 ec40 c894 bb3f 2a62 e5b3 5788 cabf
00000070: 0fe0 7ece fc08 63bf c2c8 059d e688 d43f
0.3783320330997417 -0.12689257230572698 -0.05556660563360985 -0.0887357898200187 -0.13076056963889257 0.008802907028831169 -0.048527988047205275 0.15636243289686155
-0.05222427483531431 -0.11895324895396611 -0.05501379762589889 -0.10812235458722409 0.1077389868264063 -0.20728584560380742 -0.0023236215237965106 0.3208557637618804

layers.0.ff_layer_norm.weight f8 [16]
00000000: 3044 1693 51c2 f23f 8372 4a4a 5bfb ec3f
00000010: 1213 5f88 0a22 f33f fe99 fb2a fc0c ed3f
00000020: ebe0 1184 d82d eb3f 5e3e e9f4 7da2 ec3f
00000030: 90d2 8e5d 331c f03f 893a 34cd ee9b f03f
00000040: 73d5 b22e a41c ef3f 90f1 6cfe 3201 ed3f
00000050: 43e3 d112 bf50 ee3f f176 3c28 98d0 ee3f
00000060: 7f96 de5b 5437 ee3f 7dc5 c5ee 29e0 eb3f
00000070: 29cc efa6 9ea5 ee3f c37b e71f 7b35 ed3f
1.172441076811321 0.905683178996313 1.1958108260161606 0.9078350867756055 0.8493464068879154 0.8948354514522625 1.0068849234204755 1.0380695358068428
0.9722462570268092 0.9063963860749471 0.9473567359519638 0.9629631791937908 0.9442540926290376 0.8711137450720084 0.9577172527773473 0.9127784369592223

layers.0.ff_layer_norm.bias f8 [16]
00000000: 405e 6ce3 d1a7 df3f a2ac 7e9e 4907 a4bf
00000010: 1f6c a6c5 c4c8 bbbf b37f 57c2 e51f cabf
00000020: 8fda a293 6f63 d5bf 53a0 29e6 b77f babf
00000030: 9e70 58d8 4f5e c03f 5c67 5d21 10af d33f
00000040: 76b2 c73f 7948 9fbf 39b3 82da cbc4 d5bf
00000050: e0d3 2538 7699 c8bf eef6 647b 68a1 bebf
00000060: e756 48ff 4e74 c63f cb69 5aec c14a d3bf
00000070: d71a 4c24 ff28 b43f 15e7 854a 235b da3f
0.49461791238124775 -0.039118099782478724 -0.10853223634187302 -0.2040984343466313 -0.3341940824279072 -0.1035113274498383 0.12787817062133383 0.30755999811446144
-0.03054990245611796 -0.34013649310036304 -0.19218328229513215 -0.11965039265211505 0.17542445626229794 -0.3014378364693157 0.07875055919803785 0.41181261327402413

layers.0.self_attention.fc_q.weight f8 [16, 16]
00000000: e087 32b2 65bd d03f 2476 42b2 dcd0 bcbf
00000010: b4a4 b9b9 bebb d83f f149 d775 e627 e43f
00000020: 42c3 825e e78b e4bf 3ae2 e11d 2944 edbf
00000030: 01ba eb8e 3b31 e4bf e1af 46bf 7392 e83f
00000040: c69b b7ed 091f d53f 77aa bee9 dd68 dbbf
00000050: 50a6 05b4 eac7 e83f 0315 211b 589f c4bf
00000060: 6a11 278a 447b ecbf a235 a074 bcff b03f
00000070: 5310 a9ce 8652 b7bf 5d31 e3b7 435a be3f
00000080: 97c2 04f7 d6d9 bebf ea71 d51e b894 ea3f
00000090: 9766 0b58 f2e6 bebf 575d 5b83 4dd2 95bf
000000a0: e87e cbcd 0e33 dc3f 7c35 17f2 ef81 e93f
000000b0: 187b 6f35 71b0 e73f c265 23ee bf64 d5bf
000000c0: c303 382b 90a7 c73f ef68 f26d de9d c7bf
000000d0: f553 5785 54a2 9ebf 047e f79f 0190 ec3f
000000e0: 122c 97ab cedf e23f 1fb3 75e9 07a1 cc3f
000000f0: 1a38 fc13 6bf7 dd3f be53 c5fe a81c d63f
00000100: 20f3 ac02 7304 f3bf 275f 47b4 caea d33f
00000110: 23f9 a7fe 6bf2 b83f 4bf6 cf4d ea40 ddbf
00000120: c8f3 019f 093d bfbf 03eb 4b25 cf49 cc3f
00000130: 4367 7e72 55f2 e6bf 002c f009 7ff6 c9bf
00000140: d160 6090 6a24 ed3f 4932 c7d9 72fb da3f
00000150: 8dff 3f7f 00d5 d5bf 0b48 da74 d13d e83f
00000160: 1948 804a 8048 e43f 36fd 8de8 ca58 96bf
00000170: af91 2eaf 906a e93f cbb5 c1be edba e7bf
00000180: d049 2cdd fc43 edbf b7a4 5d7e a43e 94bf
00000190: c4bc 8376 d61f b03f d8d6 5a01 81f6 e5bf
000001a0: 40bb 5392 dd47 d5bf 28ca 200b 2782 e03f
000001b0: cc3e 5573 c3e7 d3bf a299 02bc c640 c1bf
000001c0: a73a d426 a4df b13f 9c6e 1068 1868 ce3f
000001d0: 3fba c9f3 74d7 ebbf 5396 8524 acbb d5bf
000001e0: 6b3b bce2 39fe e93f 64a8 3f16 b24c dbbf
000001f0: d11a 5ccb c8be e13f bf4b 111d c58c e9bf
00000200: a8ea 4a86 6c5d c13f d447 742e c991 debf
00000210: 2ae6 3fec f6cd d8bf 695c db5d ce38 cdbf
00000220: d4d3 e41c 574b d5bf fb2d 9b9a 5251 e8bf
00000230: 9f0b ccfc 5bd2 eabf 1975 dd34 21dd d83f
00000240: 3007 d528 f4c3 e6bf 7a2b 7d53 d691 d43f
00000250: 1f48 0d5f 14a0 c0bf 7b98 c086 7a5e f3bf
00000260: 8340 4656 33ec cc3f 3fe1 d5b2 6fe3 90bf
00000270: ee01 84bd 45a4 a3bf 7762 8ff3 1004 e7bf
00000280: 5690 0680 a8a5 d6bf feb4 8fbf 7911 b33f
00000290: a1a5 4226 2653 d73f 7b9e 7fc8 a2af ea3f
000002a0: d951 2d5e ed0b c3bf 346e fd99 deed c73f
000002b0: 8074 ebc7 f230 d83f 6134 bb2e 7c0f ddbf
000002c0: ffc4 03db ac83 c3bf 0e4c 92dd 4fb7 943f
000002d0: bcc0 305f c836 ed3f 6071 2851 5dda f13f
000002e0: b775 3e84 786f e6bf e96a 673b 52d0 e43f
000002f0: 289a 24cc cb5e c1bf 5328 a75e 8d52 d8bf
00000300: ec16 d747 15ed d43f 5788 741f 6519 e5bf
00000310: 717d 2aa2 9776 bf3f 8084 c618 6a31 d9bf
00000320: 039e bdb0 3fb6 e43f 627f 1335 288b e83f
00000330: 31aa c2a3 e58d b43f e14a e386 1a34 d4bf
00000340: 0efe b25c 5df3 efbf 0a1b 71a1 3f76 c73f
00000350: 1754 bc81 4f6f c8bf 52bc 34e9 b76a d2bf
00000360: a0c2 4d03 f11d d53f 6220 1745 7f64 c83f
00000370: 5c6a e99e 5f7c d6bf be34 49bc d57d d03f
00000380: f335 d04a 6274 dc3f b344 5f47 58ab c33f
00000390: 30e0 c04d 3098 edbf 10b6 f116 0b52 d6bf
000003a0: 7ad9 2e52 2dc2 c6bf 9b3e b047 479a e7bf
000003b0: 925f eb9a 2f6d e83f 3fc9 4529 2e4b de3f
000003c0: 2e80 efe3 201b dc3f b49b acdc c691 c1bf
000003d0: 6d9c 4952 3178 e0bf e1d0 95cf c4ce e3bf
000003e0: 238d 0d5b bcc0 e03f b23d 8f27 c9ae dfbf
000003f0: 8008 55d2 eb74 3d3f 1dbd 9f6c 2fce af3f
00000400: 99df c25f 63e1 e0bf 7cdf e174 fce5 d7bf
00000410: 551f d3d0 5b18 c03f b734 7487 d88f eabf
00000420: fefb bb83 0cdc dd3f 5795 8b85 024c eb3f
00000430: a8e5 dd90 a2b3 b2bf 7971 6d2a b906 d4bf
00000440: 83cc 305e 84ad dbbf 4750 45b6 7ee2 d43f
00000450: 0bbc 006e 297e e8bf 95a9 cb5b bf92 c8bf
00000460: e234 c23c dbac e23f 9971 ea4a 599c ccbf
00000470: 10e8 1490 cc96 cd3f 2cf3 ec6d 2784 e6bf
00000480: bc63 f259 de05 ecbf bf37 a9bc e02f bb3f
00000490: dd04 5745 a9a0 ce3f 616d ad57 84fa a03f
000004a0: 080f 3e2e 284f babf 6ac2 8e25 46da dc3f
000004b0: f437 d712 ebdb debf dbac e00b a7c0 a9bf
000004c0: 2b77 b63d cd99 e13f c209 8b32 49db d83f
000004d0: 98ea 95fb bb6e cabf 861d 38db c352 dc3f
000004e0: 72e3 1541 5eed d83f ee89 b4b8 dfde a53f
000004f0: 2ab3 3136 be31 d63f 3e3c b20c 4ed2 f1bf
00000500: 5723 f314 038c cfbf 303d 540b 9c2e ec3f
00000510: 7902 a637 5b57 ecbf 823a 4d0d ffe3 f0bf
00000520: 5d5f 45c8 049c d23f 8b94 8416 4a0e d93f
00000530: d8fe 42ce 0b44 e23f 31c2 d8d1 e128 e0bf
00000540: 0cac 1a88 7f44 cc3f b3fe cad4 4c23 c93f
00000550: b91a 2fa0 2564 e9bf 9b7a 3c9a b2ff e2bf
00000560: 1393 3de7 2f2d f33f 1e05 4b87 7c47 d7bf
00000570: f183 031e 70b9 dd3f 241d d3b6 ca49 e13f
00000580: b7e9 a9a0 936e b63f 8801 1ece b9ca e43f
00000590: 1b3b d1fe 4353 ac3f 9898 f9b4 7907 c53f
000005a0: 25ed ed86 bee4 ce3f f5ac a478 b89d cdbf
000005b0: fac1 deb6 f8b4 e93f 3a20 95d2 6da0 bfbf
000005c0: 94db 5930 3433 be3f 4352 0ec4 9ddc c7bf
000005d0: 3955 bdbf cfa0 d93f ebe4 0a5c 2680 cbbf
000005e0: b478 815e a2a1 b9bf f205 e288 144d d13f
000005f0: 81f0 7c01 ee83 d4bf 8802 c773 1765 e73f
00000600: 9ee0 6682 7efc d2bf 7241 b800 e44b dabf
00000610: fe87 bd16 60b3 e03f 51fa 5a08 b6e9 d43f
00000620: a6e0 3788 b2f2 e63f 93a0 b7de a644 f73f
00000630: e61d 903e 3c19 c93f 91f8 8211 e14b e1bf
00000640: 2d6d ec99 b701 e6bf 460d afb9 7be3 cf3f
00000650: 4611 0a3e 4e8d d23f bbe1 9207 3982 ea3f
00000660: 0401 6fae ae4a d6bf d943 37b5 842b e33f
00000670: a886 4c36 de5f babf f97a e978 fd8a c3bf
00000680: c866 cd5b 2932 ecbf bd8c f992 9342 d73f
00000690: c365 960b a900 e13f 36ee 878b 0f30 82bf
000006a0: 2b3a dcc9 a250 d2bf 4937 12d6 81a5 c3bf
000006b0: c3eb 873a 24e2 cbbf 6f9e e60e 4250 c0bf
000006c0: 633e 112a be9a ee3f 55ce a97e 50ad b53f
000006d0: 8bfd ef64 f686 de3f e2d6 e3ea 02be e23f
000006e0: 9993 1e01 5b7e d1bf 8648 bdae 1859 c33f
000006f0: 4053 6f22 5be4 de3f 5b2e 8603 7fae debf
00000700: d8e5 6bae 5703 d23f 6f86 c3d8 ebe0 e2bf
00000710: c3c1 513f 1499 dbbf 3750 3f2c 0744 e2bf
00000720: e01a 344d 62f7 b63f 465c 3378 5074 d5bf
00000730: d20c 4deb b2be cbbf dfa3 a640 c390 de3f
00000740: d65f fd55 92d8 e2bf 2fbe 5fe7 138b ca3f
00000750: c034 3cec 6a42 c1bf e558 9ade fca4 f4bf
00000760: 95c2 c176 2c61 c1bf 4f00 edbe 843e c5bf
00000770: f022 55b2 0782 d0bf f55f f35d 38c0 913f
00000780: 1bc3 e0b0 d4fd b03f 9f56 dbbe 0043 e53f
00000790: 930e 72f5 1fc4 bbbf 8783 a2ce c6d2 72bf
000007a0: 4a28 5715 f40b ca3f 2ee6 5870 54f9 e43f
000007b0: 7e05 13ff 94b9 eb3f ba3e 1a3c 6197 c3bf
000007c0: 35e9 c281 a679 de3f b7b5 a38a bf0d d9bf
000007d0: 361b 86c8 4aeb bf3f 6126 331e f5a8 e93f
000007e0: cf50 af32 7617 c9bf 7323 1217 0562 a9bf
000007f0: ac2f c033 ead9 d43f 31c0 a0f7 4a25 ea3f
0.2615598907669874 -0.11256198265115153 0.38645904671882225 0.6298706342298016 -0.642078098861113 -0.9145703872337159 -0.6310098449155818 0.7678774581777327
0.3300194570023759 -0.42827556444777976 0.7744039073997531 -0.16111279797238617 -0.8900473306935457 0.06640222403821963 -0.0911030058424001 0.11856482734146341
-0.12051147013404272 0.8306542017194805 -0.1207114663078762 -0.021310053961170663 0.44061632249029836 0.7971114853223038 0.7402883571301997 -0.3342742753571565
0.1848011218098958 -0.18450527542592662 -0.029916115416046513 0.89257889979848 0.5898202277543325 0.2236642732563263 0.4682262129944107 0.3454992759700949
-1.1885862450137168 0.31120555501319064 0.09744906394187018 -0.45708711241590966 -0.1220251095964634 0.2210024768936237 -0.7170817600446998 -0.20283496842634463
0.9106953449109146 0.42159720675843865 -0.34112560679204124 0.7575461656836081 0.6338502364253628 -0.021823091930398074 0.794258443977517 -0.7415684438434992
-0.9145492858681852 -0.019770212376361864 0.06298580544874982 -0.6863408113919958 -0.33251132287744056 0.5158877580018428 -0.3110207201288915 -0.13478931598838267
0.06981874416326637 0.23755173760661286 -0.8700508843883837 -0.33957961622795557 0.8122834614203901 -0.42655613110276236 0.5545391055937562 -0.7984338348127195
0.13566357190378153 -0.4776480630545141 -0.3875710780263001 -0.22829608519416247 -0.33272340604463335 -0.7599270839359059 -0.8381786286775997 0.3884966865787916
-0.7114201352598908 0.3214011969873166 -0.12988524094777262 -1.2105660690081368 0.22595826828592544 -0.016492600717783686 -0.038362674125895654 -0.719246364310563
-0.3538609743357076 0.07448540617743402 0.364450013507474 0.8339399257647097 -0.14880148981559563 0.1869467021850696 0.3779875709859155 -0.4540701347694434
-0.15245590871885636 0.020230529688500858 0.9129373416126536 1.1158116502984612 -0.7011072714700991 0.6504298362954987 -0.13570544689101038 -0.38003858798459084
0.3269704057278051 -0.6593499769553642 0.12290332516794479 -0.3936410180995793 0.64724716682116 0.7669869457858847 0.0802901768499076 -0.3156801526321669
-0.9984576044589077 0.18329615958119688 -0.19089692911862308 -0.28776357435248656 0.32995248148567136 0.19056692956496862 -0.35134115713814196 0.2576803530435646
0.44460351282108873 0.153666529512099 -0.9248277205106259 -0.3487575267853069 -0.17780081284372412 -0.7375828170933859 0.7633283639688548 0.47333864241149465
0.43915579089480417 -0.13726125502691178 -0.514671955793245 -0.6189903311156081 0.5235273149850496 -0.49504307616458754 0.00044947392810368997 0.06211994362808524
-0.5275132055603421 -0.3734122411183234 0.12574336716192627 -0.8300593038162764 0.46655571808508955 0.8530285461717239 -0.07305351292406803 -0.31291035788833416
-0.4324656410055427 0.3263241558063367 -0.7654006145947972 -0.19197837812619115 0.5836006342593942 -0.22352138669965596 0.23116452250707242 -0.7036320826515285
-0.8757163769506557 0.10619930845243085 0.23927799115884954 0.03316129274636626 -0.1027703392883802 0.45082238834132815 -0.4821727451316058 -0.050297947120577745
0.550024624378897 0.38838415084697087 -0.20650434288457542 0.442551578599215 0.38948780399328264 0.04271601800634871 0.34678607265850536 -1.1138439651438286
-0.24646032832085993 0.8806896420736958 -0.8856636130222589 -1.0556631583782807 0.29077262456620706 0.3914971561337743 0.5708064106510973 -0.504990491730558
0.22084039827072421 0.19638977422981937 -0.7934749725908069 -0.5937130939890553 1.198532012255957 -0.3637381859990273 0.46444323473957555 0.5402577944559295
0.0876247660870949 0.6497468019224906 0.05532276616633266 0.16429063164395497 0.24135572040891265 -0.23137575045380002 0.8033412524874273 -0.12354170218634489
0.11796880894131184 -0.18642017434162214 0.40044015621727486 -0.21484832281365782 -0.10012259299535026 0.2703296028849699 -0.3205523504764259 0.7310902844693183
-0.29666102156216734 -0.4108819968251033 0.5218964046619019 0.3267645913692024 0.717126146365463 1.4542607021230978 0.19608262114364478 -0.5405125944160024
-0.687709618217388 0.24912973944274536 0.2898746114590448 0.8283963344502391 -0.34830824884922174 0.5990623034832608 -0.10302532983453239 -0.15267914203555913
-0.8811232369436874 0.36343850472458056 0.5313306070631189 -0.008880731053969897 -0.2861716243068339 -0.15348837807362717 -0.21783879144626725 -0.12744928100186168
0.9563895055416193 0.08467581837049327 0.47698745591329644 0.585694750566031 -0.27333712682075767 0.15115650684544252 0.4826877437856645 -0.47940039962916153
0.2814540103277898 -0.5899562104861625 -0.43121820624858404 -0.5708042015271592 0.08971228012897425 -0.3352242635568853 -0.21675716866784583 0.4775856143338028
-0.5889369658934764 0.20736931607778916 -0.13483940634652036 -1.2902802176882286 -0.13577800558734468 -0.16597041437671797 -0.2579364053276967 0.01733482430867635
0.06637315100011813 0.664429066435975 -0.1084613775474799 -0.004595543470856784 0.20348979036345077 0.6554357713968721 0.8664040548248264 -0.1530572455853781
0.47617495224007494 -0.39146412409794656 0.12468402286149857 0.8018746938552789 -0.19602849459500368 -0.04957595736147526 0.32580046705038046 0.8170523487551745

layers.0.self_attention.fc_q.bias f8 [16]
00000000: b202 30ef 7814 c9bf 9940 9cee bfdf df3f
00000010: f30c 5f11 aa08 d8bf 7c96 78f4 46c3 e6bf
00000020: 5efa c201 ca78 c2bf afa1 7770 5eef d4bf
00000030: 79c0 529e d6e5 ddbf 8b96 9e5c 4b98 da3f
00000040: 6125 a417 d933 b3bf fe5a 9d0a 0b46 ac3f
00000050: 0908 1caf 78ef afbf 0916 2033 f688 bfbf
00000060: fcba 2d3e 6458 cabf bc0f 1501 5e06 d6bf
00000070: 7c3f 7fe6 3c3e b4bf 500b 12ef aeff cd3f
-0.1959372680576244 0.49803160001557384 -0.37552882858672304 -0.7113375449013826 -0.14431119047181346 -0.32710991843353104 -0.467153219807194 0.4155453114020495
-0.07500988795449849 0.05522188667844395 -0.06237389695708379 -0.12318361995865969 -0.20582249675813802 -0.3441386232918793 -0.07907467486734093 0.2343653361641267
