saved_model/Lorentz_rnn/best_train.pt (torch, 11159 bytes, 6 tensors)

input_ff.weight f8 [32, 1]
000000 03 44 ec 77 b3 2b d2 bf 9c 7e 2d ac 30 80 e9 bf
       -0.28391730033132506 -0.796898208889576
000010 b9 ad 2d 1e 54 03 ea bf 73 b3 a1 0c 40 6f d9 3f
       -0.8129063214704991 0.3974151728969481
000020 82 90 02 5d cc d9 a2 bf 1d 06 8a 43 a3 b9 d0 3f
       -0.03681791911483946 0.261330429035384
000030 a3 7f e2 c9 5c 03 d6 bf ec 7f 0d f4 21 56 e1 3f
       -0.3439552279978619 0.5417642370848603
000040 04 fe 8a 54 6a 0b e8 3f 6c 8f ae 54 2f 4c e2 3f
       0.7513934756497638 0.571799912828721
000050 67 30 e0 c5 bc f2 e6 bf bf de 0f 91 9b f3 e3 3f
       -0.7171310295830268 0.6234872658960383
000060 c6 5d 41 e0 6f 47 76 bf 11 49 c1 cc e8 c5 56 3f
       -0.005439221397032628 0.0013899587093147462
000070 85 a1 21 64 10 95 c8 bf bd 21 1a 70 da 79 c2 3f
       -0.19204907311656086 0.1443436667798447
000080 29 19 34 79 d4 85 e1 bf 82 df d8 6c e8 23 c8 3f
       -0.547586666799167 0.18859582247545964
000090 ec 74 2c 6a b7 a9 c0 bf b9 4f b0 f9 b3 30 e4 3f
       -0.13017933544407556 0.6309451939327949
0000a0 a9 80 9a 5f 87 1b e1 3f cd f1 f3 63 fe 5f c6 bf
       0.5346104495293008 -0.17480449562562086
0000b0 51 ff 9a 70 21 1f db 3f 14 85 8e fe fb 38 f7 3f
       0.4237750625288657 1.4514121955510904
0000c0 9d ec e1 15 9c 8d e9 3f 27 33 67 ea e6 92 df 3f
       0.7985363414185432 0.49334118739061456
0000d0 d9 06 8a dc 8a 82 d2 3f f6 05 ea a4 fb 6f e6 bf
       0.2892176774695208 -0.701169797990757
0000e0 e9 7c 5e be 66 77 e3 bf cb 11 7e 0e 38 1d ca 3f
       -0.6083253591677052 0.20401669223441696
0000f0 b2 fd 06 07 90 88 e1 3f 64 80 f8 97 48 2b b0 bf
       0.5479202401401635 -0.06316045484754934

input_ff.bias f8 [32]
000000 25 b2 83 16 09 e0 e5 bf 16 6d 7b f2 8d a7 e9 3f
       -0.6835980834708307 0.801703427884976
000010 d3 5b 3f 78 70 71 de 3f f0 90 ac 29 ba ef cd bf
       0.4756737875263159 -0.23387839350574025
000020 b9 9b 3f 7c c6 8b e6 bf 8e 48 9f a9 a5 ba ec 3f
       -0.704562418625634 0.8977840722020731
000030 2b 23 fb 01 67 f3 e1 3f ef 8a 40 7d c1 bd d5 3f
       0.560962203854705 0.33970677596714344
000040 4a ca 39 1b eb d9 c8 bf 8a 32 80 72 30 b6 dc bf
       -0.19415034131414394 -0.44861994916644987
000050 61 ae 80 84 78 f8 e8 bf cf e2 15 2e fb 4d eb bf
       -0.7803309047644228 -0.8532691860301272
000060 2b c3 62 a2 1b cd ce 3f b1 9b 0c fa 2f 14 d8 3f
       0.24063439778321913 0.3762321416747297
000070 ff 72 3d 2a 31 a3 e4 bf 5c a8 a0 84 ff e6 ce 3f
       -0.64492090463645 0.24142450309710994
000080 b7 da bb 05 63 1a f0 3f 01 f7 24 ac 1d c5 ec bf
       1.0064420913674164 -0.8990620004840083
000090 3d c2 fa 5a 29 7b d0 3f 36 88 a2 1f 11 bc e2 bf
       0.2575171841117799 -0.5854573839062656
0000a0 6e 0e e8 bb c6 c3 c6 bf 55 ce 1d 3e 8a 6a c5 bf
       -0.17784961867447485 -0.1673138430884246
0000b0 df 4a eb 56 63 52 e9 3f 25 10 70 8d ca 58 ed 3f
       0.791307134403123 0.9170887720542892
0000c0 c8 28 29 eb f9 88 e3 bf 92 f3 75 67 4f eb e2 3f
       -0.610470732973476 0.5912243862836581
0000d0 98 a0 8a 72 b1 6b bc bf e7 12 68 35 df 65 d0 3f
       -0.11101826712058693 0.2562177678631045
0000e0 0d 3e f9 43 dd bc ec bf 03 e6 44 9a 17 65 e6 3f
       -0.8980547263726649 0.6998403561657941
0000f0 a8 b5 a0 11 f8 32 e8 3f a6 07 da e0 61 25 dc bf
       0.7562218040745181 -0.43978163679286764

hidden_ff.weight f8 [32, 32]
000000 87 78 4a 6f 12 48 c3 bf 65 2e b9 05 42 cd ac 3f
       -0.15063696321607642 0.05625349349847112
000010 62 8c 3c dc 6e 61 bc 3f 81 dc e6 72 33 05 bf 3f
       0.11086171032779782 0.12117311053485659
000020 77 ad f3 0c 2a 18 82 bf 3c 62 ea b8 89 9d b2 3f
       -0.008835152168521472 0.07271633877315592
000030 77 01 2a 50 5e ba b5 3f f2 a9 ed e8 23 7b ac 3f
       0.08487500626688936 0.05562698572505899
000040 71 f7 33 5b 2a 46 cf bf 43 0c 6e 3a 4d 0b b7 bf
       -0.24432877972861491 -0.09001619984160052
000050 e8 53 a6 f8 ce 96 c7 3f 5a 6f f7 20 28 de b3 bf
       0.18428980961894514 -0.0776085930332874
000060 ae 9d 2f a2 9d d4 a3 bf ef 3b 88 33 be ee c3 3f
       -0.038731504486175225 0.1557233573552987
000070 cd 60 7f d4 c5 82 79 3f 99 60 85 e4 98 53 a4 3f
       0.006228230260568246 0.039700296302443046
000080 2a 17 6f 86 90 6b b1 3f 18 c1 2a 01 8d 5c b1 3f
       0.06804755479887761 0.06781846312037876
000090 b4 b9 98 5f 69 2d a5 3f a3 d7 00 54 4f 14 c4 bf
       0.041362088126664004 -0.15686980821345484
0000a0 cf d6 a5 ac 15 2d ae bf 4c d9 99 69 cd ee c2 3f
       -0.058937718701526635 0.14791267067239244
0000b0 3c 1d 52 bb 8e 44 c5 bf e5 cc 8c 80 e7 99 b2 3f
       -0.1661547102596418 0.07266089332988519
0000c0 21 9c 24 06 21 33 91 3f 65 5f fe 26 95 17 c6 bf
       0.01679660415643636 -0.1725946846388481
0000d0 5f 8c e6 26 a4 a8 b2 bf 59 ac 2e 90 f6 f1 95 3f
       -0.0728857607814901 0.021430828619184748
0000e0 45 d7 9a 22 84 1f c3 3f 29 b8 ea 34 2e fa 6d 3f
       0.14939929666223342 0.0036593344187485677
0000f0 b7 69 3c b2 50 93 c2 bf 61 2c 27 ee 16 f5 b5 bf
       -0.14512070372513872 -0.08577102007181871
000100 51 33 1e 54 9d 9d bb bf 1e ce 62 3f 0f 7a c9 3f
       -0.10787375739728346 0.19903746218697987
000110 68 ed 08 8a e2 c9 bd bf ab fb d9 c4 71 43 a8 bf
       -0.11636176939002996 -0.047389560012553865
000120 06 f9 a7 69 a5 b3 b6 3f 69 57 43 ce b1 c9 c4 bf
       0.08867868260856335 -0.16240522929609405
000130 b4 71 25 8d a6 5e c2 bf a0 4c a8 46 18 9f bf 3f
       -0.14351350681216746 0.1235213444236245
000140 62 b4 e0 13 b7 3e cd 3f 2d 91 ec 54 10 49 c7 3f
       0.22847641440003758 0.18191723009761898
000150 f3 66 12 fb 7d 77 a8 bf a9 c2 a9 d0 03 b8 b2 3f
       -0.04778665246813132 0.07312034458460438
000160 ec a8 13 1a d8 93 c1 bf 8a 50 87 61 03 d3 c7 bf
       -0.1373243453338725 -0.18612711202752436
000170 15 5d 52 9e 93 54 c5 3f 1c a3 d6 be c6 fc c0 bf
       0.16664357405236588 -0.13271412199289834
000180 a9 22 b1 55 74 07 ca bf 5f 4b f9 19 63 ea b3 3f
       -0.2033524912278797 0.07779521354795581
000190 95 0f c3 4b f8 67 b7 bf 01 e9 2f ec 8b 3e c2 bf
       -0.0914302048650469 -0.14253376991820946
0001a0 39 c4 14 87 22 3a 78 3f 79 1c 72 36 8c 06 ba 3f
       0.005914816735910705 0.10166241006128186
0001b0 4a 84 13 01 d8 f9 c0 3f a4 7a 71 c7 f2 c2 c0 3f
       0.13262462666083003 0.13094935167733468
0001c0 93 21 01 d2 fc 37 d7 bf 79 59 28 de 53 6b 89 3f
       -0.36279221065753936 0.012411742417538051
0001d0 20 e8 08 18 64 d6 c6 3f 6b 80 29 a4 31 8d d5 3f
       0.17841769383977724 0.3367427924295103
0001e0 11 1a b6 0d af 72 a0 3f 24 24 b9 ed ba 73 b4 bf
       0.03212496797918985 -0.07989090255536319
0001f0 38 76 a7 cf 84 97 b2 3f 60 2b 10 3e 00 00 be 3f
       0.0726244933097967 0.11718751445020592
000200 3d 40 6b b8 6c fd bf bf d0 8e 86 48 fa 7e 6a bf
       -0.12496070387283083 -0.003234375795914214
000210 2b ba 8f a0 a2 61 cc 3f 4d a3 93 be de f0 b7 3f
       0.22172959175027648 0.09351913597823831
000220 67 c3 61 d4 aa b2 af 3f b6 f9 0d bf ac ce c0 3f
       0.06190999834587423 0.13130721405827978
000230 73 1c 25 e2 91 aa bd bf 4f 1b a7 46 dd ff 91 bf
       -0.11588393946759527 -0.017577607571890138
000240 8f 4c 81 25 7c 89 ce bf ee 43 25 97 a1 10 af bf
       -0.23857070761969054 -0.060673761082064334
000250 aa 6e 4a 6a 8f 60 b8 bf c3 b8 93 d4 eb 68 7c bf
       -0.09522339196194687 -0.006935998165529425
000260 7e cc a8 e6 d6 52 b2 bf 41 e6 6e 42 79 68 b8 3f
       -0.07157652980167659 0.09534414169220275
000270 76 a7 b3 78 80 93 b4 3f 75 bb f4 34 ad 88 b2 bf
       0.08037569948979048 -0.0723980192458223
000280 e2 28 61 72 53 33 b1 bf aa 84 85 cc d0 78 bf bf
       -0.06718942205876346 -0.1229372500724987
000290 19 99 86 14 7a 46 98 bf 05 b6 86 b1 16 b4 c7 bf
       -0.023706347945016668 -0.18518336933395588
0002a0 8b ea ee 1a 52 92 b3 3f ae c8 6e b8 d9 55 a4 3f
       0.07645142705488632 0.03971748710991228
0002b0 f1 be b7 15 14 ad c0 bf 07 7c 27 39 d4 91 bc bf
       -0.13028193531453483 -0.1116001739060125
0002c0 99 4f 6f 43 cd 56 a7 3f 64 82 f8 6f 2b 3a 8a 3f
       0.04558412025622189 0.012806262354446214
0002d0 3e e5 f3 11 0e ee c3 bf 50 2a 78 28 75 a6 98 bf
       -0.15570236088368888 -0.02407248553758229
0002e0 82 50 f3 59 20 3c c3 bf f7 7a 80 ed 63 fe 97 bf
       -0.15027241127120666 -0.023431359644855623
0002f0 21 b4 9c 97 d9 6e c0 bf ad e5 d6 10 37 e9 bc 3f
       -0.12838287260947914 0.11293358002776328
000300 c7 94 6c f2 47 de b1 3f 37 d0 fa 98 4f b7 ad bf
       0.06979798954542381 -0.058039176391873
000310 de 8b 04 7b c3 a1 c4 bf 69 08 fb e8 99 29 d4 3f
       -0.16118663317419551 0.31503913642894205
000320 e8 55 63 75 2f a5 9b bf c6 bb 53 fe 5f 87 c5 bf
       -0.026997319736286857 -0.16819381635965963
000330 d1 6c 69 01 01 94 c2 bf 66 e1 b5 2d 22 f1 a4 bf
       -0.1451417214292179 -0.04090220268239157
000340 04 37 9d 67 12 6e ab bf 6e 6d 3b a4 e9 27 c4 bf
       -0.05357415690251169 -0.15746803778788937
000350 77 37 c6 c1 13 28 c4 bf f6 51 ee d4 c3 b5 c2 bf
       -0.15747305833468392 -0.14617202660578216
000360 41 74 3d fa 5b a6 b3 3f 08 32 e1 f4 93 20 c2 3f
       0.07675719127060267 0.14161920029654618
000370 22 72 69 77 90 3e c2 bf ed f9 5d b1 2a 1f b0 3f
       -0.14253431158694335 0.06297556715251292
000380 99 ac a6 d5 22 8a c1 3f b3 a2 55 89 d4 41 b0 bf
       0.13702807838612754 -0.06350448944943814
000390 f9 db c9 23 4e 31 c2 bf a2 13 3c 21 f7 bb c9 bf
       -0.1421296763180349 -0.2010487472799954
0003a0 86 02 ee 5a ea 8b c3 bf b2 16 0e 42 7b b5 b7 3f
       -0.15270738067558315 0.09261293757125591
0003b0 15 20 9d 01 d8 30 bb bf 51 44 b7 4c 58 4d b5 bf
       -0.10621404685400677 -0.08321143982836189
0003c0 a9 67 2d 02 de d0 88 bf 43 8f 8a ef 19 8c ab 3f
       -0.01211713260788712 0.05380326317870623
0003d0 90 06 b9 a9 e4 1b bc 3f 83 34 96 5a 4a 1d c2 3f
       0.1098006166803549 0.14151887343578914
0003e0 9c 4e 8b e5 f0 fe a4 bf 30 cf a6 02 fc 97 b6 3f
       -0.041007545490768765 0.08825659813629438
0003f0 44 49 7a 5e 07 f7 c4 bf 24 51 5f a6 28 2d b9 3f
       -0.16378872025650015 0.09834531843018063
000400 20 53 f2 86 56 7e c5 3f d4 f6 dc ff fd 81 d3 bf
       0.16791802968204994 -0.3048090933478822
000410 26 4c f1 2f 18 06 dc 3f 14 52 4b 43 e4 51 d2 3f
       0.43787197763339447 0.28624826976491247
000420 d9 cf f7 3b d5 50 c5 3f 62 bd 0e 57 d8 64 db 3f
       0.1665293257534575 0.4280300951167729
000430 89 82 97 95 2a d6 99 3f f4 82 ce fb e3 60 b4 3f
       0.02523104227100473 0.07960343263267672
000440 b5 a3 8d 2d 41 bc d8 bf 36 ec 8a e3 11 a4 d1 bf
       -0.3864901490074389 -0.275639030656467
000450 6d 3a 89 13 94 80 a8 3f 90 3e 39 1f 23 8f c6 bf
       0.047855975518008666 -0.1762432005366361
000460 7e 1f c6 c6 46 cf a5 bf 6d d4 43 31 79 5d b0 3f
       -0.04259701897086553 0.0639262910152227
000470 c5 5f 62 02 69 de c3 bf ee c0 5e 2a 98 da d6 bf
       -0.15522492042941685 -0.3570919431467833
000480 ae 04 fd 10 67 73 ad 3f be 96 1c b9 6c 0f b9 3f
       0.057521076988004224 0.09789161223724371
000490 cc 7c a8 32 48 ee 8f 3f 83 a1 d2 79 3b 39 d1 bf
       0.015591205640758686 -0.2691181840587193
0004a0 dd f8 21 1a b3 b4 9e 3f c7 99 5b 0b d3 d9 af 3f
       0.02998618933678975 0.062208743225528766
0004b0 68 d9 23 3b 9c 03 a5 3f 61 1c b9 6a 7c d6 c6 bf
       0.04104316923069257 -0.17842059336746544
0004c0 b9 bc d5 81 27 f9 d8 3f 0e 29 4b 31 95 86 b1 3f
       0.3902071731490185 0.06845982030350603
0004d0 e2 57 bf 87 40 d0 aa bf 3c 18 91 7b 1d e8 c6 bf
       -0.052370087214214114 -0.17895859273466097
0004e0 78 f2 22 1d 2e 98 ac 3f 11 df 65 3e eb 0d ca 3f
       0.05584854226751629 0.20354977175497216
0004f0 d0 66 a4 21 15 a9 c5 3f 87 04 2d e7 7f c0 c2 bf
       0.16922248976407284 -0.146499622229417
000500 75 5e a2 d0 5c 4e c4 3f 34 7c 78 77 27 8b b5 bf
       0.15864143550128387 -0.08415457407726096
000510 a0 6a 90 78 f2 59 c2 3f 87 f9 16 2c 72 b5 cb bf
       0.14336996924324286 -0.2164747920305212
000520 ae f9 28 80 7e a9 c4 3f d2 f9 a1 bf d1 d5 cc 3f
       0.16142255075278683 0.22527524811807936
000530 81 33 e7 f9 5f 00 c4 3f c3 62 77 a5 d3 9a b1 3f
       0.15626144125272037 0.06876871862130955
000540 d4 1c 46 8e ba aa d0 bf 39 63 4a a6 ad 54 90 3f
       -0.2604204549210867 0.015948022150584527
000550 ba 39 ed 39 8e ca b5 3f dd f9 6d 57 9d 77 c9 3f
       0.08512200273728512 0.1989628483679117
000560 8f aa 5c e5 da 13 b6 bf ef be ea 58 ac 6f bc bf
       -0.08624046420724539 -0.1110789982874356
000570 d2 59 e5 3c 1c 36 c6 3f 21 26 ed b6 bb 8d 75 3f
       0.17352631543572145 0.005262120494828022
000580 f7 c8 ca 65 d6 32 c9 bf b0 24 93 83 f4 db ae bf
       -0.19686393709486769 -0.06027187448632654
000590 d2 5d 7a 9f cc 35 9a 3f 7c 2e 27 53 03 f1 ca 3f
       0.025595853074802673 0.21048013267715138
0005a0 cd 5f a1 6b b1 65 cb 3f 73 f9 fd 2c 0e 2a c2 3f
       0.21404092555417123 0.14190842816237711
0005b0 02 f5 8c 9f 69 71 c0 bf 32 55 9c d1 38 06 b7 bf
       -0.12846107760007192 -0.0899386893982708
0005c0 33 24 29 66 ef d9 c6 3f 5b 2f ae 9b 6b e1 c5 bf
       0.17852585304561472 -0.1709417829664471
0005d0 ce d9 39 ee c2 02 bb bf a8 f3 75 6e 22 12 dd bf
       -0.10551088634551961 -0.45423184191877874
0005e0 62 7b 17 91 aa 0a b3 3f a4 bd ac 24 8b d6 89 bf
       0.07438150446203687 -0.012616240555501097
0005f0 87 f3 29 20 f6 08 c0 3f 64 5c e3 5b fb f9 b4 bf
       0.12527348108769962 -0.08193942063677323
000600 e8 8a ac 74 20 90 c1 bf 3f d9 c3 de 4d b5 ba bf
       -0.13721090027782812 -0.10432898224448638
000610 b0 3d 42 82 7d 05 72 bf a6 a7 76 49 2f 5e c7 bf
       -0.004399767178383682 -0.18256178938946482
000620 e7 15 9c b4 71 52 c0 3f 27 a8 8f 9b 9d 97 ba 3f
       0.12751599615891893 0.10387597129707214
000630 8b d8 d4 fe d0 69 b6 bf be 46 15 82 be a6 c0 3f
       -0.08755212995024146 0.13008862830843343
000640 3f eb d9 1f 32 51 8b bf 94 e2 1d 4b 0f 41 be bf
       -0.013338462445280917 -0.11818023284821272
000650 e9 59 9d 9a 91 8f 8e 3f ca 69 a7 70 3e 66 c1 3f
       0.014922273188557393 0.13593273640328923
000660 c8 c9 74 d1 6f 94 bb 3f af c5 65 1f 93 88 ba 3f
       0.10773371566464285 0.10364646450559321
000670 2c ad 1b f0 3f a1 b1 bf 45 97 5e 86 c9 72 92 3f
       -0.06886672603620941 0.018016003443015256
000680 4b b0 c1 d8 40 aa ad 3f 5c 94 71 b0 c2 0e b3 3f
       0.057939554652734225 0.07444397742945469
000690 d3 75 0a 60 21 dd c6 bf 81 2c 11 4c 77 6c b4 3f
       -0.17862336339469084 0.07978005988222671
0006a0 21 3d 61 96 48 83 a8 bf 88 7a 60 c1 0b a9 b6 3f
       -0.04787661395732302 0.08851693602671606
0006b0 65 1a 62 96 a4 69 a6 3f 9a 65 31 27 04 b2 a9 bf
       0.04377474151356323 -0.0501862809985127
0006c0 d8 d8 56 16 80 df ba 3f 95 ca af 42 fe 6e ae bf
       0.10497284455672984 -0.05944056095167586
0006d0 42 08 16 62 b9 9e c0 bf ce aa e0 3e 6a c7 b7 bf
       -0.1298438767371995 -0.09288658175561723
0006e0 19 13 72 71 8f ed a8 3f c1 62 f5 fd 43 71 b5 bf
       0.04868744144281418 -0.08375954580459234
0006f0 d1 5c 90 e2 44 e4 c1 bf 53 eb 70 32 e1 f2 a8 bf
       -0.13977871954623436 -0.048728024871215546
000700 2e f8 29 61 e7 73 c1 bf 8d 5d a2 07 ba 9f c7 bf
       -0.1363496040757481 -0.18456197140470146
000710 d1 0b d8 e0 ce b2 9a bf 07 af ee 97 57 22 80 bf
       -0.026072723840126436 -0.007878002475841151
000720 6d 7f f1 71 77 f6 c2 3f 01 6c 64 37 35 f5 82 bf
       0.14814656318321387 -0.009256759407938022
000730 2b d1 98 d0 a3 65 a4 bf 44 ba f1 e2 56 a2 bc bf
       -0.03983795091008554 -0.11185210266715112
000740 e8 cd 81 1a bc fe c3 bf 84 de 85 5e b4 5d bb 3f
       -0.1562113885334917 0.1068985682267059
000750 4c a0 eb 94 5b c2 c1 bf 15 b2 78 86 62 3a a5 3f
       -0.13874382754807113 0.04146106616494564
000760 f1 dd 34 6c 91 0f 81 3f 88 a1 8e 71 47 1d a5 3f
       0.008330474962902708 0.041239006626088204
000770 33 11 68 7a 45 7e 97 3f 34 cc e0 6a fc 08 c6 bf
       0.022942624660587895 -0.17214923113496783
000780 c2 d1 31 50 09 37 89 bf 5a af 48 a8 6a bf c1 bf
       -0.012312004814000303 -0.13865407196987684
000790 c3 23 cf 51 3c f4 a1 bf e3 42 25 8d 3d 81 bb bf
       -0.03506649492880556 -0.10744080253540349
0007a0 81 d1 ee 04 60 10 a7 bf ba 37 cd b8 4f 46 a7 3f
       -0.04504680690971253 0.04545830851439754
0007b0 c3 b6 8c 7c dd 6a a1 3f a4 2b 20 7f 5c 2a c5 bf
       0.034018441633049366 -0.1653552647333899
0007c0 3a de f8 6e 90 dd c8 3f 6a c9 5e 93 ef fc bd bf
       0.1942616025787503 -0.117140744666164
0007d0 3f 69 47 2e c9 e3 cc bf 4f d6 c1 89 85 56 ba 3f
       -0.22570147285189 0.10288271535122216
0007e0 aa 70 c2 25 63 bc c1 bf 71 c4 44 de f5 41 8d bf
       -0.13856162399031763 -0.014285965772247363
0007f0 50 e5 29 07 a8 66 a0 bf 81 4c 3b 5a 2b c7 c0 bf
       -0.03203320586630787 -0.1310781660637055

hidden_ff.bias f8 [32]
000000 a9 c8 0e 9a cb ae c6 bf 42 aa 6d 4f dc ab 96 3f
       -0.17720932981825868 0.022139971111224684
000010 d7 20 05 da d6 06 a1 bf 76 21 59 83 41 66 b2 bf
       -0.0332553044450507 -0.07187280136816362
000020 2d 92 01 2f 94 94 c2 3f c7 45 fa 8c cc 23 b9 3f
       0.14515926642629165 0.09820249978863337
000030 d6 9a 9b c0 7e 0e 99 bf 20 e9 7e a5 ec b5 c3 bf
       -0.024469357019280512 -0.1539893920979205
000040 68 94 73 76 14 9e bd bf 51 36 ff b5 85 df be 3f
       -0.1156933583439056 0.12059817975315325
000050 29 ba 02 32 74 40 c5 bf 9f 9f 43 b5 f0 4b 9e 3f
       -0.16602947656561298 0.029586564124570832
000060 45 18 16 93 15 9c 9f 3f d3 6d 32 38 75 72 b5 3f
       0.0308688517593725 0.08377773878094467
000070 a0 cf 28 1c cb e1 a0 3f 37 a8 a0 84 2b 3e c0 3f
       0.03297266691916367 0.12689727760272415
000080 e6 d6 de 8d 35 59 c7 3f b1 24 6c ef 40 3e c6 3f
       0.1824099486090553 0.17377483072804048
000090 f4 13 d6 97 b3 af ac 3f d0 21 8a be 81 49 c0 bf
       0.05602799633474112 -0.12724324992838243
0000a0 74 0e e8 9b 27 64 c2 bf dc 9c 3b 3c d8 76 b7 bf
       -0.14368147957440025 -0.09165717573670257
0000b0 01 aa a5 c8 53 9d bd bf 26 be 3f aa 85 e4 c6 bf
       -0.11568187378512819 -0.17884894192637651
0000c0 7b 78 6d 8d 0e b5 a2 3f d0 9b af 7b a7 43 b9 3f
       0.03653760410701153 0.09868857164074929
0000d0 8c af ba 16 70 0d c0 3f 1b 68 bf 14 c6 a0 a9 bf
       0.12541009054018237 -0.05005473140018087
0000e0 02 f1 c9 bf 4e d9 b5 bf 33 2f 27 72 95 55 b3 3f
       -0.08534710104317259 0.07552465474071539
0000f0 0a 50 fa b2 81 1e b1 bf 8c 0e b4 01 e2 0e c3 bf
       -0.06687174434256363 -0.14889168818637122

output_ff.weight f8 [1, 32]
000000 69 ad 4f fa 02 02 c6 bf b2 bc 9d 25 ec cc b5 3f
       -0.17193639013508324 0.08515811842311186
000010 fd 5e 36 b0 04 be c0 bf 83 1c c2 8f e4 fd bf bf
       -0.13079889873619513 -0.1249678469631466
000020 a0 c7 1e c5 33 4c b8 bf a6 1f 9d b2 76 fd aa bf
       -0.0949127537012644 -0.052715024283826836
000030 dd f0 e3 95 db cd bb 3f 0a db 48 76 3d 82 af bf
       0.10860989007409523 -0.061540528000867026
000040 47 6b 47 e8 e8 46 c3 3f d4 46 d2 8e 4c 50 ba 3f
       0.15060149518725494 0.10278776633119985
000050 8d cc 4f 94 70 57 aa 3f 1c ec 36 b6 68 25 be 3f
       0.0514483624500822 0.11775831650349783
000060 4a 62 3f 19 2d 48 b9 bf ce a3 a4 75 2d 0f c4 3f
       -0.09875757089992834 0.15671318287175356
000070 41 56 97 fa 01 c0 ba bf 25 3a 40 d0 09 7b 9c 3f
       -0.10449230544994582 0.027813103995919648
000080 d6 84 ba c9 ac 0a 86 3f 0b 79 a3 32 f2 bf c0 3f
       0.01076254835726546 0.130857729650366
000090 b9 38 6b 9c d6 4d 92 3f 12 35 59 8b d9 42 64 3f
       0.017875054642723074 0.002473282710332322
0000a0 17 4b 7a 25 1f e1 c5 bf 68 f8 64 fd f5 4c a9 3f
       -0.17093266801801896 0.0494152900523524
0000b0 fc d3 f3 2f 72 f7 c3 3f c2 96 83 d6 67 c4 c2 3f
       0.15598895398548496 0.14661882376019802
0000c0 3f 80 45 ea d1 af be bf 9e 00 ef 4c 28 75 c1 3f
       -0.11987030000227693 0.13638786083720772
0000d0 82 06 70 e6 d0 5b b9 3f 87 6f 48 88 a0 32 a8 bf
       0.09905725122373535 -0.04726125396356822
0000e0 14 57 1f 06 d8 29 c7 bf 89 79 f8 67 a9 94 83 3f
       -0.1809644727606431 0.009560893521719975
0000f0 2d 5c 75 9f 1b 8e bf bf 72 6d 43 b2 3e 7f b3 bf
       -0.12326214449909463 -0.07616035320409312

output_ff.bias f8 [1]
000000 72 fc c4 8b ab c7 b0 bf
       -0.06554672396031139
