saved_model/Lorentz_rnn/best_train.pt (torch, 11159 bytes, 6 tensors)

input_ff.weight f8 [32, 1]
0	0x3fe1bbef63c03657	0.5541912983187086
1	0x3fb81e799ca6b0bc	0.09421501230707724
2	0xbfe3a77b4446e79f	-0.6141945203337292
3	0x3feca904c0bd9418	0.8956321491683665
4	0x3feb30234d5aa667	0.8496262083837792
5	0xbfd53d6e92a2e98c	-0.33187450714071853
6	0xbfe27ae8f4d1cd5e	-0.5775036603576316
7	0xbfddc8aff411146c	-0.46537398180618683
8	0x3fe3ed1c07e03d0e	0.6226940301729955
9	0xbfe8c8b9f018e9db	-0.774502724590373
10	0xbfd356251d585fdd	-0.30213287225478586
11	0xbf8937e2004c8f3d	-0.012313619264723403
12	0x3fee12400c3f7cc9	0.9397278060167987
13	0xbfba4bbe80d19962	-0.10271826405514653
14	0xbfe6203662df622b	-0.6914321833710962
15	0xbfe444c81edf2d39	-0.633396206184819
16	0x3fd353fdd4b24ebd	0.3020014359583277
17	0xbfab14d1cafd12e0	-0.052893215206983646
18	0xbfd25b0ef642f224	-0.2868077664277584
19	0x3fdc46c56febd6a8	0.44181953363236426
20	0x3fdaf92dc55565ca	0.4214586665235315
21	0x3fbb0541774d315b	0.10554894602427593
22	0xbfd1e1b7cebd28b6	-0.2794017332968325
23	0xbfddbe68cb2eb0ab	-0.46474666444806684
24	0xbfef76675217e2c5	-0.9832035640129894
25	0x3fdbb1d866459d6f	0.43272981631749635
26	0x3f98e867c41516e1	0.024324055998724673
27	0x3fe9ee24b2e33e8f	0.8103202337169523
28	0xbfd7604d41373bfe	-0.36525279396749954
29	0xbfef9d7375f07805	-0.9879700950148168
30	0xbfe1d8d019cbb89b	-0.5577164176773012
31	0xbfe58e00c2a1b570	-0.6735843469047449

input_ff.bias f8 [32]
0	0xbfc81f6055f40ec6	-0.18845752903881968
1	0xbfebfbcce10fba21	-0.8744873424273615
2	0x3fd9b484410d3d52	0.4016428599615739
3	0x3fe2d08c2b842da9	0.587957463257614
4	0x3fa3dc1646678e36	0.03878850564413165
5	0xbff01617ec280dd2	-1.00539390801065
6	0x3fd64dffd241b4d8	0.34851069958570013
7	0xbfca8df6926aee4c	-0.20745737218190852
8	0x3fd026f07c7eed2e	0.2523766723422395
9	0xbfd26ac6294f88e7	-0.2877669719147335
10	0xbfe65b678821e32f	-0.6986577662310988
11	0xbfe9e9adb2bc4d32	-0.8097752085617798
12	0x3fd1a664c8a7263d	0.27578086466801094
13	0xbfd2ca8594783e74	-0.2936109495067065
14	0x3fec97763a87837c	0.8934889929915779
15	0xbfbc3a2bf9423560	-0.11026263080039689
16	0x3fc1878b51701ac3	0.1369489810606038
17	0x3fe23a281f2a609a	0.5695992096616636
18	0x3fed421d250823cb	0.9143205378796834
19	0x3fd478cad85529ff	0.31987258077847963
20	0x3fee618f0a7f2371	0.9494090275776285
21	0x3fe9d946885b4117	0.8077728903972766
22	0x3fefdb8cf1bbe00b	0.9955506059041012
23	0xbfebc80d2bf4c0b9	-0.8681703432576092
24	0x3fdac0dc84602850	0.41802132537180103
25	0xbfddedf054f95817	-0.4676476316284392
26	0xbfe72ac9a9ead926	-0.7239731138895749
27	0x3fc2ba1820c3b86e	0.1463041458113738
28	0x3fe785e557497e55	0.735094709856592
29	0x3fec2069f1768a86	0.8789567676615924
30	0xbf77bfc745ee65d9	-0.005798128519836487
31	0x3fdacbdfd23a2898	0.41869349985120996

hidden_ff.weight f8 [32, 32]
0	0x3fa29b918824db2d	0.03634314333833397
1	0x3f94d7bcf90ae6fb	0.020354225826600274
2	0xbfb28cdd74997af8	-0.07246193024318959
3	0xbfad6e5d1676e4e4	-0.057482632629623415
4	0xbfba656589f07ff7	-0.10310968988096635
5	0xbfc416f942f5b969	-0.15695110101246293
6	0x3f9abfeb6b8880a6	0.02612274020987173
7	0x3fc2d6c995d63e3d	0.14717979255918748
8	0x3fb3496efd349011	0.07533925706644619
9	0x3f4beed5475f7954	0.0008524457359689133
10	0xbfc4ca631fc527ce	-0.16242636729503918
11	0xbf66af3d88f0f21e	-0.002769107995417976
12	0xbfc24cfd3da1d1e7	-0.1429745245874436
13	0x3f96d8d2f32359e4	0.022311493005725228
14	0xbfb4ac74ee08c99e	-0.08075648127922938
15	0x3fb83083073d51b3	0.09449023176904951
16	0x3fbb22895b36ab5c	0.1059957359017693
17	0xbfce4f0407f8b62b	-0.23678636922106597
18	0x3fbf4fd75c916b8a	0.12231203088724221
19	0xbfa57f766962e66f	-0.04198808704809386
20	0xbfc59ac7f5d99633	-0.16878604416267393
21	0xbfb20e70a5467427	-0.07053283724822333
22	0x3f920bf0da2992bc	0.017623675647331125
23	0x3fb77afdd53199e0	0.09172045187879219
24	0x3fa51a77be848386	0.041217557913348066
25	0x3fc3460fd012d552	0.15057561549989856
26	0xbfc1f5687a02a7f2	-0.14030176122224663
27	0xbfb010d0d708de25	-0.06275658845776684
28	0xbfc7f92bf68793c2	-0.1872916177518658
29	0xbf69888204ddbaa2	-0.0031168498452907737
30	0xbfc62911e68e8350	-0.17312835462237297
31	0x3fba5c77d56a3ac5	0.1029734512360206
32	0x3fb7b26aff26dabb	0.09256619195262321
33	0xbfb4c71f7760266c	-0.08116337456172013
34	0x3fc67dbacf17e14e	0.17571196662880556
35	0xbfc0536538f09bc7	-0.12754502563731604
36	0xbfc453f4151c3aa3	-0.15881205588126077
37	0xbfaa26f3e5c0172d	-0.05107843570298907
38	0x3fb33fefb41dff51	0.07519434115783709
39	0x3fc69e987f073b4f	0.17671495630789955
40	0xbfbda73bbf507e6f	-0.11583302899134094
41	0x3fc417dec3dfd0d0	0.15697845997022464
42	0x3fb0d403b740da31	0.06573508476217495
43	0xbfbd7dd80ab5a5d1	-0.11520147572959806
44	0xbfc11d07883703f6	-0.1336984076606595
45	0x3f9185729eb7745d	0.017110625207227382
46	0x3f8009231e462b88	0.007829927789108529
47	0x3fd32fa0f907db32	0.29978203124430813
48	0x3f93248cdf6ddc95	0.01869411576941767
49	0xbfbadece7dd1122a	-0.10496225902267811
50	0xbf9818e24779f7c2	-0.023532424557281002
51	0xbfb36aaa31c84374	-0.07584632602107694
52	0xbfba0add076f6824	-0.10172826224825876
53	0xbf7d2e0d710ff2de	-0.007123997217601567
54	0x3fb76abf7770a96f	0.09147259393708905
55	0xbfbcbe10d6ac0a3a	-0.11227517357841857
56	0xbf7491f5bcf8753e	-0.005022010721885293
57	0xbfbefc7cc0741e61	-0.12104015062879504
58	0x3fb8260100c9513f	0.09432989377211685
59	0x3fbeca40ddc85ccf	0.12027364172569154
60	0x3fc4a37073663439	0.1612377704117607
61	0x3fc8e93aa2950008	0.19461758555007713
62	0xbfb24dfa1cbf36c2	-0.0715023346121724
63	0xbfbb39f2f6d3c656	-0.1063529827695445
64	0x3fb77cc55f50121d	0.09174760415050583
65	0x3fb178043df3523b	0.06823755753004772
66	0x3fbe4d52de70bcb9	0.11836736612962086
67	0xbfb692935a032b0c	-0.08817406604354633
68	0xbfc118c4c57da03b	-0.13356837885953773
69	0xbfb40ab1e8c2573c	-0.07828819210621146
70	0x3fc245c2f8265acb	0.14275395504656382
71	0xbfb3724e2a0de886	-0.07596291090695403
72	0xbfb9366b19f4a04e	-0.09848660834961828
73	0x3fae0888e51c8009	0.05865886494416379
74	0x3fc1ef387d7c779a	0.14011293532615526
75	0xbf955e2f7f934254	-0.02086710182340064
76	0x3fa9a2e842b8d22c	0.05007100882031454
77	0x3fb394b6b200bd32	0.07648794027112585
78	0xbf94e0275a267fa5	-0.020386328580229613
79	0xbfc17e7a2b21a764	-0.13667227846172658
80	0x3f9ac535bbacf954	0.02614292104703371
81	0xbfaff0c7b12bc3c0	-0.06238388097506897
82	0x3fb720d37a20727f	0.09034463626489674
83	0xbfbd73fffeed1943	-0.1150512692812287
84	0x3fc6856dc2e0e38d	0.17594692245054624
85	0x3f524791bd51761f	0.001115696262125161
86	0x3fc47a6094614cd7	0.15998465771790535
87	0xbfc1e6d6f9d050a1	-0.1398571700852971
88	0xbfc5d6da4ecbfeb5	-0.17061928603651713
89	0xbfa56d6b388fd29a	-0.04185042443706273
90	0xbfb04679af4df6e7	-0.06357536821266373
91	0x3fc224ba3e699d0e	0.1417458348034661
92	0xbfbe323f389f970a	-0.11795420772940815
93	0xbfa752deec94e7ae	-0.04555412900886267
94	0x3faf6cd8bd713644	0.06137730896498941
95	0x3fa0735bb66b2d54	0.03213011361875809
96	0xbfb206927036f4c8	-0.07041278113952665
97	0x3fc2fa5cecdb31a3	0.14826547208066385
98	0xbfcfb8658a41f32b	-0.2478148388944644
99	0x3fa51efb36a4ed6c	0.0412519935802845
100	0xbfa30af2f519fba4	-0.03719290964089986
101	0xbfb59f52f4ba0c86	-0.08446234202169664
102	0x3fa63cb80e3b9b14	0.04343199895611441
103	0xbf95023fa8328d02	-0.02051639045806742
104	0xbfca238a10665a21	-0.20420957375309093
105	0xbfab6fc91114dbfc	-0.053587230048314866
106	0x3fc30052c2056504	0.1484473655098456
107	0x3f97b657ffdbfb04	0.02315652369633893
108	0xbfbf6b45ebf88b2f	-0.12273060809142743
109	0x3fb380f61426066a	0.0761865424338112
110	0x3fa026ecde836980	0.03154697624423175
111	0x3fa476a11792c8eb	0.039967569472894336
112	0x3fc0586b7446d63d	0.12769835641454277
113	0xbfb294c5f7240e5f	-0.0725826004382326
114	0xbfc9c6e9e13d5a48	-0.20138286111860482
115	0x3fc84d32eb7407b6	0.18985592362156262
116	0x3fb7ad09f217e90c	0.09248411331637757
117	0xbfb9dd42d7317245	-0.10103242639292727
118	0xbfb453851b665cfe	-0.07939941328946884
119	0xbfb20036be333859	-0.07031576293522458
120	0xbfb609f36c1b8098	-0.08608933820096565
121	0xbfd44272a2c87fdf	-0.3165556516341876
122	0x3fb326503511c767	0.07480336471215097
123	0xbfbe8eb2cea0de9b	-0.11936490578306762
124	0xbfb6a70cd95a1d92	-0.08848648363538406
125	0x3fb23b2980c380d0	0.07121524232525478
126	0x3f6be37f2a5560b5	0.0034043773363628634
127	0x3f8e221032ef6f6c	0.014713408045217334
128	0x3fc0201891212d44	0.12597949110418416
129	0xbfc30a87b1abf5c6	-0.14875885177018072
130	0xbfc8f11f7e9fc875	-0.19485849078006692
131	0xbfb9a881c2d1d193	-0.10022746092164984
132	0x3fba40cfe3ec2663	0.10255145372880174
133	0xbfae139ca50eef7c	-0.058743376873706205
134	0xbfc850ea9327fc35	-0.18996936974869674
135	0xbfaa0bb3ab2268f0	-0.050870527878218996
136	0x3fa708f00f928410	0.04499006452648058
137	0x3fbc6bc6ea6e375c	0.11101954673196474
138	0x3f9094f3660bb071	0.01619320211732184
139	0xbfc45c9bc972f27e	-0.15907618843438692
140	0x3fbd89fac30cd0d5	0.11538665067638772
141	0x3fbb8f574205023c	0.10765595781141085
142	0x3fb55c11666e1c1a	0.08343609572158109
143	0xbfb9ef14c06dd921	-0.10130433748222291
144	0x3fbd3e6f5eaba70e	0.11423393307964266
145	0x3f97c25f3b4135fb	0.023202407828923893
146	0x3f953ea0e2517a02	0.020746721089716764
147	0x3fb9c8878654d476	0.1007160857160033
148	0xbfad5a162b641670	-0.05732793121027846
149	0x3fc565f25a5dd312	0.1671736661188779
150	0x3fc5575ecb70ee9b	0.1667288297047563
151	0x3f5ed29736a1504d	0.0018812634175633558
152	0xbfba4de55a04addc	-0.10275109718047964
153	0xbfcc472ddee2fd54	-0.22092221625460218
154	0x3fb8480769359be3	0.09484907454098805
155	0xbfacf748f3191ff9	-0.05657413451677935
156	0x3fc5992875d5e33d	0.16873651269613701
157	0x3fab96ee62e27905	0.053885888644105186
158	0x3fc2049c36995ff8	0.14076569238636671
159	0x3fba785d6f7de7a7	0.10339912387817539
160	0x3f90d7d842d56657	0.016448382453154355
161	0xbfac3e77b8c86bb0	-0.055164090448861614
162	0xbf97f14d26dcb207	-0.023381429192498995
163	0xbfc4ed5d62a88e0f	-0.16349379842095899
164	0x3fbd4dd3856b6b54	0.11446878440203295
165	0xbf979843e770c828	-0.023041783333788285
166	0xbfc093ffb60fbcf0	-0.12951656713219206
167	0xbfaf2db7f44593e4	-0.060895680015882
168	0xbfc40f65e17e3047	-0.15671990881344497
169	0x3fc3290cacedb045	0.14969023174069399
170	0xbf9a39e806e81f36	-0.025611520215561977
171	0xbfa62b9e6f57a655	-0.04330153569374021
172	0x3f96f6147f32a470	0.022423095954455297
173	0x3f9c8d2b3af059b6	0.027882266495078155
174	0x3fc0739fa99aba01	0.12852855473961713
175	0xbfa497e178cf4c10	-0.040221258160862416
176	0x3fbe669d074c9075	0.11875325611305405
177	0xbfb23d68554c9a1f	-0.071249504876143
178	0x3f8a015b3c4645b3	0.012697899605685991
179	0xbf97b5ef0e0e4c1b	-0.023154959900761534
180	0x3f924269a0a7674d	0.017831468992745503
181	0xbf8aba4bb1b26b08	-0.013050643310909674
182	0x3fb1a8851ac72a7d	0.06897766021499226
183	0xbfba19898c17f9f1	-0.10195216818099319
184	0xbfaa11b498f9d416	-0.050916331933798784
185	0x3fa119c162c4379e	0.03339962320943289
186	0xbfc39d3ab2b198b3	-0.1532357571151742
187	0x3fc0e9cb1aace661	0.1321348076106004
188	0xbfc56546b0486fcf	-0.1671532021290418
189	0xbf81259b315e66b8	-0.008372509426226457
190	0x3fbcf62a0bf36867	0.11313116828697077
191	0x3fb6a877312c972e	0.08850808096448468
192	0x3fb07c8f36051402	0.0644006258854262
193	0x3f77090e281a69c3	0.0056238701814898566
194	0x3fc079b4d8a63bd4	0.12871418551045954
195	0xbfc39b9299b674e4	-0.153185200743713
196	0xbfa494d18ddebbd6	-0.04019789559185198
197	0x3fc10eb510a8ce7b	0.13326133073279664
198	0x3fc5fc06c439e616	0.17175373631816687
199	0xbfa4674a173fa2cc	-0.03985053571506611
200	0x3fc2edfe16d448ab	0.1478879558058613
201	0x3fb56862aeb70a65	0.08362404599669444
202	0x3fa36d4914822748	0.03794315696093392
203	0x3fc5bc96e21cd17b	0.1698177913728037
204	0x3fb918346f704d17	0.09802558632536705
205	0xbfc177c0f3557701	-0.13646709329162124
206	0xbfa61ff2ab900dc6	-0.04321249336501469
207	0xbfca7f4f89737f56	-0.20701021396143443
208	0xbfc0d5bda3b831fd	-0.13152285093418917
209	0xbfa920347784e8aa	-0.0490738292596274
210	0x3f9c4aa31d16bb4a	0.02762846818012158
211	0x3fc78ea3c0499030	0.18404051674872468
212	0xbfaf2cad486b3589	-0.06088773259180431
213	0x3fbf5f11d6c0cf23	0.1225443982410153
214	0x3fc302137af2a5f2	0.14850085738480306
215	0xbf83f146b2082ef2	-0.009737541492561761
216	0x3fc5a8fd9f557760	0.16921968727086334
217	0x3fb447a04489dc5e	0.079217926724469
218	0x3fb6bfd63978dd01	0.08886469748619065
219	0x3fa164bd04e22d6b	0.03397169766057114
220	0x3fb4858f4df4a998	0.08016296055999417
221	0x3fa8ca98c2dcb78f	0.04842069033325835
222	0xbfb013b71329b5d3	-0.06280082910389888
223	0xbfc2c8e7b1ee2584	-0.14675613582612013
224	0x3fba955f06b2edbb	0.10384172357128467
225	0x3f90751d550603a9	0.016071756662771417
226	0x3fc705526353c7a7	0.17984990930523034
227	0xbfc08928cca9553b	-0.12918577187762445
228	0xbfc05215d3c5b4c1	-0.12750504341548743
229	0xbfafc0e112496c9f	-0.06201842640140253
230	0x3fbe6a15d31e0430	0.11880623249273081
231	0xbfa555ed5f05c880	-0.041671197747647604
232	0x3f96ddcfa69a7c99	0.022330517333668174
233	0x3f832e6d8e93271d	0.0093658980498677
234	0xbfa9d41d0a0cf6d0	-0.05044642207802286
235	0x3f7b12cb09dacf26	0.006609719390030999
236	0xbfc1b79a9c42a8ae	-0.13841564779187848
237	0xbfbaa16d6bc86b4e	-0.10402568704050205
238	0x3fb64dd49cd8a640	0.08712509946112679
239	0x3fa08e0764c7f3bc	0.03233359437215408
240	0x3fc01321e1d69449	0.12558387305503718
241	0x3fc8a8f28cb5852e	0.1926558672958349
242	0x3fadbb84ae45488c	0.05807127597167136
243	0xbfc67aa97bc4b45b	-0.17561834853532585
244	0x3fa78437f84979cb	0.04593062311026904
245	0x3f9c20e801271178	0.027469277448987722
246	0xbfc05e6ddfc19370	-0.12788175035089067
247	0xbfb0e5ab8528b075	-0.06600448609305139
248	0x3fc03b22cf31f3f4	0.12680468670797007
249	0x3fbaf4c2828ae16d	0.10529723822663124
250	0x3fc198d48beb9665	0.13747650939983483
251	0xbfada8a714962e4f	-0.057927342665689545
252	0x3f9e4e7702ae92e3	0.02959619478100962
253	0xbfb511aac22309ed	-0.08230082740468676
254	0x3fac9a610eea5fb1	0.055865319319479474
255	0x3fc4fa198afa7630	0.16388243948033354

hidden_ff.bias f8 [32]
0	0x3fc1d220ea0bf13a	0.13922511508997976
1	0xbf83c9c303ee8b7d	-0.009662173802842617
2	0xbfbaa0d29bcb0a8a	-0.10401645949881747
3	0x3f918d737085c06d	0.017141154997660047
4	0xbfaaeafaf99871a9	-0.05257400795764806
5	0xbfc4c8de81406f6f	-0.16238004027479344
6	0x3fc49aaac483698d	0.16097006411912354
7	0xbfc1eceb926aee4a	-0.1400427308015984
8	0xbfacae3ebc08965d	-0.05601688428241112
9	0x3fc377eb6d60ee1c	0.1520971569133146
10	0xbfabd26c821e336b	-0.054339781650105966
11	0x3fc0de26d50ecab6	0.13177953150951333
12	0x3fc2798e714e4c67	0.14433460743439072
13	0x3fbd37e6ae1f060c	0.11413423300748365
14	0xbf922a67ff0f92ca	-0.01773989195125373
15	0xbf9a82782508d521	-0.02588832593956625
16	0x3fc0a6ad01701ac5	0.1300865418454206
17	0xbfcbabefa3567d05	-0.21618457293968887
18	0xbf9c5d534efb884c	-0.027699758239471614
19	0xbfc95159cf55abb9	-0.19779513000261575
20	0x3fa3d73167f23818	0.0387511672389424
21	0x3f922e203b68219f	0.01775408136930567
22	0xbfa71d4244420026	-0.04514510234093931
23	0x3fa16e76c0b3f856	0.03404589750606195
24	0xbfac84c05cfebda3	-0.055700312950075735
25	0xbfc29e1729f2b06f	-0.14544953869097152
26	0x3fc1f2abf8549bf2	0.1402182543326656
27	0x3fb4e81ec1877012	0.08166687226133743
28	0xbfa101ad4b681988	-0.033215918974792535
29	0x3f92762deed14efc	0.01802894373061202
30	0xbfbdb1b2b45ee61a	-0.11599270728665836
31	0xbf9236d63c5d741e	-0.017787311014547773

output_ff.weight f8 [1, 32]
0	0x3fc512b0c12b8fbc	0.16463288719307723
1	0xbfb7d85b5f08d17f	-0.09314509458710594
2	0xbfc5a0c4a8da14a4	-0.16896875614853457
3	0x3fb5ea702629c057	0.08560849124637691
4	0xbfb667c924c0da48	-0.087521144364339
5	0xbfb49759fe396de9	-0.08043444115303768
6	0x3fc8600d94a54f2c	0.19043130643933048
7	0xbfc616c82dfebf1a	-0.17257024999479925
8	0xbfb50a96b18a7649	-0.08219281992429574
9	0x3fb45677f2b8edc5	0.07944440532531079
10	0x3f6b3c4bce98b2c4	0.003324649868565595
11	0x3fb0c4ea6d1eaa9f	0.06550469554955861
12	0x3fc616f7d82aae40	0.17257593207374278
13	0x3f98de9b46d11baa	0.02428667659503573
14	0xbfc083727b9d6b5e	-0.12901145015606635
15	0xbfb60039a69a97c4	-0.08594093625524041
16	0xbfc4e41f196b6895	-0.16321171513738322
17	0xbf4f8b2467727b6f	-0.0009626319650982549
18	0x3f560c4e30e72e8f	0.0013457072815183135
19	0xbfb678f108a6f78d	-0.08778292142139162
20	0x3fbcf4ffc6f023cc	0.11311339003454107
21	0x3fa873442b85a803	0.0477544119956548
22	0x3f83bf33ef8c6a16	0.009642034290256379
23	0x3fba1ac05251c739	0.1019706917739115
24	0x3fb4bdda3ea0c8fb	0.08102191952710662
25	0x3fb4140a284d1a2e	0.0784307812110476
26	0x3fa5d880835e67eb	0.04266740420935363
27	0x3fa6ab917d9bc09a	0.04427771242433316
28	0x3f9580dc0dccdd01	0.02099937280874276
29	0x3fb8f6ef81859ba2	0.09751793777614506
30	0xbfc2a2298c3be659	-0.1455738005386589
31	0x3fa4df184f0f3ba0	0.040764579439943605

output_ff.bias f8 [1]
0	0x3fc33d314d67c1c2	0.15030494956546475
