saved_model/Lorentz_rnn/saved_model.pt (torch, 11159 bytes, 6 tensors)

input_ff.weight f8 [32, 1]
0	0xbfd22e3a7ed56de6	-0.28407156358818353
1	0xbfe9819400c40fff	-0.7970676436384564
2	0xbfea01728aa6d324	-0.8126766880073757
3	0x3fd9704e023fd77b	0.3974795362440699
4	0xbfa342cd0c5bf108	-0.037619025953946006
5	0x3fd0b0c8c8567977	0.26079005779492753
6	0xbfd605838e43a5b2	-0.34408654110901715
7	0x3fe1579f3a61d142	0.5419460430407883
8	0x3fe80761e9c43c5f	0.750901180815969
9	0x3fe24a57b4e99210	0.57157502493334
10	0xbfe723af7c5cf1d3	-0.7231061390844452
11	0x3fe3f6ffb1108cf7	0.623901220158955
12	0xbf76a5c11a0052da	-0.005529169371602827
13	0x3f5220b0817e1635	0.0011064265908954489
14	0xbfc88f59307cbc34	-0.19187464587727876
15	0x3fc2867148d99c16	0.14472786004191168
16	0xbfe18a90eb222308	-0.5481648056457695
17	0x3fc824f8924bd4d5	0.188628264840793
18	0xbfc0bc0b8c8f0f40	-0.13073868144248912
19	0x3fe433dbe18bc16a	0.6313304333871603
20	0x3fe1186493d1e79d	0.5342276465519152
21	0xbfc666ccdf4460a4	-0.17501221563066338
22	0x3fdb1249e070bb86	0.4229912463951496
23	0x3ff7079b32962b88	1.4393569923438196
24	0x3fe992aff947de18	0.799156176449233
25	0x3fdf90d5eaa1fe6f	0.4932150641761614
26	0x3fd27e382b6871df	0.2889538215547684
27	0xbfe6796952d5a44e	-0.7023207300054624
28	0xbfe2f2a2a2c10df8	-0.5921185663977999
29	0x3fca1e756b038c42	0.20405452466283874
30	0x3fe18c3f10c0a3b1	0.5483699156949254
31	0xbfb03b10f7725f45	-0.06340127984219375

input_ff.bias f8 [32]
0	0xbfe5e2d59522bad2	-0.6839397347265168
1	0x3fe9a636823ee38d	0.8015396636829891
2	0x3fde73d5638f9071	0.4758199188493171
3	0xbfcdee00aa03806a	-0.23382576276253825
4	0xbfe68eb6eda2a4df	-0.7049212113680844
5	0x3fecb8bac6a2b151	0.8975499991989101
6	0x3fe1f463cd0b9eb6	0.5610827450554641
7	0x3fd5c1106ae9b332	0.3399086994239041
8	0xbfc8df529e10493e	-0.1943152686877258
9	0xbfdcb897f7f022bd	-0.44876670086572884
10	0xbfe8e951f5461210	-0.7784814634802064
11	0xbfeb4f630c20cdce	-0.8534407841565839
12	0x3fcecbe679529f88	0.2405975429912781
13	0x3fd815878d1da926	0.37631405621381686
14	0xbfe4a3a24aec55de	-0.6449748481124364
15	0x3fcee9a68f13efcd	0.2415054510710192
16	0x3ff01aee1104906e	1.0065746941336573
17	0xbfecc4b8542d166d	-0.8990136760773574
18	0x3fd07e75c37d79a7	0.25771850672563307
19	0xbfe2bc39192a0eca	-0.5854764453401569
20	0xbfc6c2f40f2a5d68	-0.17782450428488095
21	0xbfc56994d24b7618	-0.16728458660411216
22	0x3fe952499d30f290	0.7912948675289773
23	0x3fed692c01c1a0f8	0.9190883669189409
24	0xbfe387cbf5a93926	-0.6103267477099379
25	0x3fe2eba903d1ed2b	0.5912671160325876
26	0xbfbc6def97ed66d6	-0.1110524888912566
27	0x3fd06360d4c63f80	0.25606556681395176
28	0xbfecd467b80157d2	-0.9009283632137743
29	0x3fe6648ef42f6f26	0.6997751969570103
30	0x3fe81bfb6eb7e8fe	0.7534157907932977
31	0xbfdc27b53f2f4d2f	-0.43992358370197143

hidden_ff.weight f8 [32, 32]
0	0xbfc34b2169291872	-0.1507303012351176
1	0x3facc2190a39df89	0.05616834878759309
2	0x3fbc1eda1cf649d8	0.1098457642276921
3	0x3fbf160d81cdbd4a	0.12143024844202902
4	0xbf804e57d52ddca9	-0.007961927598201095
5	0x3fb2778edeb5a985	0.07213681161161929
6	0x3fb597eefccc9a17	0.0843495719133006
7	0x3fac85b8e4b44dc9	0.05570771972466166
8	0xbfcefc04b5734d6f	-0.24206599101908519
9	0xbfb6d11be42266ef	-0.0891282493561467
10	0x3fc79448c26fefdb	0.1842127751732495
11	0xbfb3d5311684ab78	-0.07747179794084313
12	0xbfa3ddbf78a5077b	-0.03880117747986752
13	0x3fc3ef81b505a314	0.15574666346517374
14	0x3f79bef18da82a89	0.006285613601458303
15	0x3fa4772ec086b772	0.039971791269052384
16	0x3fb1668af997e75b	0.06797093003833991
17	0x3fb1618a358be21e	0.06789459044728871
18	0x3fa511fdd636def6	0.04115288963242662
19	0xbfc40eba199e3e5d	-0.15669943095098207
20	0xbfae135cd6514eee	-0.05874147525960703
21	0x3fc2cbb1f3e88286	0.14684128198225127
22	0xbfc540a99459e502	-0.16603584045132186
23	0x3fb2c9734d1ef696	0.07338638909183212
24	0x3f923e704eeb9b43	0.017816309754290726
25	0xbfc61106f9846107	-0.17239463027431887
26	0xbfb2815313679bf8	-0.07228583549259315
27	0x3f94c077d3f421bb	0.020265457450507656
28	0x3fc3198fe42dd588	0.14921759263567602
29	0x3f6e7c7bea344aaf	0.003721467992030845
30	0xbfc29011e09b3350	-0.14502166239835868
31	0xbfb5f0f3e20e4b06	-0.08570789593640535
32	0xbfbb9e86f9674cec	-0.10788768376305641
33	0x3fc97c813c18a120	0.1991120856703299
34	0xbfbdd38d74ea6919	-0.11650928596865064
35	0xbfa82cc4eeff687a	-0.047216562437555745
36	0x3fb657804f5223f1	0.08727266251129585
37	0xbfc4c50fbb0057b2	-0.1622638381092521
38	0xbfc2713056227e2c	-0.1440792484836363
39	0x3fbfa03aab05de3b	0.12353865313877403
40	0x3fcd52767c0493ec	0.22907906585274362
41	0x3fc74c58f90e11db	0.18201744233023373
42	0xbfa87734ba2b8e54	-0.04778446934303973
43	0x3fb2b63df2e9bca6	0.07309329205030454
44	0xbfc191de7ce001ac	-0.1372640714398704
45	0xbfc7d27faa239197	-0.1861114102131409
46	0x3fc5550759d3a82e	0.16665737043450818
47	0xbfc0faaafb68ba4d	-0.1326497771819554
48	0xbfca06e89db77daa	-0.20333583546651585
49	0x3fb3e900fedc1cde	0.07777410719073738
50	0xbfb790369950cf54	-0.0920442699724025
51	0xbfc23961167962f3	-0.14237607571956054
52	0x3f782ac0ea1835db	0.005900147983550731
53	0x3fba0f4a0bb9cca9	0.10179579530977158
54	0x3fc0f96e9e10963e	0.13261206357963035
55	0x3fc0bc6c85e22f2f	0.13075024163514956
56	0xbfd73eb969625f0a	-0.36320338527137663
57	0x3f8960f4fdd3166e	0.012391962047682639
58	0x3fc6d76d978078a8	0.17844934365797838
59	0x3fd5902464d8617c	0.3369227394882939
60	0x3fa078b3136f6c92	0.03217086422201833
61	0xbfb4725035a95dba	-0.07986928281876873
62	0x3fb2979c6fc20cc6	0.07262590149371126
63	0x3fbdfea0bddefabf	0.11716656337282937
64	0xbfbff7e21581544b	-0.12487614655522454
65	0xbf695a25a85966c4	-0.0030947432995106234
66	0x3fcc74324f6af85b	0.22229603650879678
67	0x3fb7e260aa756438	0.09329799806199979
68	0x3fb09ab2db944a2a	0.06486051426717468
69	0x3fc0c3cc0e349136	0.13097525304432062
70	0xbfbd92d11b9d8f71	-0.11552149700361071
71	0xbf92186ac4c82efe	-0.01767126871167956
72	0xbfce9064ffa839ed	-0.23878157122858515
73	0xbfaf2560bca38292	-0.06083204558104173
74	0xbfb85c6f03da8bf2	-0.09516042560657903
75	0xbf7c0e68fb2566ca	-0.00684968002527748
76	0xbfb2655085dc28e3	-0.07185843723360423
77	0x3fb860f499f1e5f6	0.09522942312641888
78	0x3fb499864ac3d5ba	0.08046759915654081
79	0xbfb2a616661f251d	-0.0728467940636119
80	0xbfb1392b94f76f00	-0.06727859866026265
81	0xbfbf728a774354cf	-0.12284150516218804
82	0xbf978aa43b261551	-0.022989812956003167
83	0xbfc7ba01b576d188	-0.1853639732413621
84	0x3fb38edb77430198	0.07639857923186921
85	0x3fa45c5cb4c49b6c	0.03976716715469916
86	0xbfc0af5cdd74cc87	-0.1303516465501142
87	0xbfbc88ee56387e87	-0.11146440129277312
88	0x3fa7847e5747f8fb	0.04593272033160819
89	0x3f8a2c62e77faed2	0.012779972734242948
90	0xbfc3eed2eeb32527	-0.15572582869780513
91	0xbf98fd6d15583261	-0.024404243877187762
92	0xbfc33b23f70ff657	-0.15024232448188243
93	0xbf981d613269ee3e	-0.02354957456780781
94	0xbfc07133830d7f43	-0.12845462702807184
95	0x3fbcf541c73bb1bd	0.11311732400981263
96	0x3fb1dd013c6b5bfd	0.06977851605493864
97	0xbfadace6c31ea569	-0.057959758108448174
98	0xbfc4a8d14c115988	-0.16140190328833293
99	0x3fd428a472ef1b97	0.3149806139376152
100	0xbf9b9aaac7bc737e	-0.026957195702482555
101	0xbfc58869c72799d1	-0.16822550033903252
102	0xbfc28f6dfa5908d2	-0.1450021240617106
103	0xbfa4f489bb743d29	-0.04092817700631663
104	0xbfaacf16827d97bc	-0.05236120551016607
105	0xbfc428d215d5e84d	-0.15749574724378804
106	0xbfc427e6e167d7b4	-0.1574677086461499
107	0xbfc2b4ec46519d00	-0.1461463301995778
108	0x3fb39e9c327a141c	0.07663894874902194
109	0x3fc22029bd921742	0.1416065383565926
110	0xbfc23d04bf0af7c4	-0.14248713806403945
111	0x3fb0216a47e1819c	0.06300987486748116
112	0x3fc189639e8510d3	0.13700528373931906
113	0xbfb0402da7028f4a	-0.06347928359406044
114	0xbfc22c9564759266	-0.14198558240163378
115	0xbfc9c0265d5a1d73	-0.20117644842342094
116	0xbfc38be943a86d1e	-0.15270725062951213
117	0x3fb7ac9bd86d43d7	0.09247755082948515
118	0xbfbb30bf43ef9a78	-0.10621257217972324
119	0xbfb545187d008122	-0.08308556606107634
120	0xbf8810dddd936ce9	-0.011750920605143782
121	0x3fab931e7f1c3c7e	0.053856804863351634
122	0x3fbc22b085152aca	0.10990432023133248
123	0x3fc2117ee057f0c8	0.1411589236666997
124	0xbfa501f3c337817a	-0.04103051908510032
125	0x3fb698d69a5e2e55	0.08826962727305816
126	0xbfc4f5f057fd5bea	-0.1637554578435066
127	0x3fb92cd7ac17976c	0.09834049178570375
128	0x3fc5809cbc877254	0.16798743443986786
129	0xbfd37c3d9127b76a	-0.30445803809458616
130	0x3fdc0060d7cf187a	0.43752308917135674
131	0x3fd24466ba5b15c2	0.2854248828774325
132	0x3fc4c4944302aae3	0.16224911949151197
133	0x3fdb56ab1f801f84	0.42716482235163533
134	0x3f9ae9f4c48f80cb	0.02628309678755229
135	0x3fb44b3313483af0	0.07927245350604628
136	0xbfd8a7381391e1d4	-0.38520624076002474
137	0xbfd19be4473e85b3	-0.2751398750061426
138	0x3fa8985261c9d48e	0.0480371231432538
139	0xbfc68176923de444	-0.17582590237342022
140	0xbfa61b18a41fa101	-0.043175478014577
141	0x3fb04a3a9df1ac39	0.06363264423423311
142	0xbfc3d01ac16b3448	-0.15478834575916012
143	0xbfd6bb06bdda61c2	-0.3551651815446598
144	0x3fad3ff5cff88efe	0.0571286026354567
145	0x3fb92a63010da579	0.09830302024569972
146	0x3f8d562fa3d56726	0.014324543177895398
147	0xbfd1391d5a0b7d8e	-0.26911100190587767
148	0x3f9ee051bef840be	0.03015258529745845
149	0x3fb078787d0b5b8c	0.06433823635903319
150	0x3fa4e8cb85a7d771	0.040838584962258014
151	0xbfc6c90d01c93fd6	-0.1780105837556209
152	0x3fd90aaee5aa4e14	0.3912770502876992
153	0x3fb19652eef3b0af	0.06870001157557469
154	0xbfaac0ca1983b267	-0.05225211678939417
155	0xbfc705c0bab0e76d	-0.1798630630090047
156	0x3facb202624367c2	0.0560456032705612
157	0x3fca06d664bffaf1	0.20333366317205262
158	0x3fc5a77ff310a73b	0.16917418831263284
159	0xbfc2b6b356c2b109	-0.14620057808259215
160	0x3fc4532ea2e08ceb	0.1587885184572778
161	0xbfb598c968f20921	-0.08436259090561694
162	0x3fc253f61cfe6035	0.14318729797082744
163	0xbfcbc0d65d56dddc	-0.21682242925247308
164	0x3fc4493fcccb13a1	0.15848538875266363
165	0x3fccd505aeb7394f	0.225250921545419
166	0x3fc412cbf317a487	0.15682362909072742
167	0x3fb18a7494517dc0	0.06851891156247003
168	0xbfd0a3e74db7d7c5	-0.2600038775411771
169	0x3f901d069c92ae45	0.01573572474141673
170	0x3fb5d4a94cc811e3	0.08527620434330845
171	0x3fc97ef53f207f09	0.19918695051546134
172	0xbfb623e47cab97a4	-0.08648517650325843
173	0xbfbc7b08b4b1140c	-0.11125234996241334
174	0x3fc63ac6d2e969fe	0.17366872118402904
175	0x3f795307f7a801bb	0.006182700274166948
176	0xbfc9391c45a30655	-0.1970553722404015
177	0xbfaec066e87cb2b1	-0.0600616606519443
178	0x3f9b4c7f8d6bfa1e	0.02665900517149044
179	0x3fcaf1cb4d524f47	0.21050397181954336
180	0x3fcb5b3878a1fe0c	0.21372133150360673
181	0x3fc21e6f1fb2dbf6	0.14155377433573307
182	0xbfc076e607c6c023	-0.1286284959765008
183	0xbfb705ff84430707	-0.0899352739243363
184	0x3fc6e849c5311067	0.17896387222765783
185	0xbfc5e57ebee6bd35	-0.17106613465646495
186	0xbfbb09de08cd31f0	-0.10561931338197161
187	0xbfdd15c38b8c1fdc	-0.45445335986778246
188	0x3fb31326b4dc538b	0.07451097407859046
189	0xbf8a04e711e98eb4	-0.012704663499966663
190	0x3fc0042855026e1a	0.12512687826971175
191	0xbfb4f08a89758cc7	-0.0817953668206882
192	0xbfc18e5e3b0e40ff	-0.1371572292669114
193	0xbfbb159ac6fe701f	-0.10579841001748534
194	0xbf7217b5dcd1e645	-0.00441714325017412
195	0xbfc75538898e170f	-0.18228823391489654
196	0x3fbfbfaa6da99062	0.12401833703330703
197	0x3fbacecfde9116a4	0.10471820052870356
198	0xbfb5fa7d7f98960d	-0.08585342755448995
199	0x3fc0a84cdf08a011	0.13013611688916218
200	0xbf936b758e91dd0f	-0.018964611841934927
201	0xbfbe322d36b88327	-0.11795313440280762
202	0x3f8e6985f08f33c2	0.014849707034864216
203	0x3fc16464ab369085	0.1358762584687875
204	0x3fbbcc2b31dc5938	0.10858411757758268
205	0x3fba938fd7806d53	0.10381411563178249
206	0xbfb1bf080d142cc8	-0.06932115859324306
207	0x3f941d5a004d5f93	0.01964321734280323
208	0x3fadbbbd1ba9ad79	0.058072957636649165
209	0x3fb30739ecd8282a	0.07432901413281515
210	0xbfc6b6a72807f8ea	-0.17744912581105804
211	0x3fb47e11ffee9057	0.08004868028962285
212	0xbfa8a750dc457d5a	-0.048151518715480804
213	0x3fb65f21172483a8	0.08738905730252944
214	0x3fa674ed8961886a	0.04386083890928279
215	0xbfa9d23b65ca1587	-0.050432068038428084
216	0x3fbb075d38ee9705	0.10558111801091392
217	0xbfae97508706f9b3	-0.05974818847925025
218	0xbfc0b411d256a091	-0.13049528856686668
219	0xbfb7841c5ef1b0c0	-0.09185960119220038
220	0x3fa8e73987b15926	0.048639104665811936
221	0xbfb55d434b8f653d	-0.08345432848672814
222	0xbfc1e402315346ea	-0.13977076919996217
223	0xbfa8fa098ecd0a04	-0.04878263347793069
224	0xbfc177fe858ea57b	-0.13647443314884442
225	0xbfc79cc2305e058f	-0.18447139131243914
226	0xbf9aaafc4348a7f6	-0.026042882544210465
227	0xbf8093274f28160f	-0.008093173125426593
228	0x3fc2c6a95fbff17c	0.1466876714256492
229	0xbf82ef952ed879ad	-0.009246030323137722
230	0xbfa45b40aefeb597	-0.039758702623070956
231	0xbfbc9b0765d757d4	-0.11174055324894933
232	0xbfc3a0e5a37a646f	-0.1533476875527273
233	0x3fbb76ce32563b25	0.10728157738615758
234	0xbfc1c675dfe0753f	-0.13886903220638122
235	0x3fa52f63979a8f0a	0.04137717462188391
236	0x3f81484b3d966168	0.00843867093753721
237	0x3fa52bf404fd8573	0.04135096131245577
238	0x3f97486062aa3499	0.02273703195765062
239	0xbfc5faffeec65e7b	-0.17172240408830305
240	0xbf89026e8b4d9be0	-0.012211669565386829
241	0xbfc1c24ad9e57a5c	-0.1387418331095941
242	0xbfa1dbe1e6ebf688	-0.03488069480770856
243	0xbfbb7f786257ef4f	-0.10741379166568986
244	0xbfa6feaabe4f10c6	-0.04491170476060939
245	0x3fa7434ca6f57c2d	0.04543532884667232
246	0x3fa17b54b5299292	0.03414406501250257
247	0xbfc5233696ca0e9c	-0.1651371227527435
248	0x3fc8ddef2ee581bd	0.19427289762371727
249	0xbfbdf2c4ffd729cc	-0.11698561903100496
250	0xbfcce0608c6625ac	-0.2255974469701817
251	0x3fba5336848c713a	0.10283222900438185
252	0xbfc1c0956b349304	-0.13868968710553287
253	0xbf8d0ee4fd11a8bb	-0.014188565228512187
254	0xbfa062c4e43ea97b	-0.03200354849043926
255	0xbfc0cb696ee6e149	-0.13120763697748775

hidden_ff.bias f8 [32]
0	0xbfc6b9fd948aeb15	-0.17755098107394277
1	0x3f9680ee47dc77d0	0.021976206909236684
2	0xbfa0f3af7f837b84	-0.03310917312204878
3	0xbfb262ce84070065	-0.07182017062496156
4	0x3fc288d269756da3	0.1448004736838416
5	0x3fb9147575158b94	0.0979684267854693
6	0xbf98eee55e8c2b18	-0.024348815818522856
7	0xbfc3af4eca2c98c1	-0.1537874686411609
8	0xbfbda8e37c209285	-0.1158582857174882
9	0x3fbed5e7a03f755b	0.1204514280538737
10	0xbfc503d9f518490b	-0.16418003528139766
11	0x3f9e1ef4f3e641ab	0.02941496599811592
12	0x3f9f926c4a94fb2f	0.030831996967431493
13	0x3fb577d38476a3ce	0.0838596533200324
14	0x3fa0dab9113aa0ba	0.03291872344317555
15	0x3fc040d28f13efa8	0.1269782255766334
16	0x3fc75d8de824845c	0.1825425513752944
17	0x3fc63fd64f4ba73e	0.1738231551346931
18	0x3facca16dbebcf48	0.05622931894859434
19	0xbfc04a21a4a83c9a	-0.12726231136227711
20	0xbfc26354ef2a5d6e	-0.14365636518480634
21	0xbfb774ed6496ec60	-0.09162791925239011
22	0xbfbd9e2196786d2a	-0.11569414065927633
23	0xbfc6a2ffd8f97ab8	-0.17684934706172384
24	0x3fa2c7ede56c7269	0.03668158937054928
25	0x3fb946745e8f6825	0.09873130138967719
26	0x3fc00c5104094c5c	0.12537586876951223
27	0xbfa9b4b919ce02f9	-0.050206932449333004
28	0xbfb695a2600abfab	-0.08822073788428379
29	0x3fb35150417b77f9	0.07545949553193045
30	0xbfb1d666ca40b482	-0.06967775762378106
31	0xbfc31388be5e99ac	-0.1490336350954754

output_ff.weight f8 [1, 32]
0	0xbfc603121bcc5483	-0.171968711446116
1	0x3fb5a0fa83f3374b	0.08448758813321182
2	0xbfc0b159b5ea8c47	-0.13041230566622827
3	0xbfbfe560fff78c4b	-0.12459379433816868
4	0xbfb6f44d80b4cede	-0.08966526405566408
5	0xbfaac8c5e304e805	-0.05231302639226957
6	0x3fbbecfad5b99a67	0.10908477514167601
7	0xbfaf6daa529f4351	-0.061383555017192955
8	0x3fc2ee275a0b4686	0.14789287468606832
9	0x3fba491d3971f19c	0.10267813351123894
10	0x3faa5509974220c0	0.051430034364842836
11	0x3fbe1b5c629e0378	0.1176049938931224
12	0xbfb93c9001a35703	-0.09858036079398506
13	0x3fc410dc07395f3c	0.15676451065768926
14	0xbfbac52f4cd3dcec	-0.10457130075143412
15	0x3f9bd4f78848040b	0.02717959183974376
16	0x3f863d37e18ad4a5	0.010858952112679463
17	0x3fc0bb9426121547	0.13072444781225043
18	0x3f91de1693869142	0.017448761705638256
19	0x3f63746f4c0ef50d	0.002374856354861016
20	0xbfc5dcc1e6492b91	-0.17079948181557517
21	0x3fa9aac6e296598e	0.05013104930837918
22	0x3fc3f7a43d9d70e3	0.1559949208120833
23	0x3fc2b68cf8555b3d	0.14619600415854875
24	0xbfbe1da2ed55a243	-0.11763971609401218
25	0x3fc17467775c77a8	0.13636487320121415
26	0x3fb94387ff46e9f6	0.09868669493054213
27	0xbfa81361f68d6fa0	-0.04702287802385219
28	0xbfc728afeb32c493	-0.18092917427342012
29	0x3f83ac1841fe1c04	0.009605588449415954
30	0xbfbf8a1d9ace267c	-0.12320122746873524
31	0xbfb387b9082f50f7	-0.07628971528839999

output_ff.bias f8 [1]
0	0xbfb0c2955927f54b	-0.06546910692846557
