saved_model/Lorentz_rnn/saved_model.pt (torch, 11159 bytes, 6 tensors)

input_ff.weight f8 [32, 1]
0.5468543528737984 0.09171503415850815 -0.6144562817408684 0.9007880866085094 0.8452913403823236 -0.3339785889015604 -0.5755434484057552 -0.46279080961832664
0.6237355718374602 -0.7822193615345462 -0.32289193264846244 -0.012555080268284741 0.875782915479039 -0.10393081071866497 -0.7018658540718252 -0.6316285690510929
0.30499545747846335 -0.055381251502426745 -0.2806535597380327 0.4426899223761885 0.43564775652204374 0.09188846498402874 -0.2843333417030333 -0.46940671359083086
-0.9862257508862093 0.44763612247324425 0.02542577624981305 0.8113860029725732 -0.3638170134275428 -0.9760413121199597 -0.5554668403624204 -0.6672970435297599
00000000: 2895 28b3 d47f e13f 1a27 43f0 a27a b73f
00000010: e7c2 5c38 a0a9 e3bf d284 9389 41d3 ec3f
00000020: 3717 d16c a00c eb3f 1e5f 39bb e75f d5bf
00000030: 938d 0a18 da6a e2bf 08ce 0c58 5d9e ddbf
00000040: 9a99 4c4d a4f5 e33f 13d8 02e6 f007 e9bf
00000050: 2b83 b7ec 42aa d4bf ea1e 3559 7ab6 89bf
00000060: 9d18 8ce4 6906 ec3f d25b 15a9 359b babf
00000070: f65c 2d61 af75 e6bf 2b66 e91d 4d36 e4bf
00000080: 961b d3aa 0b85 d33f 1a69 0770 ee5a acbf
00000090: 5d2c 2559 3af6 d1bf f1f7 b71c 0855 dc3f
000000a0: f3a0 b520 a7e1 db3f 6b6d fc9f 0086 b73f
000000b0: 13b9 f178 8432 d2bf 2c4f d974 c20a debf
000000c0: 20f0 504e 298f efbf 32f9 a1fa 11a6 dc3f
000000d0: ea99 dff5 3609 9a3f 2a61 66c7 dff6 e93f
000000e0: 8294 9927 c748 d7bf 7934 63fd ba3b efbf
000000f0: 3fcf 2b65 62c6 e1bf 99b0 5554 7f5a e5bf

input_ff.bias f8 [32]
-0.19045915996562532 -0.8746660155987592 0.40230592666788156 0.5877043502570265 0.03405598434484668 -1.0034385548719702 0.3485383180876713 -0.2077215627932122
0.2538504855408801 -0.2899282368122142 -0.7110228037269825 -0.8093972602030778 0.2797297311178387 -0.29436688144708173 0.8945296154426721 -0.11029249743725439
0.13625634574572523 0.5681496578666925 0.9149864741131231 0.32076631792181065 0.9341663401137598 0.8016432493163986 0.9937662188561185 -0.8662011960131518
0.41613268820075316 -0.46491420997401917 -0.722395902678257 0.145454722476603 0.7332009594262247 0.8776862843800931 -0.0064517410962975355 0.41905232868029635
00000000: bf53 a33b f760 c8bf e16a 7d95 43fd ebbf
00000010: 36a2 815b 61bf d93f 7844 825a 79ce e23f
00000020: 5f08 fd35 c96f a13f a287 0b96 150e f0bf
00000030: 9fb8 65a9 734e d63f 3c78 6fc3 9e96 cabf
00000040: fc31 5e1b 163f d03f e3e7 d229 2f8e d2bf
00000050: b7f6 16e5 b2c0 e6bf 436a 4115 95e6 e9bf
00000060: eead b787 17e7 d13f 71ce 3530 e8d6 d2bf
00000070: c626 7492 fc9f ec3f 44b7 7c0d 213c bcbf
00000080: 8dd8 6c12 d970 c13f 4eac f830 482e e23f
00000090: 9224 d3b6 9147 ed3f 227b 4873 6f87 d43f
000000a0: e900 face b0e4 ed3f 7df0 5bbe 0fa7 e93f
000000b0: 5469 3bd0 eecc ef3f 093e 1492 ebb7 ebbf
000000c0: 6b9a a7ff eaa1 da3f 852e d287 27c1 ddbf
000000d0: 778f 1803 de1d e7bf 61fa 0aa6 429e c23f
000000e0: e734 c4db 6176 e73f 9ded f18b 0116 ec3f
000000f0: 7f78 2c10 246d 7abf 25a6 bfdb c0d1 da3f

hidden_ff.weight f8 [32, 32]
0.03880755041378189 0.024141162105891692 -0.0718286905401525 -0.06132922846206152 -0.10601522376747602 -0.1568778490633919 0.007350536085967876 0.1517402649069301
0.07692617450605568 0.00289669643835793 -0.15627676573596166 -0.004084179335916469 -0.1493883047666964 0.019292863118539623 -0.08218921988119152 0.09646695382039083
0.10745739033101219 -0.21748474173951404 0.11205889486348787 -0.042776298382809747 -0.17005189176324795 -0.06956698244827864 0.017226380924606207 0.09266386965570729
0.031997657943981725 0.14911731752172902 -0.14194768133354974 -0.06541061209315034 -0.18559602711607312 -0.012529794241682699 -0.16536306649422475 0.09979042687825462
0.09576335651747746 -0.08081559542827783 0.17292220951207082 -0.1261084651795246 -0.15443283094844704 -0.05022772959437745 0.06653758604526865 0.17533868947726244
-0.11455069243811616 0.15334576987186788 0.06477346944677503 -0.11371198074283213 -0.1295453181030515 0.020925090645108533 0.00643905637284665 0.2670135326074107
0.019284083695427476 -0.11684508816250397 -0.02896973103738648 -0.07584803160280558 -0.10142147813984494 -0.007803766466569014 0.09069421689770694 -0.11266498708481312
-0.010987960302128808 -0.11537611711453473 0.09580764489347676 0.12341610284045473 0.159228871840121 0.19454119692779823 -0.07442539522399487 -0.10768807489440752
0.0927934710264887 0.06807623664228361 0.11783551430914753 -0.08813009016902937 -0.1327719017412561 -0.07704814866718505 0.15326897740795048 -0.07635479959151968
-0.10045814996704552 0.05834460927839578 0.13934214656123936 -0.018861417857140805 0.0513833280871774 0.07734223501709397 -0.02124812680379516 -0.13553402219797772
0.02539679134139305 -0.06985182700894026 0.09072486625203743 -0.11370083706618561 0.17532970916910012 -3.686688074007138e-05 0.15917729339531925 -0.13924150332422572
-0.16851050853238453 -0.03843855510651361 -0.06227512025677672 0.14245066688009092 -0.11981360901921498 -0.04307619492973363 0.05809154272070638 0.03279554123415014
-0.06829101444080231 0.15259533956895455 -0.25653983904045796 0.04270163754802321 -0.044222811911800886 -0.08088598595324521 0.012215082828426527 -0.015131539751756655
-0.19160317235674737 -0.05826372250242766 0.15394320491836036 0.02404591541239045 -0.1285086943370593 0.06672037416990177 0.028308286190455105 0.05416828422684638
0.1216304411835954 -0.0429376260014916 -0.21273478262877776 0.20016481626064614 0.08747785775878948 -0.10626384369912863 -0.08543790200809322 -0.06650932749126942
-0.08594280001431565 -0.31878883962199794 0.08060585494456754 -0.12519611541838005 -0.09245428256203109 0.07133360197479457 0.002379315368800607 0.007948908718609498
0.1318805174420675 -0.1457988779401532 -0.19684961311735794 -0.10423619798275816 0.10428147944775525 -0.05527859646358431 -0.2015566551429139 -0.049810148319597486
0.04002960064800273 0.11327533288357354 0.018795369727521907 -0.15544096704007573 0.1152177161136676 0.11499009138862101 0.08021030599378837 -0.10110413034806856
0.11466909885499982 0.0029156135470397564 0.011420949953925143 0.09848560164776858 -0.059152328316199446 0.1652303023024653 0.16472921061100718 0.004171916488726317
-0.10903474854966472 -0.21064882352197986 0.09744341888214487 -0.05646000534064819 0.1657754554786524 0.04938973122485519 0.13770947014022497 0.10102265222746087
0.016582143866261806 -0.05579453619083262 -0.023105332924179517 -0.1630845619503713 0.11610723848239106 -0.023472965088557195 -0.1304350258001463 -0.062180798777225633
-0.15774856204544818 0.14938991925081646 -0.02590284792378469 -0.043519838174174486 0.023331667054455295 0.031021477966131424 0.12910318049439734 -0.05021656556729906
0.12097892873720095 -0.07522781118984252 0.01161459353760587 -0.023349878966002328 0.01859473390389916 -0.012114323463254419 0.06970713733440552 -0.10241946409886553
-0.05414000217022202 0.03257930397272518 -0.15453708159030155 0.13320323823626262 -0.16692168168744587 -0.009454017300131548 0.11094859295658821 0.08815871154481204
0.06214598699677304 0.00486667702067472 0.13030955592739554 -0.15208912299940341 -0.040892391050519235 0.13057022870625282 0.16958276768592975 -0.039735950745931246
0.14972001447783748 0.08326840419200404 0.03869727081114839 0.1666206247144972 0.09683835926797676 -0.13949650933394478 -0.04108731456195552 -0.21716864546805745
-0.12939721297149273 -0.033545839715040264 0.02974164050484065 0.18359577529090707 -0.05939561289579386 0.12493792938173982 0.15040234014160428 -0.011274666306573962
0.16679406792033985 0.07090877143587226 0.0853894983601673 0.033545462474633934 0.08336888724791108 0.04597051716213811 -0.058109374518018654 -0.14704279089357378
0.1075148262663153 0.01518848589056289 0.17841691445582686 -0.126688220596335 -0.12500146265405546 -0.06254397894848197 0.12010067731672912 -0.04345792882737722
0.027050323654112585 0.007259297065961354 -0.052423782548293156 0.006968607817751132 -0.13536239584563217 -0.10431026607217146 0.08662034924556608 -0.011685094270011588
0.12661096036485336 0.18425276081781397 0.05891007278927874 -0.17408142374944793 0.0467670331505813 0.027746847621925655 -0.12764019568924198 -0.06716787948724298
0.1256472563513521 0.10931626666886007 0.137744912075417 -0.05535580831619918 0.02884960595120797 -0.08095398463025098 0.04843273581963527 0.16382335558130467
00000000: bbe9 ba4f 95de a33f 24d0 edf6 75b8 983f
00000010: 58d2 c874 5d63 b2bf 8922 116d 8b66 afbf
00000020: 4c9d f54e d023 bbbf 05d8 98c7 9214 c4bf
00000030: 4f8a 8e81 981b 7e3f 767d a199 396c c33f
00000040: e2bb b50b 6fb1 b33f 6f94 030f d0ba 673f
00000050: 3af5 fa86 e000 c4bf b133 dc8a 92ba 70bf
00000060: 205d b0ed 271f c3bf 42b3 8f20 82c1 933f
00000070: 5e35 794b 5a0a b5bf 70a6 cdeb 0eb2 b83f
00000080: 8769 2fd9 5382 bb3f 603a 933e 8ad6 cbbf
00000090: 1922 aa48 e4af bc3f e43a 3265 c6e6 a5bf
000000a0: 9b7f dfa8 42c4 c5bf d82b 7f4a 24cf b1bf
000000b0: af69 ccda caa3 913f 792b b1c1 d1b8 b73f
000000c0: 9603 d63c ff61 a03f 16f4 02b9 4616 c33f
000000d0: 440a 8974 572b c2bf 3f5d c0f7 bfbe b0bf
000000e0: 7b93 5d51 9cc1 c7bf 98f7 f283 38a9 89bf
000000f0: 498c 47f1 9d2a c5bf 245f e58b dd8b b93f
00000100: 37d3 6584 f283 b83f 4d08 5fb3 54b0 b4bf
00000110: a89e 4da1 5022 c63f a1ef d87a 5224 c0bf
00000120: 6717 2d7b 74c4 c3bf 0a9d ebef 72b7 a9bf
00000130: 43eb 0474 9b08 b13f b2a0 8388 7f71 c63f
00000140: 4480 c1b5 3153 bdbf d030 4a8d d5a0 c33f
00000150: 641f ec7c fe94 b03f 3d2f 7476 3a1c bdbf
00000160: 791f 4de4 f094 c0bf 2941 f20f 636d 953f
00000170: ca99 9d08 d75f 7a3f 3ad9 88ed bf16 d13f
00000180: 2983 38f3 34bf 933f 5a2f 5b48 8fe9 bdbf
00000190: 5099 84bd 3daa 9dbf cd34 33cf c66a b3bf
000001a0: 29fd b80b c2f6 b9bf 950e 279c d7f6 7fbf
000001b0: 3f11 8377 bc37 b73f 22fc eed2 9cd7 bcbf
000001c0: 8dda 2d11 db80 86bf 9513 bf09 4a89 bdbf
000001d0: 2c36 868d d986 b83f ece0 7f9d 3298 bf3f
000001e0: 0bef 9096 9c61 c43f 93c9 43d7 b9e6 c83f
000001f0: 539b 7aee 8a0d b3bf bc36 d717 7291 bbbf
00000200: d751 571b 50c1 b73f e36b 03ba 716d b13f
00000210: 79df 43e0 772a be3f 8ecb 118f b18f b6bf
00000220: c938 e76f abfe c0bf 132f be6e 6db9 b3bf
00000230: 76b0 ba5e 519e c33f cf61 23f7 fc8b b3bf
00000240: baa1 b914 a0b7 b9bf 8d49 7f39 58df ad3f
00000250: d5ac 37a5 f6d5 c13f a312 6953 6850 93bf
00000260: 835c 6363 ea4e aa3f 9c7a ff61 b3cc b33f
00000270: 3ced e4a6 11c2 95bf a8f6 6ac8 2d59 c1bf
00000280: ff3f f0d0 9d01 9a3f 3bba 9130 cfe1 b1bf
00000290: 9e89 7cad be39 b73f b022 ba80 7f1b bdbf
000002a0: 4601 7333 3471 c63f 24a6 6d60 3054 03bf
000002b0: 5f08 b3ea eb5f c43f 95ff 8263 aad2 c1bf
000002c0: dee6 9699 c091 c5bf 5f0a 2de2 37ae a3bf
000002d0: 0ff3 b649 86e2 afbf 818d c5cd d23b c23f
000002e0: 2e6f 5acc 1aac bebf e72c eb40 150e a6bf
000002f0: d0b9 51b8 2cbe ad3f 8a4f 1cc2 93ca a03f
00000300: e747 a219 857b b1bf 103f 7c7c 3e88 c33f
00000310: 1631 b312 266b d0bf 6a41 8231 fddc a53f
00000320: c0f3 cb55 5fa4 a6bf 25b8 5fa8 f1b4 b4bf
00000330: bad0 20aa 3804 893f 8fb0 f9e2 48fd 8ebf
00000340: a381 8ae7 7386 c8bf e6dd 611d bed4 adbf
00000350: 9d6b 4833 69b4 c33f 06c4 3111 7e9f 983f
00000360: 4af4 b60f f972 c0bf 5b5f 0921 9614 b13f
00000370: be43 93ed d8fc 9c3f 8f2f 7802 f2bb ab3f
00000380: 54e3 142f 2c23 bf3f 6979 e3a6 ebfb a5bf
00000390: d85e 0eb3 e43a cbbf 0e1d d32d 009f c93f
000003a0: 59b9 32ea f264 b63f 055d 6f75 1b34 bbbf
000003b0: 59af f622 42df b5bf 7436 745a c106 b1bf
000003c0: 105e 63eb 5800 b6bf bb66 204e 0967 d4bf
000003d0: aa60 dad6 95a2 b43f 9072 a722 6d06 c0bf
000003e0: 1ca4 fa77 15ab b7bf 826e 963f eb42 b23f
000003f0: 9e8e 4436 c97d 633f e9ed e177 8447 803f
00000400: 9b55 b2f6 75e1 c03f 33f2 45a2 89a9 c2bf
00000410: fcde 483d 5e32 c9bf 2e34 6535 39af babf
00000420: a97d cee7 30b2 ba3f 4ab2 f5e7 794d acbf
00000430: b5a2 10c5 9bcc c9bf 0c4a 153c b780 a9bf
00000440: dc6a 4f83 c27e a43f abaf 2dba 9cff bc3f
00000450: 9709 2fe9 173f 933f 95a7 f256 7de5 c3bf
00000460: 90c5 a082 e87e bd3f 4ed0 e099 fd6f bd3f
00000470: 2ca4 0ba1 a988 b43f bae1 55d5 f5e1 b9bf
00000480: fcaa 713d f45a bd3f 3c49 a21a 7ce2 673f
00000490: 2eb5 54f4 dd63 873f 9b3c 3436 5a36 b93f
000004a0: a25e 33c7 3649 aebf 8940 593c 4426 c53f
000004b0: ff94 22c6 d815 c53f ab70 174e 9216 713f
000004c0: 1cfd 2587 b3e9 bbbf 2fe0 fb67 8af6 cabf
000004d0: 6d2a 4f49 0df2 b83f edac f068 53e8 acbf
000004e0: 0a52 e14f 2138 c53f 59eb bc60 9c49 a93f
000004f0: 4d06 4dc3 76a0 c13f 40dd 78db 9edc b93f
00000500: 28a3 69d6 e8fa 903f ee60 78f8 1991 acbf
00000510: 8815 17a5 eca8 97bf 2698 0776 f4df c4bf
00000520: 9b59 1c38 34b9 bd3f b6fe 9405 4c09 98bf
00000530: ff42 084d 18b2 c0bf 25eb 5f62 29d6 afbf
00000540: 00f5 7cd9 1a31 c4bf 2c65 c478 351f c33f
00000550: d7db d2b2 4686 9abf 90de 5e73 3b48 a6bf
00000560: 5616 d7ab 41e4 973f e23b 5a25 18c4 9f3f
00000570: 0e3a 04f9 7386 c03f 4471 a855 fcb5 a9bf
00000580: c06f 6e9e 79f8 be3f 8d5e cf3c 2142 b3bf
00000590: c9ea 335b 64c9 873f 9120 19da 07e9 97bf
000005a0: 72f3 fa77 7f0a 933f 21e7 b3f8 64cf 88bf
000005b0: 4b28 26b3 53d8 b13f 0b4a c778 2938 babf
000005c0: 37f4 7305 3db8 abbf 68b8 2d0a 3cae a03f
000005d0: 708d b9ff dec7 c3bf fe17 f9bf cd0c c13f
000005e0: aea2 eb8d b05d c5bf 5585 f5b8 a05c 83bf
000005f0: b827 4982 2067 bc3f 6945 f1be 9191 b63f
00000600: d822 754b 99d1 af3f 3acb 4daa 14ef 733f
00000610: cb3f 88c8 fbad c03f 960c ae08 a877 c3bf
00000620: e137 6ff4 d8ef a4bf c5f2 0f77 86b6 c03f
00000630: d58e 965c e3b4 c53f 8bc5 db41 4558 a4bf
00000640: 3196 de82 062a c33f d475 cb00 1451 b53f
00000650: e21b 28f1 20d0 a33f 0772 fe1a d353 c53f
00000660: e6e3 0d12 66ca b83f f56a bf88 05db c1bf
00000670: a7eb a580 6509 a5bf 173f 00a3 2ecc cbbf
00000680: 5bfb f37e 1690 c0bf b764 fc98 eb2c a1bf
00000690: e7d2 30b5 9774 9e3f 7373 47fd 1080 c73f
000006a0: 6f9d d30d 1a69 aebf cd7a b9a0 eefb bf3f
000006b0: 1d35 1346 6240 c33f 97fa 7a18 2c17 87bf
000006c0: 9e3c 710d 8259 c53f 600d 51c6 1327 b23f
000006d0: b1f6 e00e 16dc b53f 8bf7 83f0 de2c a13f
000006e0: 14d3 3bd4 a957 b53f 464b 9597 7289 a73f
000006f0: 2db4 4a0e 83c0 adbf 450f 0055 4cd2 c2bf
00000700: 5321 a676 1786 bb3f 89e2 6711 241b 8f3f
00000710: 7c0c 528e 5dd6 c63f ecf5 1fd2 5137 c0bf
00000720: 1992 0645 0c00 c0bf b93b 25d8 e102 b0bf
00000730: 5784 4d01 ebbe be3f b386 211e 1e40 a6bf
00000740: 3034 c37d 14b3 9b3f 4a13 d8b7 ecbb 7d3f
00000750: 9fb2 273f 4ad7 aabf 2073 d06a 1d8b 7c3f
00000760: f5f1 a113 8e53 c1bf cbc2 6add 13b4 babf
00000770: 9a84 2d4f c02c b63f a74a eccd 5aee 87bf
00000780: 7285 0ab7 c934 c03f 2182 f42e 9895 c73f
00000790: 91e2 1108 7629 ae3f d928 ecd2 4c48 c6bf
000007a0: b24c d33b d9f1 a73f 94be 696c ab69 9c3f
000007b0: 7bf6 1191 8356 c0bf de47 bd05 ea31 b1bf
000007c0: 543b 6e94 3515 c03f 4079 439e 26fc bb3f
000007d0: aef3 4612 a0a1 c13f 6733 b9b4 9857 acbf
000007e0: 776f 4048 c08a 9d3f b3c2 777c 66b9 b4bf
000007f0: 6262 cdf0 2ccc a83f a076 45e9 29f8 c43f

hidden_ff.bias f8 [32]
0.13722348416317412 -0.009840846974240558 -0.10335339279251056 0.016888041997072424 -0.05730652925693302 -0.16042468713610847 0.16099768262109437 -0.14030692141290207
-0.054543071083768935 0.14993589201583538 -0.0667048191459886 0.13215747986821505 0.14828347388421909 0.11337830106710782 -0.01669926950015844 -0.02591819257642365
0.129393906530542 -0.2176341247346586 -0.027033822006033503 -0.19690139285928474 0.023508479775071218 0.011624440288428455 -0.04692948938892185 0.03601504475051715
-0.05758895012112371 -0.1427161170365504 0.14179546554398467 0.08081744892656702 -0.03510966940515955 0.01675846044911405 -0.1166463198631197 -0.017428482185460874
00000000: 41ac 5c04 8a90 c13f edbb 5a1f 7027 84bf
00000010: 3177 f931 5e75 babf 2a9a 4850 194b 913f
00000020: 7ff7 020a 4857 adbf 343d 5cd0 cb88 c4bf
00000030: 1071 cb72 929b c43f 3a78 6fc3 93f5 c1bf
00000040: 086f 0ec5 11ed abbf 5930 5a6c 1931 c33f
00000050: a9b5 b728 9113 b1bf 6956 fa4a 89ea c03f
00000060: de5b 6fef f3fa c23f ebc5 283f 5c06 bd3f
00000070: 4328 7b01 9d19 91bf 94dc f275 4c8a 9abf
00000080: 8ed8 6cc2 fa8f c03f 044e 1d5c 6fdb cbbf
00000090: 3371 9b15 c1ae 9bbf 7309 6f99 1034 c9bf
000000a0: 651c 405f 9b12 983f 7c1e fcf6 8dce 873f
000000b0: 836b 495c 2407 a8bf 1922 bc5e 9070 a23f
000000c0: da2c c382 4c7c adbf 245d a48f 8544 c2bf
000000d0: dbc2 9d93 5a26 c23f 15f4 15cc 73b0 b43f
000000e0: 3bb0 bc03 e5f9 a1bf 4fb3 3d3e 2129 913f
000000f0: 59c7 0281 88dc bdbf bb9a 05a4 c5d8 91bf

output_ff.weight f8 [1, 32]
0.1604586283610246 -0.092786110087318 -0.16752703089406404 0.08533084110734682 -0.08902531378956671 -0.08120935253956106 0.17932538511013488 -0.171348466204349
-0.08366951028630334 0.07900375616127348 0.0059137036338820104 0.06368086829482808 0.1697847729096653 0.022471042460105527 -0.12844554730189903 -0.07097714351058408
-0.16211731769786225 0.013526653076376512 -0.003063025271277463 -0.09153457738827309 0.1128051443200639 0.048436564008430716 0.009906890278020723 0.1025197295369444
0.07849496893255149 0.07203837330843074 0.041511462116017035 0.04205635591569474 0.021237240553640242 0.09515562697817041 -0.13895390784275774 0.03893780243253934
00000000: 9af7 9588 e889 c43f 331c 599c d4c0 b7bf
00000010: 0368 7197 8671 c5bf 226f e5f3 3dd8 b53f
00000020: 2209 3eeb 5cca b6bf 6768 49d9 22ca b4bf
00000030: 5100 325c 22f4 c63f e1a1 481d bfee c5bf
00000040: 3a1d 5a72 5d6b b5bf cc4c f914 9739 b43f
00000050: 92ca 4abb f738 783f 1609 b5ae 634d b03f
00000060: 07be 80e7 81bb c53f 7689 e421 a602 973f
00000070: bf3e 7d58 e770 c0bf 8b36 24de 8e2b b2bf
00000080: e653 d0a0 42c0 c4bf 9ef1 b2a4 dcb3 8b3f
00000090: 311f be2b a117 69bf e8f7 5560 cf6e b7bf
000000a0: 2ddc ac45 cce0 bc3f 7892 b164 adcc a83f
000000b0: 4247 fe4d 104a 843f 2d52 8ea5 bb3e ba3f
000000c0: 9941 770c 3f18 b43f 16b0 6a59 1b71 b23f
000000d0: 5916 6588 fd40 a53f 7962 7e22 6988 a53f
000000e0: f269 8a16 37bf 953f 63d0 e681 1e5c b83f
000000f0: 7003 ebdc 3dc9 c1bf 453e 0dd8 a7ef a33f

output_ff.bias f8 [1]
0.15092284280487467
00000000: 0c7c 0891 7051 c33f
