saved_model/Shift_rnn/best_train.pt (torch, 11159 bytes, 6 tensors)

input_ff.weight f8 [32, 1]
00000000: 0eb9 fd91 d2c2 c23f 6c73 5e59 3405 df3f
00000010: 69fb 17c7 f701 d0bf b9ea 6dc7 1b03 e2bf
00000020: 8f6a dc69 8f4d c43f fe4d f7aa cbd6 a83f
00000030: cf9c c65a a95c ef3f c82f fe40 5b0c e7bf
00000040: b338 63b4 d392 d33f adb3 b900 5662 a83f
00000050: 99d9 7fd1 b4e3 e1bf b04c 182b 5a94 c6bf
00000060: 0d5b b088 fba4 e23f 6e75 003d f7cd ccbf
00000070: 84e3 f123 75f9 e83f cbdd 499e 7216 c3bf
00000080: fd77 176c ddc1 e2bf 8e20 67b3 8368 d43f
00000090: f615 e6b6 b50c e33f de39 71b3 489e d3bf
000000a0: be9d 8f32 0e89 c33f e3c0 139e d858 ed3f
000000b0: fd43 d516 64cb a23f c491 2971 c7e4 c73f
000000c0: 4234 b1df fbc9 aa3f aa16 a5f0 5d41 9fbf
000000d0: 33ed abc0 02f2 cb3f 1d00 1146 984e dbbf
000000e0: eba5 47db 76b7 e1bf 76db ad57 82f6 d9bf
000000f0: aec3 506f 9981 e13f 83ae 6035 a584 c33f
0.14657051208946154 0.4846926567786827 -0.2501201099657267 -0.5628794570069068 0.15861694973940074 0.04851376020419805 0.9800612233128961 -0.7202583569901373
0.3058366071317195 0.04762524374823527 -0.5590461818490439 -0.17640235046619557 0.5826394719796056 -0.22503557661631696 0.7804513647125622 -0.14912255028660434
-0.5861651526608963 0.3188790561657776 0.5953014919511463 -0.3065358879438501 0.1526201006774794 0.9170954787678308 0.03670799998020156 0.18666928315646036
0.05232226472490044 -0.030522792637632058 0.21832308204452885 -0.4266720470659509 -0.5536455424127643 -0.40567072451033626 0.5470702337389548 0.15248551470118707

input_ff.bias f8 [32]
00000000: 6abb b728 7c66 d7bf abd5 a7fe eda1 d1bf
00000010: 211c 71aa eb7b ef3f 39c4 daeb 84e6 d13f
00000020: d203 6a11 b1e4 e4bf f486 f95d c51b ccbf
00000030: 867a 1b77 b3df eabf b0e8 c216 4e8d 9abf
00000040: d1d7 4a99 a89e dbbf 9803 3ff0 304a c13f
00000050: 82d1 a1b6 e4a7 ce3f d134 c681 66b2 e6bf
00000060: c8d0 7ed3 e143 df3f fde6 d7a9 d8e5 e23f
00000070: 21c0 8241 5f90 a7bf 5edb 8a06 cd89 d5bf
00000080: e893 bf81 8807 dc3f 5f11 3a63 3d2d e93f
00000090: e15e 4f18 790c babf 3dd7 0526 58e1 ea3f
000000a0: c9cf 5c80 38d9 aebf dee2 baff 0628 d9bf
000000b0: a20b 8f84 7578 e13f c671 977f 5545 e43f
000000c0: d863 f878 80a1 eabf 48ad a15d 1183 c23f
000000d0: 59ca 6f0a ad62 dc3f ff03 fe00 eb87 ac3f
000000e0: 5700 2fb4 8c14 e8bf 9780 dad3 e047 ce3f
000000f0: f577 5b75 b1de dcbf c7e7 284c b853 d73f
-0.365630187762625 -0.2755084025260099 0.9838770226423358 0.2796947768466143 -0.6529164638633296 -0.21959750259980348 -0.8398072553935243 -0.025929660929911946
-0.43155875177342035 0.13507663470047926 0.2394987003095928 -0.7092773947385017 0.4885181966194634 0.5905574147465981 -0.046023346659581195 -0.33653569830805974
0.43795979185807576 0.7867724359535194 -0.10175282329089043 0.8400078528054348 -0.06025101248670201 -0.39306807492861917 0.545954474357462 0.6334636203787845
-0.8322145807934431 0.14462487289288561 0.4435227014466015 0.055724471922992784 -0.752508499070255 0.23656854957971937 -0.45109211407350297 0.36448485791663326

hidden_ff.weight f8 [32, 32]
00000000: 6374 ac91 aa71 bd3f 3293 c1f8 9e04 813f
00000010: 1c56 9203 651d af3f 8ffc 6ea5 d8d0 b43f
00000020: fe0d 14f1 591b c4bf ff7e d609 7c5c c9bf
00000030: 8231 706a 60ae 843f 01d3 2403 222d c8bf
00000040: 13b4 3154 cf75 b1bf 120e 3908 15fe c7bf
00000050: 6ad0 0e1f 6165 ba3f bc19 e8ab eb73 c6bf
00000060: f9f7 a39f 4495 be3f 1cd5 a48b dba4 92bf
00000070: 8cf5 b269 1014 bdbf 2bc3 91a9 cfd1 96bf
00000080: cac0 f8e0 b0ba b43f 6fa6 97d5 0970 a43f
00000090: 31b3 ae48 b155 c5bf fc59 3a14 4c4b b2bf
000000a0: f76f 780f 1892 5abf 988a 9bc3 ea00 92bf
000000b0: 321d 3c29 1cbf bebf 7c50 bc4e 045f bebf
000000c0: cd81 ae43 d0f9 483f f159 5ac9 fd2b d53f
000000d0: 73e3 a9b7 40b3 b5bf a476 86df be97 b6bf
000000e0: 2207 be60 c0fe bc3f b70f 3628 8622 a0bf
000000f0: 99ab 8f6a 999a c33f 3da8 a531 48e9 bfbf
00000100: 2d20 95d2 56ff aebf 61eb 7bbb 047d ab3f
00000110: e00e a332 d5cf bf3f c5a2 6333 cfcd b8bf
00000120: 0a24 4872 bae2 ae3f faef bd7c ba86 9f3f
00000130: 8c0d e7ff a6b8 be3f 2422 6570 97b1 b63f
00000140: 3714 011c 6b56 b33f baf3 bd38 cda3 c0bf
00000150: 2340 e65c 5920 bc3f c795 d9cf 2fcb c5bf
00000160: 298c 2213 091c b7bf c3d1 6b3c 9945 cdbf
00000170: a04b c45c 6ed9 c73f f731 a1e8 9e03 ab3f
00000180: 54a9 4584 3ddd 78bf 6217 3289 bf70 b7bf
00000190: b1fb 22f5 3e09 bfbf a296 6bf6 c75c 4f3f
000001a0: 0059 4cda 726f c63f c2e9 8205 56c1 b93f
000001b0: a07d ee96 455d 9b3f ce03 fa96 e583 773f
000001c0: fe61 8b25 d971 babf ec69 8695 b403 b8bf
000001d0: b58a 743c b771 cabf 0c9a 4bd2 c945 c43f
000001e0: 2566 d834 0ba7 c63f 0223 907c 1c79 d13f
000001f0: f644 e883 6cf1 46bf 0ef4 d6f5 7e94 ab3f
00000200: 1e68 db23 9b5c b83f 75f4 1140 da99 873f
00000210: 6d83 4480 08f8 c13f eddf a704 80b6 be3f
00000220: 857b 8dff f0ea b63f f7f3 c3eb 8613 cb3f
00000230: 3bde 3500 89cf cdbf 0335 234f fad4 89bf
00000240: 5c46 0e74 6bfd c63f 0d71 57a1 c0db c8bf
00000250: bf62 bca0 3159 bfbf 19e9 a07a 1d4f c53f
00000260: 38a6 7a2d 6ee9 b5bf 4e66 8567 a5ce d33f
00000270: 7e7b 155c b5c0 bbbf 36e9 d046 f29d 9c3f
00000280: f919 d2c4 af56 b6bf 557e b5a5 8a9a bb3f
00000290: 618c 4d8d c276 bebf 47d3 748d 7ad4 b1bf
000002a0: aca2 613e 4613 cabf 8f96 e7df 0baf 82bf
000002b0: f488 b03c c488 c53f f890 7529 e1f7 c5bf
000002c0: 5a96 bc0f 1ed3 b13f fa48 5c6d 5b56 c6bf
000002d0: 8915 b959 4c9f c4bf 6b52 bdc7 4b0a c13f
000002e0: 609d b60c ffbb 9d3f e6df bce3 c504 8ebf
000002f0: 0200 47e5 8119 c63f ef9d 3814 4bfa c63f
00000300: c202 0e6e 6d43 cfbf f1bf ba1a 2529 a8bf
00000310: 95f5 76aa 08c5 cd3f 60fb 2f2f 342a b83f
00000320: 9419 0c78 f10e b2bf b751 ed4b 3dee b6bf
00000330: 342f 63a2 27cd a5bf c17e 089a 06e6 bcbf
00000340: af14 51ad c1fa c0bf b7ec 26f1 d423 92bf
00000350: 6440 941e 556b a6bf 91b3 3c36 877f a33f
00000360: d6a2 7d40 b7d8 c6bf 2718 a5bd 4665 cc3f
00000370: be4e 45b7 bc71 b7bf 3696 3af7 dfae c03f
00000380: 3043 b8d8 d0af bb3f 7d63 dc61 38b7 9dbf
00000390: a690 5085 a43c a13f 0be6 d35f 9e83 ba3f
000003a0: c007 a6fb 3c5f b7bf 9529 0eb7 fac0 c33f
000003b0: 6afa 49f5 526c d03f 40e1 9f67 b210 9f3f
000003c0: f5e3 b9d3 57c7 943f df81 d295 ed18 c33f
000003d0: 2bdc d69f 2bf0 c53f ddba 9e13 c5f7 be3f
000003e0: b97a cd38 add2 9e3f 2843 5eaa 34fe bf3f
000003f0: f393 d2f9 f3de 4a3f 96c8 bcc4 20d4 bf3f
00000400: 0ae0 5803 5eb4 cabf 9f0c 5b93 4faf a3bf
00000410: 16f3 1349 bd91 83bf fe5c a30b f5d3 bc3f
00000420: 74fc e60d 55f7 ba3f 22e2 25ed 1e21 ad3f
00000430: 4a12 a7ba 4ef2 c23f c2b3 037b 65de bc3f
00000440: 04ff 217d 44d4 c7bf 880d 30d8 6626 c53f
00000450: 3b02 3560 65dc 58bf c6be fae9 1120 c63f
00000460: 0fc8 03be b499 a83f d002 77d4 fa0c 80bf
00000470: 242c 9acc 5316 aebf 8936 1fbf c450 af3f
00000480: e625 fdd1 a2de d0bf 240b 4e63 d506 b13f
00000490: c312 7dcf 48cd b6bf 2eff e0e0 f9fb 9dbf
000004a0: 2cc9 248d f489 c4bf f1d8 d52b eb6d 963f
000004b0: 859b f33a 7d0a c63f c93c aadf c4a9 d23f
000004c0: fdba 435b bf76 c23f c06a e7db e903 d9bf
000004d0: e7f6 6e4f 159d c23f 28d5 382b b800 c2bf
000004e0: b2a4 ac0f a019 c4bf 255b cd6f 5468 cebf
000004f0: 4bf9 ee30 9c5f c6bf 563b fa27 4cdc a53f
00000500: a0de e47b 81e8 9c3f 352b 95a5 efe0 b3bf
00000510: 0acd 120b ce70 9dbf 1437 4f68 d4a0 95bf
00000520: 232e 45f6 b077 cebf 6aac f6c1 0a3a a93f
00000530: 5947 e6be 7d94 bf3f 584d 1493 da4e b43f
00000540: cb15 aa1a bcd6 b73f d74a 4cd6 6d5b b6bf
00000550: 6b44 8530 63d9 a5bf 2b3a fb2f 029e 6abf
00000560: 6679 c75f 5971 a8bf d41d bbcb 3dcf a43f
00000570: 2a83 31a8 1b96 963f ed2f c532 ecdf c2bf
00000580: 04cf a564 e96d 94bf 5ac8 ebfa 6979 343f
00000590: 50dc c371 05c7 a53f cf8c f145 d8f2 afbf
000005a0: 2edc 680c 798e b93f a697 4682 cf6b 933f
000005b0: 6947 8575 efbe c7bf 616b 33c6 d224 babf
000005c0: e2ab 4469 2f14 9cbf 903b f803 b13a a5bf
000005d0: 9e2e b8f9 fa9b c03f 975a a208 57b6 bd3f
000005e0: 1aa7 273a 06dc 8c3f a941 8417 88ce bf3f
000005f0: d21d 256a 6323 87bf 1879 ba4a c3d3 ae3f
00000600: 227e 01a3 2a62 71bf 8481 f9fd b899 c1bf
00000610: f3ff 4c17 db95 d1bf 8662 9544 e06c bc3f
00000620: 4978 c6a4 7ed7 aabf 3d0e 729e 385f b13f
00000630: d09a 280f d62b b53f 47ae f17d 8188 a8bf
00000640: de49 7ce4 71fb c0bf fd69 f27e 1b00 7c3f
00000650: 41f9 7293 246b 803f 4eb2 94e0 3b0d a53f
00000660: 6f27 c502 430c ac3f 9fab bba5 b908 c43f
00000670: f2f7 4802 89b6 95bf c5af 47e7 260b b53f
00000680: 0794 d031 453d c3bf f97e 096d a8ea bfbf
00000690: 6aab e2f1 4805 be3f dba8 dd16 95da b73f
000006a0: f517 e99b 665a bfbf fab9 e62e 47a2 a0bf
000006b0: c04b 5934 bc4c c43f 9bc3 f75a 9880 b63f
000006c0: 851b 711c ab9d 9e3f 8e45 87b1 c3ca 9e3f
000006d0: ec4c 940b e4fd b9bf 835a 5d73 db06 ba3f
000006e0: 960e 6f5e 42e0 bd3f 53be bf4b e0f5 a6bf
000006f0: 230c 3875 39ce a0bf 79b9 0967 a2f9 b9bf
00000700: a0fb 6119 b15a bb3f e1bc b451 7632 b8bf
00000710: 1d0d 9df4 70b1 c0bf fc9f 4597 7475 b73f
00000720: c893 8c58 064f 9ebf 6ef6 29cc 2630 a2bf
00000730: 70a2 4200 3fe4 c13f c790 032a bf3b 8ebf
00000740: 72e1 9e52 b54a cbbf 1685 5f42 e148 c1bf
00000750: 3ed7 9686 fc22 aabf e998 9d88 829e 983f
00000760: 4f14 6b79 af99 aabf 703a de3c c4b5 b73f
00000770: 3d18 d473 db02 c4bf d92b 2700 dc1d c4bf
00000780: 4121 9dc2 9350 a83f 743c 0cc7 4a94 ba3f
00000790: 7987 2a1a 249a b13f 09b4 91b9 33d7 bbbf
000007a0: f8cc 3e49 6b8d afbf 6db8 cc26 efa2 a23f
000007b0: 0cfc cbbf e8d5 7bbf a2cf 9458 1724 b53f
000007c0: 9fa3 ca93 3c60 a1bf d648 6155 e71c bfbf
000007d0: 7b3a 9f88 78b0 c23f bcdb 1c0a 053c cabf
000007e0: 465e 4998 450d bb3f 4b06 0036 21af 9dbf
000007f0: 2705 4dee 6feb acbf 3450 d5cb 3c02 a4bf
0.11501565987096422 0.008309595076022445 0.06077113789175945 0.08131174124626937 -0.15708469649699447 -0.19813490372052198 0.01009822201560762 -0.18887734559543648
-0.06820388608476007 -0.18744147206790324 0.10310942657707903 -0.17541261571768796 0.11946514985535818 -0.01820700683420738 -0.1135874040655464 -0.022284741139119973
0.08097367756340926 0.039917285273827534 -0.16667762803026556 -0.07146144384237368 -0.0016217455830718189 -0.017581623257579254 -0.120103607241721 -0.11863734171157775
0.0007622019687581416 0.33081001914379643 -0.08476643070197358 -0.08825295407447215 0.113262199038243 -0.031513397606459596 0.15315549567398248 -0.1246533509453522
-0.060541833120226186 0.053688190351713024 0.12426502691510732 -0.09689040188426208 0.06032354970017913 0.030787385810512526 0.12000507114048825 0.08864733213443593
0.0755373900766053 -0.12999882956128578 0.10986860769321587 -0.1702632679836553 -0.09027153699075598 -0.22868648004772582 0.1863229706728733 0.05276199903218875
-0.006070366191446592 -0.09156415080550809 -0.12123483166486328 0.000957105291345701 0.17527614268392 0.10060632357173119 0.02672299131120115 0.00574102099892655
-0.10329968611348048 -0.09380654001726157 -0.20659532977977837 0.15837977188421382 0.1769727714570745 0.27301704563483054 -0.0007001666888887526 0.05386730910274916
0.09516305566231195 0.011523919182076828 0.1403818727785863 0.11997223008790998 0.08952242125586281 0.21153341781601373 -0.23289597044252894 -0.012613254108510668
0.17960875670228205 -0.19420631292349136 -0.1224547402783953 0.1664769028446436 -0.08559311495141564 0.30948767766458196 -0.10840924738066168 0.027946267673749157
-0.08726023249810301 0.10782686753872757 -0.118999633310112 -0.06964841798328535 -0.2037132076832412 -0.009122936983611466 0.16823628390654444 -0.17162718319298853
0.06962764629550958 -0.174510410689045 -0.16111139660840149 0.1331267094889371 0.029037461424790023 -0.014657541286950914 0.17265342421706015 0.17951334464417765
-0.24424522279516309 -0.047188910973431926 0.23257549594374596 0.09439397956883289 -0.07054051571694792 -0.08957274535834513 -0.04258083207386534 -0.11288491497588905
-0.1326524826310211 -0.017714812487366696 -0.04378763197212335 0.03808233773302228 -0.17848864220584088 0.22184070835118172 -0.09157924150832294 0.1303367573902265
0.10815148631105553 -0.02901924226088991 0.03366579177262112 0.10357084121269382 -0.09129696983111923 0.15432676256416458 0.25661157564164816 0.030337131094684056
0.02029168348096629 0.1491982442430659 0.17139191918042349 0.12096816758160452 0.0301005426330174 0.12497262153034383 0.0008200351036476969 0.1243305664363866
-0.2086293712943646 -0.038446890580894115 -0.009555319588338256 0.11260921033987256 0.10533649053012245 0.0568933166968615 0.14801963914773558 0.1127684998825336
-0.186165391063689 0.16523442798652987 -0.0015173902509816445 0.17285369801310518 0.0480476839019418 -0.00783725701228502 -0.05876409409128083 0.0611630900672085
-0.26358862406467976 0.06651052164492605 -0.08906989160193306 -0.029281524992483536 -0.16046006099492993 0.021903681326386374 0.17219510439391797 0.29161187975200825
0.14424888569143227 -0.3908638617992146 0.14541880014979044 -0.14064695463609067 -0.15703202023840884 -0.2375588937672656 -0.17479278935747752 0.042696361427366256
0.028230689227000227 -0.07765100281282573 -0.02875062887751504 -0.02112132918028127 -0.2380276873103507 0.04927095048636761 0.12335954580910648 0.07932821360400533
0.09312034274088103 -0.08733259660611324 -0.04267415969173601 -0.003249172470396707 -0.0477397851388897 0.04064362632703547 0.022056991711340825 -0.1474585769559548
-0.019950529830977906 0.0003124126186967495 0.04253403676732914 -0.062399633920699686 0.09983021309823023 0.01896595223083577 -0.18551438558875624 -0.10212437952888599
-0.02742075042730708 -0.041463405356004235 0.12976014321644852 0.11606353722377559 0.014091538095232493 0.12424517225395583 -0.011297966648853217 0.06020937239849128
-0.004244009542247381 -0.13750374222855666 -0.2747714736506161 0.11103631662752819 -0.052425344099206024 0.0678592097120196 0.08270013685305888 -0.04791645681765693
-0.1326734891559473 0.006836039930159019 0.008016858815946494 0.041116591610578554 0.054781049812460895 0.15651627151904976 -0.021204128994433753 0.08220141550526623
-0.15030732090340868 -0.12467434560812397 0.11726814179807624 0.09317905243156892 -0.12247315699013923 -0.03248808333897908 0.15859177166075078 0.08789970608610391
0.029898332224799446 0.030070359907602255 -0.10153031618783687 0.1016671330120094 0.11670317464364141 -0.04484463619871506 -0.03282336765189366 -0.1014653684194168
0.10685259694763127 -0.09451999182487071 -0.1304150766755833 0.09163597767985715 -0.02959833064518927 -0.035523617193558774 0.1397780181189492 -0.014762395352996184
-0.21321741613588646 -0.13503661862254351 -0.051048175267551774 0.024042167270999313 -0.05195377690464708 0.09261728750264253 -0.15633719592750764 -0.15716123588057831
0.04748975515991783 0.10382525786939018 0.06875825537511372 -0.10875247269150647 -0.06162581700427866 0.036399339185991454 -0.006795796562754763 0.08258195793751935
-0.033937352219545185 -0.12153478464577758 0.146010462484316 -0.20495665544305364 0.10567126243528788 -0.02898837940302305 -0.05648374351450008 -0.03907957065771975

hidden_ff.bias f8 [32]
00000000: f724 427a 88b6 a83f 6856 9fba b214 bcbf
00000010: 4e1f 778c 9443 b0bf 4288 b5a7 ed33 c53f
00000020: 44ce 5f49 e1bb a03f a7f1 0ce4 bded b03f
00000030: 97ea 6dfc 9cbf c2bf 8c45 4f3a d110 be3f
00000040: 40a2 d4ca 9f7c b43f 62f9 814f b68d bebf
00000050: fe43 87da b252 af3f 602d e778 4343 cb3f
00000060: 7744 fbed 0de8 ba3f 3f74 f3eb e01f 773f
00000070: c79f 3ebf abfd bf3f a36b 2bda 7079 b0bf
00000080: ba64 0352 b7a0 a0bf 80b9 1753 d717 cbbf
00000090: e650 d883 bd55 c33f ce72 5df8 8d59 a13f
000000a0: f162 464f 3d9b 983f 5b3a 8a40 d170 cc3f
000000b0: 4fc7 8547 fcf0 733f ef90 bb3c e5ed b73f
000000c0: aaea 187e bae1 84bf 8b5a 433b c1ee b03f
000000d0: 602a bf49 5f46 b83f 33fb 019f e474 adbf
000000e0: 6afe bb60 5d8f c6bf ca01 6abf 7b7c a73f
000000f0: e80e 4945 bf35 c03f 669e a360 655d b43f
0.04826761715328048 -0.10969082885943637 -0.06353119305924546 0.16564722718163877 0.032683410841766874 0.06612765138283426 -0.14647257161762603 0.11744411157203255
0.08002661420744861 -0.11934985581499327 0.06117781560499934 0.21299022105663834 0.10510336933227103 0.0056456361773742905 0.12496446055467834 -0.06435303999334833
-0.032476166497596506 -0.21166507298717008 0.15105408609145526 0.033886372154233166 0.024029691661413947 0.22219291354527368 0.004868493524883124 0.0934737466118951
-0.010196167920289174 0.06614310929158244 0.09482379484612968 -0.05753244820606653 -0.17625014518124554 0.04587160789106155 0.12664023287845017 0.07955010995248699

output_ff.weight f8 [1, 32]
00000000: 2e86 9ff6 ed26 d2bf fbe0 9b16 032f d3bf
00000010: be22 7d35 a88f c73f 213d b2de d067 61bf
00000020: 7d46 cbff a337 dd3f f3b1 83ab c744 bdbf
00000030: 4f23 4d36 ec14 b33f 8529 66d7 6fdd 8abf
00000040: c2ce 307e fa5c abbf 91cb 8d58 65c6 e0bf
00000050: 711f 08fc a70e d43f d285 4021 fbf6 a93f
00000060: 7fcc 9ba7 fb7e b73f d33c 13fb 7010 cf3f
00000070: 1136 3d7f ec5b b3bf c260 dbd1 ec6a d3bf
00000080: 6cff 2fb2 750a c7bf 4881 86a5 3bf5 d1bf
00000090: c1d2 4d0c 2a09 893f f480 6fd7 ace3 c53f
000000a0: 1892 e764 243c d33f 6e62 e410 428d b73f
000000b0: df8c 9baf a920 aebf abd1 0ac2 1884 b23f
000000c0: 3d58 72d1 f86f e03f 9de8 f0ac 1079 b33f
000000d0: ff43 c52a 125d ad3f ef40 f3c0 9f5f 9abf
000000e0: 17d2 2b63 668f c1bf d826 e61e 11ef babf
000000f0: 05f7 5fbc 259d c23f 3d4b a18d d980 bd3f
-0.28362607082644586 -0.2997443886556678 0.1840715657401883 -0.002124698590314403 0.4565210340489115 -0.11433074891437638 0.07453800512042828 -0.013117669831235865
-0.05344374456799762 -0.5242182473724474 0.3133945428130494 0.050712440308653975 0.09178135721212931 0.24268924960640578 -0.0756213961260175 -0.30340118879167843
-0.18000670624314397 -0.28059283413496816 0.012224510670173829 0.1710105945521786 0.30054578641855434 0.09199917709737246 -0.05884294766090092 0.07232813584670932
0.5136684504275376 0.07606605741685475 0.05735070011235876 -0.025755401756044568 -0.13718871919958595 -0.10521037105913977 0.14542075822821957 0.11524734218373296

output_ff.bias f8 [1]
00000000: 8661 d895 adcc b0bf
-0.06562313946085938
