saved_model/Shift_rnn/best_train.pt (torch, 11159 bytes, 6 tensors)

input_ff.weight f8 [32, 1]
00000000: d12b 3a2f afc1 cabf 0f8d d2fa 0503 da3f
00000010: 5756 ac02 05dc e33f 74f9 be45 7678 eb3f
00000020: 223b b7c2 e751 debf cc44 238d 7ace e43f
00000030: f19f 47ca 88a9 c43f 0448 dfce db71 e2bf
00000040: 8dce 2972 fa54 e33f 7e75 3f24 5381 f03f
00000050: efea 4c46 1f5d e7bf 57f5 dd91 69ca e0bf
00000060: ab7f 617b 44cf d5bf dbf8 5320 b851 e0bf
00000070: 717c 2487 f728 e6bf c8c2 1294 df23 dd3f
00000080: 2aa0 b787 c81f e2bf 29c3 c10a e7e8 dabf
00000090: d4c3 912d be89 da3f ca74 663e 358c c83f
000000a0: 682f f905 08b1 d43f 32cb df18 725f ccbf
000000b0: c51d a672 6220 d43f d762 32ca c39a b8bf
000000c0: e358 6236 4850 ec3f cd15 f52a a703 ab3f
000000d0: 87e3 0a8f 5673 e63f 007a 559b 2b9e d93f
000000e0: d867 1568 00ae d33f 9d92 672a 67ff e4bf
000000f0: 389d 2944 93d9 e33f 1e10 a835 4108 a13f
-0.2090357761956896 0.4064345311582693 0.620607857915 0.8584548341967051 -0.4737491036911924 0.6502049213978807 0.16142377736036864 -0.5763987579796326
0.6041233281852826 1.0315734306271618 -0.7301174519592147 -0.5247085427251176 -0.3407756047145038 -0.5099754935652315 -0.6925008430006426 0.4553145357158823
-0.5663797999122882 -0.4204652409599015 0.41465715837608497 0.19177880808721276 0.3233051355680261 -0.2216627713638331 0.314476596795853 -0.0961115234989721
0.8848000585737988 0.05276224517232784 0.7015793603705881 0.40027895135236236 0.307495214122921 -0.6561771228994818 0.6203094798374087 0.03326610355364344

input_ff.bias f8 [32]
00000000: 165d 9d71 2abd c9bf caa0 5c2d 64cf e8bf
00000010: c197 3ad7 f425 ea3f 61d4 cbc0 a72d d33f
00000020: 0189 4b67 34a0 e5bf 7443 e601 5e99 e5bf
00000030: 1d81 240e 103c cb3f 08fb 80e4 d70c d2bf
00000040: 6af0 87b6 781a cd3f a91b 32a2 8bbb d63f
00000050: 8e80 b2bc dad9 efbf 0625 5a6b 597a c8bf
00000060: 3136 5951 b0d6 ea3f c940 2429 370c e33f
00000070: 25c5 0303 c3f7 e83f 8672 f275 16a1 c3bf
00000080: 6e41 7d01 8b0b e73f 6fae 6432 6fb2 d2bf
00000090: e257 efd6 d525 d33f b547 36ad 0494 d8bf
000000a0: a29b fde4 cb72 e4bf ff37 6c31 ae5b c9bf
000000b0: 4a42 ff2d 1699 eebf 4bf4 cc55 dd19 efbf
000000c0: 321b 8e24 3aa2 c83f d1ab f195 c782 b2bf
000000d0: ae3e a931 82e8 dc3f 618d 5ca4 fc38 ea3f
000000e0: f378 5c5e 6200 dcbf 3ba5 e966 22a2 e33f
000000f0: 45dc 0352 ee2b e73f f93f 1891 71e2 e8bf
-0.20108538196175435 -0.77531632289631 0.8171333507241273 0.29966157748942207 -0.6758062379342676 -0.6749715840434036 0.21277046862179186 -0.2820338946802825
0.2273703471436222 0.3551968654577942 -0.9953435597890505 -0.19123380414774988 0.8387071217382013 0.5952411464259281 0.7802443560487161 -0.1533535076058749
0.7201590565764897 -0.29214076920718574 0.2991842841123554 -0.3840343181155917 -0.6390132400964499 -0.19811036504000865 -0.9561873339062654 -0.9719072986405392
0.19245077881734002 -0.07230803881399984 0.4516911969157985 0.819456406611078 -0.4375234529014868 0.6135417947781784 0.7241126634461429 -0.7776420434838648

hidden_ff.weight f8 [32, 32]
00000000: 093a 7f0d e257 d13f 014b d05a 3d12 913f
00000010: 923d 0336 4e48 b1bf 85d3 8ca6 0704 b9bf
00000020: 657f 405d eb82 b63f 5a12 aff3 681d bd3f
00000030: 3ba5 a2b0 9cce d13f 1a33 a0db deab d1bf
00000040: cddd 5ae1 3ea8 85bf 0cdc 66ea c7f0 b9bf
00000050: d8eb 5436 3c73 c33f 36a9 56d2 27c9 a8bf
00000060: c264 4bf6 329e d6bf 67d3 3f0a 0071 c5bf
00000070: 6e0c 706f 46a9 c7bf 325f 1360 e0a3 b0bf
00000080: 399f c32f 52ab a93f 5e1e 70df a6da c0bf
00000090: ba35 e2e2 756d cb3f 9b83 8413 4ca2 c9bf
000000a0: d316 d05a 0735 c2bf 56a7 485c 13cb 76bf
000000b0: dc59 829b 353f adbf 61b0 1b80 14fb 6f3f
000000c0: 4517 0997 2c20 b93f 72ac 1c80 c178 c73f
000000d0: 0b12 2e90 0998 c23f b288 4f40 f450 b8bf
000000e0: e1ce a70e 01eb b63f 2cf4 7a74 64cd d03f
000000f0: 5ff3 1e6e 566d 663f 6065 1e16 28b3 c0bf
00000100: 363d 3de8 c78e c5bf a35f ab24 780e d7bf
00000110: 3c68 6acc ff8c c6bf 6a26 ee84 abb3 66bf
00000120: c3f0 69ef 33ee b7bf 4152 2e24 a1cd d73f
00000130: 4906 47c5 c1e4 d13f fef4 f9a1 deca bfbf
00000140: af9f 27c7 e64b 96bf 4b55 cee7 28c6 d83f
00000150: 4140 fe8b 869b cabf 3d39 4bfc 6686 a9bf
00000160: 93ea 395e 0261 c0bf e186 1660 49cf d13f
00000170: 7ab0 6fe0 3497 b23f 99c0 a346 b9b9 ab3f
00000180: c28a bac6 d1c3 d8bf edd5 d51e d496 d93f
00000190: 23eb 7e27 8936 c8bf 14fe 0ba0 7c19 d6bf
000001a0: 82bb dabe 7918 c2bf 6738 54b9 24e6 90bf
000001b0: 846e ebca 8c38 cc3f cc20 9c0d 5014 c4bf
000001c0: aa1e f722 8103 9bbf 4732 01c5 fc04 cbbf
000001d0: 6b46 3b54 b3d7 c1bf 6c6d aa67 03d4 b03f
000001e0: 5571 9496 8362 a2bf 629d b0af c41b 843f
000001f0: 2c42 417c 7fbb 9e3f e219 17c8 2c5f d13f
00000200: 541a 6578 c469 aa3f d6eb b4c2 0461 d7bf
00000210: fbcd 4e7a 3c79 b53f 6acb 7f53 79dc cd3f
00000220: 8482 86d8 23ab cebf b616 fcb7 a0f0 b9bf
00000230: d6d6 78ba a1f1 d4bf 58b7 3eb5 4115 d1bf
00000240: 5bbe 5029 7658 c23f 3aa2 7fac 643c b8bf
00000250: ca9a adc7 ac32 b73f 28cf 5308 cacd bebf
00000260: 11de c226 f60d b5bf 27db c4b4 facf a23f
00000270: 77ce 9d27 8ab0 9b3f 4f62 3986 b57d df3f
00000280: d8a5 32cb ea28 c9bf f884 9c76 0c34 bebf
00000290: 396d ee55 1678 cbbf ff6b 24b2 ed83 b0bf
000002a0: c3ff 665d bd89 a6bf fddc 12bf 45bb c1bf
000002b0: 8771 5ede d0db a03f c307 ad8c 238c a4bf
000002c0: 4aff 8c55 99fa c0bf 640d fafd 36d6 ba3f
000002d0: d40c cde5 41eb a83f 57bb 90d8 52b6 ccbf
000002e0: 9860 61e6 c792 a1bf 7c72 242b 1aa4 ac3f
000002f0: da83 9c93 4171 c9bf 1775 73b6 f38f d33f
00000300: 38d8 f345 f0d5 b1bf 03a5 47a7 49f1 c23f
00000310: dc32 994c cb97 bcbf d5a1 88a8 6d14 c0bf
00000320: 9252 331b b62c b93f 476a f37e ebe0 c13f
00000330: f3d6 6a11 93da d8bf dc13 0479 6cdd a2bf
00000340: 75bc 8042 7ca0 d23f 05e7 dd89 bf25 b23f
00000350: 84f7 05f2 dbdf a7bf 2f81 5027 2029 ac3f
00000360: 31e9 4a2a 02d4 99bf e8bd 4ae3 e8f9 cd3f
00000370: eeec c442 0612 b23f d3c5 5ee8 b29c c13f
00000380: 2511 7065 c03e d03f 8b13 3525 aec6 ccbf
00000390: df6c ffd1 65d5 c1bf 9633 7962 2671 bd3f
000003a0: 26d2 4ce9 ed59 c0bf 6303 46f2 306c b1bf
000003b0: 8b84 d670 98b3 89bf d850 0f52 9ce9 943f
000003c0: 52f7 1fa0 0982 c1bf 20b3 5565 f705 d03f
000003d0: 46c4 ef04 a8ec a43f 7075 e466 1001 b8bf
000003e0: ebc6 21b5 5d81 bbbf e1e0 1eec 9b7d a6bf
000003f0: 5373 17b9 0020 d23f 308a c465 d668 a8bf
00000400: 0d54 0af0 6769 a03f 143a f0d2 b0cc b1bf
00000410: f078 180e e4aa 993f 303c 3b3f a0ff babf
00000420: 0c3c 1815 601b cb3f 26df b067 e8b9 8d3f
00000430: 0873 e129 1eae b7bf 0297 d67a 0cdc c8bf
00000440: c7b9 3423 8524 a03f 7dc4 198a b885 babf
00000450: 84e5 de8d 6eac a3bf 8b83 5443 d468 b73f
00000460: 6a5d 2063 9c0b b8bf 9714 6829 4775 b4bf
00000470: aca6 bdf8 da41 7c3f 2ca8 1106 3ae8 cfbf
00000480: 4b6b 596f 490f d43f 4a0c 079d 63cb a33f
00000490: 844f 2e1b 41cd 57bf 5f81 ed70 5dde cabf
000004a0: e216 4d5c 5d6a c8bf f38f f487 aa80 b3bf
000004b0: 0199 4feb 7825 bc3f 26a2 8e54 b18c c33f
000004c0: 942a 912b 2050 b2bf a445 f04c f48f c03f
000004d0: f6b6 fee4 fba8 c7bf c09a 9989 896b c2bf
000004e0: 3ddd 5821 08c3 a23f 94fc 095e 61c5 cdbf
000004f0: 9e48 6542 755b b9bf 8a1d 12ef ac55 a1bf
00000500: 30fa 264f aa42 b8bf bc22 c028 5247 b93f
00000510: 8bc4 3731 e681 5d3f 146c eab1 7797 d93f
00000520: 582f 930a af0b cc3f cc0e cdf4 d883 8dbf
00000530: 0d2a 0e7a 21b2 dd3f db92 db66 8a89 df3f
00000540: ab05 cace 4654 be3f f153 c76c 971b d93f
00000550: 57f9 7172 3881 babf 1684 0480 d09e c4bf
00000560: 9ba8 2b4d 3e19 a53f a7b7 1adf cf9d d1bf
00000570: a4db a0ed 8ab1 afbf 011e f41c 8e6d bd3f
00000580: 6e8a 6ba0 9b03 bc3f 37e9 0a02 9bbe c13f
00000590: b5b5 95f9 4387 cf3f cc39 4147 8486 b23f
000005a0: 3801 5740 5482 cd3f a6a6 7e3f d920 c23f
000005b0: 0e33 605f 1faa c2bf 6f45 a507 1eed bdbf
000005c0: 4421 ce68 696f abbf 34e7 9d22 ead7 d63f
000005d0: 296b 60cf 04c7 b23f 60f3 75f9 0581 a73f
000005e0: 3997 70bc 75fc bf3f b0b0 5dd4 e7e9 d0bf
000005f0: 58c1 5d70 9c65 8ebf 7488 254a 3035 c83f
00000600: c418 029e 5180 d43f 4bbb 9b89 6564 b53f
00000610: e08b 5335 5e5e a33f bb17 76c8 2160 c23f
00000620: 802c dc1d 14f3 c93f 07cd ccc1 090c a2bf
00000630: 85b2 cb61 e0cb c8bf 32a9 d5a7 beed 4e3f
00000640: 0de9 f47f 8b5f 5d3f 1201 54ec 0601 ba3f
00000650: 9f47 dbfa 0513 c8bf 82e2 c674 6770 c23f
00000660: fe3c 53d5 f3bb b63f f2d2 f111 8449 cebf
00000670: 8ab8 0c38 dc87 b23f 2326 3f2e 34d1 823f
00000680: add9 fd97 e2ac d0bf c932 f15e 2109 b03f
00000690: e96c ee69 fd83 c9bf 04ab 3a24 df1a ccbf
000006a0: 11e1 7819 2084 95bf f82b 6dca 7fa2 a83f
000006b0: 5070 a2ac 0f7c c5bf 9315 d6fd 9fcc c9bf
000006c0: fee3 dada a848 d23f 6f20 93cb c8d1 a0bf
000006d0: b3dc e60c dcf0 d7bf b283 304c 5f4b c9bf
000006e0: aa36 365d ac96 ba3f cf1e f670 aea8 c0bf
000006f0: f635 34db 1719 733f df8f 0bce df75 d43f
00000700: fd0a 4fb5 e97d b83f 7212 8edd 464b 60bf
00000710: 179d 82d6 c72d b93f 3ac7 0824 31ba b3bf
00000720: c2fd 5953 51ba cb3f 863b 2f92 b5e3 b9bf
00000730: 4e07 dae7 6bd4 a33f 07e1 b8b7 9645 b33f
00000740: aecc b802 7967 c93f 937f 58e7 53c2 ba3f
00000750: 3e09 adaf 105d b9bf 87b7 b207 4cf6 b8bf
00000760: 4642 acb2 3d94 c1bf 96b2 f7b6 2ecd c93f
00000770: 10c6 bd85 5e90 b13f 42c5 bf65 41d0 c93f
00000780: 3167 b1c3 f2e3 ca3f ad74 ea65 34e5 acbf
00000790: 0ab6 b5e9 9be4 c9bf 0f20 9b78 a56b c13f
000007a0: 053d dbd9 35d0 d5bf b0bb e8e7 04ca c2bf
000007b0: 16b4 5409 271b a53f 041e 0289 374a bcbf
000007c0: a611 8802 73b7 cfbf 3e6f 73cb 8ec9 c7bf
000007d0: 7cb5 28d9 2489 bc3f c7fd 5f83 d0e9 a7bf
000007e0: f389 52a4 f152 cf3f 2f75 31c8 b484 ca3f
000007f0: 4769 4374 94da b53f ae1c dbfe fcbf bd3f
0.27098895376266846 0.016671141307663898 -0.06750954455059446 -0.097717741166731 0.08793517138155733 0.11373001050294232 0.2782355999903136 -0.2761151451857572
-0.010574809315001677 -0.10133027527523114 0.15195419934192844 -0.048409695077980805 -0.3534057049960887 -0.1675109911008363 -0.18485336724561158 -0.06500055642697758
0.05013520081575824 -0.13167272481972508 0.21427796915342673 -0.20026541665086203 -0.14224330839367968 -0.005564761759652223 -0.05712287448220696 0.0039039039992215118
0.09814718902006543 0.18337267642468508 0.14526481189763304 -0.09498526163182211 0.08952337844658188 0.2625361573698821 0.002737683113961983 -0.13046742515579535
-0.16841982688718254 -0.36025813656805833 -0.17617795449479157 -0.0027712202058339146 -0.09347843737663468 0.37192562611861396 0.2795872141396996 -0.12418929533483333
-0.021773916154330383 0.3870947135668145 -0.2078712638435736 -0.04985353307493987 -0.12796048737421425 0.27827677138894386 0.07261972884561088 0.05415133464146144
-0.3869518700322879 0.3998308468938763 -0.18916429928307207 -0.34530559186529897 -0.14137193507255225 -0.01650292760046348 0.22047576816736492 -0.15686989464325618
-0.026380555876839885 -0.21108970279091663 -0.13939515698307345 0.06573506623174347 -0.03590785229809749 0.00981858884013204 0.030012123068731508 0.2714340166097867
0.05158819169678411 -0.3652965451653335 0.08388116823225993 0.2332908303938795 -0.23959777901201929 -0.1013279389554452 -0.3272480317130947 -0.26692240428643776
0.14332463281015148 -0.09467152797118042 0.09061698794321696 -0.1203275938349263 -0.08224428602522262 0.036743006292843376 0.02704063288497457 0.4920476733000542
-0.19656119272012407 -0.11798169990335683 -0.2146022719942751 -0.06451306914497933 -0.04401962056317601 -0.1385276015259719 0.03292706217254975 -0.040131674692488704
-0.13264767339023315 0.10483115864376696 0.04866987161815364 -0.22431407522659683 -0.03432297408352375 0.05593950058594019 -0.19876880366885424 0.30566113297921177
-0.06967069347214838 0.1479885165020179 -0.1116911947257892 -0.12562342385468975 0.09833849109720408 0.1396765107991362 -0.38834072781479206 -0.03684557893033233
0.29104525083943794 0.07088849178208186 -0.04662978486429295 0.05500126342690447 -0.025222810584389414 0.23418913934936758 0.07058753137691884 0.13759456964684932
0.2538300505259648 -0.22481324021114477 -0.13932488206669455 0.11500778106819917 -0.12774442569356487 -0.06805711665039164 -0.012549582427541025 0.02042240382054747
-0.13678093260380791 0.25036415954564184 0.04086804447423069 -0.09376623641988657 -0.10744271919409314 -0.04392707116443418 0.28320329737998867 -0.04767484657556442
0.0320541840093612 -0.0695295824991507 0.025065959320380082 -0.10546304267630613 0.2117729285241413 0.014514747299571317 -0.09250057718731963 -0.19421535489998837
0.031528626010515697 -0.10360291835401543 -0.03842492563075964 0.0914433159237104 -0.09392716808394189 -0.07991451989080854 0.006898742063506862 -0.24927449508987942
0.31343303560213504 0.03866111080017072 -0.0014527450373167114 -0.20991104139376213 -0.19074599272624143 -0.07618203944417683 0.10994678254028047 0.15273110035674725
-0.07153512061737849 0.1293931365658355 -0.18484448129077408 -0.14390677660704476 0.03664422423428924 -0.232586069982038 -0.09905178900706565 -0.033856777366106774
-0.09476723129680731 0.09874452109228121 0.001800989911199732 0.3998698461015817 0.2191065599093871 -0.014411635370954377 0.46399723929849374 0.4927698139638729
0.11847345875323494 0.39230905173218306 -0.10353424829552203 -0.16109663248883582 0.04120821659110271 -0.27525707995925547 -0.06190141821610176 0.11495292860865193
0.1094300524378384 0.13862931823479993 0.24631547629125597 0.07236506213778354 0.2305398286971554 0.1416274604828704 -0.14581672818203412 -0.11689937292728357
-0.053584379237749974 0.35692838078067557 0.07334928572565204 0.045906244947196084 0.12494598246175039 -0.2642764638792512 -0.014842245272774932 0.18912318821373086
0.3203319590615019 0.08356318101480757 0.0378293457122465 0.143558714753622 0.2027306695748372 -0.03524809351656626 -0.19372181677990255 0.0009438687263075062
0.001792799215606214 0.10157817144136441 -0.18808054684501216 0.1440553016853024 0.08880542715199977 -0.2366185271854629 0.07238556259537368 0.00918808714040426
-0.2605520710270877 0.06263931816028924 -0.19934051201275985 -0.2195700575733427 -0.021011830858896966 0.04811477037454631 -0.167848548216059 -0.2015571584162613
0.2856847893959297 -0.032850527620724594 -0.3740759016031447 -0.1976126787203874 0.10386159206083315 -0.13014774814313632 0.004662602604424295 0.3196944725189023
0.09567127872928079 -0.001989019784050244 0.09835480677667295 -0.07705981378310592 0.21662346429728357 -0.10113081759412354 0.038730022480207724 0.07528058991818308
0.1984702361383816 0.10452770612800881 -0.09907631195986696 -0.09750819385473451 -0.13733645653020882 0.20157417234385794 0.06860914960068265 0.2016679522344394
0.21008143000909166 -0.05643619293298605 -0.20228909408199086 0.1360976065536765 -0.3408331515792756 -0.1467901356095047 0.04122278202917344 -0.11050746054581145
-0.24778592704400387 -0.18583855566145674 0.11146765043004864 -0.04670573810289685 0.24471874736362018 0.20717487120683972 0.08536651457271659 0.11621075841968562

hidden_ff.bias f8 [32]
00000000: fce8 ea6c 0540 96bf 0483 7255 6f9b c8bf
00000010: e0bd d4f9 497b b53f f5bd 421b 124d 93bf
00000020: 02e6 8e76 1fa4 9c3f f6f2 6638 a277 c03f
00000030: 6c02 491c 06ff b13f 614c f007 918a 9f3f
00000040: 49e0 0f0d 69bb b03f abc8 9bdb 3704 c3bf
00000050: c0fd 6b1a b9c4 b83f f7da a534 3dac c03f
00000060: 63b0 c9ba 1150 b13f c0fe 6e0b b500 c5bf
00000070: e12b 1e58 4ab2 bd3f 64e5 e4ab 307c b6bf
00000080: 0cfb 0a5a d5e6 cdbf a25d c984 fa69 c1bf
00000090: 8e4f 21c2 3144 c8bf 9d20 d954 8594 b3bf
000000a0: 34c8 04de a46a d03f 2170 d8a2 3bfe bcbf
000000b0: c1b8 1730 bfc8 9b3f e95d 98d1 9d6e b43f
000000c0: 311b 8ec4 af43 c43f d2ab f115 f782 b6bf
000000d0: 21fa a4e6 6dbd bc3f 2f95 1b3d bdc5 b8bf
000000e0: 6e1d 8e46 f1a1 b63f 88d7 b288 560e b2bf
000000f0: a2e2 1e90 96d4 bd3f 2a00 3ed7 8a71 bd3f
-0.02172859647064572 -0.19224349663002027 0.08391249036207382 -0.018848688997136837 0.027969829188554847 0.12865092996607758 0.07029760542446589 0.030802026853120505
0.06535965508362652 -0.1485662290866164 0.09675175566734762 0.13025631972023863 0.06762800989389599 -0.1640840822055818 0.11600174571337575 -0.08783249088891903
-0.23360697647691386 -0.1360467098590848 -0.18958112696656965 -0.07648499795425541 0.2565090339804812 -0.11325428701133024 0.027132975874274438 0.07981287352628609
0.1583156308881484 -0.08793587003462669 0.11226546174018683 -0.09676726095093068 0.08840854618585123 -0.070531280873949 0.116525087533669 0.11501376872001914

output_ff.weight f8 [1, 32]
00000000: d8d6 4006 72e1 c33f 9168 c22c 137f 92bf
00000010: 1d6f 90c8 c64f a83f b2a9 250c 3554 5bbf
00000020: d606 3168 fda8 b5bf 194c 7577 772e a6bf
00000030: 8785 27a0 81ce c63f bd2e 60cd fb66 b4bf
00000040: 03ab 9f81 7b4e c33f 97fa dcc9 bf48 b3bf
00000050: d1a4 694e bd9a a63f a827 198b e6cd 90bf
00000060: 3149 5d83 451a 9a3f e318 0af4 d617 af3f
00000070: 5592 3ff3 3aeb 663f 34e8 366f ef97 a9bf
00000080: d1d6 3985 5579 b2bf 9bb7 a400 f820 bbbf
00000090: 7010 c015 f485 a93f f95d 9625 33ff b6bf
000000a0: d6bc 7998 0229 a93f 20dc 74c8 8af5 bbbf
000000b0: 383c bbb3 6268 8e3f 2f07 1218 6a28 9f3f
000000c0: b656 50c8 6235 753f 5162 4815 fbb4 ab3f
000000d0: 8bc1 19cb 5f96 c5bf e4ee 4054 243f a63f
000000e0: 4450 a8a3 867d aabf b088 4fc0 2e6c abbf
000000f0: 7c32 1522 9d8b b8bf 8bf0 2f00 4e35 b53f
0.1553175478490434 -0.018062877280137505 0.047483646376546874 -0.0016680257836819532 -0.08460983079660464 -0.04332326253156555 0.17817707366979738 -0.07969640506797311
0.15083259419710524 -0.07532881429959058 0.04414931852518012 -0.01641044830311214 0.025490842955442964 0.060728757181139924 0.002797713410460904 -0.049987299276338965
-0.0721639108904484 -0.10597181335171373 0.049850108771381296 -0.08983153979931292 0.04914100753091481 -0.10921542543370366 0.014847537145582831 0.030427606314794516
0.005177865857168553 0.054115148876182524 -0.1686515561773486 0.043450484547489926 -0.051738936879843794 -0.05355974290411447 -0.09588033754443787 0.08284461502620581

output_ff.bias f8 [1]
00000000: 2021 330b b029 a5bf
-0.04133367668834098
