saved_model/Shift_rnn/saved_model.pt (torch, 11159 bytes, 6 tensors)

input_ff.weight f8 [32, 1]
0	0x3fc2cc5570688d95	0.1468607710713569
1	0x3fdf0082442d867d	0.4844060579108385
2	0xbfd00451e5a68208	-0.25026366640852915
3	0xbfe20a1723d3b7b5	-0.5637317371126672
4	0x3fc447dca424cf66	0.15844305052598456
5	0x3fa8df40515fca0b	0.04857827180230253
6	0x3fef6097713a0e2d	0.980540963312199
7	0xbfe70b8d80670823	-0.7201602466450406
8	0x3fd397b70701a4aa	0.3061349457189616
9	0x3fa83b1b45008f03	0.047325946972959464
10	0xbfe1f2d978042fe3	-0.5608947128362128
11	0xbfc69b0a48f00bcf	-0.17660645066652456
12	0x3fe2a7aade7b0122	0.5829672189065926
13	0xbfccc8579c6fece3	-0.22486395967994274
14	0x3fe8fc137233d1db	0.7807709913745912
15	0xbfc3108e1482b3fc	-0.14894271852008945
16	0xbfe2c4c119b654c0	-0.586517858714295
17	0x3fd46273ec664f1f	0.3185090836134225
18	0x3fe311b44bddb4a6	0.5959111673124837
19	0xbfd3a66be31d9fa3	-0.30703255824345826
20	0x3fc38dc05cb9f919	0.15276340987834017
21	0x3fed5102f0c430a7	0.9161390974491227
22	0x3fa2fc10654c6ce9	0.03707934605173497
23	0x3fc7e5a5ae14f58d	0.1866957759865894
24	0x3fab1fe1f58b84a7	0.05297762033820535
25	0xbf9f34f77116a59a	-0.030475488927242368
26	0x3fcbf76c4fc4ca2c	0.21848825354534662
27	0xbfdb49b7f7665725	-0.42637442741521375
28	0xbfe1bab3e6a5e304	-0.5540408615916879
29	0xbfd9fe169e365d2b	-0.4061333222429819
30	0x3fe1835feef0a197	0.5472869555278973
31	0x3fc39768cb56bed2	0.15305814675001855

input_ff.bias f8 [32]
0	0xbfd765d4717c2258	-0.3655902012110679
1	0xbfd1a46776578b55	-0.27565943295319545
2	0x3fef7ca17b277de1	0.9839637189251641
3	0x3fd1dfa58c745257	0.27927530971763787
4	0xbfe4e4bd97debea4	-0.6529224363529988
5	0xbfcc1067c8f0cab1	-0.21925065337707886
6	0xbfead94e7b625e9b	-0.8390266809319259
7	0xbf9a8b8a2daf5a8b	-0.02592292693938218
8	0xbfdb9f327981089e	-0.43159162393215833
9	0x3fc14bea4ab6b304	0.1351292481243932
10	0x3fcec0ca7b25412b	0.24025851262059325
11	0xbfe6b3608ccb4b76	-0.7093966245541725
12	0x3fdf417c336c8b0c	0.4883718969523876
13	0x3fe2e129b547d9ed	0.5899857082975452
14	0xbfa7e9e6426dca39	-0.04670638619326834
15	0xbfd5881c4cea5889	-0.3364325286032757
16	0x3fdc052c8202bac5	0.4378157872805953
17	0x3fe92c326b659b01	0.7866451356502183
18	0xbfba070b71ee48bd	-0.10166999370111092
19	0x3feae080f1bfb29f	0.8399052354485156
20	0xbfaeefd26723ca0c	-0.06042344578772338
21	0xbfd92ef03ac705a6	-0.39348989238723175
22	0x3fe1788c4b65e860	0.5459653351420108
23	0x3fe444cbf51f297a	0.6333980357679103
24	0xbfeaa647ad43d2d3	-0.8327978500443244
25	0x3fc283fbf2a20000	0.14465283725076006
26	0x3fdc622af0932a09	0.4434916829456204
27	0x3fac7d84a9d8e1e7	0.055645127995777525
28	0xbfe812b40568cc60	-0.7522831063892106
29	0x3fce3c6e73ee88b6	0.2362192216942895
30	0xbfdcddb6862cb7e7	-0.45103228667255596
31	0x3fd749357d351ffb	0.36384331919953156

hidden_ff.weight f8 [32, 32]
0	0x3fbd7189bc7631e2	0.11501370288005533
1	0x3f810d6a2ad94042	0.008326367790829296
2	0x3faf1b8ff55de659	0.06075715894889972
3	0x3fb4d3e3610c4972	0.08135815734229881
4	0xbfc4120a2793cc46	-0.1568005269287786
5	0xbfc9643129b9d0cd	-0.19837011849779743
6	0x3f84671bc042668c	0.009962288670340123
7	0xbfc834b954c77e6e	-0.18910900725949226
8	0xbfb16eb294daaf53	-0.068095361081473
9	0xbfc7e065211a133b	-0.18653549305249748
10	0x3fba5bd7f5046137	0.10296392185080526
11	0xbfc681f1aa73bfb4	-0.1758405763898715
12	0x3fbe97e64208acec	0.11950530159144862
13	0xbf9226e6612d540f	-0.017726516419617918
14	0xbfbd0b9a3f3f10e7	-0.11345829052067168
15	0xbf96c637754b4066	-0.02224051144986596
16	0x3fb4c99727122e71	0.08120102599985458
17	0x3fa4851031d70aef	0.040077692111955325
18	0xbfc55087ba65c87b	-0.16652008630223122
19	0xbfb241ad01042655	-0.07131463312921345
20	0xbf5b6bcea4870876	-0.0016736524577116974
21	0xbf91cb91f0339f69	-0.017378120694871244
22	0xbfbeaf7e95141061	-0.11986533298119319
23	0xbfbe5afdccdcd702	-0.11857591868905717
24	0x3f44bf17b1cfc925	0.0006331315704513381
25	0x3fd52b4ad7411607	0.3307673551647387
26	0xbfb5af87bcf44e70	-0.08470962870733856
27	0xbfb6a5c93906d18f	-0.08846719400646051
28	0x3fbcf7245bacf8de	0.11314608801055523
29	0xbfa02103fde063d4	-0.03150188898161557
30	0x3fc397b6a21ee0ae	0.1530674258808679
31	0xbfbfed10c06fc880	-0.12471108148727872
32	0xbfaf17755723a013	-0.060725848090271616
33	0x3fab6ee3609f4eb3	0.05358038477393503
34	0x3fbfe01f2801b0d4	0.1245135758087515
35	0xbfb8dd20cba7a540	-0.09712414714853868
36	0x3fae9c45fe348e81	0.059786021500511495
37	0x3f9f506d73a96335	0.0305802442402154
38	0x3fbec787395d05ce	0.1202320590064325
39	0x3fb6b453db3d96a3	0.08868908026269166
40	0x3fb34bc783169720	0.07537505102535791
41	0xbfc09ea422038b32	-0.1298413435061661
42	0x3fbc18dae3d76b9a	0.10975425779854078
43	0xbfc5e750a34b26c7	-0.17112167332952863
44	0xbfb71aeda46ccd5f	-0.09025464309961738
45	0xbfcd1b01b4ed8f3f	-0.22738667806981458
46	0x3fc7d308575356a5	0.18612770332281517
47	0x3faaffdeca8f7606	0.05273338530217235
48	0xbf7a49c91407f73b	-0.006418023549938752
49	0xbfb7688272748939	-0.09143843931500308
50	0xbfbf01e8f986cdcd	-0.1211228951640841
51	0x3f54010d0209dc07	0.0012209536581886408
52	0x3fc667d063d4e5e3	0.1750431525668282
53	0x3fb9c3b6820da35b	0.10064259219292408
54	0x3f9c297f9be6f92a	0.027502054110066933
55	0x3f784205141ea564	0.005922336424114636
56	0xbfbabb38f624eccf	-0.10441928872471638
57	0xbfb7f925a8c1b879	-0.09364543314015518
58	0xbfca6b98354124c7	-0.20640852546993058
59	0x3fc4428e803f7175	0.15828114759541348
60	0x3fc6a507fa267e10	0.176911351340991
61	0x3fd17686c372daef	0.2728592785528425
62	0xbf48b0239c1b5a46	-0.0007534192920626924
63	0x3fab9d22e6fec6c5	0.053933230111750365
64	0x3fb865086cd59394	0.09529163987242689
65	0x3f881431c1f66477	0.011757267696156355
66	0x3fc1fb58a4892204	0.14048297914474983
67	0x3fbeb7898a6d472e	0.11998805646478836
68	0x3fb6e329a8d1c0a6	0.08940372821394024
69	0x3fcb1a6a6f74716f	0.21174364511615404
70	0xbfcdcbfd133882c6	-0.23278773725998841
71	0xbf8a74d7e3c1f29e	-0.012918173444853406
72	0x3fc70d425c6388d5	0.18009213935062598
73	0xbfc8d38afc40a28a	-0.19395577733054764
74	0xbfbf9f73fcb68e17	-0.12352681083444171
75	0x3fc549f8a5aa8891	0.16631992425124456
76	0xbfb5e4b594b8f12a	-0.08552107697409342
77	0x3fd3cc79a8116912	0.3093551770486026
78	0xbfbbbc8926a51949	-0.10834557717780514
79	0x3f9c8f5fae74a650	0.02789067747395385
80	0xbfb6ac78d3617974	-0.08856921349204133
81	0x3fbb9f9009b7d00e	0.10790348279243764
82	0xbfbe60daaa95cd0b	-0.11866537728001363
83	0xbfb1df0d1eaafaf3	-0.06980974196174454
84	0xbfca144e493e00fa	-0.20374468399314322
85	0xbf81e828e4655f0e	-0.008743590803234304
86	0x3fc58f5672fd8ede	0.16843681921738257
87	0xbfc5f76841381002	-0.1716127699329491
88	0x3fb1d03d93a1018f	0.0695837483808701
89	0xbfc6585f013f7b76	-0.1745718723386422
90	0xbfc49f67d9ef1d90	-0.1611146749621466
91	0x3fc102c444f86cb4	0.13289693229385124
92	0x3f9db0a0359da1f7	0.028994086525388565
93	0xbf8e6933863b52d4	-0.014849092992713343
94	0x3fc621ec74f63bca	0.17291026793506453
95	0x3fc6fbf24b2a4a3d	0.1795637957589679
96	0xbfcf400670faf176	-0.24414139286626452
97	0xbfa7dd1a486443c2	-0.0466087544792866
98	0x3fcdc98eca796045	0.232713555206603
99	0x3fb80b581723b2ab	0.09392309727599961
100	0xbfb21deb41511aa4	-0.07076902718209027
101	0xbfb6cd2105f22842	-0.08906752009548405
102	0xbfa587f60368f7af	-0.04205292503000579
103	0xbfbcfbce3ab72bea	-0.1132172482822821
104	0xbfc0e30be8281dd4	-0.13192890964295023
105	0xbf917aeb6477762b	-0.017070463187215317
106	0xbfa6e9240a07d98e	-0.04474747297711011
107	0x3fa3635ea7696ff0	0.03786750596620425
108	0xbfc6dd6074816c30	-0.17863088310954955
109	0x3fcc6dd9e039ebd2	0.22210238884494388
110	0xbfb77560907167c2	-0.09163478399696515
111	0x3fc0ab29d5699305	0.1302234928181393
112	0x3fbb77fb378b82ba	0.10729951959684572
113	0xbf9dc47296c263bf	-0.02906970067178682
114	0x3fa13f20a8de089e	0.03368475018852844
115	0x3fba76272f772481	0.10336537274192105
116	0xbfb74679b9bca627	-0.0909191206416372
117	0x3fc3d3aaa239e128	0.1548970501060094
118	0x3fd07427a4918808	0.25708952971592725
119	0x3f9ef5ece60b0bd0	0.030235005894393485
120	0x3f94a7afd2d49171	0.020170924418509487
121	0x3fc314f7a91aa2a5	0.14907737500222598
122	0x3fc5eb9641c9584c	0.17125204288703555
123	0x3fbefecc8ca9e8aa	0.12107542452023048
124	0x3f9eea1b2613861d	0.030189918707838815
125	0x3fbff30497060d24	0.12480190932369745
126	0x3f52f34274546ab8	0.0011566304177167818
127	0x3fbfd5cd956b4183	0.12435612581180604
128	0xbfcab48780d02aa7	-0.208634317299887
129	0xbfa3abe600c14cca	-0.03842085608689556
130	0xbf834c4899a8388f	-0.009422843159907294
131	0x3fbcdfe129b284ef	0.11279113071443068
132	0x3fbad70ff4288720	0.10484409056564603
133	0x3fad576e783feed7	0.057307674578593364
134	0x3fc2e99cacf972e8	0.14775427289978116
135	0x3fbcd5d51314fc53	0.11263782230251822
136	0xbfc7dc5dbe041230	-0.186412542134478
137	0x3fc538c426167a40	0.16579486713176728
138	0xbf60c4fbedecf6eb	-0.002047054338077161
139	0x3fc62b68b02b8a54	0.17319973566107427
140	0x3fa8aa639372c329	0.04817496466546906
141	0xbf80628b30651147	-0.008000457205192503
142	0xbfae03f7f74d4269	-0.058624028146941516
143	0x3faf431e46d8d3c8	0.061058946750939536
144	0xbfd0e6e93f0e0bc6	-0.2640936961908519
145	0x3fb10bec46ca839d	0.06658817985818506
146	0xbfb6d578a7ef17d2	-0.0891948137278569
147	0xbf9e472cac09ae09	-0.02956838417087052
148	0xbfc4869695672bc2	-0.16035730643338125
149	0x3f966bb61ee9b98d	0.02189526141813185
150	0x3fc607755ea04798	0.17210261459746046
151	0x3fd2a9a29f460087	0.2916037135510198
152	0x3fc277e37d91f067	0.14428371077872557
153	0xbfd9067a365d2aa1	-0.39102034863450724
154	0x3fc298e5af30d0e7	0.14529105238182824
155	0xbfc1ff03a6330ea6	-0.1405949174423899
156	0xbfc418577af19d38	-0.15699285033336152
157	0xbfce67650eb63fcf	-0.2375303575358871
158	0xbfc66bbb28d7eff8	-0.1751626920157603
159	0x3fa5e9420b3c3c86	0.04279524218701973
160	0x3f9c84370655740b	0.027848109971603956
161	0xbfb402b4affcb836	-0.07816628738939432
162	0xbf9d8be7dc9ddd84	-0.028854010429737467
163	0xbf95dbe4bbfdad50	-0.021346639608436135
164	0xbfce80a80f6bf137	-0.23830128434190964
165	0x3fa8c7ef50740376	0.048400381632751996
166	0x3fbf80282ce77113	0.12304926964083433
167	0x3fb43bc40e175bef	0.07903695434593748
168	0x3fb7d43f212ab335	0.09308237609611754
169	0xbfb63c1e3cd4a07a	-0.08685482964631489
170	0xbfa5c0219fdead85	-0.04248147083793711
171	0xbf667ba6d2fe9648	-0.0027445085797406545
172	0xbfa87834460ffc9a	-0.04779208522085661
173	0x3fa502e2a37f679e	0.04103763814755655
174	0x3f961e243116933d	0.021599355217080108
175	0xbfc2d442105e07de	-0.14710260199723185
176	0xbf9440992bc604c5	-0.019777673050616302
177	0x3f176485295a1671	8.923590424999587e-05
178	0x3fa5e82933c306b0	0.04278687245233692
179	0xbfafb90fbfb2b0b9	-0.061958782339702485
180	0x3fb99d2617e99d9a	0.10005415042689095
181	0x3f940501630ecb40	0.019550344153411503
182	0xbfc7ce3085f531bd	-0.18597990551860547
183	0xbfba294a248cb18a	-0.10219252960513905
184	0xbf9ba5b98950e67f	-0.026999377256493148
185	0xbfa599afdeb014f3	-0.04218816369397329
186	0x3fc0a86a1619586f	0.1301395996003438
187	0x3fbdc119b32d2d7c	0.11622772812295595
188	0x3f8cea7a9ecd3bb9	0.014119108172648486
189	0x3fbfd07344b782cc	0.12427444865853515
190	0xbf8887c0856eb5cb	-0.011977676460300032
191	0x3faed0caa5071704	0.06018670334337453
192	0xbf70e2b521523391	-0.004122455157937647
193	0xbfc19d4bd50727d4	-0.13761279966121143
194	0xbfd1996f3cc944ce	-0.27498989998009626
195	0x3fbc7913c313b81d	0.11122249138472325
196	0xbfaac1fb61d67f14	-0.05226121491727845
197	0x3fb14093baaae73c	0.06739161784471731
198	0x3fb5019b969255d2	0.08205578256669036
199	0xbfa909a59ed33c02	-0.048901725423654355
200	0xbfc0fa2c8275093f	-0.13263470048884504
201	0x3f7f51bedc9ef730	0.007646318010243111
202	0x3f7ff07ace6646b0	0.007797698699862174
203	0x3fa4e918d4730b26	0.04084088891388253
204	0x3fac495f4668302c	0.055247285217859904
205	0x3fc3fdbe32d19d22	0.1561811206949893
206	0xbf94385f1d714427	-0.01974629037096434
207	0x3fb4fd64ee7895f0	0.08199148962065528
208	0xbfc345503d260947	-0.1505527781083151
209	0xbfbfd88888b54c4e	-0.12439778649904662
210	0x3fbe141f219ea758	0.11749453135294396
211	0x3fb7e91a985965ad	0.09340063304389075
212	0xbfbf55f1ad1774a5	-0.1224051520907375
213	0xbfa060081fe2a187	-0.03198266400551391
214	0x3fc45469b610145b	0.1588260783175056
215	0x3fb689992ea1e0aa	0.08803708446964956
216	0x3f9e3e3fc2ff4392	0.02953433635395048
217	0x3f9ea53220e542a1	0.029927047021660717
218	0xbfb9f44f3e7f898b	-0.10138411784968164
219	0x3fb9d5b8011213bd	0.10091733957422284
220	0x3fbdcf4eb5cd96ec	0.11644451082755908
221	0xbfa71a99b8e4e876	-0.04512482053765236
222	0xbfa0ceec0df05600	-0.03282869024421231
223	0xbfb9f8671614accb	-0.1014465741069898
224	0x3fbb5c7c0bfaf816	0.10687995235909428
225	0xbfb82ea8e5c3bbc1	-0.09446197137343317
226	0xbfc0aa3cec515dad	-0.1301952508826906
227	0x3fb780491692dcb1	0.09180123139491304
228	0xbf9f78d1d2ee96c5	-0.03073432779242215
229	0xbfa217822573ad5e	-0.035335604736099965
230	0x3fc1f30229e2d590	0.14022852940767594
231	0xbf8e62b898e45959	-0.014836733022587966
232	0xbfcb4087dfd299ff	-0.2129068224796384
233	0xbfc13282a1398fe3	-0.13435395119006363
234	0xbfaa457cad3173ca	-0.0513113938729713
235	0x3f9762fa22bedede	0.022838505144789127
236	0xbfaa9e1b76cda72f	-0.05198751282917013
237	0x3fb7bc1b7215cb62	0.09271403823167426
238	0xbfc40174bc8bb6d5	-0.15629443365417353
239	0xbfc42720d5f83dcd	-0.15744409988154331
240	0x3fa866870931479a	0.047657222625857545
241	0x3fbab009df2f65d8	0.10424863528114459
242	0x3fb1b95112faa32e	0.0692339583716943
243	0xbfbbd171887d89fa	-0.10866460401806669
244	0xbfaf915ab9c28367	-0.061655841041335084
245	0x3fa282aea8740da4	0.03615327650370695
246	0xbf79bf97c6b41cdd	-0.006286232829786101
247	0x3fb52c1e25d2b7a5	0.0827044336644734
248	0xbfa1ba93c9aa0a30	-0.034626596801008325
249	0xbfbf0cfebc7eaae3	-0.1212920389358874
250	0x3fc2baf0c93af317	0.14632997346588958
251	0xbfca45fc8c94139d	-0.2052608190935218
252	0x3fbb008ae91b63ba	0.10547702971542963
253	0xbf9d49a914d58248	-0.02860130490933191
254	0xbfacdad666444a4c	-0.05635709761022109
255	0xbfa3f00a290b373f	-0.03894073248885243

hidden_ff.bias f8 [32]
0	0x3fa8bbc6341eed51	0.04830760370483723
1	0xbfbc1e98995e2d6d	-0.10984185928662323
2	0xbfb03de606c410b6	-0.06344449677641503
3	0x3fc5262ee8e8a482	0.16522776005266243
4	0x3fa0bb18e2142062	0.03267743835209626
5	0x3fb104790e1e6a7c	0.06647450060555998
6	0xbfc2a6090d897b97	-0.1456919971560324
7	0x3fbe114234942919	0.11745084556256237
8	0x3fb47a7849fbdf27	0.079993742048711
9	0xbfbe8a439a929a47	-0.1192972423910784
10	0x3fafb649ec95029a	0.06193762791599973
11	0x3fcb3f5b4cd2d282	0.21287099124096548
12	0x3fbade776db22d6c	0.10495706966519486
13	0x3f74c866a3ece93b	0.00507392972832071
14	0x3fbfd0e83ec91acf	0.12428142102099148
15	0xbfb072adf3a96082	-0.06424987028856502
16	0xbfa0b3974fea2d99	-0.032620171075076594
17	0xbfcb1c033269930c	-0.21179237329047174
18	0x3fc358745708dbfa	0.15113691568123483
19	0x3fa14c1ab3fb280f	0.03378375479731243
20	0x3f986e0981b86e79	0.023857258360392628
21	0x3fcc62feca71f49a	0.22177109608665974
22	0x3f73fc5fb2f424b8	0.004879354309431587
23	0x3fb7e998e8f94e48	0.09340816200101998
24	0xbf86138790f4ac25	-0.010779437171171644
25	0x3fb0f0966544000b	0.06617107364945711
26	0x3fb84456e24ca934	0.09479277634514888
27	0xbfad7f4af6271d4b	-0.05761179213328179
28	0xbfc687faa5a32e98	-0.17602475250020144
29	0x3fa74eb23fba2209	0.04552228000563125
30	0x3fc037b523a68f23	0.12670006027939804
31	0x3fb4335a24d47f83	0.07890857123538635

output_ff.weight f8 [1, 32]
0	0xbfd223addbc0df96	-0.2834276815442477
1	0xbfd32d140c9c4db3	-0.2996263621473318
2	0x3fc7913b67d945a2	0.18411963053453656
3	0xbf617f1d0c96573d	-0.0021358077398855578
4	0x3fdd316459a368f4	0.4561396479963513
5	0xbfbd30f7a68b9987	-0.11402843299911157
6	0x3fb2fe0325b5acb1	0.0741884200157752
7	0xbf8ada856389d933	-0.013112108326123284
8	0xbfab648aa8d5c0f4	-0.05350144682859251
9	0xbfe0c445bcc4159b	-0.5239590346179058
10	0x3fd4161f98ae12fc	0.3138503066077616
11	0x3fa9c31a3dc07deb	0.05031663898284563
12	0x3fb77b8584091e81	0.09172853921438141
13	0x3fcf07e526135259	0.24242843970445696
14	0xbfb31d9c976e8844	-0.07467058846535318
15	0xbfd3672b2d869583	-0.3031719154917811
16	0xbfc7031c37d80ee5	-0.17978241659886077
17	0xbfd1f3f5c7a5b143	-0.2805151414566078
18	0x3f895093bae36a38	0.012360719815139296
19	0x3fc5df161c59548d	0.170870555727252
20	0x3fd335e56d2c31a8	0.3001645628108016
21	0x3fb78bdf5bbf2030	0.09197803487688883
22	0xbfae323b48bda41a	-0.0589769865317253
23	0x3fb27c09e06a5b57	0.0722051785363481
24	0x3fe06d3345c0ae62	0.5133301126820238
25	0x3fb354b5dfc0f4c7	0.07551132881868049
26	0x3fad4fbd82f24287	0.0572489950510589
27	0xbf9a392ff5851525	-0.02560877738985314
28	0xbfc18c1200bd2d3e	-0.13708710704882238
29	0xbfbaea63cd278443	-0.1051390052666799
30	0x3fc2a654ba4293b2	0.14570101828317444
31	0x3fbd78c5b8e52906	0.11512408985177922

output_ff.bias f8 [1]
0	0xbfb0d6130b31cb9b	-0.0657665159540514
