saved_model/Shift_rnn/saved_model.pt (torch, 11159 bytes, 6 tensors)

input_ff.weight f8 [32, 1]
-0.20902920705971184 0.40636653461729483 0.6204480729635028 0.8584640834632205 -0.47340702436145315 0.6500063454296604 0.1614700318711466 -0.5765622106960754
0.604136790744157 1.0319070801512402 -0.7301065744670756 -0.5248509148286717 -0.340862451437249 -0.510060951825566 -0.6915354906921626 0.455413772273632
-0.5662721206589931 -0.42057235280973243 0.4146721631408719 0.19180894409018012 0.32352213958323567 -0.22183822524362917 0.3151326790945588 -0.0967516215299224
0.8847258706569755 0.052737137798726 0.701747403621593 0.4003383395076396 0.3077546915830344 -0.65573680271589 0.6191285972260575 0.03333796487125568
00000000: a479 1d14 78c1 cabf 43b0 17c8 e801 da3f
00000010: abd2 c7ea b5da e33f 147c 68ab 8978 eb3f
00000020: 3f10 d5f9 4c4c debf 0903 7a1b dacc e43f
00000030: f0d7 15cd 0cab c43f 4592 e197 3273 e2bf
00000040: 42cf d1ad 1655 e33f b62a 9cff b082 f03f
00000050: 1ec8 7d76 085d e7bf dcdf 4e25 94cb e0bf
00000060: 32df 56be b0d0 d5bf 87d6 6158 6b52 e0bf
00000070: 117a 9109 0f21 e6bf 240c 84ce 7f25 dd3f
00000080: fcbd dbb5 e61e e2bf 4fda 3a4d a8ea dabf
00000090: 911a d01c fd89 da3f 7c4b f90a 328d c83f
000000a0: 37af 4234 96b4 d43f e447 36e9 3165 ccbf
000000b0: e42a a741 222b d43f 1c55 4eda b6c4 b8bf
000000c0: e1b2 0ca1 ac4f ec3f 1da6 42b4 5c00 ab3f
000000d0: e771 93f8 b674 e63f e34b e1b2 249f d93f
000000e0: 6f8a e2bb 40b2 d33f e558 4ebf cbfb e4bf
000000f0: 3556 a3c6 e6cf e33f b9aa ac79 ac11 a13f

input_ff.bias f8 [32]
-0.20116684968866466 -0.7752191478830979 0.8172168766301625 0.2995436530836521 -0.6755666176508504 -0.6748441160107685 0.2127643512208508 -0.28188302296196766
0.22729532116844875 0.3552034542680754 -0.9955242045279543 -0.19112543294859466 0.8387850418551291 0.5952502454330594 0.780271373712798 -0.15327872374489215
0.7202170207814047 -0.2919956889747966 0.2991742258529336 -0.384031121436725 -0.6391825498953854 -0.1979102402082314 -0.9563768882493996 -0.9719211405426726
0.19234140152779491 -0.07225028809117098 0.451794667829089 0.8194744975703544 -0.4373894495971831 0.6138482586093051 0.7242078581167899 -0.7777436106303903
00000000: 76e0 39d8 d5bf c9bf 3282 ec62 98ce e8bf
00000010: c1b4 db01 a426 ea3f 73fe 6d24 b92b d33f
00000020: 388d 22e2 3d9e e5bf ca41 05b0 5298 e5bf
00000030: 68c5 1fbd dc3b cb3f 4ad5 3a17 5f0a d2bf
00000040: 18e5 7959 0318 cd3f c67c e044 a7bb d63f
00000050: 095e 9a93 55db efbf dd59 f955 cc76 c8bf
00000060: 6389 64ba 53d7 ea3f 5545 223e 4a0c e33f
00000070: 2c3f 03ac fbf7 e83f 4c16 d420 a39e c3bf
00000080: feea c890 040c e73f 3510 aeaf 0eb0 d2bf
00000090: c10b f6a6 ab25 d33f 52e2 cd44 f793 d8bf
000000a0: aa2f 7ff6 2e74 e4bf 2272 9e6c 1f55 c9bf
000000b0: 2dce 35b4 a39a eebf 607f 1d5d fa19 efbf
000000c0: 8145 9d9e a49e c83f 8a68 7ab0 fe7e b2bf
000000d0: d951 b52e 34ea dc3f 0110 df94 2239 ea3f
000000e0: 71a9 6851 30fe dbbf 5ddf 6d1a a5a4 e33f
000000f0: 30c5 43f5 b52c e73f 5493 8a91 46e3 e8bf

hidden_ff.weight f8 [32, 32]
0.2710968643408237 0.016728840134000934 -0.06748404106111118 -0.09795755323406403 0.08817585997869046 0.11379230146943149 0.2780788899632252 -0.2759071923183158
-0.010315263472336396 -0.10146340439432584 0.1515385921556571 -0.04827153922640316 -0.3531723052378922 -0.16741264028892613 -0.18491865801290372 -0.06490182555564794
0.04983062240952284 -0.13143228629818401 0.2143991499951642 -0.200205047350584 -0.14229021453462126 -0.005396691973715289 -0.05719798731894285 0.004026607498534719
0.09817765194458848 0.18354184682118127 0.14523695243241128 -0.09502480015609682 0.089488783707886 0.2621833490412051 0.003065656345540926 -0.13039294921137762
-0.16830390457294472 -0.3592153082804034 -0.1759205796291255 -0.002693060447418165 -0.09330172549357593 0.3710750510619997 0.2795624598328465 -0.1240962811713185
-0.0216915799233863 0.38725374495646026 -0.20765262184988204 -0.04845637594218757 -0.1277218215999703 0.2778644210185865 0.07268013049898298 0.05407594413970034
-0.386486577547842 0.39927392648549803 -0.1888929199016317 -0.3446465971388664 -0.14115932575895115 -0.016580416012778227 0.22015775157612094 -0.15690380307848917
-0.026025354305746477 -0.21063408444993778 -0.13946666431348387 0.06636290091933064 -0.035806674034066864 0.010020117841045879 0.03006688585802539 0.2710671996491089
0.05154481760593112 -0.364242983580553 0.08432264716536556 0.23324182912717784 -0.2394077812021353 -0.10133762606088388 -0.327165190902458 -0.2668949665001036
0.14354335766416448 -0.09468121022589335 0.09025780143018437 -0.1202315572954288 -0.08162052859881085 0.03694153892636627 0.026728632495725806 0.492018157314733
-0.19684295599796262 -0.1179078633406683 -0.21446171362506036 -0.06434908684461328 -0.044309861174625965 -0.13845562672138928 0.03265419801023721 -0.03993991400782708
-0.1325227445952109 0.10517225049199366 0.048798133701997926 -0.22420761662755143 -0.03440735736474596 0.05584992603769351 -0.19834324619916882 0.30537964512053606
-0.06952930422530063 0.14755196817376734 -0.11184814396889316 -0.12512230906615532 0.09873264817639052 0.13916610813612726 -0.38781027940905344 -0.036747070362825957
0.2877287964038978 0.07127224918436487 -0.0467918376246694 0.05457670859869668 -0.025065221486820256 0.23356078316176446 0.07146408308451829 0.13782154298061317
0.2539769481884273 -0.2247371342773565 -0.13895495520993617 0.11522165408586484 -0.12618054420635708 -0.06857619711361906 -0.012531535417552253 0.01985393544828643
-0.13682505418746124 0.24961625382886052 0.04084390671476103 -0.09369361916306639 -0.10744829399890467 -0.04375678623542613 0.2827473912316311 -0.047848925709914905
0.03207934639863977 -0.06887049163586456 0.025308139135421345 -0.10500936959119382 0.21179210846064805 0.014108089283334504 -0.09249942707867026 -0.1939000844734444
0.03105473504319061 -0.10344191548350123 -0.03813979516719614 0.09126434814631146 -0.0939335095350335 -0.08006918836197614 0.006774444515423345 -0.24932429331497583
0.3135994130361907 0.038355930788779066 -0.001610920310485583 -0.20967693943362967 -0.19063357174967546 -0.07618334949097468 0.10980865723917571 0.15277416548058734
-0.07143000284626345 0.12916708872041532 -0.18531408019184065 -0.14383839383721075 0.037018478108526744 -0.2318761027991082 -0.09921409684323412 -0.03376151608109813
-0.09467015741053239 0.098503128444795 0.0019546661359790356 0.3998024861697672 0.218745007355625 -0.013946052749045916 0.46382722625353834 0.49184680852057383
0.11855757043163725 0.39248176940963164 -0.10346443080964646 -0.16117712336079468 0.04082790889591728 -0.2750828262370492 -0.06179459511507585 0.11505927251541151
0.10972920881992095 0.13808383722979783 0.24632365653317034 0.0727379526227681 0.23044067256681702 0.14151167080134897 -0.14520369182063142 -0.11691760398751537
-0.05313549059119034 0.3565004747122427 0.07317065597722226 0.04619974275842608 0.12496811533189388 -0.26423612008003217 -0.014671621131798842 0.1891379877618766
0.31966299340084864 0.08281606904658921 0.03792443377620168 0.14313437563886847 0.20203102096279787 -0.03498968948949979 -0.19293502163757076 0.0012081667087184187
0.001871664866428746 0.100489274445027 -0.18785583987722576 0.14395292607337343 0.08882285298555968 -0.23643385302681177 0.07165495035615684 0.009101511674177677
-0.2607520319091587 0.06497469830664702 -0.1992860212311438 -0.2197541900058669 -0.021292626297710594 0.04824820047980281 -0.16807616358167587 -0.20113997832457742
0.2854965324630861 -0.03253180792657411 -0.3729820336597436 -0.197724001932088 0.10345792322973932 -0.1302953062872099 0.004527882142238903 0.31943466362035217
0.0956503781125652 -0.0018074734282214173 0.09857070631125898 -0.07672159028520335 0.21645789952322372 -0.10118417567189725 0.03867042537163649 0.07563348148059466
0.19870217141893487 0.10435918932310095 -0.099090563973694 -0.09795817608885897 -0.1373765721833738 0.20118599275075003 0.06811710785187976 0.2018884750356137
0.21002784339027758 -0.05560032568475542 -0.20209007830902098 0.13654118699118967 -0.3404515660993856 -0.14637788245256933 0.041244724005115294 -0.10958312045219623
-0.24719770301475466 -0.18575091543155844 0.11120950703616964 -0.04643410881359132 0.24453421619070462 0.20663374713018337 0.08575975611918435 0.11610836980100188
00000000: 4e16 99a9 a659 d13f cd28 1a75 5d21 913f
00000010: 3901 5c55 a246 b1bf 0557 8907 bf13 b9bf
00000020: f6b7 e772 b192 b63f 2d08 5905 7e21 bd3f
00000030: f966 8666 0bcc d13f 1b41 efa3 76a8 d1bf
00000040: 5741 1b3a 2b20 85bf bd4c 9d73 81f9 b9bf
00000050: 97f9 b1d8 9d65 c33f b226 9c14 0cb7 a8bf
00000060: 1a61 3603 609a d6bf 752d 7d03 c76d c5bf
00000070: ebf5 4a22 6aab c7bf 1053 36f2 679d b0bf
00000080: de2b 2d3b 6683 a93f cf04 a5ed c5d2 c0bf
00000090: a57c c26c 6e71 cb3f b5b4 6ea9 51a0 c9bf
000000a0: 62c7 fbd4 9036 c2bf 8601 8a78 d71a 76bf
000000b0: ac1f ddf9 0d49 adbf 3510 5238 347e 703f
000000c0: efd1 4cac 2b22 b93f 65af c59a 4c7e c73f
000000d0: cf17 6fdc 1f97 c23f 18b8 fa98 8b53 b8bf
000000e0: 255a 62a7 bce8 b63f c003 6cab 9cc7 d03f
000000f0: 3900 d6b7 251d 693f 22f5 3e56 b7b0 c0bf
00000100: 0b07 f77a fb8a c5bf 6a5c 5234 62fd d6bf
00000110: 9aa8 19c8 9084 c6bf 57ad 87d1 c10f 66bf
00000120: 4ec0 a733 9fe2 b7bf 760f 2b92 b1bf d73f
00000130: 0bf8 8af1 59e4 d13f e59f 2f1d c6c4 bfbf
00000140: f861 7a49 5136 96bf 7edb 75ee c3c8 d83f
00000150: 1a0f e371 5c94 cabf 13a4 e82b 46cf a8bf
00000160: 1af3 604b 3059 c0bf a3cb 3fda 87c8 d13f
00000170: ace8 8f3f 2a9b b23f c721 2997 d7af ab3f
00000180: fe4c ba32 32bc d8bf 6fa5 193a b48d d93f
00000190: cc33 b6a8 a42d c8bf 51e7 d899 b00e d6bf
000001a0: 577e d43f 8211 c2bf f5a6 1de2 74fa 90bf
000001b0: 847b 7d13 212e cc3f 8c89 6b7f 6c15 c4bf
000001c0: 3ea2 70f6 63a6 9abf 4b54 11c4 0ef6 cabf
000001d0: 60e7 0d2d 0bda c1bf 2ac0 1db9 28fd b03f
000001e0: 0be2 e89b 4055 a2bf 5753 6f73 6d85 843f
000001f0: 98a6 cf8d dac9 9e3f ebb7 603d 2a59 d13f
00000200: f2a0 ca13 1564 aa3f 01a9 91cd c14f d7bf
00000210: 222c e343 2b96 b53f 9889 1446 deda cd3f
00000220: 6ee6 5507 eaa4 cebf 7528 c93d 43f1 b9bf
00000230: ac33 d444 46f0 d4bf fe6f 25a0 ce14 d1bf
00000240: 08e1 5cf5 a05f c23f 0e46 771d 073d b8bf
00000250: 29fc 59a1 221b b73f b9f0 87ce 7ec7 bebf
00000260: b79d 033d 15e5 b4bf 7af5 1a5b 00ea a23f
00000270: 6b68 be29 c05e 9b3f 161e adb9 397d df3f
00000280: 9bc7 3a65 2632 c9bf d249 fdb0 352f bebf
00000290: 9fc2 213f 7b73 cbbf 816b 8687 2e79 b0bf
000002a0: 7d48 4539 c8af a6bf 2a97 5bfa e9b8 c1bf
000002b0: 56e9 0f11 0db8 a03f 76f5 ef20 0173 a4bf
000002c0: 9a9c 015b 81f6 c0bf 3251 4f90 91ec ba3f
000002d0: b03a b6a8 11fc a83f ddf7 76ce d5b2 ccbf
000002e0: 2d2a 3f55 d79d a1bf 48bf a18b 5c98 ac3f
000002f0: 7a69 e7bd 4f63 c9bf d208 2a11 578b d33f
00000300: 9ce4 c227 accc b1bf 4f25 e29e fbe2 c23f
00000310: 4df6 7678 14a2 bcbf c935 b800 0204 c0bf
00000320: ea0e f7f6 8a46 b93f 8700 94ed 31d0 c13f
00000330: 1454 c734 e2d1 d8bf 8c42 dd12 83d0 a2bf
00000340: 0e05 ab0a 266a d23f 2cf5 5beb e53e b23f
00000350: 3ca9 a288 19f5 a7bf d004 1c75 7af1 ab3f
00000360: aa28 368a b2aa 99bf 1d6a a7da 51e5 cd3f
00000370: 2cc7 af5b 784b b23f 629b e4e5 22a4 c13f
00000380: 440f 9a87 2841 d03f 3f81 f5b8 2fc4 ccbf
00000390: 8435 1fa6 46c9 c1bf 11fe 1694 2a7f bd3f
000003a0: 21ff 601f af26 c0bf 4815 e3ab 358e b1bf
000003b0: 40e2 4b36 22aa 89bf 2905 ca0d 9754 943f
000003c0: f318 81be 7b83 c1bf db5b 5fe7 6cf3 cf3f
000003d0: 225b 2917 7ee9 a43f 2f35 2616 4efc b7bf
000003e0: 697d bc3c bb81 bbbf 72eb b71b 4a67 a6bf
000003f0: 87a0 9783 8818 d23f 6a48 2586 a77f a8bf
00000400: 6484 513f b46c a03f 6848 3c1d 7fa1 b1bf
00000410: 0f13 a377 60ea 993f f3f1 2ae0 e4e1 babf
00000420: d2d6 b1f9 001c cb3f 7bd3 a5b0 b3e4 8c3f
00000430: bc9d 33de 0aae b7bf 7fa6 c0cc b7d1 c8bf
00000440: aef6 95fd cfcc 9f3f 2888 095c 2b7b babf
00000450: 73a7 d629 0f87 a3bf 3844 94ae 195d b73f
00000460: bd93 73c7 060c b8bf 5d94 6e11 6a7f b4bf
00000470: ade6 461a 85bf 7b3f cb6c f1c2 dbe9 cfbf
00000480: 4b41 c245 0312 d43f 3ede b078 63a3 a33f
00000490: be29 3383 b064 5abf 45e1 cba6 b1d6 cabf
000004a0: 899e 174e ae66 c8bf dd3f 9082 c080 b3bf
000004b0: 64f1 a88f 6b1c bc3f 1dd7 3496 1a8e c33f
000004c0: 198a 2d96 3c49 b2bf 1209 e312 8c88 c03f
000004d0: 7ec5 f42c 5fb8 c7bf 8851 b8e6 4b69 c2bf
000004e0: fdca a501 16f4 a23f 5480 1fbb 1dae cdbf
000004f0: 186e 3e55 1866 b9bf 1107 dd7e 3049 a1bf
00000500: be43 fcad 4d3c b8bf 6e5d 3943 8037 b93f
00000510: d3b9 1d64 3b03 603f 665a bd2a 5d96 d93f
00000520: 69ba 601e d6ff cb3f 3c3a b983 bf8f 8cbf
00000530: b836 f063 58af dd3f c038 4f09 6b7a df3f
00000540: 0e75 b2f7 c959 be3f 48ff f8da 6b1e d93f
00000550: 846e a01a a57c babf 1b57 d9b4 73a1 c4bf
00000560: 34ae f14a 65e7 a43f b747 98ff f49a d1bf
00000570: c978 2d8a 8aa3 afbf 7a24 8e44 8674 bd3f
00000580: f529 4ca3 3617 bc3f ae0b 812e bbac c13f
00000590: e042 8598 8887 cf3f 735a b157 f49e b23f
000005a0: 5dde 2b78 147f cd3f dc0b 0cef 0d1d c23f
000005b0: c064 d0d9 0896 c2bf 97fb 73e5 4fee bdbf
000005c0: 2a31 b134 9334 abbf 9571 f95d e7d0 d63f
000005d0: 0ff4 72e6 4fbb b23f 8f4c 7620 7ea7 a73f
000005e0: 67ab 6410 e9fd bf3f 4a9a 8a9d 3ee9 d0bf
000005f0: 2ee5 85a7 270c 8ebf 472b ef6f ac35 c83f
00000600: 9d7a 99c5 5b75 d43f c76c 2314 6f33 b53f
00000610: 5e82 93d5 d46a a33f 65b2 262b 3a52 c23f
00000620: cb06 e809 27dc c93f 14f4 1b28 2bea a1bf
00000630: 92dc 1744 18b2 c8bf d6c6 2120 6bcb 533f
00000640: cc0b fcd8 54aa 5e3f b214 5743 aab9 b93f
00000650: 6c51 5100 a90b c8bf c906 d3aa 0c6d c23f
00000660: 6fdc b530 18bd b63f 416e 35e9 7643 cebf
00000670: 754e 6094 fa57 b23f 67c7 e037 d0a3 823f
00000680: ab95 5a4a 29b0 d0bf 5f65 4b8c 2ea2 b03f
00000690: c06d de4f 3482 c9bf 3bf9 9dc1 e720 ccbf
000006a0: 2ae3 60f6 bbcd 95bf 1d9f 4df6 fcb3 a83f
000006b0: 5004 e90c 8583 c5bf 243e 696e f4be c9bf
000006c0: 0d39 833f 9345 d23f f7af 3f56 02a8 a0bf
000006d0: 5c1b 2409 f0de d7bf 165e f724 054f c9bf
000006e0: b6a7 c8ec 377c ba3f 19b6 a93f 84ad c0bf
000006f0: a674 891b d48b 723f b752 5d16 9e71 d43f
00000700: bbef d70d 8b7c b83f 3170 ced0 179d 5dbf
00000710: 8952 f307 ee3b b93f 1b0c 2cb1 06a4 b3bf
00000720: 75e0 b477 e4b4 cb3f 342e 62c5 34e7 b9bf
00000730: 1551 9628 9ccc a33f 3718 7141 b75c b33f
00000740: bcba f19f 126f c93f c806 2ea9 48b7 ba3f
00000750: 4af5 9bcb ff5d b9bf eb6d ad7a c913 b9bf
00000760: 72d0 6136 8e95 c1bf c98d a36d 76c0 c93f
00000770: 199d 856e 1f70 b13f 9ccf db46 7bd7 c93f
00000780: d829 4e3f 31e2 ca3f d70a ed58 a577 acbf
00000790: 2a77 9772 16de c9bf 3893 577e 2e7a c13f
000007a0: bb34 915d f5c9 d5bf 0cea feac 82bc c2bf
000007b0: 8612 7849 071e a53f f22a 89ae a30d bcbf
000007c0: dd1e 0ca1 2ca4 cfbf 7984 7d9d afc6 c7bf
000007d0: 6281 b9eb 3978 bc3f 5eeb 8b25 36c6 a7bf
000007e0: 8d62 a5ae e54c cf3f f947 1681 f972 ca3f
000007f0: f446 d8f3 59f4 b53f 3d51 1633 47b9 bd3f

hidden_ff.bias f8 [32]
-0.02181006419755563 -0.19214632161680548 0.08399601626810659 -0.018966613402907742 0.0282094494719705 0.128778397998709 0.07029148802352476 0.030952898571435152
0.06528462910845322 -0.1485596402763355 0.09657111092844416 0.13036469091939384 0.06770593001082285 -0.1640749831984515 0.11602876337745596 -0.08775770702793655
-0.23354901227199956 -0.1359016296266953 -0.18959118522599147 -0.0764818012753879 0.2563397241815473 -0.11305416217955241 0.026943421531138195 0.07979903162415183
0.1582062535986033 -0.08787811931179783 0.11236893265347693 -0.09674916999165109 0.08854254949015469 -0.07022481704282317 0.11662028220431381 0.11491220157349188
00000000: 8803 cfa1 6055 96bf 4508 b22b 4098 c8bf
00000010: 2fa5 dd4e c380 b53f e41d 20e1 fb6b 93bf
00000020: 4b5d ae1b f0e2 9c3f 1af9 ea7f cf7b c03f
00000030: fd8a 3f7a 9ffe b13f 07a8 52dc 1db2 9f3f
00000040: afc9 f352 7eb6 b03f 7c06 3f96 0004 c3bf
00000050: ff11 2d63 e2b8 b83f 20a6 064a caaf c03f
00000060: ab49 2403 2d55 b13f b5ec 76b7 6800 c5bf
00000070: a2fb 19a0 0fb4 bd3f 032d a801 4a77 b6bf
00000080: e554 dc1c efe4 cdbf 2121 5c7f 3965 c1bf
00000090: cfe7 1322 8644 c8bf d48a 37b3 4f94 b3bf
000000a0: 41a0 01bb de67 d03f 3ee4 3c19 1ef1 bcbf
000000b0: 0b3a 4669 0e97 9b3f 0a05 1497 b56d b43f
000000c0: 8045 9d3e 1a40 c43f 8b68 7a30 2e7f b6bf
000000d0: b146 d5da 35c4 bc3f 4a7f 07b9 8dc4 b8bf
000000e0: 665b 5d7a b9aa b63f bb06 91ec 40fa b1bf
000000f0: 5c29 1eaa d3da bd3f d664 abd3 e26a bd3f

output_ff.weight f8 [1, 32]
0.15542881132223058 -0.01793333851820547 0.04742711593074857 -0.0014519734915933212 -0.08439543029217104 -0.04331062331472712 0.1780829122247658 -0.07975024720825054
0.15062042228064892 -0.07518117686992502 0.04433968846734561 -0.01637836390738158 0.02539991212280558 0.06060274947574632 0.002895670076852342 -0.049941269300976025
-0.07193659357887998 -0.10616952933758439 0.049853725107123326 -0.08974205012657192 0.04925174280430009 -0.10933792228891902 0.014880576652146682 0.030401643856807554
0.005282288025411546 0.05407362713024126 -0.16882666751376832 0.043499600496160376 -0.05149901312253471 -0.05342485888912468 -0.0960261029547552 0.08290288268897777
00000000: e618 be5e 17e5 c33f c870 c6f9 1d5d 92bf
00000010: 127a bbef 5d48 a83f 14ae 4eaa 04ca 57bf
00000020: a366 095d f09a b5bf 9f89 695d cf2c a6bf
00000030: e0ab fdbd 6bcb c63f 617b 9b1f 836a b4bf
00000040: 6a0d e7ad 8747 c33f db5d eed7 123f b3bf
00000050: b29f c30f b1b3 a63f 8473 6065 7dc5 90bf
00000060: a30d 8e3f 6f02 9a3f d58e 17d6 5207 af3f
00000070: 3578 f608 a9b8 673f a7a1 bcec e691 a9bf
00000080: 2b93 cec4 6f6a b2bf e02d 5620 ed2d bbbf
00000090: f875 d66d 6d86 a93f 5b9f 5ec2 55f9 b6bf
000000a0: 2d1f 3b41 8637 a93f ff88 71f0 91fd bbbf
000000b0: f360 8830 b579 8e3f 4242 70c8 9b21 9f3f
000000c0: 123b 1365 e1a2 753f b672 33d8 89af ab3f
000000d0: cd07 d5bb 1c9c c5bf 2a47 0a63 9445 a63f
000000e0: 736e 4622 145e aabf e8c4 71cb 805a abbf
000000f0: c6c4 c0ab 2a95 b8bf 44ae e491 1f39 b53f

output_ff.bias f8 [1]
-0.04029544413949637
00000000: 908c 83bd 9aa1 a4bf
